models/conf_8.pt (torch, 944510 bytes, 6 tensors)

weight f4 [256, 784]
-0.01348722 0.029406194 -0.032337263 0.015435464 0.021241192 -0.018553251 0.01574866 0.013792742
0.010882888 -0.050652746 -0.06813807 -0.06484282 0.027818272 0.070345074 0.05822729 0.04944752
0.005400532 -0.058931183 -0.036038104 -0.031698156 -0.04025326 -0.032455094 0.029625893 0.026300421
0.024424186 -0.029444234 -0.033065278 -0.0017992948 -0.032497477 0.025622675 -0.0037887366 0.009502327
0.040740173 0.013896963 0.033524767 0.016638389 -0.03893347 -0.07047885 -0.051965952 0.027304105
0.05749462 0.044785578 0.00093225774 0.010253719 -0.017515348 -0.06626763 -0.09503731 -0.087223016
-0.014404828 0.011034311 0.010554582 0.04452289 0.021259658 0.03230234 -0.0004161886 -0.018498817
-0.021813883 0.029371798 0.0034907912 0.027993513 -0.024121197 -0.007474587 -0.030995099 -0.02643364
-0.03680201 0.0011163924 0.02874911 0.02320888 0.003981043 0.013425891 0.060174882 0.025901997
0.0024403476 0.0074644648 0.027744697 0.01716051 -0.043254238 -0.023195446 0.014721169 0.024652598
0.0013923502 -0.017586753 0.0035034686 -0.033340365 -0.017288912 -0.031721883 0.0039453986 0.01734873
0.007923629 -0.0044063753 -0.007458013 0.033896778 0.040008206 0.012785732 -0.007686799 0.012328331
-0.012461337 0.0038021351 0.020724917 0.02063365 0.03369298 -0.026622664 -0.030217756 -0.003778092
0.017961826 0.018341422 -0.005635021 0.017950086 0.0039372947 -0.0061781984 0.040061712 0.027531331
-0.021465924 -0.003645679 0.041979335 0.031153044 0.022010336 0.024846556 -0.026838204 -0.045231756
0.018026467 -0.017089786 0.0021938353 0.04131171 -0.0032941606 0.03889238 0.025784753 0.033249408
0.036618 -0.02263403 -0.0059225904 -0.029622728 -0.01740251 0.0019340987 -0.020450212 -0.015661228
0.0363548 0.041251462 0.043862674 0.013121942 0.012747262 -0.004497441 -0.026887674 -0.029467141
-0.022495855 -0.028512597 -0.02683972 -0.06362486 -0.04292754 0.015199082 -0.019290414 0.02894918
0.03768939 0.05103662 -0.01787081 -0.01844835 0.032879937 0.008723168 -0.036435004 -0.0066522458
-0.007093279 -0.039929427 -0.02392356 -0.04513793 0.02338549 -0.008485275 -0.00715758 -0.027909413
0.029927582 -0.01918941 -0.004098459 -0.028376354 -0.026829148 -0.04463694 -0.05676864 -0.03488042
0.0035497474 -0.006905584 0.02919769 0.025479626 0.013880507 -0.0132602025 0.048885304 -0.041943375
-0.000675094 0.012382007 -0.019518038 -0.040197253 -0.04964284 -0.02383293 0.0028547947 0.023043033
-0.0033084746 0.038956475 0.0064996127 0.015309198 0.028336031 -0.019022703 0.032692432 0.010760123
-0.032193318 0.001298776 -0.020093435 -0.005621977 -0.025464721 0.04205575 0.04278112 0.028112456
0.0015256295 0.023166979 -0.018209735 -0.011352796 0.013397105 0.013861013 0.030395882 0.013851372
0.003175371 -0.017094955 -0.026258718 0.004144589 -0.022771195 -0.028626962 0.031333994 0.0060490747
0.001506095 0.03827347 -0.019591685 0.020880098 0.0009970571 0.007346719 0.0052299043 -0.05140543
-0.0004523191 0.027128723 0.0038328082 0.051709827 -0.028047057 0.027755564 0.028594594 -0.042568747
-0.042777725 -0.046038546 -0.0358283 -0.017524 -0.0035682719 -0.030118026 -0.010183153 0.015935434
0.03391043 -0.028105522 0.037680198 0.047998775 0.000713485 0.052174952 -0.01202178 0.017987173
00000000: 80f9 5cbc 42e5 f03c 1474 04bd 07e5 7c3c
00000010: 0202 ae3c fdfc 97bc 5503 813c f4fa 613c
00000020: 244e 323c 4179 4fbd f98b 8bbd 50cc 84bd
00000030: 25e3 e33c 1411 903d bd7f 6e3d 7c89 4a3d
00000040: f2f6 b03b d361 71bd b19c 13bd edd5 01bd
00000050: 9ae0 24bd a2ef 04bd 00b2 f23c fb73 d73c
00000060: 3b15 c83c 0935 f1bc 756f 07bd 51d6 ebba
00000070: 131c 05bd a5e6 d13c 744c 78bb a6af 1b3c
00000080: 2bdf 263d 16b0 633c 4451 093d 3b4d 883c
00000090: b478 1fbd 3757 90bd 40da 54bd dcac df3c
000000a0: 7b7f 6b3d 1571 373d c262 743a 37ff 273c
000000b0: 597c 8fbc 53b7 87bd eca2 c2bd fba1 b2bd
000000c0: 3a02 6cbc 41c9 343c 20ed 2c3c a25d 363d
000000d0: bc28 ae3c 754f 043d e333 dab9 d58a 97bc
000000e0: 07b3 b2bc 209d f03c c2c5 643b a752 e53c
000000f0: d199 c5bc 61ed f4bb 6fe9 fdbc 5c8b d8bc
00000100: b4bd 16bd ea53 923a 4183 eb3c 8d20 be3c
00000110: 6973 823b 45f8 5b3c f079 763d 6d30 d43c
00000120: 3dee 1f3b 7898 f43b d948 e33c 3394 8c3c
00000130: 5b2b 31bd 6004 bebc 0f31 713c 3ff4 c93c
00000140: 857f b63a 1812 90bc 739a 653b e88f 08bd
00000150: 7aa1 8dbc ceee 01bd 6748 813b ec1e 8e3c
00000160: 1cd2 013c 5b63 90bb 5962 f4bb 59d7 0a3d
00000170: a5df 233d 3f7b 513c 8be1 fbbb c5fc 493c
00000180: a32a 4cbc 3e2d 793b 4dc7 a93c e607 a93c
00000190: a601 0a3d c617 dabc 3a8b f7bc de99 77bb
000001a0: ae24 933c c040 963c fba5 b8bb 0f0c 933c
000001b0: 6c04 813b 7c72 cabb c017 243d 6389 e13c
000001c0: 4ed9 afbc 58ec 6ebb 86f2 2b3d ab34 ff3c
000001d0: 054f b43c 018b cb3c cbdb dbbc ef44 39bd
000001e0: 3eac 933c e1ff 8bbc 73c6 0f3b 7836 293d
000001f0: d8e2 57bb 9e4d 1f3d 8c3a d33c 8830 083d
00000200: c2fc 153d 006b b9bc 4a12 c2bb 5dab f2bc
00000210: b58f 8ebc 9581 fd3a 3487 a7bc fa4b 80bc
00000220: c5e8 143d 4bf7 283d 59a9 333d 6afd 563c
00000230: e4d9 503c 455f 93bb 8a43 dcbc 1365 f1bc
00000240: 3a49 b8bc 4093 e9bc f9de dbbc c04d 82bd
00000250: cad4 2fbd 9205 793c ee06 9ebc d526 ed3c
00000260: 3160 1a3d c60b 513d ce65 92bc fe20 97bc
00000270: 1dad 063d 9eeb 0e3c df3c 15bd 15fb d9bb
00000280: bd6e e8bb 0a8d 23bd 57fb c3bc 8de2 38bd
00000290: ed92 bf3c d305 0bbc 228a eabb 48a2 e4bc
000002a0: b02a f53c 1c33 9dbc 5e4c 86bb 8775 e8bc
000002b0: cdc8 dbbc 39d5 36bd 3c86 68bd c5de 0ebd
000002c0: e1a2 683b 3d48 e2bb fe2f ef3c a6ba d03c
000002d0: 116b 633c 5241 59bc f53b 483d d1cc 2bbd
000002e0: cbf8 30ba e7dd 4a3c 4be4 9fbc e0a5 24bd
000002f0: 4a56 4bbd 473d c3bc 8217 3b3b bec4 bc3c
00000300: fed2 58bb d390 1f3d b4fa d43b 6ed3 7a3c
00000310: f720 e83c 80d5 9bbc 80e8 053d 3a4b 303c
00000320: 24dd 03bd b13b aa3a fd9a a4bc 9038 b8bb
00000330: 649b d0bc a642 2c3d 413b 2f3d 184c e63c
00000340: a2f7 c73a adc8 bd3c 952c 95bc 1401 3abc
00000350: 887f 5b3c 4d19 633c c900 f93c ddf0 623c
00000360: e319 503b b80a 8cbc 861c d7bc 55cf 873b
00000370: a88a babc 1783 eabc 1358 003d 5137 c63b
00000380: 2a68 c53a a4c4 1c3d be7e a0bc bd0c ab3c
00000390: afaf 823a bfbc f03b 9e5f ab3b 808e 52bd
000003a0: 3e25 edb9 0e3d de3c da2f 7b3b afcd 533d
000003b0: f1c2 e5bc a35f e33c 363f ea3c 915c 2ebd
000003c0: b237 2fbd ea92 3cbd b2c0 12bd 7e8e 8fbc
000003d0: abd9 69bb 14ba f6bc 3dd7 26bc 078b 823c
000003e0: aae5 0a3d 8d3d e6bc 8d56 1a3d 5d9a 443d
000003f0: 2b09 3b3a 67b5 553d 00f7 44bc d659 933c

bias f4 [256]
-0.041321114 -0.12574354 0.040719 -0.0126901455 -0.011879828 0.18225485 0.11634327 -0.08244673
-0.02134016 -0.114163384 0.11862183 -0.013586598 0.0414864 0.060538884 0.13870676 0.1143761
-0.038632628 0.012751081 0.04649348 0.06193214 -0.03950189 0.14125417 -0.1055845 0.061236743
0.11747506 -0.0034622094 -0.009617274 -0.023791768 -0.06565137 0.018731203 0.043916386 -0.012804458
0.07168268 0.09414292 0.010971981 0.0067906445 0.17673457 0.0011328243 0.100827545 -0.04549183
-0.0682699 0.06373866 0.036830578 -0.0407111 -0.003655606 0.17420541 0.02480076 -0.037702635
0.064731374 -0.004722239 0.051812693 0.004846579 0.08401599 0.011334364 0.027281437 -0.0927563
0.06339435 0.070771396 0.0060984115 -0.02519632 0.0123825865 0.029619407 0.07673792 -0.025169995
0.03964771 0.024083816 0.14515957 0.023811068 0.024174746 0.05937016 0.0021854567 -0.067218155
0.09456726 -0.041106436 -0.03602543 0.019956835 0.10067353 0.032126337 -0.078586414 0.05597447
-0.07377036 0.03463423 -0.072040774 -0.02482376 -0.009621792 -0.06513301 0.08484363 0.13755105
0.027871283 0.11540031 0.025489615 0.015168515 0.008146444 0.04895666 0.07793178 0.07219319
0.023083549 0.081617616 0.029207574 0.044860255 0.0762316 0.064006194 0.09261577 0.18263952
-0.0048871334 -0.09051614 -0.011501863 0.07045026 0.09377961 0.05430973 -0.0053269444 -0.03327768
0.010145758 0.0071192053 0.03878974 -0.023374896 0.06710289 -0.030396963 0.052226603 0.09551885
0.008341325 0.09871975 -0.018160816 0.11869752 0.03962459 0.05746069 -0.00540867 -0.021577766
-0.008696409 0.034031715 -0.114265606 0.0257877 -0.10432799 -0.04415021 0.0631307 -0.01706313
0.090527855 0.08219911 0.05972895 0.10755616 0.049047943 -0.0067541692 0.045237973 0.04044092
-0.02730561 0.08288838 0.04089305 0.13735187 0.027941288 -0.010953374 0.04203117 -0.0005042613
0.0835652 -0.03179327 0.033828206 -0.035542883 -0.010623438 0.07293607 0.09045376 -0.0846693
0.054551117 0.039204743 -0.065271094 0.122174114 0.19520028 -0.056401562 -0.004660065 0.1483444
0.035552476 -9.568615e-06 0.098186575 -0.019407248 -0.03863823 -0.0021843715 0.10206231 -0.056204
0.0049000327 0.16769093 0.071299985 0.08237386 0.14517948 -0.026659124 0.075509496 0.022567619
-0.043006837 0.043818645 -0.05778026 0.0068674143 0.15997717 -0.064308695 0.0006642757 0.20216118
0.10784663 0.12998013 -0.050698943 0.06144275 0.04202619 0.06505131 0.03667533 0.018952377
-0.024350615 0.035525996 -0.020683134 0.12561536 0.0069836956 0.075827725 0.04950719 -0.030787451
-0.014153935 0.007193719 0.077726655 0.06797618 0.09566469 -0.0555481 0.09787921 -0.005884162
0.13454685 0.06421511 0.018132897 -0.057139136 0.20045239 0.05031938 0.022109147 -0.011343365
-0.0780097 -0.03588326 0.029996837 -0.022328584 -0.13962704 0.051534712 0.18588585 -0.022035744
0.06808907 0.105492115 0.014772587 0.07975668 0.009165596 0.17439997 -0.00012670025 0.015252546
-0.06921093 0.056154765 0.049847137 0.041113336 -0.06605609 -0.10237477 0.03387282 0.07254067
0.08540628 0.10591478 0.1495554 0.0951048 -0.048399467 0.06994709 -0.08597415 -0.058019277
00000000: 5440 29bd eac2 00be f7c8 263d 54ea 4fbc
00000010: 9ca3 42bc 04a1 3a3e 6145 ee3d d5d9 a8bd
00000020: 8fd1 aebc 7ece e9bd 01f0 f23d 539a 5ebc
00000030: a5ed 293d 9ff7 773d 2509 0e3e 043e ea3d
00000040: 3f3d 1ebd e9e9 503c f36f 3e3d 8eac 7d3d
00000050: bccc 21bd efa4 103e b03c d8bd 61d3 7a3d
00000060: c496 f03d 3ce6 62bb c591 1dbc f4e6 c2bc
00000070: 3a74 86bd 2e72 993c abe1 333d cac9 51bc
00000080: 5ece 923d 01ce c03d d3c3 333c 0e84 de3b
00000090: e8f9 343e 477b 943a ac7e ce3d a455 3abd
000000a0: 17d1 8bbd 6a89 823d a9db 163d afc0 26bd
000000b0: e492 6fbb e762 323e f72a cb3c 146e 1abd
000000c0: e291 843d 03bd 9abb 8c39 543d 0dd0 9e3b
000000d0: 9310 ac3d c5b3 393c 527d df3c 04f7 bdbd
000000e0: e6d4 813d 98f0 903d 2fd5 c73b 8368 cebc
000000f0: 55e0 4a3c 66a4 f23c c528 9d3d 4e31 cebc
00000100: a365 223d 6c4b c53c b6a4 143e 6e0f c33c
00000110: 1e0a c63c 202e 733d e139 0f3b aca9 89bd
00000120: 7bac c13d 395f 28bd 678f 13bd 847c a33c
00000130: ec2d ce3d e896 033d eaf1 a0bd 7c45 653d
00000140: ea14 97bd 9fdc 0d3d 1d8a 93bd 335b cbbc
00000150: b8a4 1dbc 7564 85bd 7fc2 ad3d 2fda 0c3e
00000160: 5152 e43c ff56 ec3d 99cf d03c 5d85 783c
00000170: aa78 053c c786 483d b29a 9f3d 06da 933d
00000180: b619 bd3c 2327 a73d b944 ef3c 63bf 373d
00000190: 501f 9c3d ae15 833d 56ad bd3d db05 3b3e
000001a0: 3f24 a0bb 8760 b9bd 4f72 3cbc 3a48 903d
000001b0: 860f c03d e173 5e3d a68d aebb 2d4e 08bd
000001c0: 653a 263c 3948 e93b fee1 1e3d b67c bfbc
000001d0: 3d6d 893d 0d03 f9bc 90eb 553d 639f c33d
000001e0: 0eaa 083c 952d ca3d fec5 94bc af17 f33d
000001f0: 654d 223d e75b 6b3d 363b b1bb dbc3 b0bc
00000200: 627b 0ebc d764 0b3d 1604 eabd ba40 d33c
00000210: eaa9 d5bd dad6 34bd ab4a 813d fac7 8bbc
00000220: ab66 b93d 0258 a83d 58a6 743d 6746 dc3d
00000230: 7fe6 483d 1452 ddbb 744b 393d 61a5 253d
00000240: 04b0 dfbc 62c1 a93d 797f 273d f8a5 0c3e
00000250: 21e5 e43c c875 33bc e028 2c3d 6730 04ba
00000260: 3b24 ab3d a939 02bd 728f 0a3d 6a95 11bd
00000270: ee0d 2ebc 825f 953d d23f b93d 1967 adbd
00000280: fe70 5f3d 2795 203d daac 85bd 6c36 fa3d
00000290: 95e2 473e 5305 67bd 75b3 98bb 98e7 173e
000002a0: 799f 113d e388 20b7 0b16 c93d f3fb 9ebc
000002b0: 1f43 1ebd ac27 0fbb 0b06 d13d 2a36 66bd
000002c0: 7490 a03b 2cb7 2b3e ba05 923d a0b3 a83d
000002d0: eea9 143e 3c64 dabc b9a4 9a3d badf b83c
000002e0: f027 30bd 2e7b 333d feaa 6cbd 0c08 e13b
000002f0: 0ed1 233e 47b4 83bd ca22 2e3a 5703 4f3e
00000300: b2de dc3d 8319 053e b2a9 4fbd 65ab 7b3d
00000310: a723 2c3d 9f39 853d df38 163d 0442 9b3c
00000320: f17a c7bc b583 113d ad6f a9bc 50a1 003e
00000330: 7cd7 e43b 914b 9b3d 0dc8 4a3d f735 fcbc
00000340: e8e5 67bc 4ab9 eb3b 272f 9f3d 1837 8b3d
00000350: d9eb c33d 6886 63bd e574 c83d eecf c0bb
00000360: a6c6 093e 3683 833d 718b 943c ba0a 6abd
00000370: 6443 4d3e b21b 4e3d 3e1e b53c 85d9 39bc
00000380: 8dc3 9fbd 53fa 12bd edbb f53c 6fea b6bc
00000390: 64fa 0ebe 1016 533d dc58 3e3e 4e84 b4bc
000003a0: 4872 8b3d 400c d83d b908 723c 7857 a33d
000003b0: 4c2b 163c e895 323e d7da 04b9 d1e5 793c
000003c0: 76be 8dbd 8a02 663d 832c 4c3d 7566 283d
000003d0: 6a48 87bd dda9 d1bd 3abe 0a3d 3490 943d
000003e0: 7de9 ae3d d9e9 d83d 0d25 193e 4ec6 c23d
000003f0: 853e 46bd 6c40 8f3d 3713 b0bd 9fa5 6dbd

weight f4 [128, 256]
0.03062286 -3.3127515e-05 0.029755194 -0.047341425 -0.0075252457 0.027678635 0.09324153 0.07612609
0.0044301576 0.07798698 -0.07875894 0.03675142 -0.0043335063 0.08798875 0.035178237 -0.025068508
-0.019200303 -0.05683585 -0.06324571 0.095321834 0.032002237 -0.012401763 0.029240038 0.041341987
-0.054716527 0.0022405116 0.013356344 0.033179633 0.11247891 0.056009527 0.030420631 0.00480704
-0.01455543 0.14375335 0.008473377 -0.04793897 0.13701165 -0.062271934 0.07534003 -0.030587565
0.031161431 0.019181557 0.012531183 0.14736238 -0.048583966 0.058845695 0.016551234 0.016637422
-0.045823563 0.027937884 -0.051644243 -0.04031888 0.0009179585 0.05285954 0.013620176 0.09373233
0.07655194 -0.048087142 0.023203472 -0.029901557 -0.03001575 0.08236741 0.0013652651 -0.020755269
-0.002385127 -0.05551648 -0.012829225 -0.0106037045 -0.043690216 0.017116971 0.029743558 0.014270142
0.028444517 0.06224929 0.026081868 -0.04943405 -0.05819272 0.025054643 0.06600725 -0.076284334
0.046192124 0.0029865527 -0.022418475 0.0013799755 0.029099371 0.04500637 -0.0010309225 0.11727293
0.005272869 -0.043462448 -0.014002465 -0.05253905 -0.005672614 -0.00551964 -0.08896097 -0.009550152
0.011672784 0.011035175 0.05651098 0.08682275 0.020661874 0.056411784 0.05288632 -0.052145906
-0.05702 -0.0066667097 -0.015472014 -0.03528313 -0.036475416 -0.003084323 0.11111881 -0.012379575
-0.022354418 0.10868654 0.010087626 0.03287105 -0.06746189 -0.038199507 0.017275961 0.012554809
0.057112478 -0.054642104 0.016111411 -0.05972587 0.059297495 -0.052465085 0.020300135 -0.042154357
0.034565605 -0.06781722 0.01125315 -0.04385777 0.03406176 0.07675695 -0.016828366 -0.009536654
0.036978032 -0.010958377 -0.0069031115 0.11945328 0.04292837 -0.039783977 -0.032404583 0.014830744
0.029121472 -0.079868026 -0.01578673 0.00055917894 -0.040468805 0.00032998036 -0.017965343 0.020518105
-0.031617176 0.002098494 -0.03184418 0.03876026 0.055587154 -0.0018936926 -0.01684293 0.013221404
-0.00512681 -0.008567156 0.009682607 0.08601087 0.07378473 0.019021194 -0.025030505 0.046351768
0.05361039 0.06595304 0.10406398 0.010100647 0.056176078 0.08500624 0.061247017 0.11101456
-0.002647053 0.12219643 -0.026906148 -0.019173598 -0.06387904 0.04337051 0.09638515 0.027930677
-0.014551946 -0.021100346 0.012100763 -0.045258403 0.008649918 0.09513989 0.05990354 -0.009353272
0.12209719 -0.035652325 0.017102169 -0.016849168 -0.022551568 -0.0072321245 0.06800445 0.06699449
-0.022013701 0.01800787 0.06056394 -0.08028774 0.115386836 0.064577684 0.098998986 0.01921885
0.04448426 0.011562214 0.038986385 0.040149666 0.002092541 0.09205754 0.00016516083 -0.040923376
0.07970881 -0.026854778 -0.05086534 0.075549014 0.06256774 0.037878733 0.033191826 0.019323066
-0.029098777 -0.0066535673 -0.009156048 -0.00030273857 0.08153678 -0.07362253 0.045593444 0.00052071555
0.024810089 0.07785887 0.03422517 -0.011129482 -0.029758248 -0.026035996 -0.05609627 -0.05948846
-0.03171926 -0.07843237 0.07417928 0.045614786 0.078273505 0.113259636 -0.046961557 -0.061675686
-0.016063284 -0.06170768 -0.04120661 0.052654896 0.04086965 -0.009401847 0.010917795 0.06024177
00000000: cbdc fa3c 66f2 0ab8 2ac1 f33c 15e9 41bd
00000010: 5696 f6bb 4ebe e23c 6af5 be3d ffe7 9b3d
00000020: db2a 913b a3b7 9f3d 5e4c a1bd a888 163d
00000030: 1600 8ebb 7233 b43d 0e17 103d 795c cdbc
00000040: f449 9dbc b5cc 68bd f886 81bd 1838 c33d
00000050: c714 033d c430 4bbc ce88 ef3c 3756 293d
00000060: 701e 60bd 8cd5 123b 91d4 5a3c 5ee7 073d
00000070: 585b e63d 3f6a 653d b034 f93c 6084 9d3b
00000080: e679 6ebc 1434 133e ebd3 0a3c a75b 44bd
00000090: c84c 0c3e db10 7fbd e04b 9a3d c692 fabc
000000a0: 4246 ff3c a422 9d3c 974f 4d3c 2ae6 163e
000000b0: fbff 46bd 2f08 713d 7496 873c 344b 883c
000000c0: 7db1 3bbd fddd e43c ea88 53bd 6925 25bd
000000d0: 27a3 703a 3f83 583d 2927 5f3c bcf6 bf3d
000000e0: 43c7 9c3d 06f7 44bd 3515 be3c 1cf4 f4bc
000000f0: 97e3 f5bc 3fb0 a83d b2f2 b23a f406 aabc
00000100: ca4f 1cbb 4065 63bd ab31 52bc 29bb 2dbc
00000110: 83f4 32bd e438 8c3c c3a8 f33c 50cd 693c
00000120: 7a04 e93c 1df9 7e3d a4a9 d53c 5c7b 4abd
00000130: 7d5b 6ebd 653f cd3c cf2e 873d f63a 9cbd
00000140: f433 3d3d 0aba 433b f3a6 b7bc 4be0 b43a
00000150: ce61 ee3c 9958 383d 0520 87ba ca2c f03d
00000160: 08c8 ac3b ae05 32bd 986a 65bc 3033 57bd
00000170: 56e1 b9bb 19de b4bb 2b31 b6bd 3e78 1cbc
00000180: 343f 3f3c e1cc 343c 0f78 673d 20d0 b13d
00000190: 1743 a93c 0b10 673d 539f 583d f296 55bd
000001a0: ce8d 69bd 6a74 dabb 557e 7dbc 0b85 10bd
000001b0: 3f67 15bd 5a22 4abb 4292 e33d b3d3 4abc
000001c0: 9d20 b7bc 0c97 de3d 9246 253c cba3 063d
000001d0: 7629 8abd 1677 1cbd 5186 8d3c b0b2 4d3c
000001e0: c6ee 693d 66d0 5fbd 14fc 833c 1da3 74bd
000001f0: eee1 723d a1e5 56bd 784c a63c 0caa 2cbd
00000200: aa94 0d3d c1e3 8abd 225f 383c 34a4 33bd
00000210: 5884 0b3d bf32 9d3d a4db 89bc a03f 1cbc
00000220: 4776 173d c48a 33bc 7f33 e2bb eca3 f43d
00000230: a9d5 2f3d 86f4 22bd abba 04bd a6fc 723c
00000240: 2790 ee3c d991 a3bd 2c53 81bc dd95 123a
00000250: 9ec2 25bd 3701 ad39 0e2c 93bc 9615 a83c
00000260: 0381 01bd e386 093b 0b6f 02bd 14c3 1e3d
00000270: 5baf 633d c835 f8ba 2ffa 89bc 969e 583c
00000280: cdfe a7bb 425d 0cbc cca3 1e3c 7826 b03d
00000290: 731c 973d 56d2 9b3c c60c cdbc 5adb 3d3d
000002a0: 9196 5b3d 6312 873d 7f1f d53d 2f7d 253c
000002b0: e318 663d c017 ae3d 27de 7a3d 9a5b e33d
000002c0: 2e7a 2dbb 1f42 fa3d 486a dcbc f311 9dbc
000002d0: 04d3 82bd 47a5 313d 9465 c53d e0ce e43c
000002e0: 496b 6ebc a2da acbc 4742 463c e060 39bd
000002f0: 63b8 0d3c b4d8 c23d 6a5d 753d 773e 19bc
00000300: 170e fa3d 2c08 12bd d919 8c3c 4407 8abc
00000310: 11be b8bc 75fb ecbb eb45 8b3d 6834 893d
00000320: 1456 b4bc 3e85 933c e511 783d e66d a4bd
00000330: ef4f ec3d 4e41 843d fbbf ca3d da70 9d3c
00000340: 2135 363d 716f 3d3c 30b0 1f3d fa73 243d
00000350: 0323 093b aa88 bc3d 062f 2d39 459f 27bd
00000360: 5f3e a33d 8dfe dbbc 2d58 50bd 71b9 9a3d
00000370: 8423 803d bb26 1b3d 27f4 073d 684b 9e3c
00000380: 8f60 eebc 2b06 dabb 4003 16bc e2b8 9eb9
00000390: c1fc a63d 69c7 96bd 31c0 3a3d a180 083a
000003a0: 873e cb3c 7974 9f3d b12f 0c3d 6e58 36bc
000003b0: 92c7 f3bc 7149 d5bc 34c5 65bd 2caa 73bd
000003c0: 0eec 01bd 27a1 a0bd 4eeb 973d 92d6 3a3d
000003d0: dc4d a03d abf4 e73d c35a 40bd a59f 7cbd
000003e0: 2697 83bc 31c1 7cbd 43c8 28bd a9ac 573d
000003f0: ef66 273d 340a 1abc 8de0 323c 13c0 763d

bias f4 [128]
0.032032203 0.11961213 -0.064602904 0.13517752 0.06686846 -0.05383907 0.15835333 0.106281556
0.041410904 0.21242061 0.07636603 -0.003304598 -0.040842056 0.11816226 0.015682684 0.04803121
0.021939646 0.17594741 0.0028521747 -0.059135374 0.100179605 0.12470318 0.12088274 0.080031745
0.08590957 0.033036366 0.034805354 0.21849775 0.1005969 -0.027065728 -0.07409575 0.12729897
-0.090735406 -0.010764438 0.14772823 0.18174243 -0.0035123674 0.010154649 0.07144656 0.23200108
-0.09443817 -0.065231666 -0.00031525036 0.14735097 0.02639749 0.047603782 0.029393462 -0.0039748126
0.0049501155 0.21140757 -0.07686914 0.18957382 0.105290286 -0.01127501 0.059175804 0.09426373
0.11745866 0.10585005 -0.01981873 0.20106223 0.06583364 -0.07184117 0.0061684577 -0.12249368
0.1492181 0.10875469 0.17665619 0.07785267 0.06686594 0.06988541 0.04651575 0.13692012
0.09108934 0.01571984 0.053536497 0.15250368 0.11307003 0.19661026 0.012795778 -0.004534519
-0.033903476 0.1355658 0.019544385 0.10505357 0.03452954 0.04392479 0.17744921 0.004228643
0.009974331 0.026213398 0.0033609252 -0.043888383 0.09099401 0.07014755 0.063917354 0.010225493
0.048066895 0.08536175 -0.00027483277 -0.02085181 0.13445629 0.16961849 0.06165108 0.1020333
0.0060101654 0.053440463 -0.02905353 0.14586738 0.111132085 0.035660703 -0.017553192 0.05922437
0.1676314 0.08898313 0.05534611 0.03854465 0.015112985 0.23317806 0.14643225 0.087106526
0.023728644 0.05508418 0.09724245 0.081971675 -0.01388095 -0.047991283 0.1764746 -0.04767308
00000000: 3334 033d 34f7 f43d 874e 84bd fa6b 0a3e
00000010: 55f2 883d 5b86 5cbd 6027 223e 25aa d93d
00000020: 7b9e 293d ca84 593e cb65 9c3d f491 58bb
00000030: 004a 27bd 0eff f13d f978 803c 60bc 443d
00000040: c6ba b33c 8f2b 343e 8deb 3a3b ef37 72bd
00000050: f72a cd3d 6164 ff3d 5f91 f73d afe7 a33d
00000060: 5bf1 af3d 2451 073d 0f90 0e3d e0bd 5f3e
00000070: bf05 ce3d f2b8 ddbc 83bf 97bd a95a 023e
00000080: 7cd3 b9bd 535d 30bc 1246 173e b01a 3a3e
00000090: bf2f 66bb af5f 263c 9352 923d b191 6d3e
000000a0: cd68 c1bd 2e98 85bd 3048 a5b9 2ce3 163e
000000b0: 8d3f d83c 2ffc 423d 8fca f03c 253f 82bb
000000c0: 9434 a23b 3a7b 583e 916d 9dbd a41f 423e
000000d0: 6fa2 d73d d2ba 38bc 5462 723d 580d c13d
000000e0: 2a8e f03d e9c7 d83d e45a a2bc 42e3 4d3e
000000f0: cad3 863d 7721 93bd c620 ca3b f7dd fabd
00000100: a1cc 183e c7ba de3d 5ce5 343e 3871 9f3d
00000110: 03f1 883d 1520 8f3d 4d87 3e3d ca34 0c3e
00000120: 0c8d ba3d e5c6 803c 1649 5b3d ed29 1c3e
00000130: 4391 e73d 3354 493e 62a5 513c 4d96 94bb
00000140: 5fde 0abd c3d1 0a3e 8c1b a03c 5326 d73d
00000150: d96e 0d3d 7bea 333d 3fb5 353e 6e90 8a3b
00000160: 606b 233c 7bbd d63c f842 5c3b 4ec4 33bd
00000170: 115b ba3d 85a9 8f3d 1ae7 823d d488 273c
00000180: cbe1 443d 24d2 ae3d 6e17 90b9 6ad1 aabc
00000190: e9ae 093e 78b0 2d3e d885 7c3d d6f6 d03d
000001a0: ecf0 c43b 63e4 5a3d ab01 eebc 425e 153e
000001b0: 3899 e33d f510 123d b6cb 8fbc 4195 723d
000001c0: 91a7 2b3e ca3c b63d 9ab2 623d ffe0 1d3d
000001d0: 749c 773c 3bc6 6e3e 56f2 153e e864 b23d
000001e0: 9362 c23c f39f 613d 0d27 c73d c4e0 a73d
000001f0: ed6c 63bc 8292 44bd c2b5 343e d944 43bd

weight f4 [10, 128]
-0.13575093 0.15610227 0.096611924 0.07142035 0.008001577 0.110690035 0.1399876 0.011172422
0.14283824 -0.23206484 0.22632337 -0.051621735 -0.15330075 -0.14164457 -0.096820466 -0.10155786
-0.11631323 0.19098899 -0.014270207 -0.083418295 0.22592716 -0.055009894 0.100317016 0.019863289
0.16657642 -0.122912884 -0.064247936 -0.09679453 0.18700488 0.17090362 -0.12122012 0.28641832
-0.018063929 0.18226182 -0.19448562 0.043032594 0.20293137 0.08045042 -0.15435746 0.009242001
-0.14363149 0.0736541 -0.091915056 0.22276498 0.08207777 -0.06582474 -0.18232806 -0.13698156
-0.13657638 0.06141372 0.099610694 0.17565738 0.16515404 -0.20724104 -0.018819297 0.2372063
-0.20293565 -0.21627682 0.14162575 0.18644118 0.24046524 0.034195207 -0.028574048 -0.049383514
0.09172319 -0.17058456 0.18615104 0.13920423 -0.17512129 0.16010317 0.0606683 -0.023755027
0.1708269 -0.13084859 0.026417522 -0.15306331 -0.17776792 0.2811847 -0.20743981 0.07950993
-0.058568433 -0.17041346 -0.04914099 -0.054454006 -0.2030456 0.10406346 0.12366295 0.13878345
-0.16093172 0.020067176 0.2826751 -0.14574751 0.286188 -0.14026377 -0.08589293 -0.037497718
-0.04133522 -0.1935981 0.1292358 -0.10457356 -0.1880839 0.15395173 0.22442272 -0.036859125
-0.19040352 -0.089573294 -0.12350652 0.18904239 -0.23221627 0.170194 0.027520632 -0.2245462
0.31139082 0.06381943 0.1857713 -0.07389631 -0.06845219 -0.19403629 -0.20566793 -0.007858803
-0.17855743 0.147428 -0.16114071 0.18165873 -0.11129153 0.18677981 0.25120768 0.025730317
0.013232016 -0.23984034 -0.19644895 -0.20005837 -0.08640244 0.03730771 0.18630457 -0.1303502
0.008634496 -0.2765169 -0.15042892 -0.048375554 -0.20521696 0.04648599 -0.28370127 0.18072957
0.15978539 0.17494273 0.011226991 0.02204055 -0.23520039 0.05652424 -0.054128602 0.20324136
0.007973902 0.22691798 -0.1304464 -0.14856295 -0.077100135 -0.22248942 -0.021566669 -0.18080142
-0.17560446 0.06937424 -0.21358815 -0.08880192 -0.21528353 -0.16605714 0.12155726 0.01562545
0.24841186 -0.066646405 0.2334155 0.084825985 0.20301686 0.12847707 0.22858056 0.25542954
0.22383368 -0.07103617 -0.042806398 -0.2147594 0.1506866 0.28455904 -0.062018022 -0.10429438
-0.088943295 -0.20905909 0.051094472 0.25496656 0.26159504 -0.0919758 -0.09823146 0.07355273
-0.12429474 -0.045411598 -0.27159706 0.11377721 -0.05893369 -0.17849763 0.13958669 -0.06319399
0.25698075 0.090706974 -0.17903209 -0.22600816 -0.17233247 0.14234032 -0.12731212 0.044831388
-0.016392387 -0.08575556 -0.051805433 -0.061495338 0.06156228 -0.075452335 -0.19547017 0.25488934
0.31895357 -0.089859396 0.07412723 0.42373276 0.2906256 -0.19500092 0.17944425 -0.07928286
0.0640638 -0.24191706 0.21083921 0.25610286 -0.0014168961 -0.011740758 -0.009464749 -0.14763404
0.096191354 -0.26805183 0.0035875472 0.14970057 0.11980061 0.05608267 -0.05258874 -0.16905655
0.008477397 -0.065636426 -0.043688487 -0.14821218 0.3082675 -0.22659206 -0.27791116 -0.027933827
0.08478783 0.16302149 -0.18714066 -0.17169906 0.20545013 -0.24850038 -0.22170898 0.34287786
00000000: 4b02 0bbe 46d9 1f3e 79dc c53d d544 923d
00000010: 0c19 033c 75b1 e23d e958 0f3e 890c 373c
00000020: 3044 123e 68a2 6dbe 50c1 673e 5071 53bd
00000030: dffa 1cbe 460b 11be cf49 c6bd 91fd cfbd
00000040: a135 eebd 9e92 433e 96cd 69bc 36d7 aabd
00000050: 7359 673e 0e52 61bd 0273 cd3d 56b8 a23c
00000060: 0293 2a3e c0b9 fbbd 6c94 83bd 363c c6bd
00000070: 357e 3f3e 5c01 2f3e 4142 f8bd 6ca5 923e
00000080: cefa 93bc d8a2 3a3e 3d27 47be f242 303d
00000090: 3ecd 4f3e 31c3 a43d e20f 1ebe c36b 173c
000000a0: 2214 13be f6d7 963d f63d bcbd 811c 643e
000000b0: 6418 a83d 1fcf 86bd 35b4 3abe e544 0cbe
000000c0: aeda 0bbe f48c 7b3d b100 cc3d 87df 333e
000000d0: 241e 293e ff36 54be ed2a 9abc 35e6 723e
000000e0: 5dce 4fbe ac77 5dbe 5706 113e 70ea 3e3e
000000f0: 853c 763e 4610 0c3d 1f14 eabc 5e46 4abd
00000100: 5ed9 bb3d b8ad 2ebe 619e 3e3e 8e8b 0e3e
00000110: ff52 33be 16f2 233e 537f 783d e799 c2bc
00000120: 3fed 2e3e 2cfd 05be 8f69 d83c a1bc 1cbe
00000130: cb08 36be 71f7 8f3e 1a6b 54be 1ad6 a23d
00000140: 74e5 6fbd de80 2ebe 1048 49bd 2a0b 5fbd
00000150: 30eb 4fbe 391f d53d 0043 fd3d 401d 0e3e
00000160: 49cb 24be eb63 a43c caba 903e d63e 15be
00000170: 3c87 923e 4ea1 0fbe a2e8 afbd 3597 19bd
00000180: 1f4f 29bd 953e 46be 6456 043e aa2a d6bd
00000190: 1199 40be 86a5 1d3e 12cf 653e 98f9 16bd
000001a0: 24f9 42be 3472 b7bd fdf0 fcbd 5494 413e
000001b0: 1aca 6dbe 5647 2e3e f372 e13c 70ef 65be
000001c0: 9e6e 9f3e c3b3 823d d53a 3e3e f356 97bd
000001d0: a930 8cbd 73b1 46be 9d9a 52be 35c2 00bc
000001e0: c2d7 36be 5ef7 163e 1202 25be bf04 3a3e
000001f0: d0ec e3bd 3543 3f3e 4b9e 803e 63c8 d23c
00000200: 19cb 583c b598 75be ea29 49be 1adc 4cbe
00000210: c3f3 b0bd f8cf 183d a0c6 3e3e 867a 05be
00000220: b377 0d3c a093 8dbe 0a0a 1abe 7225 46bd
00000230: 6524 52be 1868 3e3d 4b41 91be 2c11 393e
00000240: c89e 233e 3024 333e 6af1 373c 628e b43c
00000250: 5fd8 70be f685 673d f4b5 5dbd 811e 503e
00000260: f8a4 023c 305d 683e be93 05be e320 18be
00000270: ade6 9dbd 44d4 63be 95ac b0bc 0224 39be
00000280: a8d1 33be 1514 8e3d dab6 5abe c8dd b5bd
00000290: 4973 5cbe e20a 2abe 03f3 f83d f200 803c
000002a0: ae5f 7e3e e97d 88bd 7904 6f3e 3fb9 ad3d
000002b0: a7e3 4f3e 7e8f 033e 0611 6a3e a9c7 823e
000002c0: a834 653e 697b 91bd c355 2fbd e3e9 5bbe
000002d0: 974d 1a3e b9b1 913e 9c06 7ebd 4b98 d5bd
000002e0: e727 b6bd 9613 56be 7048 513d fa8a 823e
000002f0: c9ef 853e cf5d bcbd 932d c9bd d0a2 963d
00000300: 3e8e febd 8301 3abd c50e 8bbe 0704 e93d
00000310: 7464 71bd 15c8 36be d0ef 0e3e da6b 81bd
00000320: fb92 833e 94c4 b93d 3054 37be af6e 67be
00000330: ec77 30be a9c1 113e 1c5e 02be 1ea1 373d
00000340: 5449 86bc 9ca0 afbd ef31 54bd 89e2 7bbd
00000350: bb28 7c3d c186 9abd 5529 48be db80 823e
00000360: e24d a33e 3408 b8bd 04d0 973d 80f3 d83e
00000370: e1cc 943e 52ae 47be 3cc0 373e 0d5f a2bd
00000380: e233 833d 1bb9 77be 3ce6 573e ea1f 833e
00000390: 25b7 b9ba 4f5c 40bc 0912 1bbc 612d 17be
000003a0: f9ff c43d 173e 89be 0e1d 6b3b 1b4b 193e
000003b0: 065a f53d f1b6 653d 4a67 57bd 291d 2dbe
000003c0: c8e4 0a3c 646c 86bd b3f2 32bd efc4 17be
000003d0: 3dd5 9d3e c007 68be 5f4a 8ebe 7bd5 e4bc
000003e0: 3ea5 ad3d 1bef 263e cda1 3fbe e1d1 2fbe
000003f0: 8561 523e e276 7ebe ae07 63be b08d af3e

bias f4 [10]
0.10478503 -0.08495589 0.13205993 0.26631683 -0.3611844 0.78523767 0.2181846 -0.04566974
-0.21357055 -0.5487022
00000000: 8999 d63d 5bfd adbd b83a 073e ae5a 883e
00000010: 29ed b8be 5605 493f c96b 5f3e 3110 3bbd
00000020: 3db2 5abe bf77 0cbf
