models/conf_7.pt (torch, 441470 bytes, 6 tensors)

weight f4 [128, 784]
0	0xbd04a6c5	-0.032385606
1	0x3d043ae9	0.032282744
2	0x3bc30763	0.0059518083
3	0xbce5bc01	-0.028043749
4	0x3c5c5db9	0.01345008
5	0x3bcb8b45	0.0062116706
6	0xbd38fb77	-0.04516169
7	0xbd6ad257	-0.057329502
8	0xbd072ef1	-0.03300375
9	0xbbd73d66	-0.0065685986
10	0x3c8c5a72	0.017132971
11	0x3cd541b8	0.026032314
12	0xbb1e57ef	-0.00241613
13	0x3c522222	0.012825521
14	0x3d4e8009	0.050415073
15	0x3d208969	0.039193545
16	0x3d5d5653	0.054037403
17	0x3cc7f614	0.024409331
18	0xbc8f66d5	-0.017505089
19	0xbcb04b5a	-0.021520305
20	0xbd399928	-0.045312077
21	0xbcdeab78	-0.027181372
22	0xbc106e0a	-0.008815298
23	0xbd218246	-0.03943088
24	0xbd1c2bb3	-0.038127612
25	0x3c65d8aa	0.0140287075
26	0xbcef2708	-0.029193416
27	0xbcc40e70	-0.023932666
28	0x3c7ce2b2	0.015434908
29	0x3bccca24	0.006249683
30	0xbcf7bbd2	-0.030240927
31	0x3c3ab924	0.01139668
32	0xbce16d17	-0.027517838
33	0xbba4ae33	-0.005025649
34	0xbd0c6df4	-0.034284547
35	0xbbcf9d99	-0.006335926
36	0x3c197533	0.009366321
37	0x3a84411f	0.0010090208
38	0x3dcf3ed9	0.10119409
39	0x3d74387a	0.059624173
40	0x3b9e8316	0.004837404
41	0x3ce0ba37	0.027432544
42	0x3d952793	0.07282939
43	0x3d837709	0.064191885
44	0x3d605318	0.054766744
45	0x3d8cecf9	0.068811364
46	0x3d8c2084	0.06842139
47	0x3ccca81c	0.024982505
48	0xbd731cd9	-0.059353683
49	0xbd4258f2	-0.047448106
50	0xbd33f7c2	-0.043937452
51	0xbd517a8b	-0.051142257
52	0xbb585ab7	-0.0033013055
53	0xbca4c9d7	-0.020115776
54	0xbb0d1842	-0.0021529351
55	0xbcfdfd59	-0.031004595
56	0xbc1e9b59	-0.009680592
57	0xbd072d6e	-0.03300231
58	0x3b7fcd0d	0.0039032132
59	0xbd005f16	-0.03134068
60	0xbd0c69d6	-0.03428062
61	0xbc0d64a9	-0.008629956
62	0x3cb4d59f	0.022074519
63	0xbc9ecd8d	-0.019385124
64	0xbd32f255	-0.043688137
65	0x3a0d28ae	0.0005384785
66	0x3cad27a5	0.021137068
67	0xbd28e2da	-0.041231968
68	0x3d2b88fa	0.041878678
69	0xbc3bac56	-0.011454662
70	0x3d0d2811	0.03446204
71	0x3c843d57	0.01614253
72	0x3d31b956	0.04338964
73	0x3c08bd97	0.008345983
74	0xbc3e4638	-0.011613421
75	0xbce5a078	-0.028030619
76	0x3caf35e5	0.021388004
77	0xbcf9f14d	-0.030510569
78	0x3c96d864	0.01841373
79	0xbd5f802b	-0.05456559
80	0xbc334ebd	-0.010944066
81	0xbc89ae38	-0.016806707
82	0xbcdd622d	-0.027024353
83	0x3c95e148	0.018295899
84	0x3c525d2b	0.012839596
85	0x3acafabe	0.0015486104
86	0x3cbb2c38	0.022848234
87	0x3c9f8679	0.019473301
88	0xbd0e6079	-0.034759972
89	0xbb056ea7	-0.0020360143
90	0xbc3cb673	-0.011518109
91	0xbd838be2	-0.06423165
92	0xbd45a013	-0.04824836
93	0xbc3c1cdf	-0.011481493
94	0x3ba5b497	0.0050569284
95	0xbc52ae12	-0.012858884
96	0xbcf9772b	-0.030452332
97	0x3d161bc7	0.036647584
98	0x3c8ba2b3	0.017045354
99	0x3be8ae57	0.007100861
100	0x3cfb7740	0.030696511
101	0xbc0f8ce2	-0.008761616
102	0xbcd1cb92	-0.025609765
103	0xbd8087e4	-0.06275919
104	0xbd8d4120	-0.06897187
105	0xbc7aa46b	-0.015297989
106	0x3cddc3e4	0.027070947
107	0x3bd79630	0.006579183
108	0x3c2eaa6d	0.01066075
109	0xbd0bd5bc	-0.03413938
110	0xba964362	-0.0011464173
111	0x3c2d318e	0.010570897
112	0x3b50cb30	0.003185939
113	0x3b8b5395	0.004251907
114	0x3cd49fde	0.025955137
115	0xbc6e5942	-0.014547648
116	0x3b5d88e3	0.0033803515
117	0x3b7f7a02	0.0038982634
118	0xbd5f8a97	-0.05457553
119	0x3c3fd010	0.011707321
120	0xbb8aafda	-0.004232389
121	0x3ce4f896	0.027950566
122	0x3c444908	0.011980303
123	0xbc5cce05	-0.013476853
124	0xbc1526a3	-0.00910345
125	0x3d2a2d06	0.041546844
126	0x3d5abe79	0.053404305
127	0xbb9130e1	-0.0044308756
128	0xbcc6d58a	-0.024271745
129	0xbc3d677a	-0.011560315
130	0x3b4856d5	0.0030569334
131	0x3a443943	0.00074853393
132	0x3ab6e6cf	0.0013954284
133	0xba30fc6a	-0.000675148
134	0x3c97db6b	0.018537244
135	0xbc7092b3	-0.014683413
136	0xbcf0798e	-0.029354837
137	0xbcbe34dc	-0.023218565
138	0x3cd078ee	0.025448289
139	0xbc620776	-0.013795724
140	0x3c501d13	0.012702244
141	0xbcbe789a	-0.023250867
142	0x3baf64e5	0.0053526037
143	0xbc6d0995	-0.014467617
144	0x3cca84c9	0.02472152
145	0x3c617308	0.013760336
146	0xbc9001b2	-0.017578933
147	0x3a8560d7	0.0010175955
148	0x3d14f58c	0.036366984
149	0x3b635d93	0.0034693226
150	0xbcd28532	-0.025698278
151	0x3d137e3a	0.03600905
152	0x3d09983f	0.03359246
153	0x3d30a786	0.043128513
154	0xba28340f	-0.0006416449
155	0x3c903339	0.01760255
156	0x3c108260	0.008820146
157	0xbc699dd2	-0.014258819
158	0xbca3c945	-0.019993434
159	0x3c9c4e49	0.019080298
160	0x3d6109d7	0.054941025
161	0xbcb6e703	-0.022326952
162	0xbd02d8f2	-0.031945176
163	0x3c8d332d	0.017236317
164	0xbbce4ab7	-0.006295528
165	0x3c3b7b67	0.011442996
166	0xbd20e150	-0.039277375
167	0xbb08ccca	-0.0020874017
168	0xbd113e1e	-0.03545963
169	0xbd260571	-0.040532533
170	0xbd62374d	-0.05522852
171	0x3c3e03d9	0.011597597
172	0x3c498950	0.012300804
173	0x3d0697f6	0.032859765
174	0x3cee7cbf	0.029112218
175	0x3ca4e67b	0.020129433
176	0xba332f81	-0.0006835387
177	0x3b12f339	0.0022422804
178	0xbc06e1a3	-0.008232507
179	0xbcb0b107	-0.021568788
180	0xbc8ada0d	-0.016949678
181	0x3c454a26	0.012041604
182	0x3d0d3017	0.03446969
183	0x3cbd8280	0.023133516
184	0xbbe5a625	-0.0070083314
185	0x3bd99a94	0.0066407416
186	0xbd8205a7	-0.06348734
187	0xbd7d7ae1	-0.061884765
188	0x3aaa1594	0.0012976401
189	0x3ce99571	0.028513642
190	0x3cb01c64	0.021497913
191	0x3cf7b4a7	0.030237509
192	0x3c8c7e29	0.017150002
193	0x3bc3fff2	0.005981439
194	0xbcbc1e92	-0.022963796
195	0xbcb92bca	-0.022603888
196	0x3c8b4fed	0.017005885
197	0x3c368f49	0.01114256
198	0xbcaf3af4	-0.021390416
199	0xbd12b4ea	-0.035817064
200	0xbbab1bde	-0.005221828
201	0x3ca41401	0.02002907
202	0x3c007e59	0.007842624
203	0x3d0244fc	0.03180407
204	0x3cd8c2a1	0.026459994
205	0x3bdb140f	0.006685741
206	0xbd21b138	-0.03947565
207	0xbcbb8676	-0.022891264
208	0x3b2fadb8	0.0026806425
209	0xbcd0892d	-0.025456036
210	0x3d412e52	0.047163315
211	0xbcb3c6c2	-0.021945361
212	0x3c9c30b1	0.019066187
213	0xbc11c6da	-0.008897508
214	0xbd023e28	-0.031797558
215	0xbd8c4e2a	-0.06850846
216	0x3cf75106	0.030190002
217	0xbad55951	-0.0016277229
218	0x3cf3a768	0.029742911
219	0x3c0f2742	0.008737387
220	0x3d0c38ab	0.03423373
221	0x3c98a5ff	0.01863384
222	0x3d157e65	0.036497492
223	0x3c9de229	0.01927288
224	0xbd1a6ae0	-0.03769958
225	0xbc445202	-0.011982443
226	0xbd504489	-0.05084661
227	0xbd23a21b	-0.039949518
228	0x3ba1625d	0.004925056
229	0xbcdce103	-0.026962763
230	0xbb2a5d77	-0.002599565
231	0xbc5d3230	-0.013500735
232	0x3cd9a3ed	0.026567424
233	0xbd3f84d4	-0.046757534
234	0x3ca6170c	0.020274661
235	0xbd405120	-0.046952367
236	0xbd18e124	-0.037324086
237	0x3ab1365f	0.0013520232
238	0x3d30a747	0.043128278
239	0x3d22e728	0.03977123
240	0xbc1134d2	-0.008862691
241	0x3c3c362f	0.011487528
242	0xbc541f64	-0.012946937
243	0xbc0162df	-0.007897108
244	0x3cf4b7f9	0.029872881
245	0xbbb0a504	-0.005390765
246	0x3c6c86be	0.014436422
247	0x3ac37a7b	0.0014913821
248	0xbbf3618c	-0.0074274
249	0x3d094708	0.033515006
250	0x3c29a202	0.010353567
251	0xbd4e818f	-0.050416525
252	0xbc1b631d	-0.00948408
253	0xbce96bff	-0.02849388
254	0xbd753d5a	-0.059872963
255	0x3c0f7a6c	0.008757215

bias f4 [128]
0	0xbdc69286	-0.09695916
1	0x3b94ffa1	0.004547075
2	0x3d1954e5	0.037434477
3	0x3c874b8d	0.016515518
4	0x3db86d3f	0.09005212
5	0xbda30f47	-0.07961898
6	0x3df702d8	0.12061089
7	0x3e37e0ce	0.1795685
8	0xbd240236	-0.04004117
9	0x3d86ac2c	0.06575808
10	0xbd8368f5	-0.06416503
11	0x3cff99ae	0.03120121
12	0x3d744ac7	0.059641626
13	0x3ca80b98	0.02051334
14	0x3dcf1a20	0.10112405
15	0xbd5a9261	-0.053362254
16	0x3d8c6de3	0.06856897
17	0xbdb07ce9	-0.08617575
18	0x3e5d78da	0.21628132
19	0x3d1a3f5c	0.03765808
20	0x3de4900e	0.11160289
21	0xbb5b4756	-0.0033459268
22	0x3e9572c0	0.2918911
23	0xbe055978	-0.13022411
24	0x3d07274a	0.032996453
25	0x3da57c6d	0.08080373
26	0xbca75570	-0.020426482
27	0x3bbbaf0a	0.0057276534
28	0x3de84be5	0.11342601
29	0x3e057456	0.1303266
30	0x3e1ff7c5	0.1562186
31	0xbc8e4475	-0.017366627
32	0xbe0ecec6	-0.13946065
33	0x3d5b9d57	0.053616848
34	0x3ca12b0f	0.019673852
35	0x3b039c38	0.0020082127
36	0xbce36beb	-0.02776142
37	0x3d539215	0.051652987
38	0xbd9ecd67	-0.07754021
39	0xbdbffdde	-0.09374593
40	0x3e84eca9	0.25961807
41	0x3da84548	0.08216339
42	0x3c1877c2	0.009305896
43	0x3da1f0d9	0.07907266
44	0xbd959266	-0.07303314
45	0xbd894237	-0.067020826
46	0x3dc48618	0.09595889
47	0xbd3b4324	-0.045718327
48	0x3d95d61b	0.07316228
49	0xbdb9c419	-0.09070606
50	0xbe0a4245	-0.13501842
51	0xbd77ee9a	-0.060530283
52	0x3dd10fa1	0.10208059
53	0x3e28b411	0.1647494
54	0x3dba4575	0.09095279
55	0xbd4094bf	-0.047016855
56	0x3b5e030f	0.0033876335
57	0xbc837c45	-0.016050467
58	0x3dc17085	0.094452895
59	0x3d85f65c	0.0654113
60	0xbe89a68a	-0.26884872
61	0xbe0831ae	-0.13300201
62	0x3d8754c0	0.06607962
63	0x3de68b77	0.112570696
64	0x3d549de0	0.051908374
65	0x3e1b923f	0.15192507
66	0xbd44c824	-0.04804243
67	0xbcfae5f5	-0.03062723
68	0x3da2d0be	0.07949971
69	0xbd05e9c3	-0.032693636
70	0xbd65f8a5	-0.05614533
71	0x3dc815f7	0.097698145
72	0x3e2a9e59	0.16661967
73	0x3d04546a	0.032307066
74	0x3d6ca7a7	0.057777073
75	0x3daa68a2	0.083207384
76	0x39bed196	0.00036395778
77	0x3e543a47	0.20725356
78	0x3e12139b	0.14265291
79	0xbd987ad8	-0.074453056
80	0x3d8631c2	0.06552459
81	0x3d9fe9d5	0.07808272
82	0x3e51e755	0.20498402
83	0xbd019db1	-0.031644527
84	0xbe5aa8b1	-0.21353413
85	0x3cc27936	0.023739439
86	0x3df4e28a	0.119572714
87	0x3dbc9276	0.09207623
88	0xbda2e37d	-0.07953546
89	0x3de7b4de	0.113137946
90	0x3d8398ab	0.064256035
91	0xbc5fe352	-0.013665037
92	0x3e1c9636	0.15291676
93	0xba71fd9e	-0.00092312123
94	0x3e6587b5	0.2241505
95	0x3e82d66a	0.2555421
96	0x3ddd8346	0.10816054
97	0xbd202694	-0.03909929
98	0x3e7449d7	0.23856293
99	0xbe185580	-0.14876366
100	0xbd5287a6	-0.051398896
101	0x3de575f0	0.112041354
102	0x3c820b06	0.015874397
103	0xbe370bce	-0.17875597
104	0xbc082dde	-0.008311717
105	0x3dea7b4c	0.11449298
106	0xbbd545d8	-0.00650857
107	0x3d672be1	0.05643833
108	0xbcf4f18b	-0.029900333
109	0x3da6c493	0.08142962
110	0x3d93fd37	0.07226031
111	0x3d933b13	0.07189002
112	0x3d2146db	0.039374214
113	0x3c50aa57	0.012735925
114	0xbd5a1d66	-0.053250693
115	0xbde85819	-0.11344928
116	0xbd8726bd	-0.065991856
117	0xbdaac4e1	-0.08338333
118	0xbe9ac6e0	-0.30229855
119	0xbca959b3	-0.020672655
120	0xbdf89e0d	-0.12139521
121	0xbbdd5f84	-0.006755771
122	0x3e03ca1c	0.12870067
123	0xbd6eacd5	-0.058270294
124	0x3d25c4d8	0.040470928
125	0x3d7fd58d	0.062459517
126	0x3e2988f4	0.1655615
127	0x3e422bf2	0.18962076

weight f4 [64, 128]
0	0xbe01017f	-0.12598227
1	0x3da9b120	0.08285737
2	0xbc10730e	-0.008816494
3	0xbcdf8347	-0.027284278
4	0xbd316853	-0.043312382
5	0xbdfc6206	-0.12323384
6	0xbcab78de	-0.020931657
7	0x3dd1cbc7	0.102439456
8	0xbd8fbb38	-0.07018131
9	0x3c0e4807	0.008684165
10	0x3e49667d	0.19668002
11	0xbc2be888	-0.0104924515
12	0xbd8ceb9a	-0.06880875
13	0x3c8e5232	0.017373178
14	0x3c1101a8	0.008850493
15	0xbe2a10da	-0.16607991
16	0x3c442df3	0.011973846
17	0xbd802084	-0.06256202
18	0xbdba7ab6	-0.091054365
19	0xbd2cfedd	-0.042235244
20	0xbd5d6438	-0.054050654
21	0x3d858da6	0.06521158
22	0x3e344fcd	0.17608567
23	0xbe3505fb	-0.17678063
24	0xbdf54aeb	-0.1197718
25	0xbd01c1e3	-0.031679045
26	0x3cdb8348	0.026795998
27	0xbd0649c3	-0.03278519
28	0x3d9555e7	0.07291775
29	0x3da086b5	0.07838193
30	0xbbf3a85a	-0.0074358406
31	0xbd355dc6	-0.044278882
32	0x3d8a5e89	0.067563124
33	0x3d6a0ab4	0.057139114
34	0x3d7e3c0e	0.06206899
35	0x3d844cea	0.06459983
36	0xbdfca0cd	-0.12335358
37	0x3dafd432	0.08585395
38	0x3e0a0982	0.1348019
39	0x3b586eb7	0.0033024976
40	0x3c643438	0.013928466
41	0x3cca3b11	0.024686368
42	0xbdc05d6e	-0.0939282
43	0x3d7c1898	0.061546892
44	0x3d34ada6	0.044110917
45	0x3c579818	0.013158821
46	0xbd792776	-0.06082865
47	0xbdb4337b	-0.087988816
48	0xbde075fa	-0.10960002
49	0x3de7d5ef	0.113201015
50	0x3def1bdd	0.116752364
51	0xbcd43108	-0.025902286
52	0x3d63d052	0.05561859
53	0xbaec5c59	-0.0018032893
54	0x3d757d0e	0.059933715
55	0x3ba9fc86	0.005187574
56	0x3c7f98fe	0.015600441
57	0xbd8ae4f2	-0.06781949
58	0xbc14ebc6	-0.009089416
59	0xbc7790e6	-0.01511023
60	0xbe0b25a6	-0.1358858
61	0xbd999410	-0.07498944
62	0x3b10c745	0.002209143
63	0x3c1b3ea2	0.009475382
64	0xbb7f2463	-0.00389316
65	0x3e7561ff	0.23963164
66	0xbcf3bc87	-0.029752983
67	0xbcd63be6	-0.026151609
68	0xbd4eab49	-0.05045632
69	0xbd164409	-0.036685977
70	0x3bc1b101	0.005910993
71	0x3b49cf55	0.0030793746
72	0x3c86eb2f	0.016469566
73	0xbd675944	-0.056481615
74	0xbd02fe13	-0.031980585
75	0x3d2e1a6e	0.042505674
76	0xbdf05f7c	-0.11736962
77	0x3e05449a	0.1301445
78	0xbbfb129b	-0.00766213
79	0x3d3ed360	0.0465883
80	0xbd62dfbc	-0.05538915
81	0x3cdde3f3	0.027086234
82	0x3d698fa1	0.05702174
83	0x3e55cb4c	0.20878333
84	0x3c1d487c	0.009599801
85	0x3e704ed7	0.23467575
86	0x3d8d8f72	0.06912126
87	0x3d8c8d62	0.06862904
88	0xbcf0f085	-0.029411564
89	0x3e604888	0.21902668
90	0x3d99b0b2	0.07504405
91	0xbd39e44a	-0.04538373
92	0x3d424e05	0.047437686
93	0xbdc37158	-0.09543103
94	0x3d838955	0.064226784
95	0x3d7db265	0.06193771
96	0xbd94a23c	-0.07257506
97	0xbda83bdf	-0.082145445
98	0x3cd8feb8	0.026488647
99	0xbd92196c	-0.07133755
100	0xbdc1d6d4	-0.09464803
101	0xbdb8e5c8	-0.09028202
102	0x3d0c7762	0.03429354
103	0x3e0eba64	0.1393829
104	0xbca3484c	-0.019931935
105	0x3ba8bb1b	0.005149258
106	0xbd25b06a	-0.040451445
107	0xbd996da5	-0.07491616
108	0xbb161213	-0.0022898957
109	0xbb15ac74	-0.0022838386
110	0xbda634a3	-0.081155084
111	0x3bccf15c	0.006254358
112	0x3cb525e6	0.022112798
113	0xbd23140b	-0.039814036
114	0x3dcad875	0.09904567
115	0xbd9c30b2	-0.076264754
116	0xbcee9c86	-0.02912737
117	0xbc7bb2a9	-0.01536242
118	0x3d7ce1ac	0.061738655
119	0xbd24701a	-0.04014597
120	0xbe166b11	-0.1468928
121	0x3c3cd2c1	0.011524857
122	0xbdcccfbb	-0.10000559
123	0xbc98cc87	-0.018652214
124	0x3e3d72aa	0.18500772
125	0x3ca771db	0.020440033
126	0x3e17d8f7	0.1482886
127	0xbcc782cc	-0.024354361
128	0x3dadb217	0.084812336
129	0x3d28c9ab	0.04120795
130	0xbd7f3fa1	-0.06231654
131	0x3e35b6ac	0.17745465
132	0xbe0978a8	-0.13424933
133	0xbb1d96ec	-0.0024046255
134	0xbd7859e6	-0.06063261
135	0x3dc3b8ad	0.095567085
136	0xbd2a13e7	-0.041522887
137	0x3df147a6	0.11781244
138	0x3b90b814	0.004416475
139	0xbd8b9a7e	-0.068165764
140	0x3cfd476b	0.030917844
141	0x3da04b41	0.078268535
142	0x3dc44dbb	0.095851384
143	0x3deb3c6d	0.11486135
144	0x3d3b66bc	0.045752272
145	0x3e1931f5	0.14960463
146	0xbd6796cd	-0.0565403
147	0x3afb8cd2	0.0019191748
148	0x3d01cec0	0.031691313
149	0x3c2c544f	0.010518148
150	0xba11ff10	-0.00055693183
151	0x3cd7c962	0.026341144
152	0xb9834169	-0.00025035
153	0xbdb3b4b7	-0.08774703
154	0x3c74555b	0.014912928
155	0x3e53a8be	0.20669839
156	0xbd27e994	-0.04099424
157	0xbe46d0e9	-0.1941563
158	0xbdb0540e	-0.08609782
159	0xbbdaeec8	-0.006681297
160	0xbcc439f2	-0.023953412
161	0x3a727c2d	0.0009250071
162	0x3dbab4ad	0.091164924
163	0xbb214606	-0.0024608388
164	0x3e97b769	0.29632118
165	0x3d4f8b2f	0.050669845
166	0xbcd38f88	-0.025825277
167	0xbddee2c6	-0.10883097
168	0x3c0f6bd7	0.008753738
169	0x3c2b31af	0.010448857
170	0x3e1759b6	0.14780316
171	0xbc378bc5	-0.011202757
172	0xbcc0420f	-0.023469
173	0xb99369f9	-0.0002811698
174	0x3ce50876	0.027958136
175	0x3cce081c	0.025150351
176	0xbc979026	-0.018501353
177	0x3da6b23d	0.08139465
178	0xbe108354	-0.14112598
179	0xbb8d2d73	-0.0043083965
180	0xbd8259c1	-0.063647754
181	0xbb8b96bf	-0.0042599137
182	0x3d13346d	0.03593867
183	0xbd371c62	-0.044704802
184	0xbdb0cd52	-0.08632912
185	0x3d3ed53a	0.046590067
186	0xbce7f3bd	-0.028314466
187	0xbd7c2083	-0.061554443
188	0xbd935a25	-0.07194928
189	0x3e1636d7	0.14669357
190	0xbcb3c0c5	-0.021942506
191	0x3cd186e3	0.025577014
192	0x3dd9bc3d	0.10631607
193	0xbe14af18	-0.14519918
194	0x3e4d528e	0.20051023
195	0xbd85cbaa	-0.065329865
196	0xbd63e6e2	-0.05564011
197	0x3e6435bf	0.22286128
198	0xbe255220	-0.1614461
199	0x3c7b23fe	0.015328405
200	0xbb8cb5ab	-0.0042941174
201	0xbb7a7d98	-0.0038221832
202	0x3e445ca2	0.19175962
203	0xb9c399fa	-0.0003730802
204	0x3d99e449	0.07514245
205	0x3bb4a34d	0.005512631
206	0xbe05be2d	-0.13060828
207	0x3e8d8549	0.2764075
208	0x3bc8b24a	0.0061247693
209	0x3c3d3951	0.01154931
210	0xbdb572ae	-0.08859764
211	0xbd979f45	-0.07403425
212	0xbd5443e3	-0.051822554
213	0x3d66974b	0.056296628
214	0xbd9b0e27	-0.07571059
215	0xbdac0430	-0.08399236
216	0xbdf28d0a	-0.11843307
217	0xbdb1349a	-0.08652611
218	0xbdd09e85	-0.10186485
219	0x3d7a6338	0.06112978
220	0x3dd55474	0.10416499
221	0x3abdd0ef	0.0014481823
222	0x3d02a63b	0.03189681
223	0xbdc63ec2	-0.09679939
224	0x3dc20a74	0.0947465
225	0x3e0d0b51	0.13773848
226	0x3ca1f97b	0.019772282
227	0x3d539184	0.051652446
228	0xbd1cdb64	-0.038295165
229	0x3e6dc3de	0.23219249
230	0x3dea4fac	0.114409775
231	0xbdeee818	-0.11665362
232	0xbd57d563	-0.052693736
233	0x3e278fc1	0.16363432
234	0x3d6d06a6	0.05786767
235	0x3db44ac8	0.08803326
236	0x3e0caeaf	0.13738512
237	0xbb9ca2de	-0.0047801575
238	0xbd1c20ec	-0.038117334
239	0xbdeebfd0	-0.11657679
240	0x3d1f6ff9	0.038925145
241	0x3c70886d	0.014680964
242	0xbda08f10	-0.07839787
243	0xbc161b7b	-0.009161825
244	0xbd67072e	-0.05640333
245	0x3d278c99	0.04090557
246	0x3d3fd1cb	0.046830934
247	0x3e312c0e	0.17301962
248	0x3d80a1e1	0.06280876
249	0x3e706765	0.23476942
250	0xbe0df718	-0.1386379
251	0x3d457b95	0.04821356
252	0xbd42d669	-0.04756776
253	0xbe16e765	-0.14736708
254	0x3928189f	0.000160309
255	0x3ddfceab	0.10928091

bias f4 [64]
0	0x3e2e5ea4	0.1702829
1	0x3d9e4f14	0.07729927
2	0x3daf319f	0.08554386
3	0x3dabc0b0	0.083863616
4	0x3e568e24	0.2095266
5	0xbaff1e11	-0.0019463917
6	0x3e1c9c2f	0.15293954
7	0x3dd895da	0.10575457
8	0x3dbbd717	0.091718845
9	0x3e04cb6a	0.12968221
10	0x3d187192	0.037217684
11	0x3e1a8a06	0.15091714
12	0x3dc67458	0.096901596
13	0xbb644102	-0.0034828787
14	0x3d8dca3a	0.06923337
15	0x3e341f1e	0.17589995
16	0xbc6a24d2	-0.014291005
17	0x3e4d85d4	0.20070583
18	0xbd9a3e34	-0.075313956
19	0x3da7f809	0.08201606
20	0x3d93ae9e	0.0721104
21	0x3e323ee8	0.1740681
22	0xbd423c1d	-0.04742061
23	0xbd7062c9	-0.05868796
24	0xbcf125bf	-0.029436944
25	0x3d8b2b9d	0.06795428
26	0xbdeab946	-0.11461119
27	0x3e2e2d54	0.17009479
28	0x3e1506ba	0.14553347
29	0xbd64d88d	-0.05587058
30	0x3eb5d897	0.35516807
31	0x3e15025c	0.14551681
32	0xbc8c2d49	-0.017111437
33	0x3dddb119	0.10824794
34	0x3dc51de4	0.09624842
35	0x3e4b7ca4	0.19871765
36	0x3ea36a1d	0.31916896
37	0x3e2aaa4d	0.16666527
38	0x3e25d687	0.16195117
39	0x3e064f20	0.13116121
40	0x3e076ea4	0.132258
41	0x3e5cfbdc	0.21580452
42	0x3e1839ef	0.1486585
43	0x3dc5233b	0.0962586
44	0x3e4d68cf	0.20059513
45	0x3e748069	0.2387711
46	0x3cca4f34	0.02469597
47	0xbdac7688	-0.084210455
48	0x3d7386ff	0.059454914
49	0x3d771dcb	0.060331147
50	0x3e24b6c5	0.16085346
51	0x3d0f909b	0.035050016
52	0x3da0a213	0.07843413
53	0x3db365a7	0.08759623
54	0x3e081f8f	0.13293289
55	0x3d6b056b	0.057378214
56	0x3e92c334	0.28664553
57	0x3db1cefd	0.08682058
58	0x3c44097e	0.011965154
59	0x3c954bd6	0.018224638
60	0x3d9f96e3	0.07792451
61	0xbd7126bc	-0.05887483
62	0x3df90799	0.12159652
63	0x3e129193	0.14313345

weight f4 [10, 64]
0	0x3e05bd68	0.13060534
1	0x3e8bd77b	0.27312836
2	0x3cce1aa1	0.025159182
3	0x3ec53518	0.3851707
4	0x3eb8fdc3	0.36131105
5	0x3de6e1e4	0.11273554
6	0x3e952b46	0.29134578
7	0xbe31d826	-0.1736761
8	0xbe23831a	-0.1596798
9	0x3e717e38	0.23583305
10	0xbde119a2	-0.10991217
11	0x3cc0c1f1	0.023529978
12	0xbe73a54b	-0.23793523
13	0xbd6533c0	-0.055957556
14	0x3ecc5cb3	0.39914474
15	0xbe088cd0	-0.13334966
16	0xbe34b489	-0.17646994
17	0x3e4e531b	0.2014889
18	0xbe8693f5	-0.26284757
19	0xbe5dc35b	-0.21656553
20	0xbe0a3bd2	-0.13499382
21	0x3e64a961	0.22330238
22	0xbe0f2f04	-0.13982779
23	0xbe92d7d0	-0.28680277
24	0xbe537704	-0.2065087
25	0x3e6d2c3d	0.23161407
26	0x3cfe5321	0.031045498
27	0xbe62563a	-0.22103205
28	0xbbef0449	-0.007294212
29	0xbdb6d86d	-0.08927999
30	0x3ec896d4	0.39177573
31	0xbe81faca	-0.2538665
32	0xbd4defc7	-0.050277498
33	0xbe20a931	-0.15689541
34	0xbe21ed15	-0.15813096
35	0x3e1c2802	0.15249637
36	0xbe5ff5e5	-0.21871145
37	0x3eb27bb4	0.34860003
38	0xbe5cce6f	-0.21563123
39	0x3ea1bd9d	0.31589976
40	0xbe4fb851	-0.20285155
41	0xbcb05968	-0.021527007
42	0x3e45ca24	0.19315392
43	0x3e9feb24	0.31234086
44	0x3ead57fe	0.33856195
45	0x3e88a394	0.266873
46	0xbe7ae075	-0.24499686
47	0xbd4fe836	-0.050758563
48	0xbd1c253e	-0.038121454
49	0xbdf559b7	-0.119800024
50	0x3d4c2ef3	0.04984946
51	0x3e3228ec	0.17398423
52	0x3ed042e1	0.40676025
53	0x3ad2c01d	0.0016078983
54	0xbe9b4dc1	-0.3033276
55	0xbe057d38	-0.13036048
56	0x3e8260fa	0.25464612
57	0xbe62d7b2	-0.22152594
58	0xbe9a69ab	-0.30158743
59	0xbec0c2e7	-0.376487
60	0x3e84c3f4	0.2593075
61	0x3e319f8f	0.17346023
62	0xbe1d6288	-0.15369618
63	0x3e791f9e	0.24328467
64	0x3ef4fcae	0.4784903
65	0xbe20b654	-0.15694553
66	0x3cb792a6	0.022408795
67	0xbeac8d46	-0.33701533
68	0x3ec5b234	0.3861252
69	0xbe7e1ebd	-0.24816413
70	0xbe852db0	-0.2601142
71	0xbd738187	-0.0594497
72	0xbe7c5b31	-0.24644162
73	0xbe015c2e	-0.1263282
74	0xbd43dd5d	-0.04781853
75	0xbcde3b5d	-0.027127916
76	0xbda097b2	-0.078414336
77	0xbca1fceb	-0.019773921
78	0xbe9ec45a	-0.3100918
79	0x3dc36559	0.09540815
80	0x3ec29202	0.3800202
81	0x3ebd1db1	0.36936715
82	0x3ed17476	0.40909165
83	0xbedd5282	-0.4322701
84	0xbe6e843f	-0.23292635
85	0x3e2d2fd0	0.1691277
86	0x3ec76727	0.38945886
87	0xbb4a2f02	-0.0030850773
88	0x3ef76ebb	0.48326668
89	0xbe82035a	-0.25393182
90	0xbd03b591	-0.032155577
91	0xbe12033f	-0.14259051
92	0xbe8f636f	-0.2800555
93	0xbdf38485	-0.118905105
94	0xbe6859af	-0.22690462
95	0xbe767097	-0.24066387
96	0xbe7d3254	-0.2472623
97	0xbe3148a5	-0.17312868
98	0xbe7f6523	-0.24940924
99	0xbcb8e1fd	-0.022568697
100	0xbebb7fd2	-0.36620957
101	0xbebda776	-0.37041825
102	0x3e814ca3	0.25253782
103	0xbe681ada	-0.22666493
104	0x3d893be2	0.06700875
105	0xbe9f88f4	-0.31159174
106	0x3e75c82b	0.2400214
107	0x3e6d21cb	0.23157422
108	0x3ea79611	0.3273168
109	0x3e9c06ee	0.30474037
110	0x3e8c38bd	0.27387038
111	0xbd04e3b1	-0.032443706
112	0xbe14059e	-0.14455268
113	0x3ead7958	0.3388164
114	0x3ea18116	0.31543797
115	0x3d37a5ef	0.04483598
116	0xbeb0115d	-0.34388247
117	0x3e48deb4	0.19616205
118	0xbdb5f4c5	-0.08884577
119	0xbe819011	-0.25305226
120	0x3e90fab4	0.2831627
121	0x3eae764e	0.34074634
122	0x3e44d5ac	0.19222134
123	0x3df078ff	0.11741828
124	0xbeb25073	-0.34827003
125	0xbcb89320	-0.022531092
126	0xbe6f3554	-0.23360187
127	0xbd846a46	-0.064655825
128	0xbd26ded5	-0.040739853
129	0x3e97b980	0.29633713
130	0x3d61f851	0.055168454
131	0xbe7768cb	-0.24161069
132	0xbe4ff559	-0.20308436
133	0xbdc37268	-0.09543306
134	0xbe9a61e0	-0.30152798
135	0xbe40f1fa	-0.18842307
136	0xbe370efb	-0.17876808
137	0x3e89f1d9	0.26942328
138	0xbda6db9d	-0.08147357
139	0xbd5b027e	-0.053469174
140	0xbe11f8a1	-0.14255
141	0x3e3a20a3	0.18176512
142	0xbe9e9fff	-0.30981442
143	0xbc47a271	-0.012184725
144	0xbe7d1e09	-0.24718489
145	0xbea2fae4	-0.3183204
146	0x3dfac940	0.12245417
147	0xbecaeb20	-0.3963251
148	0xbe7a5cf3	-0.2444952
149	0x3e7d96a7	0.247645
150	0x3d195c03	0.037441265
151	0x3e24f503	0.1610909
152	0x3ebb3cfe	0.3656997
153	0x3e5a99c6	0.21347722
154	0xbba69413	-0.00508357
155	0x3ec15ab9	0.37764528
156	0xbed42919	-0.41437605
157	0xbd76cbb5	-0.060252864
158	0x3ebdb8bf	0.37055013
159	0x3e746ea5	0.23870333
160	0xbdc87b9b	-0.09789201
161	0x3e8ba014	0.27270567
162	0xbe8fd895	-0.28094926
163	0xbe0260df	-0.12732266
164	0x3e5fb2ec	0.21845597
165	0xbe293bd7	-0.16526733
166	0xbe493352	-0.19648483
167	0x3ebebe13	0.3725439
168	0xbe36174b	-0.17782323
169	0x3e82af18	0.2552421
170	0x3e3c0d4e	0.1836445
171	0xbe9df7b9	-0.3085306
172	0xbe81bd72	-0.25339848
173	0x3e920a1c	0.28523338
174	0xbd4f52da	-0.050616123
175	0xbe23bd72	-0.15990236
176	0xbe96d4cb	-0.29459223
177	0xbea38505	-0.31937423
178	0x3e8c2704	0.27373517
179	0x3ee071f5	0.43836942
180	0xbd79a952	-0.060952492
181	0x3e07199a	0.1319336
182	0xbdbb1eae	-0.09136711
183	0x3e7f2464	0.24916226
184	0x3e82e5b8	0.25565886
185	0x3e2a9428	0.1665808
186	0xbeb5b3ed	-0.35488835
187	0x3e2886e3	0.16457705
188	0x3e791e89	0.24328054
189	0xbe7ba52b	-0.24574725
190	0xbe65b5d3	-0.22432642
191	0x3e954b63	0.29159078
192	0xbc5e354d	-0.013562513
193	0xbd2e0627	-0.042486336
194	0xbd4974f2	-0.049183793
195	0x3e958eb8	0.29210448
196	0x3eb1a64e	0.34697193
197	0x3e512b42	0.20426658
198	0xbec2277a	-0.37920743
199	0x3ede14e2	0.43375307
200	0xbe729053	-0.23687868
201	0x3d8f4224	0.06995037
202	0x3e760182	0.24024013
203	0xbe1640cd	-0.14673157
204	0x3ec7c3cc	0.3901657
205	0xbbe34b88	-0.0069364943
206	0x3e7f6808	0.24942029
207	0xbdc82dab	-0.097743355
208	0xbe6a5a37	-0.22885977
209	0x3ea3ba79	0.31978205
210	0xbe357b63	-0.1772285
211	0x3dcd7bfb	0.10033413
212	0xbeb47b81	-0.35250476
213	0x3e42e1e6	0.19031486
214	0x3ea2b7f0	0.31780958
215	0x3d3294b4	0.043598846
216	0xbea76594	-0.32694685
217	0xbeabbad0	-0.33540964
218	0xbe30de37	-0.17272268
219	0x3e109857	0.14120613
220	0x3e784541	0.24245168
221	0xbdede39e	-0.1161568
222	0xbe252012	-0.16125515
223	0xbe71002b	-0.2353522
224	0xbe154dcf	-0.14580463
225	0xbdfa47f9	-0.12220759
226	0xbdd6e603	-0.1049309
227	0xbe0b89be	-0.13626763
228	0x3de56733	0.11201324
229	0x3e8db6c8	0.27678514
230	0xbe95edcf	-0.29282996
231	0xbe65853a	-0.22414103
232	0x3ec7f458	0.39053607
233	0x3b11008f	0.0022125577
234	0x3e49ceb3	0.19707756
235	0x3e90a510	0.28250933
236	0x3e9c54a8	0.30533338
237	0x3e80abca	0.25131065
238	0x3e8c4f67	0.2740433
239	0xbd43e6c0	-0.047827482
240	0xbe82791a	-0.25483018
241	0x3e634f0d	0.22198124
242	0x3e81e87d	0.25372687
243	0xbbc89a20	-0.0061218888
244	0x3e953a5e	0.29146093
245	0xbed8f93c	-0.4237765
246	0x3e8f3662	0.27971178
247	0xbe5b04c2	-0.21388534
248	0x3e6e21ac	0.23255032
249	0xbe4923ba	-0.19642535
250	0x3d1b3df3	0.037900876
251	0x3dd9b1de	0.106296286
252	0x3ddc4fcd	0.10757408
253	0xbe8074bf	-0.2508907
254	0x3e873053	0.26404056
255	0xbe953bbf	-0.29147145

bias f4 [10]
0	0x3de52868	0.111893475
1	0xbea5b854	-0.32367194
2	0x3eb1961c	0.34684837
3	0x3e9a0c93	0.30087718
4	0xbef2ba2a	-0.47407657
5	0x3f60b5c0	0.8777733
6	0x3e001366	0.125074
7	0xbd70eefa	-0.058821656
8	0xbe9ae3bf	-0.3025188
9	0xbf5f6bc1	-0.87273794
