models/conf_4.pt (torch, 944510 bytes, 6 tensors)

weight f4 [256, 784]
0.0227221 -0.02279247 -0.028774219 0.018289572 -0.00415392 -0.025599653 -0.014905084 -0.0022891741
-0.01058428 -0.038049936 -0.02538811 -0.02303666 0.038685896 0.02016598 0.003709603 0.017044377
0.03384775 0.015294898 -0.030619495 0.00909538 -0.021344215 0.02324523 0.019109774 0.03403755
0.0041026715 -0.02314251 -0.026981782 -0.0005113327 -0.023331678 -0.02820026 -0.020332154 -0.026091455
-0.01759379 -0.007893986 0.022094954 0.02329339 0.0049758386 -0.0027169625 0.012639242 0.00943326
0.033030774 0.021714969 0.013875352 0.013836191 0.0362102 0.02310497 0.0010432841 0.025962474
0.008615573 -0.0059267688 -0.010578445 -0.035285648 0.005345567 0.011977128 -0.016842376 -0.03546888
0.017264817 0.009982089 -0.0037493962 0.010845029 -0.015872385 0.0016956876 0.033003807 -0.0023578187
-0.007922754 -0.001146432 -0.001934982 -0.021114916 -0.013796809 -0.0078027523 -0.01734549 0.033657674
0.03931379 -0.0062854425 -0.021386283 0.013631857 -0.016705133 -0.0076318695 0.023800544 -0.01538369
-0.0075560356 0.004853083 0.02327322 -0.01676379 0.009024233 0.001961297 -0.030501476 -0.010466401
0.019997636 0.024912488 0.0073761162 -0.023742784 -0.014400306 -0.018119052 0.009244865 0.00081482215
0.034655225 -0.01108835 0.035265747 -0.003356702 -0.026887732 -0.013560559 0.017154504 -0.036666937
0.025366267 -0.010260113 0.0024633121 0.034079578 0.0053645046 0.03181571 0.03232628 0.008245321
-0.012958883 -0.015162214 0.016267374 0.029043388 0.02826815 -0.01408548 -0.0029647355 0.021576846
0.00967415 0.034770742 -0.0352045 -0.03480011 0.028346458 0.011579101 0.0012982136 0.02581724
-0.003455836 0.006278704 -0.027495168 -0.022110514 0.013494331 -0.03584217 -0.031321898 0.01179152
-0.02016805 -0.016256308 0.031288926 -0.0012391299 0.018268406 -0.012262711 0.01468146 -0.009817792
0.03267767 0.021077812 0.035449684 -0.0070411596 -0.0028501933 -0.025727917 -0.026730148 0.016955663
-0.030022724 0.010227038 0.010129844 0.03894455 -0.003239387 -0.012707892 -0.020015243 0.034613628
-0.00937931 0.014670886 -0.019915193 0.03633064 0.0135826515 0.02301363 0.017527897 -0.031446315
0.019867275 0.0005120851 0.032233894 -0.02579083 0.03231419 0.018485192 -0.017082086 0.03338237
-0.021837587 0.0041142907 0.028493915 -0.00038531862 -0.03305913 -0.011550994 -0.028316572 -0.020156384
-0.017307043 -0.009088737 -0.03224042 -0.009675849 0.025017012 -0.0027857793 -0.0042375997 0.034754623
-0.023643892 -0.02857214 0.034805693 -0.034217443 -0.01172072 0.02400783 0.015641825 0.023599848
-0.016976593 -0.02115332 0.019091537 0.0050173253 0.037422057 0.026719732 0.04162928 0.03164318
-0.028270448 -0.0043480485 0.030670298 0.02232043 -0.012481298 0.024453927 0.028656386 0.015152843
-0.03224233 -0.0032057492 -0.020241648 0.0464396 0.001261371 0.0408502 -0.016688718 0.033606254
0.012339367 0.029902507 -0.008242801 0.036599085 0.004118949 -8.1584796e-05 0.036842328 0.0019703342
0.019839408 -0.014828287 -0.0056253374 -0.0033533904 0.0294118 0.026192103 0.03453482 0.037896674
0.0289554 0.01373692 -0.019852994 0.02641942 0.03874078 0.024077995 0.022356395 0.03789516
0.005249031 0.013452454 0.029495656 -0.0041359984 -0.014021392 -0.027542567 -0.008078598 0.0057198615
00000000: b323 ba3c 46b7 babc e9b7 ebbc 03d4 953c
00000010: 9b1d 88bb 5db6 d1bc 7434 74bc f805 16bb
00000020: b069 2dbc 40da 1bbd bafa cfbc 61b7 bcbc
00000030: 1a75 1e3d 2033 a53c d01c 733b a6a0 8b3c
00000040: f0a3 0a3d 7497 7a3c bcd5 fabc ca04 153c
00000050: 10da aebc c86c be3c 1a8c 9c3c f56a 0b3d
00000060: b46f 863b 5c95 bdbc e608 ddbc f50a 06ba
00000070: 1322 bfbc 3b04 e7bc 9e8f a6bc bfbd d5bc
00000080: da20 90bc c755 01bc 7a00 b53c c8d1 be3c
00000090: 5c0c a33b 110f 32bb d314 4f3c f68d 1a3c
000000a0: 474b 073d 97e3 b13c 7255 633c 31b1 623c
000000b0: 2651 143d a246 bd3c cebe 883a 41af d43c
000000c0: 5528 0d3c 5735 c2bb 3751 2dbc af87 10bd
000000d0: de29 af3b b73b 443c 06f9 89bc d147 11bd
000000e0: f26e 8d3c ea8b 233c 6eb8 75bb 59af 313c
000000f0: ce06 82bc d641 de3a 002f 073d a285 1abb
00000100: 70ce 01bc e043 96ba 399f fdba 30f9 acbc
00000110: 030c 62bc 3bae ffbb 2118 8ebc a1dc 093d
00000120: 7f07 213d 1df6 cdbb 4932 afbc 2758 5f3c
00000130: 34d9 88bc c314 fabb 5cf9 c23c df0b 7cbc
00000140: 9f98 f7bb 9c06 9f3b 7ba7 be3c 3754 89bc
00000150: 60da 133c 1a89 003b 3bde f9bc 457b 2bbc
00000160: 15d2 a33c 4615 cc3c 59b3 f13b 3a80 c2bc
00000170: 43ef 6bbc 686e 94bc c677 173c ca99 553a
00000180: a3f2 0d3d e9ab 35bc d172 103d 1dfc 5bbb
00000190: a943 dcbc 1b2d 5ebc 9a87 8c3c 1230 16bd
000001a0: ebcc cf3c 081a 28bc 856f 213b 0797 0b3d
000001b0: bac8 af3b 3151 023d 9068 043d 6217 073c
000001c0: 7f51 54bc ef6a 78bc 2843 853c 66ec ed3c
000001d0: 9b92 e73c c9c6 66bc 024c 42bb edc1 b03c
000001e0: 5380 1e3c c46b 0e3d 9832 10bd 8f8a 0ebd
000001f0: d536 e83c 45b6 3d3c d228 aa3a ad7e d33c
00000200: 4f7b 62bb 96bd cd3b 8c3d e1bc 1c21 b5bc
00000210: 5417 5d3c 3dcf 12bd 644b 00bd 3831 413c
00000220: 7737 a5bc f32b 85bc d128 003d 4d6a a2ba
00000230: a0a7 953c 8ae9 48bc 828a 703c ceda 20bc
00000240: 05d9 053d 60ab ac3c b033 113d 87b9 e6bb
00000250: 4fca 3abb 5ac3 d2bc 2ff9 dabc 9ae6 8a3c
00000260: 37f2 f5bc 4e8f 273c a5f7 253c 5284 1f3d
00000270: e54b 54bb c334 50bc 02f7 a3bc 05c7 0d3d
00000280: adab 19bc 285e 703c 3025 a3bc 70cf 143d
00000290: c589 5e3c 1587 bc3c aa96 8f3c dacd 00bd
000002a0: b2c0 a23c 733d 063a b007 043d 4a47 d3bc
000002b0: e25b 043d 426e 973c bbef 8bbc f4bb 083d
000002c0: bde4 b2bc 2cd1 863b 126c e93c 9704 cab9
000002d0: 0369 07bd 6140 3dbc 28f8 e7bc 001f a5bc
000002e0: 80c7 8dbc ede8 14bc 880e 04bd 7487 1ebc
000002f0: 7af0 cc3c 9f91 36bb 90db 8abb dd5a 0e3d
00000300: d6b0 c1bc 1f10 eabc 6a90 0e3d 9727 0cbd
00000310: 4308 40bc 12ac c43c 4923 803c 7854 c13c
00000320: 7f12 8bbc ba49 adbc db65 9c3c 6068 a43b
00000330: df47 193d 57e3 da3c 7783 2a3d 479c 013d
00000340: 6d97 e7bc 137a 8ebb 4740 fb3c 56d9 b63c
00000350: 5c7e 4cbc 9a53 c83c ccc0 ea3c a143 783c
00000360: 8910 04bd 8c17 52bb d0d1 a5bc 7337 3e3d
00000370: 9654 a53a 8a52 273d c7b6 88bc b6a6 093d
00000380: 0e2b 4a3c 1af6 f43c d00c 07bc ece8 153d
00000390: 40f8 863b 8118 abb8 fbe7 163d b920 013b
000003a0: 4186 a23c 58f2 72bc c054 b8bb 8ec4 5bbb
000003b0: 04f1 f03c d290 d63c 6274 0d3d 8b39 1b3d
000003c0: e033 ed3c d210 613c bfa2 a2bc 8a6d d83c
000003d0: a7ae 1e3d 373f c53c c224 b73c f537 1b3d
000003e0: 1000 ac3b ae67 5c3c e0a0 f13c 4587 87bb
000003f0: fbb9 65bc f3a0 e1bc 195c 04bc ad6d bb3b

bias f4 [256]
0.0151696475 0.0045542 0.024995508 -0.0020746053 0.014631311 0.022136437 -0.041487526 -0.023450153
0.023633301 -0.020027028 0.0030940245 -0.012593306 0.032394413 0.0062711337 0.017077042 0.027447259
-0.006642571 -0.023387881 -0.03681969 0.04142617 0.09346836 0.028564487 0.01783403 0.0039831907
0.04123487 0.019283816 -0.018106215 -0.0005825006 -0.018320978 0.0026854938 0.04340662 0.053692225
0.029813556 -0.052970942 0.00957474 0.0062620356 0.0042458833 0.04084803 0.047054064 0.004460815
0.028221905 0.023002034 -0.0060945456 0.014389111 0.0479468 -0.037831932 0.030650059 0.039365128
0.0007252602 0.038747523 0.04926258 0.014526994 -0.021605296 -0.002130777 0.025972938 -0.035896372
-0.03164197 0.0019859066 0.042845994 0.048635803 -0.0022132937 0.009306977 0.047753382 0.023583757
-0.022391327 0.0061638593 0.009079871 0.037709855 0.023047265 0.021710172 0.0017756923 0.023746599
0.033671513 0.034088768 0.06371967 -0.011982587 -0.015308784 0.02361103 0.04054484 -0.015087544
0.04193298 -0.030257415 -0.0062822625 -0.016153416 0.032855723 0.010263587 -0.01670189 0.011108304
0.019328527 0.0320899 0.031371847 -0.014973133 0.023323819 0.015385482 0.02875846 -0.025186954
0.014647117 0.015230114 0.07222021 0.045693416 0.033545103 -0.00046153468 0.042379882 0.038749576
0.025117146 0.05106179 0.035640292 0.0326577 -0.00021663013 0.04968974 0.0073055946 -0.002524006
0.029176299 0.023893492 -0.029365674 0.028416878 0.021212153 0.0060215574 -0.0402161 0.0055226414
0.004397875 -0.05000805 0.014854799 0.03787858 0.026412236 -0.0023441026 -0.002247338 -0.018911209
0.03980661 -0.011823279 -0.028545346 0.014345637 0.008828964 0.05820798 0.044315316 -0.0050212033
-0.027273685 0.0011698334 0.022587845 -0.0143531235 -0.0061338497 0.025100414 -0.005101673 -0.031726528
0.008399568 0.01039583 0.0009025777 -0.003528936 -0.01512088 0.0061158435 0.031160858 -0.020149669
-0.03733199 0.023937592 0.023366516 -0.008355962 -0.016126547 -0.011153522 0.011871773 0.008168823
0.037719395 0.03130324 -0.026431534 -0.026026765 0.002763864 0.02910625 0.019319164 -0.007108402
0.012910764 -0.03802782 -0.02170246 0.051229972 0.039486844 -0.00020366808 -0.035061773 0.021260278
0.038789887 0.019527253 -0.031692542 0.007879752 0.03984558 0.01669092 -0.003892544 0.021380913
0.006357173 -0.020264134 -0.017538683 0.031186135 -0.023496943 -0.028406747 0.009740245 -0.041542277
-0.012138065 0.04112832 0.038093038 -0.02594384 -0.027557326 0.016909016 0.011111943 0.045270007
-0.020274406 0.04660112 0.03186343 0.02348619 0.0036505803 0.0017887648 -0.024341887 -0.02936441
0.05096645 0.0021259384 0.02420235 -0.035972245 0.011352326 0.05621132 0.025974626 0.049931858
0.05967781 0.06345913 -0.0066603594 -0.00886586 -0.0031701901 -0.018024629 0.018815715 -0.013817133
-0.04126922 0.047510613 -0.006397559 0.0068397806 0.012069446 0.015162826 0.013795178 0.034523636
0.0034597397 0.042101517 -0.019069163 -0.022022882 0.0015380237 -0.025948195 -0.03537914 -0.034122247
0.05140264 0.00018614969 1.4596335e-05 -0.027701057 0.06735131 0.02064378 -0.0082566105 -0.009883341
-0.029349262 -0.030271757 0.017487261 -0.015262905 -0.01389944 0.010263933 0.009364326 0.03765074
00000000: 1d8a 783c 663b 953b 61c3 cc3c 1af6 07bb
00000010: 2bb8 6f3c 7957 b53c d3ee 29bd 891a c0bc
00000020: a09a c13c b90f a4bc 1ec5 4a3b 2754 4ebc
00000030: 01b0 043d 157e cd3b 27e5 8b3c 13d9 e03c
00000040: eda9 d9bb f197 bfbc 3ed0 16bd 7dae 293d
00000050: 576c bf3d 1200 ea3c ac18 923c 6d85 823b
00000060: e5e5 283d 18f9 9d3c 7c53 94bc f4b2 18ba
00000070: e015 96bc 1cff 2f3b 24cb 313d 61ec 5b3d
00000080: 8f3b f43c 0ff8 58bd 5fdf 1c3c c331 cd3b
00000090: 0d21 8b3b 4450 273d c3bb 403d 072c 923b
000000a0: a031 e73c c36e bc3c c1b4 c7bb 4ec0 6b3c
000000b0: dd63 443d a8f5 1abd d515 fb3c 543d 213d
000000c0: 631f 3e3a b9b5 1e3d 8fc7 493d a102 6e3c
000000d0: 97fd b0bc 82a4 0bbb 33c5 d43c 1308 13bd
000000e0: 039b 01bd fc25 023b 487f 2f3d 5636 473d
000000f0: e80c 11bb 4a7c 183c 0d99 433d b932 c13c
00000100: 046e b7bc 33fa c93b bdc3 143c a675 1a3d
00000110: 9ecd bc3c 88d9 b13c 59be e83a 3a88 c23c
00000120: 24eb 093d aaa0 0b3d 757f 823d 9d52 44bc
00000130: b2d1 7abc eb6b c13c 5912 263d bf31 77bc
00000140: ebc1 2b3d 66de f7bc 70db cdbb 2b54 84bc
00000150: b993 063d 9b28 283c 67d2 88bc 9bff 353c
00000160: dc56 9e3c b370 033d c47f 003d df51 75bc
00000170: 9811 bf3c 6413 7c3c dd96 eb3c df54 cebc
00000180: 76fa 6f3c ba87 793c 31e8 933d 0529 3b3d
00000190: 9766 093d 23fa f1b9 8796 2d3d e0b7 1e3d
000001a0: 79c2 cd3c 2b26 513d 8efb 113d 15c4 053d
000001b0: 3527 63b9 7887 4b3d c563 ef3b cb69 25bb
000001c0: 2203 ef3c 49bc c33c 4890 f0bc 83ca e83c
000001d0: 1cc5 ad3c 7c50 c53b a3b9 24bd 46f7 b43b
000001e0: 0d1c 903b 3ed5 4cbd 8b61 733c 9226 1b3d
000001f0: 795e d83c 849f 19bb 1348 13bb aeeb 9abc
00000200: 420c 233d 6db6 41bc eed7 e9bc f609 6b3c
00000210: 5ca7 103c 7e6b 6e3d fa83 353d e888 a4bb
00000220: 106d dfbc 1855 993a 250a b93c 5d29 6bbc
00000230: 76fe c8bb 629f cd3c ef2b a7bb adf3 01bd
00000240: 579e 093c 4553 2a3c f79a 6c3a b945 67bb
00000250: 91bd 77bc 6a67 c83b 0e45 ff3c eb10 a5bc
00000260: 6ee9 18bd c518 c43c 236b bf3c 72e7 08bc
00000270: d21b 84bc 43bd 36bc d381 423c 87d6 053c
00000280: a77f 1a3d d437 003d f286 d8bc 1536 d5bc
00000290: f121 353b 3b70 ee3c 3943 9e3c 99ed e8bb
000002a0: ab87 533c 0fc3 1bbd 5bc9 b1bc 85d6 513d
000002b0: f5bc 213d bc8f 55b9 ef9c 0fbd 092a ae3c
000002c0: 25e2 1e3d 9ef7 9f3c 0ad0 01bd 131a 013c
000002d0: 1e35 233d 65bb 883c 0d1a 7fbb 0627 af3c
000002e0: d54f d03b f800 a6bc 49ad 8fbc 117a ff3c
000002f0: a97c c0bc 44b5 e8bc 8c95 1f3c 3c28 2abd
00000300: bcde 46bc 2b76 283d 7207 1c3d 2d88 d4bc
00000310: e7bf e1bc c784 8a3c de0e 363c 0b6d 393d
00000320: 8316 a6bc d1e0 3e3d 3a83 023d 1c66 c03c
00000330: 933e 6f3b fd74 ea3a a368 c7bc a28d f0bc
00000340: 32c2 503d 5453 0b3b 0244 c63c a257 13bd
00000350: 1bff 393c d73d 663d bdc8 d43c 5985 4c3d
00000360: b870 743d dcf6 813d 253f dabb 1d42 11bc
00000370: f7c2 4fbb 63a8 93bc 6a23 9a3c 4261 62bc
00000380: ea09 29bd 7d9a 423d 9da2 d1bb 3d20 e03b
00000390: edbe 453c 806d 783c 2c05 623c a868 0d3d
000003a0: cdbc 623b a472 2c3d ef36 9cbc 5569 b4bc
000003b0: 8397 c93a 4f91 d4bc b8e9 10bd c5c3 0bbd
000003c0: 938b 523d 2d31 4339 c8e2 7437 54ed e2bc
000003d0: 7cef 893d 251d a93c bc46 07bc bded 21bc
000003e0: dd6d f0bc 7afc f7bc 7241 8f3c 4311 7abc
000003f0: 7aba 63bc 0e2a 283c d46c 193c aa37 1a3d

weight f4 [128, 256]
0.06668561 -0.016261889 -0.008002682 -0.049577292 0.07953028 0.0006020371 0.07525657 -0.026847867
0.065983936 0.0024734512 -0.041775025 -0.04720868 -0.025497362 -0.060009394 -0.017711889 0.029876135
0.049368665 -0.031326298 -0.011439833 -0.019662233 -0.062464155 -0.022495296 -0.06191722 0.012739946
0.0539345 -0.04481057 -0.02993119 0.10908477 0.01964728 0.017124765 -0.056379937 0.003574263
0.05197412 -0.013703527 -0.013650972 0.058352567 -0.024459789 -0.05979585 -0.0677455 0.010009117
-0.028320592 -0.028392294 -0.014588144 0.03868071 0.052313536 0.048262857 0.046997454 0.015633792
0.025008785 0.052552372 0.06660723 -0.042719167 -0.0472084 0.055688556 -0.044023886 -0.06020735
0.07318018 0.047707576 -0.017191708 -0.0143660335 0.07954486 0.06304195 0.03539648 0.012953233
-0.022831239 -0.041635115 0.02448101 -0.05317288 -0.012893293 0.06748733 0.03305079 0.045296375
0.052113947 0.04215824 0.0077989474 0.051287934 0.0477823 0.04858716 -0.03565695 -0.009247844
-0.008964984 -0.003028272 -0.05804093 0.018786114 0.017393434 0.03923174 -0.048052955 0.021458782
-0.0020562778 0.03372873 0.011241281 -0.004417824 0.03440343 0.01853989 -0.015358848 0.09631966
-0.049427204 -0.03950818 -0.047555145 -0.05645033 -0.02392064 0.03424718 -0.045973726 -0.0322628
-0.0110168075 0.009888355 -0.025085922 -0.0032849177 -0.029485518 -0.030163636 0.06083834 -0.04725221
0.018391257 -0.032493897 0.05277321 0.059414063 0.024083026 0.031054718 0.041835286 0.04869008
-0.048501976 0.053928345 0.028785544 -0.040947374 0.046351608 0.029865569 0.0480263 0.03782963
-0.058390755 0.058488205 0.086283624 0.060607553 0.075063586 0.007867227 0.04681735 0.058201358
0.076533325 0.008730704 -0.008616207 -0.030479867 0.037350003 0.020729136 -0.043244004 0.051038124
0.047392033 0.0412449 -0.022940217 0.012432044 0.0011178972 0.030878833 0.03714475 0.0016781992
0.010006192 -0.016425809 -0.049220324 0.01851027 0.052348487 0.07345834 0.07437424 -0.03025782
0.036201205 -0.011410355 0.07343861 0.023612348 0.06290357 -0.014517899 -0.05109048 0.027929723
0.03464583 0.0026952873 0.08107605 0.040011834 0.009090024 0.026764242 0.06280249 -0.049892645
0.003988387 -0.047122665 0.011653168 0.01705804 0.091189444 0.044779815 0.01858478 -0.02645385
-0.014667837 -0.04462481 0.01853975 0.055457834 0.059708446 0.07122136 0.045196757 0.011684969
-0.009920175 -0.026981127 0.041276105 0.025131073 0.045589216 -0.05241253 0.0026547331 0.00223152
-0.05673135 -0.044387843 -0.0030887637 0.061178405 -0.035279427 -0.037898324 -0.040850434 0.015164239
0.07484453 -0.010425652 0.02720293 0.035578877 -0.040488437 0.0002728237 0.0017914004 0.031460874
0.03541229 -0.04707699 0.0059573296 0.081142195 -0.0016000266 0.031055762 -0.046649817 -0.007981223
0.07966446 -0.03685889 0.035843614 0.042964417 0.037344895 -0.02428185 0.06478694 0.040306587
0.047856446 -0.03528885 0.010955752 0.076813854 0.007892294 0.015222728 -0.025666015 -0.018390087
0.010856599 -0.0066315187 0.08247803 0.024141906 0.02271497 0.053193104 0.07996532 0.03592623
0.04316493 -0.05017678 -0.027470563 0.025943713 -0.003432131 -0.05558649 -0.020055078 0.065621264
00000000: 7792 883d a737 85bc ae1d 03bc 8f11 4bbd
00000010: c5e0 a23d 07d2 1d3a 1e20 9a3d 0ff0 dbbc
00000020: 9622 873d a019 223b 4a1c 2bbd e45d 41bd
00000030: d8df d0bc 69cc 75bd 8618 91bc ccbe f43c
00000040: cc36 4a3d 0150 00bd 236e 3bbc b112 a1bc
00000050: 6ada 7fbd 0e48 b8bc e99c 7dbd 35bb 503c
00000060: 6cea 5c3d 4a8b 37bd 4132 f5bc d667 df3d
00000070: 55f3 a03c 3c49 8c3c a6ee 66bd 2f3e 6a3b
00000080: d1e2 543d c284 60bc 54a8 5fbc 1a03 6f3d
00000090: e55f c8bc 7eec 74bd 27be 8abd 48fd 233c
000000a0: 9600 e8bc f596 e8bc 1c03 6fbc aa6f 1e3d
000000b0: b846 563d 46af 453d 6780 403d 7012 803c
000000c0: 39df cc3c 2841 573d 5f69 883d 4bfa 2ebd
000000d0: 985d 41bd af19 643d 6452 34bd fb9b 76bd
000000e0: 7ddf 953d 0569 433d a0d5 8cbc 835f 6bbc
000000f0: 6ae8 a23d 231c 813d e6fb 103d cc39 543c
00000100: 9408 bbbc 9589 2abd 668c c83c cecb 59bd
00000110: 643e 53bc cc36 8a3d 4460 073d b188 393d
00000120: 6f75 553d 1eae 2c3d 508e ff3b 4c13 523d
00000130: 5fb7 433d 5403 473d 060d 12bd 4584 17bc
00000140: dee1 12bc f975 46bb 54bc 6dbd 56e5 993c
00000150: ad7c 8e3c 76b1 203d 2dd3 44bd 54ca af3c
00000160: 9ec2 06bb 2327 0a3d 5a2d 383c 65c3 90bb
00000170: 9cea 0c3d f8e0 973c ada3 7bbc 3e43 c53d
00000180: 2e74 4abd 54d3 21bd 2fc9 42bd 7638 67bd
00000190: 38f5 c3bc c546 0c3d f24e 3cbd ff25 04bd
000001a0: d77f 34bc c402 223c fe80 cdbc c647 57bb
000001b0: 9d8b f1bc bb19 f7bc a031 793d 898b 41bd
000001c0: 43a9 963c 5218 05bd b928 583d 295c 733d
000001d0: c449 c53c 7766 fe3c 7a5b 2b3d 406f 473d
000001e0: 02aa 46bd f8e3 5c3d a9cf eb3c 6fb8 27bd
000001f0: 2fdb 3d3d a3a8 f43c 3ab7 443d 3ef3 1a3d
00000200: 252b 6fbd 5491 6f3d 78b5 b03d a03f 783d
00000210: f0ba 993d 8be5 003c 8dc3 3f3d 8c64 6e3d
00000220: 81bd 9c3d 3a0b 0f3c fe2a 0dbc eab0 f9bc
00000230: 51fc 183d 26d0 a93c a020 31bd 5a0d 513d
00000240: 261e 423d 6af0 283d 1fed bbbc c6af 4b3c
00000250: 6886 923a 9bf5 fc3c 1825 183d 05f7 db3a
00000260: 03f1 233c 6b8f 86bc 409b 49bd daa2 973c
00000270: 5e6b 563d 5371 963d 8651 983d 3fdf f7bc
00000280: b747 143d 7ff2 3abc fb66 963d af6e c13c
00000290: 96d3 803d 7bdc 6dbc 4044 51bd e0cc e43c
000002a0: c9e8 0d3d 6ba3 303b 330b a63d 73e3 233d
000002b0: 53ee 143c af40 db3c 989e 803d 3b5c 4cbd
000002c0: 04b1 823b b203 41bd eeec 3e3c 4dbd 8b3c
000002d0: 88c1 ba3d 0a6b 373d 1c3f 983c bfb5 d8bc
000002e0: 5e51 70bc 81c8 36bd ace0 973c c127 633d
000002f0: d890 743d 81dc 913d 3c20 393d 5072 3f3c
00000300: 3b88 22bc 8607 ddbc 2211 293d aedf cd3c
00000310: c2bb 3a3d 85ae 56bd 08fb 2d3b b13e 123b
00000320: 225f 68bd 07d0 35bd db6c 4abb 3596 7a3d
00000330: 2981 10bd 463b 1bbd c952 27bd 6e73 783c
00000340: 1748 993d 5bd0 2abc aed8 de3c 28bb 113d
00000350: 34d7 25bd c709 8f39 6ccd ea3a 1edd 003d
00000360: 7a0c 113d cdd3 40bd b435 c33b e12d a63d
00000370: fcb7 d1ba a768 fe3c e113 3fbd adc3 02bc
00000380: 1f27 a33d 59f9 16bd c1d0 123d 75fb 2f3d
00000390: f6f6 183d bbea c6bc 04af 843d 8518 253d
000003a0: 1f05 443d 0b8b 10bd c17f 333c 9550 9d3d
000003b0: ae4e 013c c068 793c 8941 d2bc cfa6 96bc
000003c0: e0df 313c 364d d9bb 3eea a83d 3fc5 c53c
000003d0: bf14 ba3c 03e1 593d dcc4 a33d 6227 133d
000003e0: b6cd 303d 2b86 4dbd f209 e1bc e987 d43c
000003f0: 9aed 60bb a9ae 63bd 8c4a a4bc 7164 863d

bias f4 [128]
-0.09537611 0.118638694 0.09296277 0.029974371 -0.042525787 -0.030814495 0.082204066 -0.0004933778
0.00927832 0.0035649836 -0.027030287 -0.019302545 -0.047607906 -0.024339752 0.091904566 -0.000314494
0.06846259 -0.05636393 0.00723525 0.10625035 -0.060514946 0.16904 -0.122544415 -0.018457504
0.099542 0.07382131 -0.0572627 0.06845778 0.028432867 -0.05608233 -0.018019453 -0.0025441234
0.055326726 -0.04028678 0.012474181 0.14126293 0.025874661 0.15732689 0.0036731744 0.098049864
0.01902947 0.09254507 0.0919635 0.15335284 0.015178753 -0.043632068 -0.06605653 -0.06334099
0.027345058 -0.06795269 -0.05018361 0.03169625 -0.004483584 0.051269345 0.040933643 0.0006198707
0.02870564 0.00587176 -0.0032025347 -0.04293414 0.017191105 -0.098572925 0.08252997 -0.02183361
0.027099164 0.019329466 0.07224765 0.022012452 -0.039104253 0.08434044 -0.03948016 0.002076817
0.0015731152 -0.027290517 0.10357978 0.08186586 -0.032774534 -0.029039973 0.03625084 0.00047038798
-0.043666877 -0.1115072 0.030883567 0.11863571 0.049634267 -0.02586627 0.028921599 -0.10011558
-0.00040984995 0.05774133 -0.044395104 0.13862537 -0.0053431126 -0.015105481 0.061082143 -0.03861863
0.025867507 0.082985125 -0.03519225 -0.055402435 0.009719059 0.002087295 -0.016774798 0.18651147
0.13809657 -0.056016963 0.10183615 -0.009576708 -0.019158328 -0.034642007 -0.115690574 0.027972769
0.010598112 -0.022030104 -0.037237924 0.17516157 0.053578254 -0.01642282 -0.027636204 -0.02243338
0.08933813 0.04794073 0.03433918 0.039919976 0.08927055 -0.04101194 0.018112248 0.032125816
00000000: 8d54 c3bd d8f8 f23d 4463 be3d d08c f53c
00000010: 852f 2ebd ae6e fcbc 9b5a a83d 0656 01ba
00000020: 1804 183c 80a2 693b 9f6e ddbc 5f20 9ebc
00000030: 8200 43bd 2964 c7bc 7638 bc3d ace2 a4b9
00000040: 1d36 8c3d dddd 66bd ad15 ed3b c999 d93d
00000050: 85de 77bd d218 2d3e 91f8 fabd 3134 97bc
00000060: addc cb3d a12f 973d 4b8c 6abd 9833 8c3d
00000070: 0bec e83c 96b6 65bd 889d 93bc 4fbb 26bb
00000080: 479e 623d c003 25bd 8260 4c3c 3ba7 103e
00000090: 19f7 d33c 4d1a 213e a4b9 703b 5ece c83d
000000a0: b1e3 9b3c 4588 bd3d 5c57 bc3d 8708 1d3e
000000b0: 4eb0 783c 8ab7 32bd a548 87bd ecb8 81bd
000000c0: be02 e03c c82a 8bbd 548d 4dbd edd3 013d
000000d0: 07eb 92bb ceff 513d 09aa 273d d27e 223a
000000e0: 1728 eb3c e567 c03b 9ee1 51bb b5db 2fbd
000000f0: 5cd4 8c3c 9ae0 c9bd 7905 a93d 66dc b2bc
00000100: 11ff dd3c d458 9e3c 93f6 933d 7553 b43c
00000110: c82b 20bd aeba ac3d f3b5 21bd 351b 083b
00000120: fd30 ce3a 5d90 dfbc a321 d43d 4aa9 a73d
00000130: 973e 06bd 3de5 edbc c37b 143d 689e f639
00000140: 0adc 32bd e35d e4bd 89ff fc3c 47f7 f23d
00000150: 4d4d 4b3d 80e5 d3bc fdec ec3c 6609 cdbd
00000160: 21e1 d6b9 2c82 6c3d a4d7 35bd cff3 0d3e
00000170: 4715 afbb fb7c 77bc 4531 7a3d 922e 1ebd
00000180: 18e8 d33c 1bf4 a93d c025 10bd aaed 62bd
00000190: b03c 1f3c 00cb 083b 4d6b 89bc ddfc 3e3e
000001a0: 3069 0d3e 0b72 65bd 798f d03d a0e7 1cbc
000001b0: edf1 9cbc c7e4 0dbd 2eef ecbd 2627 e53c
000001c0: b4a3 2d3c 7a78 b4bc cb86 18bd 8e5d 333e
000001d0: df74 5b3d 2689 86bc 5265 e2bc 35c6 b7bc
000001e0: e9f6 b63d 805d 443d 3da7 0c3d 2183 233d
000001f0: 7ad3 b63d 23fc 27bd 2360 943c 5c96 033d

weight f4 [10, 128]
0.10083808 -0.15705247 0.09701875 -0.06416747 -0.13621 0.16672646 0.14300068 0.14883688
0.033395886 -0.028008912 -0.017775718 0.13274808 0.022357905 -0.14532942 -0.12348259 -0.0755824
0.12959605 0.17088054 0.0951639 0.14371802 -0.0028668325 0.1568504 -0.17709252 -0.0444902
0.15095165 -0.08112897 -0.08622165 -0.14455387 0.15121117 0.06333628 0.073358975 0.14506368
-0.06818145 -0.065424286 0.10818736 -0.052322876 -0.08847128 0.0032630737 0.07943505 -0.04573154
0.12479084 -0.14634322 0.18048391 0.03277804 0.022233738 -0.1525572 0.03874743 0.015071804
0.16848299 -0.040981397 -0.046951417 0.025145847 -0.095831394 -0.056266308 -0.05595592 0.022370934
0.17005455 -0.008224969 -0.059456773 -0.045967706 -0.0325314 0.10554913 0.1362492 -0.072487846
-0.04776008 -0.042764414 -0.13268666 -0.11116141 -0.034323245 0.122994795 0.016618783 0.0031401608
0.020767434 -0.057652835 0.1374638 -0.11486556 -0.08066405 0.07807349 0.090661556 0.015450342
0.028751727 -0.10557217 -0.085755885 -0.042022567 0.16839653 -0.18512169 -0.11151475 0.059241176
0.1379315 0.01967173 -0.013276262 -0.03241393 0.06348335 -0.028304998 0.1669881 -0.06434457
0.049049705 0.15231755 0.0040997136 0.053373925 0.05310498 0.041909553 -0.1445805 -0.1959733
0.02871439 -0.024036668 -0.14222813 -0.07883348 -0.01586048 -0.13915381 -3.0374833e-05 -0.083533436
-0.03301194 -0.12403171 0.018794648 -0.0841163 -0.04334664 -0.17910817 -0.05289381 0.05475735
0.06944628 -0.05427898 -0.07904625 0.14052936 -0.047948524 0.07749489 -0.21244116 0.20191741
0.11351793 -0.062090497 0.06509179 -0.020369582 0.011183591 -0.03259787 0.16992407 0.077906825
0.19388978 -0.035708666 0.01007279 -0.0022898614 -0.2516985 -0.17700042 0.21792524 -0.072667405
-0.25692 -0.19755757 0.050700184 -0.15693606 0.021009825 -0.04877793 0.13041984 0.12060991
0.11762417 0.11621617 -0.010050798 0.09910847 0.2367208 -0.004793531 -0.042719934 -0.033451557
-0.14628124 0.055798523 -0.17089416 -0.0974435 0.16271 -0.16172314 -0.28928557 -0.14110926
0.15936369 -0.18736385 0.12806645 -0.0879347 0.07052835 0.15158916 0.085099295 0.0885659
0.053500567 -0.14178921 0.0065444005 0.07664562 -0.046076424 0.2613631 -0.16287735 0.23656656
-0.039825223 -0.021233408 -0.04797949 -0.015547827 0.040614396 -0.15830675 -0.09948386 0.08353787
0.10083827 -0.115287684 0.09558143 0.20628388 -0.009216671 0.2207968 0.008407489 0.15911949
-0.03654371 -0.021555733 0.14676255 -0.022081334 -0.15939747 -0.10212798 0.042114366 -0.13547686
0.00993634 0.08941861 -0.037634104 -0.15263362 -0.16863143 0.010852496 -0.02300341 -0.123804875
-0.006703885 0.26067057 -0.06495083 0.02042337 0.10975804 -0.10795476 0.19768034 -0.03481557
-0.0022118413 -0.089678764 0.058685686 0.04441817 -0.05021408 -0.09982138 0.010854177 0.13123113
-0.0743194 -0.11388838 -0.088095285 0.19437179 0.033632178 0.17625332 -0.12938535 -0.062501
-0.17074914 0.2568233 0.036694393 -0.051931 -0.057822432 -0.12041909 -0.025721423 0.22335419
0.08610372 -0.035288855 0.0076637077 0.10565942 -0.14756168 -0.013869405 -0.15308148 0.008708376
00000000: 3284 ce3d 5dd2 20be c4b1 c63d 3c6a 83bd
00000010: a27a 0bbe 57ba 2a3e c56e 123e b268 183e
00000020: 20ca 083d f272 e5bc 629e 91bc 1def 073e
00000030: ed27 b73c 3cd1 14be 71e4 fcbd f2ca 9abd
00000040: d4b4 043e 4ffb 2e3e 4ae5 c23d d12a 133e
00000050: 78e1 3bbb 649d 203e be57 35be 5b3b 36bd
00000060: 1293 1a3e f226 a6bd fa94 b0bd ee05 14be
00000070: 1ad7 1a3e 74b6 813d 3b3d 963d 938b 143e
00000080: b7a2 8bbd 2bfd 85bd 5691 dd3d 8350 56bd
00000090: 6e30 b5bd 4bd9 553b d8ae a23d ff50 3bbd
000000a0: 5792 ff3d ffda 15be c6d0 383e 4442 063d
000000b0: 8723 b63c f437 1cbe a0b5 1e3d baef 763c
000000c0: ce86 2c3e 1cdc 27bd 2150 40bd aafe cd3c
000000d0: 4043 c4bd 8077 66bd 0932 65bd 4043 b73c
000000e0: c822 2e3e 05c2 06bc f288 73bd a248 3cbd
000000f0: a53f 05bd 242a d83d e984 0b3e 8274 94bd
00000100: 13a0 43bd bd29 2fbd 03df 07be 98a8 e3bd
00000110: 8896 0cbd b2e4 fb3d 1d24 883c 28cb 4d3b
00000120: 7720 aa3c 6125 6cbd 4fc3 0c3e a23e ebbd
00000130: 3233 a5bd fee4 9f3d c4ac b93d 6e23 7d3c
00000140: be88 eb3c 3936 d8bd c8a0 afbd db1f 2cbd
00000150: 2470 2c3e 8a90 3dbe d861 e4bd e0a6 723d
00000160: ea3d 0d3e 9c26 a13c ae84 59bc 78c4 04bd
00000170: 8f03 823d e2df e7bc eefe 2a3e 16c7 83bd
00000180: 58e8 483d 22f9 1b3e e456 863b 9e9e 5a3d
00000190: 9c84 593d 5aa9 2b3d e90c 14be 3aad 48be
000001a0: 713a eb3c 8ce8 c4bc 40a4 11be 7373 a1bd
000001b0: d6ed 81bc 567e 0ebe 75cd feb7 9413 abbd
000001c0: 8737 07bd 5604 febd 3cf7 993c 2b45 acbd
000001d0: 3f8c 31bd 2268 37be 2ea7 58bd 3e49 603d
000001e0: da39 8e3d a353 5ebd 00e3 a1bd eee6 0f3e
000001f0: ac65 44bd a4b5 9e3d 2d8a 59be 70c3 4e3e
00000200: 177c e83d 9b52 7ebd d84e 853d 1cde a6bc
00000210: 613b 373c 5885 05bd 9300 2e3e 9d8d 9f3d
00000220: 0b8b 463e 4043 12bd 5808 253c 8011 16bb
00000230: a0de 80be 993f 35be cb27 5f3e a6d2 94bd
00000240: 058b 83be 884c 4abe ffaa 4f3d d9b3 20be
00000250: cc1c ac3c 5ecb 47bd c78c 053e 5402 f73d
00000260: f1e4 f03d be02 ee3d 1aac 24bc 62f9 ca3d
00000270: f066 723e 0d13 9dbb 19fb 2ebd 8004 09bd
00000280: c0ca 15be fe8c 643d e1fe 2ebe 7590 c7bd
00000290: 739d 263e c09a 25be 3d1d 94be f27e 10be
000002a0: 3c30 233e 4fdc 3fbe da23 033e 1c17 b4bd
000002b0: 2b71 903d 303a 1b3e 8a48 ae3d 0a62 b53d
000002c0: 6923 5b3d 3131 11be 6972 d63b 61f8 9c3d
000002d0: a2ba 3cbd 62d1 853e 52c9 26be 813e 723e
000002e0: c61f 23bd aff1 adbc 2486 44bd 50bc 7ebc
000002f0: 485b 263d 2a1b 22be 32be cbbd e715 ab3d
00000300: 4b84 ce3d f31b ecbd 32c0 c33d 153c 533e
00000310: 8501 17bc 8e18 623e 91bf 093c 38f0 223e
00000320: dbae 15bd a695 b0bc ec48 163e eae3 b4bc
00000330: 1739 23be 7928 d1bd 1d80 2c3d 72ba 0abe
00000340: 08cc 223c 1b21 b73d 3826 1abd fd4b 1cbe
00000350: b8ad 2cbe abce 313c a671 bcbc 698d fdbd
00000360: 43ac dbbb 9d76 853e f104 85bd e94e a73c
00000370: d3c8 e03d 6317 ddbd b76c 4a3e c59a 0ebd
00000380: 8af4 10bb 80a9 b7bd 6760 703d d4ef 353d
00000390: 47ad 4dbd 276f ccbd b8d5 313c 7461 063e
000003a0: c534 98bd 503e e9bd 4d6b b4bd 6609 473e
000003b0: e5c1 093d c07b 343e 987d 04be 8600 80bd
000003c0: ddd8 2ebe 587e 833e dc4c 163d 9ab5 54bd
000003d0: 37d7 6cbd 499e f6bd bcb5 d2bc f6b6 643e
000003e0: 2657 b03d 0c8b 10bd d71f fb3b f763 d83d
000003f0: 691a 17be 803c 63bc 64c1 1cbe 94ad 0e3c

bias f4 [10]
0.07631154 -0.0053370167 -0.036776442 -0.038459722 -0.27664864 0.78499794 0.1335549 -0.054048404
-0.1700126 -0.35673726
00000000: 3a49 9c3d 24e2 aebb e5a2 16bd f187 1dbd
00000010: e4a4 8dbe a0f5 483f 9ec2 083e dc61 5dbd
00000020: c817 2ebe 44a6 b6be
