models/conf_3.pt (torch, 441470 bytes, 6 tensors)

weight f4 [128, 784]
000000 03 6f c2 bc 6d 2b f9 bc 37 d5 e4 3c ae 31 1a bd
       -0.023734575 -0.030416215 0.0279337 -0.037645034
000010 c7 63 00 bc b6 3a fa bc 88 34 d3 3c e8 f4 eb 3c
       -0.007836289 -0.030545574 0.025781885 0.028803304
000020 ad 53 9b 3d 8d 78 e7 bc 3c 86 ba 3d d6 c6 8a 3c
       0.07584319 -0.028255725 0.091076344 0.016940515
000030 40 01 66 be ba 3a 50 3e 03 80 3a 3e 0a 14 1c bb
       -0.22461414 0.20334902 0.18212895 -0.0023815655
000040 85 08 d8 bc 0c db b4 bd d1 87 10 3e 58 69 46 3e
       -0.02637125 -0.088308424 0.1411431 0.19376123
000050 77 4a 9d 3d 86 06 89 3d b1 07 85 3d 49 86 0b bd
       0.07680219 0.06690697 0.06495608 -0.03406361
000060 1f 69 35 3b da 32 b3 3b a8 cd 40 3c 2d b7 ce 3c
       0.0027681065 0.0054687085 0.011767782 0.02523383
000070 05 38 04 bd 4d 1b c1 bc 32 69 1a bd c6 9a 85 bb
       -0.032279987 -0.023572588 -0.03769798 -0.0040772883
000080 d2 86 49 3c c8 b2 f4 bc 12 aa 31 bd 84 62 b1 bd
       0.01230021 -0.029870406 -0.043375082 -0.086613685
000090 3c b2 23 be 4d 76 40 3c 81 77 7a 3d 76 08 7b 3d
       -0.1598596 0.011746955 0.061149124 0.061287366
0000a0 25 20 58 3d 7d cc 6c 3b b9 d6 23 bd dd f2 36 3d
       0.05276503 0.0036132627 -0.039999697 0.044665206
0000b0 ed 8e 26 3a 8b 88 3c 3c cd 81 e4 bc 27 0a 01 bc
       0.0006353695 0.011507164 -0.027893925 -0.007875956
0000c0 fe cc 6c bd 0a 9b ae bd cf 57 29 3c 0e 84 4c bd
       -0.057812683 -0.08525665 0.010335877 -0.049930625
0000d0 a0 97 51 3c de 59 40 bc 08 05 83 bc db 34 01 bd
       0.012792498 -0.011740176 -0.01599361 -0.031544548
0000e0 b9 ad 07 3c fa ce bc 3c b3 ba 1c bd 1a c0 3f bc
       0.008281165 0.023047913 -0.038263988 -0.011703515
0000f0 8d 59 38 3c bb 37 e8 bc 68 e4 02 be ca 5b 98 bd
       0.011251819 -0.028346887 -0.12782443 -0.074393824
000100 d4 f8 0e be 97 e5 f5 bc 1e d6 fb bc 62 ef 29 3d
       -0.13962108 -0.030016704 -0.030741747 0.04148806
000110 f3 74 4e bd 87 f6 2a 3d 34 52 e6 3d 0c f7 8b bc
       -0.0504045 0.041739013 0.11246148 -0.017085575
000120 81 85 fd bd d2 36 65 3d 39 1a 10 bd 1e 47 2b ba
       -0.123789795 0.055960484 -0.035181258 -0.00065337296
000130 0a ac 27 3d c3 f6 04 be c7 00 9f bd 33 24 cf bc
       0.040935554 -0.12984757 -0.0776382 -0.025285816
000140 88 77 19 3b 4a 78 4d bc 2c 76 83 3c 8c a4 82 bb
       0.0023417193 -0.012540886 0.01604756 -0.0039869007
000150 fa 42 70 3c 8a 5f d5 3c 0c c5 00 bc c6 4a b8 ba
       0.014664406 0.026046533 -0.00785948 -0.001406037
000160 04 52 65 bd 2e ff a3 bd 54 c9 d8 bd d2 91 02 be
       -0.05598642 -0.08007656 -0.10585275 -0.12750939
000170 1e ae cd bd df f9 1a 3e 53 bc 88 3d a4 ba 1b bd
       -0.10042976 0.15134381 0.06676545 -0.03801979
000180 f9 90 07 3d a3 30 b9 3d 2d bc 8b 3b 19 57 2b 3e
       0.03309724 0.0904248 0.0042643757 0.16732444
000190 a5 b2 8b bc fe 2d a2 3c 51 80 97 3d 59 87 25 3d
       -0.017052958 0.019797321 0.07397521 0.04041228
0001a0 c5 1c 2f 3d f0 7f 93 bd c9 ab 35 bd 6a 6f 6c bc
       0.042752046 -0.072021365 -0.04435328 -0.01443086
0001b0 9c fe 26 3d 8e f2 c0 3b 91 65 c1 3b 18 97 ef bc
       0.04077016 0.00588829 0.0059020002 -0.029246852
0001c0 a8 5d dd bc 47 88 bc bb d3 c6 9f 3c 09 69 27 bd
       -0.027022198 -0.00575355 0.019503986 -0.040871654
0001d0 b4 05 18 bd 20 da d7 bd ad 5c 42 bd dc 0f 0f bd
       -0.037114814 -0.10539651 -0.047451664 -0.034927234
0001e0 20 97 83 bd b4 4b 46 bd 3b 6e 89 bc 63 58 10 bd
       -0.06425309 -0.04841204 -0.016776195 -0.035240542
0001f0 6a 44 a0 bc 83 ec 85 3d 68 16 4f bc 23 fb b3 3d
       -0.019563872 0.06539252 -0.012639619 0.08788135
000200 27 2b 0e bd da c9 9a 3c b7 1d 7d bb 56 c3 59 3d
       -0.034709122 0.018895078 -0.0038622448 0.053164802
000210 d7 86 90 bd 73 4a 28 3d ec 78 90 bd a2 47 ac bc
       -0.07056969 0.041086625 -0.07054314 -0.021030251
000220 f7 0d 52 3c 6c f7 16 bc cc 36 de 3b 71 71 38 3b
       0.012820712 -0.009214263 0.0067814346 0.0028143788
000230 ed 76 0e bd 8f 65 2b bc 76 b0 e5 bc da bc b1 bc
       -0.034781385 -0.010461225 -0.028038245 -0.021696497
000240 5d 3b 1d bd 05 0e f5 bd 9a 87 35 bb ef 9f 31 bd
       -0.03838669 -0.11965565 -0.0027699233 -0.043365415
000250 ff 21 b0 3d 1b b0 0d bd 1f a0 f6 bb 2e 70 08 3d
       0.08600234 -0.034591775 -0.007526412 0.033310108
000260 fd 35 e4 bd 3d 75 60 3d 97 04 22 bb c7 a0 28 3c
       -0.1114311 0.054799307 -0.0024721974 0.010292239
000270 fb 1e 9d 3d 0c b3 cd bc 46 70 f5 3c 75 11 2d bd
       0.07671925 -0.02510979 0.029960763 -0.042252976
000280 19 ad cd bc e1 c6 78 bc a1 e6 0f bd 1b 4b 94 bd
       -0.025106953 -0.015184135 -0.035132054 -0.07240888
000290 57 67 71 bc 5b 04 8b 3c d2 04 a4 3b ca 64 fe 3c
       -0.014734111 0.01696985 0.0050054574 0.03105392
0002a0 6f fb 89 bc 91 6f bf bc 3f ea 32 3c ed d4 4d bd
       -0.016843526 -0.023368629 0.010920106 -0.05025189
0002b0 14 3f 81 bd 28 4d 1e be 91 c9 21 3d 08 4d a8 bd
       -0.06310859 -0.1545912 0.03949887 -0.082178175
0002c0 07 9f 5c 3c 03 2d 06 bd f1 b2 cb bd 13 8d e2 3c
       0.013465649 -0.03275777 -0.0994624 0.02765516
0002d0 ab be 12 3a a2 27 bf 3d 17 00 7b 3c e5 e8 79 bd
       0.000559787 0.09333731 0.015319846 -0.06101312
0002e0 3e 11 a3 3c 4c 88 80 bb e8 f1 24 3d 20 95 e2 3d
       0.019905683 -0.003922498 0.040269762 0.110635996
0002f0 35 43 98 3d 68 0a 9a bd 4f 2d 6a bd 04 c0 8d bd
       0.07434694 -0.07521516 -0.057172116 -0.0692139
000300 57 ab 23 38 08 ee e2 3c 1a 8d 38 bd 09 7c 62 3c
       3.90218e-05 0.027701393 -0.04505644 0.013823518
000310 9c d2 1c 3c 6c 7a 66 bc a9 b3 16 bc 48 c9 55 bd
       0.009571698 -0.014067274 -0.009198108 -0.05219391
000320 16 da ca bd 70 36 26 be dd 3f a0 3d 9b 14 c1 3d
       -0.09904878 -0.16231704 0.07824681 0.09427758
000330 37 2a ef 3d 91 46 6c bd a5 db 0a be 88 6c b5 bd
       0.11677974 -0.057684485 -0.1356035 -0.08858591
000340 ed 28 d0 bd 19 5a 81 bc 2c e0 20 3e 0a 39 53 3d
       -0.10164056 -0.015790032 0.15710515 0.05156807
000350 98 0a 49 bc 3c 5b bf 3b 30 76 b6 3d 69 df 3f 3e
       -0.012270592 0.0058397334 0.08909261 0.18737568
000360 ba b1 16 3d 89 84 f3 bd f8 ab 76 bc 9c d9 aa bd
       0.036790587 -0.118905134 -0.015055649 -0.08342287
000370 07 b2 7e bc 75 85 89 3d 65 8e 0a bd 73 99 33 bd
       -0.015545375 0.06714908 -0.033827204 -0.043847512
000380 33 e9 96 bb a7 21 ff bb db 81 41 bd 03 05 c5 bc
       -0.004605436 -0.007785994 -0.04724298 -0.024050241
000390 80 9c 74 bd f1 f4 18 be 8b c3 b4 3b 4c 18 01 3e
       -0.059719563 -0.14937188 0.0055164746 0.12606925
0003a0 77 b3 cf 3d dc d7 6e 3b 93 a2 1d 3d 1a 38 7e bd
       0.10141652 0.003644458 0.03848512 -0.06206522
0003b0 34 7d a4 bd 83 47 9c 3d 31 c1 af 3c d2 9c 48 3c
       -0.08031693 0.07630827 0.021454426 0.01224442
0003c0 a1 e8 74 bd 4d 10 55 3d 25 f6 c1 3d eb 64 e4 bc
       -0.059792165 0.0520175 0.094707765 -0.027880153
0003d0 cb c6 18 bd 89 43 6b bd 6d d7 6e bc 84 be 63 bd
       -0.03729896 -0.057437453 -0.014577729 -0.05560161
0003e0 2a 44 e5 3d 44 56 97 3d 93 3b 03 3d 8b 0d 1d bc
       0.11194642 0.07389501 0.032039236 -0.009585748
0003f0 ec 40 e6 3b c6 f1 03 bd fd 7b 62 bd 64 f8 cd bd
       0.0070267823 -0.032212995 -0.055294026 -0.100571424

bias f4 [128]
000000 45 f0 a2 3e 8b 96 4d be d0 a8 90 be fa ae 06 3e
       0.31823936 -0.20076959 -0.28253794 0.13152686
000010 3d 22 80 be 0f 2a cf be 11 4b 1d 3d d3 6c b0 bd
       -0.25026122 -0.40461776 0.038401667 -0.086145066
000020 68 c5 b4 3e d9 b5 09 3f 22 95 5f 3e 79 57 23 3e
       0.3530686 0.537931 0.21834233 0.15951337
000030 6a 36 dc be a8 79 f7 3d b3 58 4e be f7 b2 12 3d
       -0.43010265 0.12083751 -0.20151024 0.035815205
000040 84 7e 1f 3f 3a 6c b0 bc b5 21 a5 3a e1 8e cc 3e
       0.6230242 -0.021535981 0.0012598546 0.39952758
000050 16 ae 1a 3e 03 de 9f 3b 15 f1 b2 be 2f 6c 94 3d
       0.15105471 0.004878761 -0.34949556 0.07247197
000060 0d 53 ad 3c 8c ad d9 3d 68 6b 3e be d2 f2 c3 bd
       0.021157766 0.106288046 -0.1859566 -0.09567799
000070 78 97 c1 be 20 34 8e 3e f2 35 b6 be 74 21 93 be
       -0.37810874 0.27774143 -0.35588032 -0.2873646
000080 18 d2 0c be 56 81 a9 be 4c 53 f8 bc fc e2 59 3c
       -0.1375202 -0.33106488 -0.030313157 0.013298746
000090 f5 21 d0 3e 51 78 24 bd 56 49 01 3f 28 c6 b0 be
       0.40650907 -0.040153805 0.50502527 -0.3452618
0000a0 6f 3d f1 3d d2 3b 5a bd da 4b 20 bf 73 67 b4 3e
       0.11779296 -0.053279705 -0.6261574 0.35235175
0000b0 d3 03 7c bd cc ca 6b be 8d 20 29 3d 5f 89 0b bf
       -0.061527085 -0.2302658 0.04129081 -0.54506487
0000c0 25 e2 0a bf b5 cc 0f 3e 23 b4 f3 3e 10 22 82 3d
       -0.5425132 0.14042933 0.4759837 0.06354153
0000d0 15 01 9f 3e 94 0b 9c bd 01 fc 4a 3e a2 38 fb bc
       0.31055513 -0.07619396 0.19822694 -0.030666653
0000e0 d6 75 10 bf 7f 65 59 3c 0f 8c 07 bd cf 6b 96 3d
       -0.56429803 0.013268827 -0.033092555 0.073447816
0000f0 10 41 2a be 81 f3 c1 bd 53 d9 8c bd 26 5c cd 3e
       -0.16626382 -0.09470273 -0.06877389 0.40109366
000100 0a 5b 08 3f a5 e8 a1 3e 9e 18 84 3e 6b 41 dd be
       0.53263915 0.31622806 0.2580003 -0.43213972
000110 d6 19 45 be a3 40 72 be bb 03 bf be 3c e4 1d 3e
       -0.19248137 -0.2365747 -0.37307534 0.15419096
000120 0b ab 31 be ee 38 2e 3e 53 d4 43 3e 73 b1 da 3e
       -0.17350404 0.17013904 0.19123964 0.42713508
000130 cf cf 7c be e5 cf 2a 3e 4b e3 9e 3d b8 c7 83 3e
       -0.24688648 0.16680868 0.077581964 0.2573831
000140 9a b3 98 3e 2e 84 87 be 4b 01 5c 3e 10 97 30 3e
       0.29824525 -0.26468033 0.21484868 0.17245126
000150 32 0e 0e bd b8 c6 b5 3e 73 d4 24 3e 93 c8 41 be
       -0.034681506 0.35503173 0.16096668 -0.18924169
000160 b8 02 5b bf c3 aa 6e bd c5 9d f3 bd b2 e9 51 3d
       -0.85551023 -0.05826832 -0.118953265 0.05124826
000170 30 18 b6 3e 36 6d e5 bd 89 cb 03 bd b8 8c 93 be
       0.3556533 -0.11202471 -0.032176528 -0.28818297
000180 06 32 bf bb b9 fa 61 3e 2b 74 b0 3b 91 9b cc 3d
       -0.0058348207 0.220683 0.005384942 0.099906094
000190 37 2c be be 95 84 6f be a8 26 2c bd cf 0a 1c 3e
       -0.37143108 -0.2339042 -0.042029053 0.15238498
0001a0 f2 a9 c6 be 38 f3 5b 3e 5e 62 25 3e e3 42 f7 bc
       -0.38801533 0.214795 0.16150805 -0.030183261
0001b0 e2 c5 66 3e 7a 9f 84 3e 40 8e 86 be ba 38 46 3e
       0.22536424 0.2590292 -0.26280403 0.19357577
0001c0 d0 56 fb 3e 77 71 fc 3e d1 2f 87 be 61 c2 0a be
       0.4908967 0.49305317 -0.2640367 -0.13550712
0001d0 e9 23 c5 3d 66 13 74 be 35 3f 9e be c8 e9 0b 3e
       0.0962599 -0.23835525 -0.30907598 0.13663399
0001e0 17 87 ce 3d d2 d7 43 3e cb cc 02 3d 02 fd 95 3e
       0.1008436 0.19125298 0.031933587 0.29294592
0001f0 b8 1e 37 3e 87 92 e7 be 1f 10 d1 3c d2 bf 33 3e
       0.17882812 -0.4522898 0.025520382 0.17553642

weight f4 [64, 128]
000000 bf f1 28 bd 45 87 83 bd 76 56 a8 bd 45 5a 6a 3e
       -0.041246172 -0.06422285 -0.08219616 0.22885998
000010 5c b1 05 3e bb 50 bc ba 55 4d 2b 3c f9 48 34 bd
       0.13055938 -0.0014367321 0.010455449 -0.044014905
000020 53 36 df 3d e7 80 28 be 9f 9c 3a be de 07 59 bd
       0.108990334 -0.16455422 -0.18223809 -0.05298602
000030 52 88 25 3e d0 af 8c be 94 94 03 3d 36 8c f4 3c
       0.16165283 -0.27477884 0.032124117 0.029852014
000040 37 85 7a 3c ff 2c ae bd d5 6d ca 3c 3f 13 69 be
       0.01529055 -0.08504676 0.024710575 -0.22761248
000050 86 67 a0 be c7 01 3c 3c 18 c1 27 be fc e8 2c be
       -0.31328982 0.011475033 -0.16382253 -0.16885751
000060 d2 67 43 3d fa 7d 78 3d 5b 3f a3 bb 34 2d fb 3c
       0.047706433 0.060667016 -0.004981918 0.030661203
000070 17 3a 69 bd 74 17 17 3d 8c f5 b6 bd b2 65 26 3d
       -0.056940164 0.0368876 -0.08933553 0.040624328
000080 3e 53 9c 3d c9 58 c7 3c 78 2b 71 3e 4d c9 c9 3b
       0.07633065 0.024334328 0.23551738 0.00615803
000090 19 51 d3 bd 2e c3 b8 3c 9d e7 9a be 12 ee 9e bc
       -0.103182025 0.022554006 -0.30254832 -0.01940063
0000a0 64 01 81 3d f2 80 86 bd 56 91 2c be a7 94 60 3d
       0.06299093 -0.06567563 -0.16852316 0.054829266
0000b0 dc f5 72 be 95 01 0a 3d e8 b2 bd 3c 40 7a 08 3e
       -0.237266 0.033692915 0.023156598 0.13327885
0000c0 e8 56 21 3e 51 5d b5 3d 43 24 2b bd 88 51 36 bd
       0.15755808 0.08855689 -0.04178263 -0.044511348
0000d0 ed 83 d8 bb bb f5 7a bd 41 9f 3d be a9 73 70 bd
       -0.0066075237 -0.061269503 -0.18517782 -0.058704052
0000e0 dd d8 92 3b 74 f5 64 bc 3f 31 1e be 30 25 c8 bd
       0.0044814185 -0.013974536 -0.15448473 -0.09772718
0000f0 f9 64 1a 3d a7 11 0a be 27 06 23 3e 0a 35 22 bd
       0.03769395 -0.13483296 0.15920316 -0.039601363
000100 3d 9d d7 3e fa b1 8d 3e 30 f4 f1 bd 86 66 08 3e
       0.4211215 0.27674848 -0.11814153 0.1332036
000110 28 6c 08 3d a1 13 18 3e d6 0a f9 3d 42 4c 4e bd
       0.03330627 0.14851238 0.1216027 -0.050365694
000120 09 7d 35 3e 79 60 d6 bd b2 b3 b7 bd cb 87 eb bc
       0.17723478 -0.104676194 -0.08969821 -0.028751275
000130 83 0f 1c 3e 5d df c0 3d 34 e9 35 3e d1 0f 3a be
       0.15240292 0.09417603 0.17764741 -0.18170096
000140 74 9b 0a 3d 0c 04 1c 3e 08 c7 cf bc 75 e9 80 be
       0.033839658 0.15235919 -0.02536346 -0.25178114
000150 cc 6c e7 bd 87 c9 77 bd 85 34 49 bd 71 66 29 bd
       -0.11300048 -0.060494926 -0.049122352 -0.04135746
000160 c4 19 06 3e b2 76 0f 3e 03 62 c5 3d be 49 4b bd
       0.13095766 0.14010122 0.09637835 -0.049630873
000170 a8 c8 30 be c4 b3 ed 3d 18 2b ea 3b 9e 8e c5 3b
       -0.17264044 0.11606553 0.0071462505 0.006028964
000180 f8 f7 f9 bd 53 b3 5b be 9e 68 a5 3d 5d 68 87 be
       -0.122054994 -0.21455126 0.08076595 -0.2644681
000190 4b 12 2f bc 43 b6 30 3d a2 b3 a1 bd b1 26 0f 3e
       -0.010685514 0.04314257 -0.0789559 0.13979603
0001a0 ce 75 04 3d 6e 38 91 3c 54 01 ac bc 20 53 d5 bc
       0.03233891 0.017727103 -0.020996727 -0.026040614
0001b0 36 b4 21 be cb 19 2d be 03 c2 1a 3e 04 15 08 3e
       -0.15791401 -0.1690437 0.15113072 0.13289267
0001c0 bc 77 29 be fc d8 59 3d 24 74 ff bd fd 34 92 3e
       -0.16549581 0.053185448 -0.12473324 0.28556052
0001d0 f1 7a 33 be f4 cb 3e 3d f9 3c 04 be 7e f4 be 3c
       -0.17527367 0.046581224 -0.12913884 0.023309942
0001e0 0c 36 23 3e e2 9d 9d 3d 3d e5 11 bb e6 9c 91 be
       0.15938586 0.076961294 -0.002226188 -0.28440017
0001f0 dc ed 87 be 51 eb a3 3c 6e f7 58 3d b3 aa 11 bd
       -0.2654866 0.020009669 0.052970342 -0.035563182
000200 f8 fc a6 bd fa ee d8 bd 91 76 8d 3d 9c d1 c2 3d
       -0.08153719 -0.10592456 0.0690738 0.09512636
000210 b2 c8 10 be 72 78 3b 3d 43 56 30 bd 41 07 86 bc
       -0.14139059 0.045769162 -0.043051016 -0.01636088
000220 0e ec dd bd 27 2e 1a bc f8 4b 84 bd 2a 5a cc 3d
       -0.108360395 -0.009410418 -0.064598024 0.09978135
000230 4a 70 89 3d 18 ed 87 3e 79 c6 06 bd cd c3 82 3b
       0.067108706 0.26548076 -0.032904122 0.0039906264
000240 f7 77 18 be 8d 36 4a bd 1b 50 9d bd da 02 16 3d
       -0.14889513 -0.04936843 -0.076812945 0.036623813
000250 65 af 98 bd 40 61 19 be 84 4f 80 be 73 87 69 3e
       -0.07455329 -0.14978504 -0.25060666 0.22805576
000260 da 33 2b 3c f7 3c f9 3c 61 60 32 be 39 e9 31 bc
       0.010449374 0.030424578 -0.17419578 -0.010858827
000270 9c 93 95 bb 07 a2 10 bd 48 32 37 3a bd af 73 3d
       -0.0045647155 -0.03531077 0.00069883885 0.05949377
000280 a3 cc f7 3d 90 ce 47 be 85 52 47 3d ee 0b 3b 3e
       0.12099578 -0.19512391 0.04866268 0.1826627
000290 8c a4 6e bd cf 93 04 bd fd d9 53 bd a3 70 2b bc
       -0.058262393 -0.032367524 -0.05172156 -0.010463866
0002a0 d1 98 26 bc 86 d3 df bc e5 9f 0f be c1 62 27 bd
       -0.01016827 -0.027322542 -0.14025839 -0.040865663
0002b0 07 48 80 bc ad 4c e7 bd 02 a3 13 be 41 87 46 be
       -0.015659345 -0.112939216 -0.14417651 -0.19387533
0002c0 12 df 06 bd b4 e2 86 39 2e 43 12 ba 9c 29 10 be
       -0.03292758 0.0002572738 -0.00055794686 -0.14078373
0002d0 87 56 7e 3e 9f 1c 38 bd 9c 89 1d be bb c9 05 3e
       0.24837695 -0.04494917 -0.15384525 0.13065235
0002e0 50 86 2f 3c 46 8a 97 3d 4a 25 dc bd 06 8f 9f 3d
       0.010713175 0.073994204 -0.107493 0.077909514
0002f0 74 4f 80 3d a0 ce b3 3c da 71 d6 3d aa 36 df bd
       0.062651545 0.021949112 0.10470934 -0.10899098
000300 ac 0b e1 bd 3d ec 4a 3e ef 29 2a be 2d f2 07 be
       -0.10988554 0.1981668 -0.16617559 -0.13275976
000310 93 69 2e 3b 4f 8f 22 be 39 e4 e0 bd 10 86 9d 3e
       0.002661322 -0.1587498 -0.1098103 0.30766344
000320 f7 e4 ba ba d8 6d 2a 3c 0d c2 25 3c 93 bd fa bc
       -0.0014258911 0.010402165 0.010117066 -0.030607974
000330 81 5e 6c bd b6 61 1e 3d 5f f0 1e be b4 df 3b 3e
       -0.057707313 0.038667403 -0.15521382 0.18347055
000340 f7 91 d7 bd 42 9f b4 bd 9e 5b 09 be 21 3c d5 bd
       -0.105258875 -0.088194385 -0.13413855 -0.10411859
000350 c7 20 5c bc 0f cd 30 be 24 6d 9c 38 31 df 4c bd
       -0.013435549 -0.17265724 7.458989e-05 -0.05001754
000360 d7 91 91 be 2d c8 77 3d 8b 66 93 bd 5c 83 d2 bc
       -0.2843158 0.060493637 -0.07197293 -0.025697403
000370 c5 d9 ac ba 35 ce c8 bd b3 ff 5b 3e 94 21 27 bd
       -0.0013187459 -0.09804956 0.2148426 -0.040803507
000380 e4 89 2a be bc 46 ad 3d ab dd 7c bd 94 b2 54 3d
       -0.16654164 0.08460757 -0.061734837 0.051928118
000390 5f a8 f5 bd be 78 a3 bc 98 35 42 bd c4 08 9c 3d
       -0.11995005 -0.019955035 -0.047414392 0.076188594
0003a0 50 48 37 bb 9d 15 29 3b 66 6c 71 3d b4 95 af 3c
       -0.0027966686 0.0025800236 0.058941267 0.021433689
0003b0 88 6b 87 bd e7 cb 10 3e 3e b8 2b 3d 2c 12 25 be
       -0.06612307 0.14140283 0.041923754 -0.16120213
0003c0 df 68 9c 3c 3f 92 c6 bd b6 69 27 bd 85 b6 e9 bc
       0.019092975 -0.09695863 -0.0408723 -0.028529415
0003d0 6a 39 8f 3d fb 4e 44 bc 39 d4 9e 3c f4 a7 56 bd
       0.06993373 -0.011981721 0.019388305 -0.052406266
0003e0 2d 42 81 be 0c 05 e3 bd 9f 6c 00 3d 73 09 a8 bd
       -0.252458 -0.11084947 0.03135359 -0.08204927
0003f0 a4 e2 01 be 62 60 92 bd 9b 34 e1 3c b5 fb 0f bb
       -0.12684113 -0.0714729 0.027490905 -0.0021970097

bias f4 [64]
000000 e2 68 8d 3e 45 b5 b7 3e ac c7 58 3e 89 fd 4b 3e
       0.27619082 0.35880485 0.21169919 0.19920935
000010 32 e9 e7 3d c4 91 3f 3e b1 3c 2d 3e 3e ed 43 3e
       0.11323775 0.18707949 0.16917683 0.1913347
000020 59 fb 8f 3e 19 bc 53 3e b8 79 38 3e 6d 9c 90 3e
       0.2812145 0.20677222 0.18015182 0.28244343
000030 9a 20 b8 3e 33 fb ca 3d 8d 14 6c 3e 8b 55 96 3e
       0.35962373 0.09911194 0.23054715 0.2936214
000040 54 ef be 3e 50 1d 45 3e 42 7b c7 3e 8e 63 c3 3e
       0.37291968 0.19249463 0.38961226 0.38161892
000050 6b 3a 32 bc 8f 5f 92 3e d0 fe 1c bd 52 bd 70 3e
       -0.010878186 0.2858853 -0.038328946 0.2350972
000060 34 0c c9 3e 14 2e 06 3f 3a 7f a9 3e 50 f5 37 3e
       0.39267123 0.5241406 0.3310488 0.17964673
000070 b4 f2 23 bd ec a3 e2 3e 9b da d4 3d cf 99 da 3d
       -0.04002638 0.44265687 0.10393258 0.10673868
000080 0c f9 a8 3e 6d 34 90 3e a2 a8 c9 3e e6 65 ae 3e
       0.33002508 0.28164998 0.3938647 0.34062117
000090 46 5b 00 3f b6 6a 59 3e 3d 5a d1 3e 53 45 c3 3e
       0.5013927 0.21232113 0.4088916 0.38138828
0000a0 5b 7c 2a 3e 3e 1a 82 3e 1b 52 73 3e 3f b9 df 3d
       0.16649 0.25410646 0.2376179 0.10924005
0000b0 a6 ba 9b 3e 52 cb 19 3e e7 f7 e1 3e 57 54 3c 3e
       0.3041584 0.15018967 0.44134447 0.18391548
0000c0 35 97 d6 3e 59 8a 8c 3e 0f e5 56 3e d5 e5 27 3e
       0.41912237 0.274493 0.20985816 0.16396268
0000d0 fe bf 40 3e e4 8d fc 3c 83 04 a8 3e a6 81 51 3e
       0.18823239 0.030829377 0.32815942 0.20459613
0000e0 e5 5b c3 3e 96 d6 6e 3e 07 64 c7 3d 88 c6 ba 3e
       0.38156047 0.23324046 0.097358756 0.36479592
0000f0 4d f2 47 3e e6 ad 84 3e 4f d7 91 3e 04 fe 9e 3e
       0.19526024 0.25913924 0.2848458 0.31053174

weight f4 [10, 64]
000000 0d fa d6 3e d4 a3 c2 be fc 5c af be c7 14 97 3e
       0.4198765 -0.38015616 -0.3425063 0.2950804
000010 b7 e0 a0 be fd ed 96 be 57 23 ce 3e 34 61 68 bd
       -0.31421444 -0.29478446 0.40261337 -0.056733325
000020 c7 f3 da be ca b3 c5 be d6 a6 bc be dd 78 a8 bd
       -0.42764112 -0.3861373 -0.36846036 -0.08226178
000030 ae 79 2d bf 4f 17 dc 3d 5e 67 df be 01 a4 d4 3e
       -0.67763793 0.10746633 -0.4363355 0.41531375
000040 0e 8c de 3e 8e 7f 8a be a8 0a 09 3f 6c 5e 0e 3f
       0.43466228 -0.27050442 0.53531885 0.55612826
000050 7b 2e 02 3d f3 b9 82 be 7b a2 4d 3e 5c 99 a8 bd
       0.03178261 -0.25532493 0.20081513 -0.08232376
000060 b1 85 06 3f 5e 3a b5 be dd 4d d0 3e d6 a0 2d be
       0.52547747 -0.35396093 0.40684405 -0.16955885
000070 6c b6 1e 3c e1 34 f3 3e a2 36 b5 3e 27 8c 5b 3e
       0.009687047 0.4750128 0.35393244 0.21440183
000080 dc 62 0e 3f ac 78 c1 3e 62 bc 0f 3f d7 18 06 3f
       0.556196 0.37787378 0.56146824 0.5238165
000090 2d 15 97 3e d2 ab 88 3d cb 89 51 3e 21 f6 06 bf
       0.29508343 0.06673397 0.2046272 -0.5271931
0000a0 c9 98 c1 3e 75 83 b1 3d 19 22 e9 3e ca 24 63 3e
       0.37811878 0.086676516 0.45533827 0.22182003
0000b0 42 af 00 3f 65 8d 1a 3f 71 cd d6 be 0a 39 0a be
       0.5026742 0.60372 -0.41953614 -0.13498321
0000c0 4c 8a 0b 3f 2a 7a 88 be eb 73 31 3d a2 e2 43 bb
       0.545079 -0.26655704 0.04332344 -0.0029889722
0000d0 6d 51 85 be 30 6c 83 3e f6 93 89 be a2 2d 6d bd
       -0.26038685 0.25668478 -0.26870698 -0.057904847
0000e0 1c 19 16 bf 37 aa 5b 3f 93 c9 6c 3e 05 35 08 bf
       -0.58632064 0.858066 0.2312377 -0.532059
0000f0 5c 12 9c be ab 80 d6 be f2 19 fa 3e 41 9e 76 3e
       -0.30482757 -0.4189504 0.4884792 0.24083807
000100 ff 60 4f bf 78 03 96 bd ee 6c 2a 3f 06 6a 66 be
       -0.8100738 -0.0732488 0.66572464 -0.22501382
000110 ed f0 c5 3e 81 b5 75 3d d8 06 b2 be 1b 4c d2 3d
       0.38660374 0.05998755 -0.34770846 0.10268422
000120 f0 67 e6 be 44 a4 a3 be 38 83 5f bd f6 43 38 be
       -0.45001173 -0.31961262 -0.0545685 -0.17994675
000130 d5 2c e2 be 41 bd 42 be 0c 51 79 3e 58 85 b3 3e
       -0.4417483 -0.19017507 0.24347323 0.3506267
000140 b4 3f 08 3e db a3 51 bd 0c b8 2f be a4 02 a0 be
       0.13305551 -0.051181655 -0.17160052 -0.31252015
000150 42 dd 4f 3d d8 d8 2a bd 81 19 d9 3e ed 60 e9 be
       0.050748117 -0.041710705 0.4240227 -0.4558176
000160 70 f4 6f bf 39 c4 47 bf e1 9f b1 be 69 3c 96 3f
       -0.9373236 -0.78033787 -0.3469229 1.1737186
000170 16 53 2b 3d 32 cf 2d bd d6 c1 22 be b4 f4 ca 3e
       0.041827284 -0.042433925 -0.15894255 0.3963982
000180 2c ce 88 be 92 42 28 bf 25 c4 40 3f 19 e5 86 be
       -0.26719797 -0.6572658 0.7529929 -0.26346663
000190 3e 30 54 3e af 7f 1d bf 7c 31 93 3e a0 06 de 3e
       0.20721528 -0.61522955 0.2874869 0.4336443
0001a0 71 34 31 3f 75 cd 89 be d8 6e 0e 3f 83 7d 98 be
       0.69220644 -0.26914564 0.55637884 -0.29783258
0001b0 f7 4d 9f 3e ad c2 27 3f 59 09 99 3e dc 37 f4 3e
       0.3111417 0.65531427 0.29889944 0.47698867
0001c0 db 0a 99 be d7 9c 0b 3f da f2 bf 3e ca 71 d0 3e
       -0.29891095 0.54536194 0.3748997 0.40711814
0001d0 4f cc c0 3d f3 74 61 3d 20 20 85 3e f5 7d c9 bd
       0.09413969 0.055043172 0.26001072 -0.098384775
0001e0 62 08 0f bf 11 69 f1 bd ef d7 d9 bd f5 71 ad bd
       -0.55872166 -0.11787618 -0.10636889 -0.08469001
0001f0 dd 48 35 be 7a e6 dd 3d 00 65 0b 3f 63 b3 e6 3e
       -0.17703576 0.108349755 0.5445099 0.45058736
000200 0b 5c df 3e ab 7a bb 3e 33 fc 86 3e 81 04 ad 3e
       0.4362491 0.36617026 0.26364288 0.337925
000210 49 8e 9b 3e e0 9e 79 be 08 84 d1 be de 9c 2b 3b
       0.30381992 -0.24377012 -0.40921044 0.002618603
000220 34 f4 b7 be e5 99 04 bf bd 9d 0b 3e eb 75 06 bf
       -0.359285 -0.51797324 0.13634391 -0.5252368
000230 d7 c3 08 3f ac c0 ae be ba 81 12 bf 07 65 88 be
       0.5342383 -0.34131372 -0.572292 -0.26639578
000240 50 ca 0a 3f 56 92 29 bd 33 53 0b 3f 7c f8 0c 3f
       0.54214954 -0.041399322 0.54423827 0.5506666
000250 42 c1 09 be 3b a4 9c 3d 39 25 59 3e 05 1a f6 3e
       -0.13452628 0.07648512 0.21205606 0.48066726
000260 76 1a ed 3e 35 5e c6 3e 91 b1 00 3f d5 d9 df 3d
       0.4630925 0.3874375 0.50270945 0.1093022
000270 1f d9 dd bd 61 3d da 3e 0a cc b0 3d 1f ef f0 be
       -0.10832428 0.42624953 0.08632667 -0.47057435
000280 fe 1a 72 3e ff c5 ae be 5e 4b c1 3e bd 77 04 bf
       0.23643109 -0.34135434 0.37752813 -0.51745206
000290 95 33 95 3e b2 18 db be bd 82 99 3e 5b 85 ac 3e
       0.29140916 -0.4279228 0.29982558 0.33695492
0002a0 84 b4 16 bf 33 bb 41 be 63 e8 0e bf 85 fd f1 3c
       -0.58869195 -0.18919067 -0.55823344 0.029539833
0002b0 59 2b ee 3e 22 95 d6 be 52 07 d8 be 77 5e 26 bf
       0.46517447 -0.41910654 -0.42193085 -0.6498789
0002c0 61 64 25 3f 58 80 10 3f 69 b8 d2 be 75 22 b9 3e
       0.6460629 0.5644584 -0.4115632 0.361591
0002d0 da 68 ad be 04 0a aa 3b 1e 66 c6 be d9 a3 84 be
       -0.33869058 0.0051891822 -0.38749784 -0.25906256
0002e0 b5 51 21 3f 6b 2c b7 3d 9b 8c c4 3e 7b f9 e5 be
       0.630153 0.08944019 0.38388523 -0.449169
0002f0 1e b6 b9 3e 35 d0 68 be 82 95 e1 be eb dc 4e be
       0.36271757 -0.22735675 -0.44059378 -0.20201461
000300 b7 e1 78 3c e9 fa 97 3e df 95 85 bc d9 1f 3d bf
       0.015190533 0.29683617 -0.016306816 -0.7387672
000310 e5 4b 90 3e 08 75 07 bd 5d 3e 07 bf 82 92 b5 be
       0.28182903 -0.033070594 -0.52829534 -0.3546334
000320 90 ab 00 3f c8 d0 a7 be 28 04 a8 3e b3 73 10 bf
       0.50261784 -0.32776475 0.3281567 -0.56426543
000330 d2 b6 48 bf dd 78 96 3e 15 8c a7 3d 5f 62 c3 3e
       -0.7840396 0.29389086 0.081810154 0.3816099
000340 86 c2 1e bf d4 8d 66 3e 69 3d 0f 3f 9f 33 03 3f
       -0.6201557 0.2251504 0.5595308 0.5125064
000350 35 c0 ba bd 6c 92 d0 3e 77 ec 80 be 05 80 ee be
       -0.09118692 0.4073671 -0.25180408 -0.46582046
000360 46 86 f4 3e dc 5c b8 3e f3 62 48 bd 8d de 05 bf
       0.47758693 0.36008346 -0.04892249 -0.5229271
000370 93 43 57 bc 28 56 8e 3e 8c de 7b 3d 1b db 05 3e
       -0.01313867 0.27800107 0.061491534 0.13071863
000380 34 6a 1b bf 61 38 ad 3e 49 85 7e be 25 f2 0c be
       -0.6070893 0.33832076 -0.24855532 -0.13764246
000390 26 18 9d 3e 1a ef ca 3e 24 b6 7a 3e 32 39 86 3e
       0.30682486 0.39635545 0.24483544 0.26215512
0003a0 ac 71 a8 be 47 42 a1 be af 55 1d 3f 1a 55 f7 be
       -0.32899225 -0.31495878 0.6145887 -0.48307115
0003b0 d6 d9 01 3f eb 94 27 3f 65 28 03 3f 72 a4 5f be
       0.50723016 0.65461606 0.5123351 -0.21840075
0003c0 66 c1 00 bf 93 ee 2d bf 44 ee 52 be 8a 44 3f bf
       -0.502951 -0.6794216 -0.20598704 -0.7471396
0003d0 a6 42 05 3f c0 5c 58 be b6 ff 09 3f 03 f6 36 3e
       0.5205482 -0.21129131 0.5390581 0.17867284
0003e0 3a 46 1c 3f cb 6f eb be ff 6a 56 be 06 d8 3d 3e
       0.6104466 -0.4598373 -0.20939253 0.18539438
0003f0 1f fc 27 bf 36 71 57 3f 34 f1 f6 3e b2 37 ba 3e
       -0.6561908 0.8415712 0.48230898 0.36370617

bias f4 [10]
000000 c4 4b 42 bd 4b 29 a6 be 71 65 90 3e 15 98 a9 3e
       -0.047435537 -0.3245338 0.28202394 0.33123842
000010 9d cc 89 be 59 f4 77 3e ea e1 9f 3d 08 49 44 3e
       -0.2691392 0.24214305 0.078067616 0.19168484
000020 dd 0f ce 3d 02 7f 46 bf
       0.100616194 -0.7753755
