models/conf_2.pt (torch, 441470 bytes, 6 tensors)

weight f4 [128, 784]
0	0xbce2a341	-0.027665736
1	0x3c33d95b	0.010977115
2	0x3ba47fb4	0.005020106
3	0xbd0c607d	-0.034271706
4	0x3b02cef2	0.0019959775
5	0x3b7fe778	0.0039047878
6	0x3b10b08e	0.002207789
7	0xbaa016bc	-0.0012213807
8	0xbd04ab73	-0.03239007
9	0x3c9b8d73	0.018988347
10	0x3d3b6d6f	0.04575866
11	0x3d29e09b	0.041473966
12	0x3c3b7edb	0.011443819
13	0xbc528402	-0.012848856
14	0xbbb76ef9	-0.005597946
15	0x3d14de6d	0.036344934
16	0x3d459387	0.048236396
17	0x3d542944	0.051797166
18	0x3c63db81	0.013907314
19	0xbc032cd5	-0.008006294
20	0xbc7c900a	-0.015415201
21	0x3ce92c46	0.028463494
22	0x3d14262a	0.03616921
23	0xbc2ea19f	-0.010658651
24	0xbc1c39df	-0.009535282
25	0x3d11e8ba	0.035622336
26	0xbcc4ab89	-0.024007576
27	0x3d0196ca	0.031637944
28	0x3ced0ad2	0.028935824
29	0x3d079bb9	0.033107493
30	0x3caa475b	0.020785978
31	0xbc255d98	-0.010093115
32	0x3d101749	0.035178456
33	0x3cdd87e3	0.027042335
34	0xbd08aac6	-0.033365987
35	0x3cddd9b7	0.027081354
36	0xbc8f7eec	-0.017516576
37	0x3c96576f	0.018352238
38	0x3bc69a46	0.0060608713
39	0x3c8d27d2	0.017230902
40	0x3bd58e97	0.006517242
41	0xbac4719f	-0.0014987475
42	0xbc957613	-0.018244779
43	0x3cebd124	0.02878625
44	0x3ce5b984	0.028042562
45	0x3c2b878c	0.010469329
46	0x3cdb8f68	0.02680178
47	0xbafaeb67	-0.0019143642
48	0x3c81ea6d	0.015858853
49	0x3c89519a	0.016762543
50	0x3cdc32e2	0.026879732
51	0x3cca2c27	0.024679257
52	0xbbf7618b	-0.00754947
53	0xbcdfe51f	-0.027330933
54	0xbcc694ee	-0.024240937
55	0xbce9017b	-0.028443089
56	0x3c82c079	0.015960919
57	0x3bec1d22	0.0072056213
58	0xbd10442b	-0.03522126
59	0x3ac17c82	0.0014761838
60	0xbbf347e6	-0.0074243424
61	0x3c7d9894	0.015478272
62	0xbd220573	-0.039555978
63	0xbd072ac3	-0.032999765
64	0xbbb3d908	-0.0054885186
65	0x3cc46e8f	0.0239785
66	0x3d1f8ba3	0.038951527
67	0xbc54728f	-0.012966766
68	0x3bfdea8c	0.0077489074
69	0x3c83affd	0.016075129
70	0xbc48e6c0	-0.012262046
71	0x3c1c103f	0.009525358
72	0x3c2db684	0.010602597
73	0xbceb13b0	-0.028695911
74	0xbccfdad0	-0.025372893
75	0xbb11af62	-0.002222978
76	0x3c032051	0.00800331
77	0xbcaa8e32	-0.020819757
78	0x3c04b9df	0.008100956
79	0xbcdb7a33	-0.026791668
80	0xbbd07c20	-0.006362453
81	0xbc8a6efd	-0.016898626
82	0x3d04afae	0.032394104
83	0x3c166dcf	0.009181454
84	0x3c8bcac3	0.017064458
85	0xbc66735e	-0.014065592
86	0xbc9b12da	-0.018929888
87	0xbd035b23	-0.032069337
88	0xbc347777	-0.011014811
89	0x3b5a3690	0.0033296682
90	0xbbc75e6e	-0.006084255
91	0x3afefcba	0.001945398
92	0x3ce1c8e4	0.027561612
93	0x3cffe94f	0.03123918
94	0xbcab137d	-0.020883316
95	0xbbc77d4e	-0.0060879355
96	0x3caf2fbc	0.021385066
97	0xbb504a48	-0.0031782556
98	0x3c7b5d25	0.015342032
99	0x3ce18918	0.027531192
100	0xbc9970b9	-0.018730508
101	0xbcdf7037	-0.027275188
102	0x3b9bf20f	0.0047590802
103	0xbb5d725c	-0.0033790087
104	0x3b1aadad	0.0023602054
105	0xbd102589	-0.035192046
106	0xbca13eba	-0.01968323
107	0xbc59c1d2	-0.013290839
108	0x3c7d8edb	0.015475954
109	0xbc9ecd10	-0.01938489
110	0xbc5feb27	-0.0136669045
111	0xbc6863e4	-0.014183972
112	0x3c43d5ea	0.011952857
113	0xba2df023	-0.00066352094
114	0xbcb262dc	-0.021775655
115	0xbb653a3e	-0.0034977342
116	0xb8be043a	-9.060693e-05
117	0xbcc5f38c	-0.024163984
118	0x3c75271a	0.014962936
119	0x3b282cb3	0.0025661408
120	0x3c2ef53f	0.010678588
121	0xbb3594f3	-0.002770719
122	0x3bcaf7cf	0.006194092
123	0x3c655104	0.013996366
124	0xbc2a49db	-0.010393585
125	0x3c18100b	0.009281169
126	0x3bf0b958	0.0073463134
127	0x3d1d93cf	0.03847104
128	0x3c8975fb	0.01677989
129	0x3cafec2d	0.021474922
130	0x3d1cd0c2	0.038285024
131	0x3b227b32	0.0024792668
132	0xbd0db4eb	-0.034596365
133	0xbd0686d0	-0.03284341
134	0x3c7e22bb	0.01551121
135	0x3a4e7aad	0.00078765565
136	0x3c711083	0.014713409
137	0x3c9b3b90	0.0189493
138	0xbc90f094	-0.017692842
139	0x3cb8c87b	0.022556534
140	0x3c8cdc89	0.017195003
141	0xbb877325	-0.0041335993
142	0xbc9c36d9	-0.019069122
143	0xbc7fd246	-0.015614098
144	0x3cc57050	0.024101406
145	0xbc52e7ee	-0.012872679
146	0xbd0929c6	-0.033487104
147	0xbcf7fb17	-0.030271096
148	0xbc70491e	-0.01466587
149	0x3c88053d	0.01660406
150	0xbb078f14	-0.0020684646
151	0x3b4d9cfe	0.0031374092
152	0x3d1049ed	0.03522675
153	0x3c70d0bf	0.014698206
154	0xbc99d689	-0.018779056
155	0xbca88625	-0.020571778
156	0x3d1f157d	0.038838852
157	0x3cbecbe9	0.023290591
158	0x3cb255c6	0.021769416
159	0xbc1d0a17	-0.009584925
160	0x3ce7c4f5	0.028292159
161	0x3b242516	0.002504652
162	0xbd58807a	-0.0528569
163	0xbbc175f7	-0.005903955
164	0x3c2dd583	0.010609987
165	0xbcffa1fd	-0.031205172
166	0xbcf9898f	-0.0304611
167	0xbb832c6f	-0.0040030996
168	0x3c31d3ee	0.010853751
169	0xbd069d3e	-0.0328648
170	0xbc6d3949	-0.01447899
171	0xbca5041c	-0.020143561
172	0x3b12430d	0.0022317797
173	0xbd03b93e	-0.032159083
174	0xba4af69e	-0.00077424373
175	0xbc0a88cd	-0.008455467
176	0xbadfb4b1	-0.00170674
177	0x3ccd0031	0.025024505
178	0x3cae195c	0.021252327
179	0xbc3e2881	-0.011606337
180	0x3bfa1784	0.007632198
181	0xbc463799	-0.012098216
182	0xb9664ba4	-0.00021962688
183	0x3cccd3be	0.02500331
184	0x3c1eaeee	0.009685261
185	0xbc8e4850	-0.017368466
186	0xbcae2b7b	-0.021260967
187	0xbc8a2ae2	-0.016866151
188	0xbbb5d409	-0.005548958
189	0xbb955136	-0.0045568002
190	0xbccd7553	-0.025080359
191	0xbcf6503d	-0.030067557
192	0x3ced9e0c	0.029006027
193	0x3cbf05a2	0.023318116
194	0xbcdeb35f	-0.02718514
195	0xbcad861c	-0.021182112
196	0xbc5a7833	-0.013334322
197	0x3d052237	0.032503333
198	0xbc85660a	-0.016284008
199	0x3b91cb97	0.0044493186
200	0x3c2e7e90	0.010650292
201	0x3c1cc9a8	0.009569563
202	0xbd28d019	-0.041214082
203	0xbd1306c7	-0.035895135
204	0x3cbdc900	0.023167133
205	0x3b5ae6ec	0.00334018
206	0xbbe230b2	-0.0069027776
207	0xbcbeef28	-0.023307398
208	0xbc8956eb	-0.016765079
209	0xbbccd460	-0.006250903
210	0xbc8f3bac	-0.017484508
211	0x3d359bab	0.04433791
212	0x3cc99db2	0.024611328
213	0x39867122	0.00025642762
214	0xbccef3ef	-0.025262801
215	0x3bface25	0.007653969
216	0xbd26ee8f	-0.04075485
217	0x3b986f54	0.004651943
218	0xbd227658	-0.039663643
219	0xbd439aba	-0.04775498
220	0xbcf729d9	-0.030171322
221	0x3ce57955	0.028011957
222	0x3b3cb5da	0.0028794915
223	0x3cdf40b4	0.027252533
224	0xbd0f9391	-0.03505284
225	0xbaec4b39	-0.0018027789
226	0xbd052db2	-0.03251428
227	0x3cab83b7	0.02093683
228	0xbc049da0	-0.008094221
229	0xbd271738	-0.040793628
230	0x3bc3458c	0.0059592184
231	0xbc23061f	-0.00995019
232	0xbcd8be72	-0.026457999
233	0xbc871f47	-0.016494406
234	0xbcaa866a	-0.020816047
235	0x3a4d4824	0.0007830879
236	0x3ceac172	0.028656695
237	0x3c187c1c	0.009306934
238	0x3cca5834	0.024700262
239	0x3cbc7b36	0.02300797
240	0xbc29c27a	-0.010361308
241	0x3a78edc7	0.0009495881
242	0xbd38efcc	-0.045150563
243	0xbd06e653	-0.032934498
244	0xbd0dd0c6	-0.03462293
245	0xbc32d2a5	-0.010914479
246	0xbbf58699	-0.007492852
247	0xbd1e5940	-0.038659334
248	0x3c04ff4a	0.008117506
249	0xbd22dc3f	-0.039760824
250	0xbcf6470b	-0.030063173
251	0x3cdde596	0.027087014
252	0x3c675be4	0.0141210295
253	0x3ba121f8	0.0049173795
254	0x3cc51791	0.024059089
255	0xbc28016d	-0.010254246

bias f4 [128]
0	0x3c4a3c94	0.0123435445
1	0x3d54843c	0.05188392
2	0x3ce6be87	0.028167022
3	0xbc73ca42	-0.014879765
4	0xbc9c7753	-0.019099867
5	0xbda94591	-0.08265222
6	0xbc75be6d	-0.014999014
7	0x3d008105	0.031373043
8	0x3cd5afce	0.026084807
9	0x3d370497	0.04468211
10	0x3ced28bd	0.02895009
11	0x3cec0894	0.028812684
12	0x3d6687ea	0.05628196
13	0xbaf7e008	-0.0018911371
14	0x3c8569bd	0.016285772
15	0xbd9214e3	-0.0713289
16	0x3d2bd01d	0.04194652
17	0x3d5061d2	0.05087454
18	0xbd67766f	-0.05650943
19	0xbb94ade9	-0.0045373333
20	0xbc2f1961	-0.010687203
21	0xbcd5cda3	-0.026099032
22	0x3c6d3188	0.014477141
23	0x3d6abe02	0.05731011
24	0xbc51838a	-0.012787709
25	0x3de94c82	0.11391546
26	0x3d8409f6	0.064472124
27	0x3cdc47e0	0.026889741
28	0x3c7a197f	0.015264868
29	0x3d76c25f	0.06024396
30	0x3d06f3fb	0.03294752
31	0xbd6fa2ad	-0.05850475
32	0xbc959644	-0.018260129
33	0xbc61ee95	-0.013789793
34	0xbd050bf0	-0.032482088
35	0xbcb94d1f	-0.022619782
36	0xbc55dc14	-0.013052959
37	0xbcc0fa33	-0.023556804
38	0xbcf05573	-0.02933762
39	0xbb07df0f	-0.0020732319
40	0xbbf89ac9	-0.007586811
41	0x3cb72642	0.02235711
42	0x3d3744b8	0.04474327
43	0x3d1b14a9	0.0378615
44	0x3d36fcd9	0.044674728
45	0x3c76ed55	0.015071233
46	0xbc449a9a	-0.0119997505
47	0x3d23d3b4	0.039996818
48	0x3c9b59ef	0.018963782
49	0xbd8d7395	-0.06906811
50	0x3d250e0e	0.040296607
51	0x3c0267c0	0.007959306
52	0x3e0489d5	0.12943204
53	0x3cec33fa	0.028833378
54	0xbc1ae9f9	-0.0094551975
55	0x3abfa431	0.0014621076
56	0x3b011b69	0.0019700176
57	0x3d0f0162	0.034913428
58	0x3cd17d41	0.025572421
59	0xbd3f6bf5	-0.046733815
60	0x3b2176e7	0.0024637522
61	0xbcdf1307	-0.027230753
62	0x3d17ac0f	0.037029322
63	0x3bf7a72b	0.00755777
64	0xbd1e61db	-0.03866754
65	0x3cb1622d	0.02165326
66	0x3c89c27b	0.016816368
67	0x3c774646	0.015092438
68	0xbc8fdc89	-0.017561214
69	0x3d87229f	0.065984
70	0xbd92cd9c	-0.07168123
71	0xbc9decca	-0.019277949
72	0x3c97d56b	0.018534383
73	0x3d0f3c81	0.03496981
74	0xbd27826e	-0.04089587
75	0x3c967783	0.018367535
76	0x3d0768a5	0.03305878
77	0xbd3eebc2	-0.046611555
78	0x3d302de9	0.043012533
79	0xbba2bab6	-0.0049661053
80	0xbd0500c0	-0.03247142
81	0xbccff097	-0.025383277
82	0xbba4142d	-0.005007288
83	0xbd0727c8	-0.032996923
84	0xbcc7f6aa	-0.02440961
85	0xbd14f215	-0.03636368
86	0xbbaa25fd	-0.005192517
87	0x3c241000	0.01001358
88	0x3d862cb5	0.06551496
89	0xbc9620ad	-0.018326128
90	0xbbb9461e	-0.0056541106
91	0xbd569728	-0.052390248
92	0x3d8b8668	0.06812745
93	0xbd85b58b	-0.06528767
94	0x3d9e8747	0.07740646
95	0x3cf3dff7	0.02976988
96	0xbc7c4a66	-0.015398597
97	0x3d31446f	0.043278154
98	0x3d50bcf5	0.050961453
99	0xbc8b033c	-0.016969316
100	0x3dc90811	0.09815992
101	0x3da495af	0.080363624
102	0x3da70480	0.08155155
103	0x3d1c912e	0.03822439
104	0x3c3a9168	0.011387207
105	0x3d592bb3	0.05302019
106	0x3c6eda5a	0.014578426
107	0xbbf9d936	-0.0076247705
108	0x3cabb659	0.020960974
109	0x3d052d80	0.032514095
110	0x3cd1815d	0.02557438
111	0x3c8361a5	0.016037771
112	0x3d1420ed	0.036164213
113	0xbceda735	-0.029010395
114	0x3d5e854e	0.054326348
115	0x3cab9fa9	0.020950155
116	0x3d9d34d4	0.07676092
117	0xbd007033	-0.031357
118	0xbcd5c1c4	-0.026093371
119	0x3d416b6d	0.04722159
120	0x3d65c5d4	0.056096867
121	0x3b65ddcc	0.0035074828
122	0x3db85825	0.09001187
123	0xbcad309b	-0.021141341
124	0x3d5e3669	0.05425111
125	0x3d2bf213	0.041978907
126	0xbd25eb45	-0.040507574
127	0x3dbe2166	0.09283714

weight f4 [64, 128]
0	0x3d3f31e4	0.04667844
1	0x3d06ee62	0.032942183
2	0x3d9c086f	0.07618796
3	0x3d90786a	0.07054217
4	0x3d0f7845	0.035026807
5	0x3d525e50	0.051359475
6	0xbd497627	-0.049184944
7	0xbd9c9897	-0.07646292
8	0x3cb1a656	0.02168576
9	0xbd72909f	-0.059219953
10	0xbd63efd7	-0.05564865
11	0xbd198eee	-0.037489824
12	0x3d831cd1	0.06401981
13	0x3d5082f6	0.050906144
14	0xbd5dd70e	-0.05416017
15	0xbd9dbfb4	-0.0770258
16	0xbd7a5b69	-0.06112233
17	0xbcb6d5f5	-0.02231882
18	0xbcc73f0c	-0.024322055
19	0x3c30d4fd	0.010792968
20	0x3d67f79e	0.05663263
21	0xbba82418	-0.005131256
22	0xbc783fe4	-0.015151951
23	0x3b5a171c	0.0033277934
24	0x3d1c52a3	0.038164746
25	0xbb38de1e	-0.0028208564
26	0x3d88033c	0.06641242
27	0xbd99767c	-0.07493302
28	0x3d26f804	0.04076387
29	0x3d8b46bf	0.06800603
30	0x3d99310d	0.07480059
31	0x3d8c5fe4	0.06854227
32	0xbc43d379	-0.0119522745
33	0xbd840fba	-0.06448312
34	0x3d940878	0.07228178
35	0x3d57c49b	0.052677732
36	0x3d777410	0.06041342
37	0x3da3d3ce	0.07999383
38	0xbcecb4b9	-0.028894769
39	0x3c403ff9	0.011734002
40	0xbd8b1d72	-0.067927256
41	0xbd1fda7e	-0.03902673
42	0x3d8ff422	0.070289865
43	0xbd87a5e1	-0.06623436
44	0xbd8f54b9	-0.069985814
45	0x3d5304eb	0.051518362
46	0x3c91cab3	0.01779685
47	0xbcb77a8d	-0.022397304
48	0xba7c9e18	-0.0009636595
49	0x3dc10552	0.09424843
50	0x3bb70f97	0.0055865753
51	0x3cb58037	0.022155864
52	0x3ccfd9a9	0.025372343
53	0xbd1a064e	-0.03760367
54	0xbd895a8b	-0.06706723
55	0x3d551d93	0.052030157
56	0x3c009010	0.007846847
57	0x3d29c2d2	0.04144556
58	0xbd90edb8	-0.07076591
59	0x3d137bce	0.03600674
60	0xbd0b3c70	-0.033993185
61	0x3db243e1	0.08704353
62	0x3d5ebcf1	0.054379407
63	0x3d0eac35	0.0348322
64	0xbd438a19	-0.047739122
65	0xbd0e26f5	-0.03470512
66	0xbcdc09c1	-0.02686012
67	0xbcef8a79	-0.029240834
68	0x3da18c31	0.078880675
69	0xbd615988	-0.055017024
70	0x3d63003d	0.05542015
71	0xbbd00ae4	-0.0063489545
72	0xbd804001	-0.06262208
73	0xbd22e8f3	-0.03977294
74	0x3da2813e	0.07934807
75	0x3d93340f	0.07187664
76	0xbc01ca20	-0.0079217255
77	0xbbd89042	-0.0066089937
78	0x3d33f669	0.043936167
79	0x3ce63cde	0.028105196
80	0x3d1ccb4b	0.038279813
81	0xbd15e606	-0.03659632
82	0xbcd3878e	-0.025821473
83	0x3d41af3f	0.04728627
84	0x3d6d389a	0.057915308
85	0x3b228c50	0.002480287
86	0xbd97f727	-0.074201874
87	0xbd7e868f	-0.062140044
88	0x3c17d941	0.009268106
89	0xbd4f6652	-0.05063469
90	0x3d94d098	0.072663486
91	0x3ca4a6f0	0.020099133
92	0xbc711fd0	-0.014717057
93	0xbc727f58	-0.014800869
94	0xbc89014a	-0.016724247
95	0xbd6ee860	-0.05832708
96	0xbdb2b878	-0.08726591
97	0x3d9e7886	0.07737832
98	0x3d092c46	0.033489488
99	0xbd168b17	-0.03675374
100	0xbb8c84ae	-0.0042882776
101	0x3d405739	0.046958182
102	0x3c8d2be9	0.017232852
103	0xbc290a20	-0.010317355
104	0xbda1788d	-0.07884321
105	0xbd265433	-0.040607642
106	0xbd9647a3	-0.07337882
107	0x3c9bb5b9	0.01900755
108	0xbcad7b90	-0.021177083
109	0xbd948efe	-0.07253836
110	0x3d49f827	0.049308922
111	0xbd8e560d	-0.06950007
112	0xbd1a0c97	-0.037609663
113	0xbd56fa0e	-0.052484564
114	0xbda79517	-0.081827335
115	0xbd811ee2	-0.063047186
116	0x3c54759c	0.012967493
117	0xbd40eb63	-0.047099482
118	0xbc3e682c	-0.011621516
119	0x3de87f55	0.11352412
120	0x3ab9a819	0.0014164477
121	0xbc9b2907	-0.018940462
122	0x3dcc3a04	0.09972003
123	0x3d93682e	0.07197605
124	0xbcefd289	-0.029275196
125	0x3dcbd497	0.09952658
126	0xbda25daa	-0.07928021
127	0x3d37acf0	0.04484266
128	0x3cfb92bf	0.030709622
129	0x3cdca5c9	0.026934521
130	0xbd05e00c	-0.03268437
131	0x3999f100	0.00029361993
132	0x3bb14568	0.005409885
133	0x3dac5265	0.08414153
134	0x3d70939d	0.058734525
135	0xbc739512	-0.014867084
136	0xbda772b1	-0.081761725
137	0xbdaf0aef	-0.08547007
138	0xbdb1616e	-0.08661161
139	0x3d9efe6a	0.077633694
140	0xbcd90ad9	-0.02649443
141	0x3d2f93ff	0.04286575
142	0x3acbbf09	0.0015544604
143	0xbd8a2959	-0.06746168
144	0xbcad42af	-0.021149961
145	0x3d370ea5	0.0446917
146	0xbc8e571e	-0.017375525
147	0x3d339961	0.043847445
148	0xbd079eda	-0.033110477
149	0x3caab62d	0.020838821
150	0x3d2ff94e	0.042962365
151	0xbc597552	-0.0132726
152	0xbd8f6800	-0.07002258
153	0xbdb230af	-0.08700692
154	0xbd684cf9	-0.05671403
155	0xbd959268	-0.073033154
156	0xbd946944	-0.0724664
157	0xbd36694d	-0.044534016
158	0xbd4e972e	-0.050437145
159	0xbd87c583	-0.06629469
160	0x3b8a27b9	0.004216161
161	0xbd272bc5	-0.040813226
162	0x3d465142	0.048417337
163	0xbb00a0b6	-0.0019627041
164	0xbc0819a2	-0.008306893
165	0xbcc0784c	-0.023494862
166	0xbc3981d8	-0.011322461
167	0xbda58bd5	-0.080833115
168	0xbca2bf31	-0.019866558
169	0x3bf36392	0.007427641
170	0x3b24da2f	0.0025154462
171	0xbda07976	-0.07835667
172	0xbd23979f	-0.03993952
173	0x3daf17cf	0.08549463
174	0x3d696554	0.0569814
175	0x3c12ee83	0.008967998
176	0xbdaa2b03	-0.08308985
177	0x3d8f9697	0.070111446
178	0x3d95d431	0.07315863
179	0xbbf69c32	-0.007525944
180	0x3d732abe	0.059366934
181	0xbc166795	-0.009179969
182	0xbd37a1fd	-0.04483222
183	0xbd0b0a36	-0.033945285
184	0xbc2213fd	-0.009892461
185	0x3b198be4	0.0023429329
186	0x3d92af4a	0.0716234
187	0xbd1c4832	-0.03815479
188	0x3c81808c	0.015808366
189	0x3b517d33	0.0031965494
190	0x3ca2fcbf	0.01989591
191	0xb9d4a2b0	-0.00040557003
192	0x3d8720da	0.06598063
193	0xbd8191d3	-0.06326642
194	0x3cfb7540	0.030695558
195	0x3db08d79	0.08620734
196	0x3c7ad322	0.015309127
197	0xbb72da1f	-0.003705628
198	0x3d609922	0.05483354
199	0xbcfd56b1	-0.030925127
200	0xbd65164e	-0.055929475
201	0xbd1a71d6	-0.03770622
202	0xbda47199	-0.080294795
203	0x3d5f230d	0.054476786
204	0xbd4776eb	-0.048697393
205	0xbd03329b	-0.032030683
206	0xbd48e55e	-0.049046867
207	0x3b68fe06	0.00355518
208	0xbd446669	-0.04794923
209	0x3d5c2b24	0.05375208
210	0xbd34d3da	-0.04414735
211	0x3c77aa53	0.015116292
212	0x3d55689c	0.052101716
213	0xbc6fb384	-0.014630202
214	0x3d6939eb	0.05694
215	0x3d4c3588	0.04985574
216	0xbd600e59	-0.054701183
217	0x3d94f1a4	0.07272652
218	0xbcbc95be	-0.023020621
219	0x3c012c55	0.007884105
220	0x3d8572d2	0.06516041
221	0xbd3d05e5	-0.0461482
222	0x3d0c087b	0.034187775
223	0x3d84bcc8	0.0648132
224	0x3c63d110	0.013904825
225	0xbdaf05ac	-0.08546004
226	0x3dab51bb	0.08365198
227	0x3c8117d3	0.01575843
228	0xbcb58d16	-0.022162002
229	0xbaf23b1a	-0.0018480748
230	0x3d744358	0.059634537
231	0xbdb35b95	-0.08757702
232	0x3d5930e7	0.053025153
233	0x3d098c0e	0.033580832
234	0xbd800691	-0.062512524
235	0xbcbeb3bb	-0.023279062
236	0xbd1c3285	-0.038134117
237	0xbda95437	-0.08268016
238	0xbd8e1c99	-0.06939048
239	0x3d008e45	0.03138568
240	0xbdaa8919	-0.083269306
241	0x3d8d592c	0.06901774
242	0xbcb2fca2	-0.02184898
243	0xbda87894	-0.082261235
244	0xbd9b3e20	-0.07580209
245	0xbd93659b	-0.07197114
246	0x3d7eaced	0.062176634
247	0xbd469671	-0.048483316
248	0xbd4412b9	-0.047869418
249	0xbd79d9c4	-0.060998693
250	0x3d8063ca	0.06269033
251	0xbca10184	-0.019654043
252	0xbd38d6de	-0.04512679
253	0x3d855974	0.065112025
254	0x3d3f42fc	0.04669474
255	0x3cdb10ee	0.026741471

bias f4 [64]
0	0xbc9c8ea8	-0.019110993
1	0xbdaf7678	-0.08567518
2	0x3ce86897	0.028370185
3	0xbcbc91c0	-0.023018718
4	0x3e225287	0.15851794
5	0xbc2f47fa	-0.010698313
6	0x3dbb96f8	0.091596544
7	0x3d75fa82	0.060053356
8	0x3e9316fb	0.2872847
9	0x3b947de8	0.0045316108
10	0xbac5beac	-0.0015086732
11	0xbd4bf50f	-0.049794253
12	0xbd83cb87	-0.06435304
13	0xbdea2cd8	-0.114343345
14	0xbda3e9e1	-0.08003593
15	0x3cc48f89	0.023994224
16	0xbbe66065	-0.007030534
17	0x3e1238df	0.14279507
18	0x3e259252	0.16169098
19	0x3d8ebf17	0.06970041
20	0x3d075ab7	0.033045497
21	0x3bd77546	0.0065752594
22	0x3d5ef740	0.054435015
23	0x3bd0d5bf	0.006373137
24	0xbd7012cf	-0.058611687
25	0xbdfd8b2b	-0.1238006
26	0x3dd966ac	0.10615286
27	0x3c912e7e	0.017722365
28	0xbd6af4df	-0.057362434
29	0xbe15ade7	-0.1461712
30	0x3e3c7966	0.18405685
31	0x3e070ead	0.13189192
32	0x3df1f973	0.11815157
33	0x3d46e981	0.04856253
34	0xbd788c65	-0.060680766
35	0xbc95435f	-0.018220602
36	0x3d472f6a	0.048629202
37	0xbda8ca74	-0.0824174
38	0xbd4210b8	-0.047379225
39	0xbcbff801	-0.023433687
40	0x3dee2013	0.116272114
41	0xbc8d9570	-0.017283171
42	0xbd12332f	-0.035693344
43	0x3d92bac3	0.07164528
44	0x3d4ae1eb	0.04953186
45	0x3c242b5c	0.010020103
46	0xbd9efde9	-0.07763273
47	0xbbe83903	-0.0070868745
48	0xbe0014a2	-0.12507871
49	0xbc44e2e8	-0.012016989
50	0x3dda8f1e	0.10671829
51	0x3e4d0cea	0.20024458
52	0xbba6eb23	-0.0050939484
53	0xbd0aaa17	-0.033853617
54	0xbdaeac0e	-0.085289106
55	0x3d5de3c1	0.05417228
56	0x3d3477ed	0.044059683
57	0x3e05a833	0.13052444
58	0xbdec91f4	-0.11551276
59	0x3e190211	0.14942195
60	0xbc51da92	-0.012808459
61	0x3d456d86	0.048200153
62	0x3d281272	0.041033216
63	0xbc36850f	-0.011140122

weight f4 [10, 64]
0	0xbd09d328	-0.03364864
1	0xbdf4be62	-0.11950375
2	0xbdcb39a4	-0.099231035
3	0xbcc9cf46	-0.024634968
4	0x3d85de65	0.06536559
5	0xbcf23e68	-0.029570773
6	0xbdb65257	-0.08902424
7	0x3e9629ac	0.29328668
8	0x3cb5719b	0.022148898
9	0xbe1a9df1	-0.15099312
10	0xbcb4a29b	-0.022050193
11	0x3d2a8444	0.041630045
12	0x3d719fe2	0.058990367
13	0x3e669462	0.22517541
14	0xbd30c5c3	-0.04315735
15	0x3e10bd00	0.14134598
16	0xbe7d117c	-0.24713701
17	0x3e1953ff	0.14973448
18	0x3e0371cc	0.12836379
19	0xbda81f33	-0.08209076
20	0xbe731ad4	-0.23740703
21	0xbe1a9125	-0.1509443
22	0x3dcb7abb	0.09935518
23	0x3ddf5872	0.109055415
24	0x3d9dc5b2	0.07703723
25	0xbdb2a5ef	-0.087230556
26	0x3df55405	0.11978916
27	0xbe9ffddf	-0.31248376
28	0xbdbfcf39	-0.093656965
29	0x3dbcc9d1	0.09218181
30	0xbd694541	-0.05695081
31	0xbe0f135a	-0.13972226
32	0x3e190fa3	0.14947371
33	0xbd391b36	-0.045191966
34	0xbd4173b1	-0.047229473
35	0xbe6e1660	-0.23250723
36	0x3d2e3409	0.042530093
37	0x3dddfb8e	0.10838996
38	0x3d8b6006	0.068054244
39	0x3dda3a47	0.10655647
40	0x3e14f74c	0.14547461
41	0xbe0d6525	-0.13808115
42	0x3e288e59	0.16460551
43	0xbda98b08	-0.08278471
44	0xbd5587bc	-0.0521314
45	0x3e4c9efd	0.19982524
46	0x3dc49196	0.09598081
47	0x3e00cc34	0.12577897
48	0xbe459b16	-0.19297442
49	0xbc8b1970	-0.016979903
50	0xbe32a7bf	-0.17446803
51	0x3d96666a	0.07343753
52	0x3ce20694	0.027591027
53	0x3dae35e7	0.08506375
54	0xbdbfd11c	-0.09366056
55	0x3e8bffc4	0.2734357
56	0xbe56898a	-0.20950904
57	0x3e86446b	0.26224074
58	0xbab1fffe	-0.001358032
59	0xbb1c3853	-0.0023837283
60	0xbdbe5951	-0.092943795
61	0x3e2f1161	0.17096473
62	0x3e331108	0.17486966
63	0xbd6b48b5	-0.057442386
64	0x3d6e387f	0.058159348
65	0x3dd352e3	0.10318544
66	0xbde859ff	-0.113452904
67	0x3d6d6154	0.057954147
68	0xbc88d8bc	-0.01670491
69	0xbd0c2a96	-0.0342203
70	0xbe9d41b4	-0.3071419
71	0xbd4ea5f2	-0.050451227
72	0xbe77d848	-0.24203598
73	0xbe8ff93a	-0.28119832
74	0x3da6ec91	0.0815059
75	0x3e7f5ff4	0.24938947
76	0xbe511828	-0.20419371
77	0xbe57e522	-0.21083501
78	0xbe098692	-0.13430241
79	0xbe7c94ed	-0.24666186
80	0x3d938073	0.07202234
81	0x3dfa4eeb	0.12222084
82	0xbe8f2fc4	-0.2796613
83	0x3d82dbf8	0.06389612
84	0xbe197095	-0.14984353
85	0x3e83a4da	0.2571171
86	0xbce74c0c	-0.028234504
87	0x3d7c8284	0.061647907
88	0xbddf3d60	-0.10900378
89	0xbdb4f1df	-0.08835196
90	0x3e8de873	0.27716407
91	0x3ebc265c	0.36748016
92	0xbdda0703	-0.10645869
93	0xbe028c69	-0.12748875
94	0x3e1b3c3d	0.15159698
95	0xbe955b2b	-0.29171118
96	0x3e974e18	0.29551768
97	0x3d290834	0.04126759
98	0xbd574464	-0.052555457
99	0xbdfd08e8	-0.12355214
100	0x3ea63742	0.32464033
101	0xbdb258e8	-0.08708364
102	0x3d9a13c6	0.07523303
103	0xbdc88a27	-0.097919755
104	0x3d415b60	0.047206283
105	0xbdbe2725	-0.0928481
106	0xbe553748	-0.2082187
107	0xbd558bf4	-0.052135423
108	0xbd8266e0	-0.06367278
109	0x3e974272	0.2954288
110	0xbd1082fe	-0.035281174
111	0xbe2daa7c	-0.16959566
112	0x3e1c50b6	0.15265164
113	0xbe0ebcb0	-0.13939166
114	0x3e8da69c	0.27666175
115	0xbe5e81de	-0.21729228
116	0xbd0f92b9	-0.035052035
117	0xbdafd365	-0.08585242
118	0xbd7bd51e	-0.06148254
119	0xbeaf0244	-0.34181416
120	0xbea78e58	-0.32725787
121	0x3e377a37	0.17917715
122	0x3dd185b2	0.102305785
123	0xbde67914	-0.112535626
124	0xbd1b9c3b	-0.03799079
125	0x3e03de00	0.12877655
126	0x3e77d6f9	0.242031
127	0x39aad46d	0.00032583196
128	0x3d2112e7	0.039324667
129	0x3c32d3f2	0.0109147895
130	0xbdb06642	-0.08613254
131	0xbcc3f721	-0.023921551
132	0xbdff1c09	-0.12456519
133	0x3ca43dd8	0.02004902
134	0x3dada270	0.08478248
135	0x3e8d0765	0.27544704
136	0xbe6f528f	-0.23371337
137	0x3e1808b6	0.14847073
138	0xbd90fbd8	-0.070792854
139	0x3d95cad9	0.07314081
140	0x3e33aa1c	0.1754536
141	0x3e282aff	0.16422652
142	0x3e5e8950	0.21732068
143	0x3e134b8b	0.14384286
144	0x3e595ea8	0.21227515
145	0x3d474a96	0.048655115
146	0xbe3f04a4	-0.18654114
147	0xbc085560	-0.008321136
148	0x3e321cf2	0.17393854
149	0xbda05e27	-0.07830458
150	0x3d10b88f	0.03533226
151	0x3de30154	0.11084238
152	0xbdbbad6d	-0.09163938
153	0x3e36a755	0.1783727
154	0xbe028e5f	-0.12749623
155	0x3d20df23	0.0392753
156	0x3df09c34	0.117485434
157	0x3e25b45a	0.1618208
158	0xbdb315c9	-0.087443896
159	0xbe7c5884	-0.24643141
160	0x3e4823ad	0.19544859
161	0xbda9dddf	-0.08294272
162	0xbe1202c7	-0.14258872
163	0xbcfe487a	-0.031040419
164	0x3daeef27	0.085417084
165	0x3be7717d	0.0070630894
166	0x3cb57ce5	0.02215428
167	0x3d1edd96	0.03878554
168	0x3e150d30	0.14555812
169	0xbdac6b3e	-0.08418892
170	0xbdd10466	-0.10205917
171	0xbe4e8a6a	-0.20169988
172	0x3c4faab3	0.012674975
173	0x3e1ff262	0.15619805
174	0xbcd3fbbd	-0.025876874
175	0xbe567130	-0.20941615
176	0xbdc971d6	-0.098361656
177	0x3e15b01a	0.14617959
178	0xbe821814	-0.25408995
179	0xbe5495f8	-0.20760334
180	0x3dcba99c	0.0994446
181	0x3e310de1	0.1729045
182	0x3e04d6fc	0.12972635
183	0x3bc23d56	0.005927722
184	0xbeb65f3a	-0.35619527
185	0xbe974c29	-0.29550293
186	0xbd694f49	-0.056960378
187	0xbe3568bd	-0.17715736
188	0x3d5f89ad	0.054574657
189	0x3d0815a2	0.033223756
190	0xbe258374	-0.16163427
191	0x3dd66d4e	0.10470067
192	0x3c50baf4	0.012739886
193	0x3d26b515	0.040700037
194	0xbde5e4ac	-0.11225256
195	0x3d07f1cc	0.03318958
196	0xbdfaab90	-0.12239754
197	0x3d829fae	0.06378113
198	0xbe344318	-0.17603719
199	0xbd1be764	-0.03806247
200	0x3e997519	0.2997215
201	0x3de2b852	0.110703126
202	0x3d1eb260	0.03874433
203	0x3cfc431a	0.030793715
204	0x3e2207f0	0.1582334
205	0xbdecfea0	-0.11572003
206	0x3e29fbe6	0.16599998
207	0x3d4b4b37	0.049632277
208	0x3e1aed87	0.15129672
209	0x3e1daaec	0.15397233
210	0x3d21f235	0.039537627
211	0xbd0783a2	-0.03308452
212	0xbdebb999	-0.11510009
213	0x3e45a37f	0.1930065
214	0x3de73dd9	0.112910934
215	0xbe31c274	-0.17359334
216	0xbdd63dd5	-0.10461012
217	0x3d5c0177	0.053712334
218	0x3e2b0e64	0.16704708
219	0xbde7e10e	-0.11322223
220	0x3deb44f2	0.1148776
221	0x3d9d88d4	0.076921135
222	0xbe79db33	-0.24400024
223	0x3e422745	0.18960293
224	0xbca4ba9b	-0.020108512
225	0x3da6a7cf	0.08137476
226	0xbdd0ce8d	-0.101956464
227	0xbe60e325	-0.21961649
228	0x3e1b592f	0.1517074
229	0xbe6aa9fa	-0.22916403
230	0xbe000de5	-0.125053
231	0x3e03bcc1	0.12864973
232	0x3d9254e0	0.07145095
233	0xbda042a2	-0.07825209
234	0xbe8df2bf	-0.27724263
235	0xbe07a207	-0.13245402
236	0xbd46498f	-0.048409995
237	0x3e5eefef	0.21771215
238	0x3d484d6c	0.04890196
239	0x3e891b3d	0.26778594
240	0xbe11de3a	-0.14244929
241	0xbcf851a5	-0.030312369
242	0x3e6f2509	0.23353972
243	0xbe09a605	-0.13442238
244	0xbd27d8fa	-0.04097841
245	0xbcc58b65	-0.02411432
246	0xbe59c1eb	-0.2126538
247	0x3e648ee5	0.22320135
248	0x3e0973e9	0.13423122
249	0x3e530d20	0.20610476
250	0x3dd603fa	0.10449977
251	0xbe456960	-0.19278479
252	0x3d1f2ea6	0.038862847
253	0xbda14ae6	-0.07875614
254	0x3e884511	0.26615193
255	0xbe5bccdb	-0.21464865

bias f4 [10]
0	0x3d155593	0.036458563
1	0x3e3f66c7	0.1869155
2	0xbcc3abef	-0.023885695
3	0xbd813d37	-0.06310504
4	0xbe6a303f	-0.22869967
5	0x3f3125b2	0.69198143
6	0xbbf9b8c2	-0.007620902
7	0xbdfc7e91	-0.12328828
8	0xbe2b4777	-0.1672648
9	0xbedc278d	-0.42998925
