models/conf_6.pt (torch, 441470 bytes, 6 tensors)

weight f4 [128, 784]
000000 40 a3 c9 3c f2 14 0c 3d 0a fc a8 3c 44 a6 75 bc
       0.024613976 0.034199663 0.020627994 -0.014993254
000010 4d fd 48 bc f7 dc f4 bc 0c d2 f8 3c 00 72 a0 bc
       -0.012267423 -0.02989052 0.030373596 -0.01958561
000020 51 2d a1 bc d8 24 21 ba 6b 2b e8 3c fe 54 b8 3d
       -0.019674929 -0.0006147153 0.028341016 0.09000586
000030 29 61 b5 bb 62 60 96 bd 4d 6c 7c bc a6 81 09 3c
       -0.005535264 -0.07342602 -0.01540668 0.008392727
000040 46 18 78 3d 83 8d b3 3d f3 f5 99 bb 13 a0 f2 bc
       0.060570024 0.087672256 -0.004698509 -0.029617345
000050 a8 49 b9 bc 14 95 8a bb 2d 44 8f 3c 57 48 cb 3c
       -0.02261813 -0.0042291973 0.017488563 0.024814768
000060 be ad 65 3b 80 5b e4 3c a5 4a 91 3b 7b de 51 bc
       0.0035046185 0.027875662 0.004433947 -0.012809391
000070 58 b5 48 3c d0 ff b6 bc d6 13 cf 3c 53 1b 0b 39
       0.012250267 -0.022338778 0.025278013 0.00013266252
000080 7e d0 06 bd 9c 46 ca 3c 12 53 35 3b 51 1f 62 bd
       -0.032913677 0.024691872 0.0027667922 -0.055205647
000090 59 05 1f 3d f2 13 a1 3c 58 8a 84 3d 1e aa 8c 3d
       0.03882346 0.019662831 0.064716995 0.06868385
0000a0 7a 44 52 3d 79 a2 d8 3c 13 64 63 3d fe 86 38 3d
       0.051334836 0.02644466 0.05551536 0.045050614
0000b0 bb ad 1b 3d 1a e2 c5 3c 31 12 a1 3d a5 42 1c 3d
       0.03800748 0.024155665 0.07864798 0.038149495
0000c0 19 8a d1 3c 56 89 b0 3c d9 b4 91 bb dd 74 c6 3c
       0.025578545 0.021549862 -0.0044466075 0.024225647
0000d0 94 71 03 bd c7 ed a5 bc 0b 70 6a bc 12 16 b8 3c
       -0.03209074 -0.020254983 -0.01430894 0.022471461
0000e0 7b 9f ff 3c cb fe 73 3c fa e6 07 bd e0 81 07 bb
       0.031203976 0.01489229 -0.03317926 -0.0020676777
0000f0 9b 73 77 3b 7b 53 a0 3c 23 d8 9c 3c 82 28 85 3c
       0.0037758115 0.019571057 0.01914603 0.016254667
000100 fd 16 07 3d d3 9c c9 3a 51 7e 50 bc cd ab b2 bb
       0.032980908 0.001538182 -0.012725429 -0.005452609
000110 21 33 31 bd 5a e3 7d bc 6b e6 84 bc 63 7c 1c bd
       -0.04326165 -0.015496099 -0.016223153 -0.038204562
000120 1d c5 01 bd d7 26 92 3c 38 83 04 3d 10 e4 8d 3d
       -0.031682122 0.017840786 0.032351702 0.06928265
000130 e9 36 ff 3b 2c d9 1a 3b 62 92 ac bc 67 30 05 bd
       0.007788528 0.002362798 -0.021065895 -0.032516863
000140 ef 35 08 3c c1 4b f6 3c da 5e da bc d6 33 e2 3b
       0.00831364 0.03006542 -0.026656557 0.006903152
000150 03 27 84 bc 20 3e d0 bb cc 28 b3 3c 93 78 0b 3d
       -0.016131883 -0.006355062 0.02187004 0.034050535
000160 5f 42 12 bc 55 13 ae bc 92 fa 67 3c 0f 3e db 3c
       -0.008926957 -0.021249453 0.014158862 0.02676299
000170 61 c2 56 bc 71 d5 57 bc 3a 7b b2 bc bd 72 1e 3c
       -0.013107867 -0.013173447 -0.021787275 0.00967091
000180 da e1 0f 3c 9c c0 56 3c 04 e7 a9 bc 1c 7e da bc
       0.008781875 0.013107445 -0.02074004 -0.026671462
000190 97 46 c3 bc af aa c9 bc 47 bb 37 3c a6 3f 9a bc
       -0.02383737 -0.024617521 0.011214084 -0.018829178
0001a0 0a 1f ab bc 7d fd d7 3c 8b 9b ce 3c 66 33 54 3c
       -0.020888824 0.02636599 0.025220653 0.0129517075
0001b0 3b 8b c1 bb b9 94 bb 3c c7 be a3 bc c1 9f d0 3c
       -0.00590649 0.022898065 -0.01998843 0.025466802
0001c0 cd f9 f0 bc 64 e9 72 3c 3e b8 d3 3c ff 30 42 bc
       -0.02941599 0.0148261525 0.02584469 -0.011852502
0001d0 31 6f 97 bc f2 42 69 bc e4 bf 6d 3c 14 dd da bc
       -0.018485637 -0.014237152 0.014511082 -0.026716746
0001e0 f1 b7 9a bc e9 95 a8 bc 78 e7 a3 3c 06 c3 1a 3d
       -0.018886538 -0.020579295 0.020007834 0.037783645
0001f0 e4 9b 06 bd 9d 73 0f bd 2e 30 96 3c 49 6b ff bc
       -0.032863513 -0.035022367 0.01833352 -0.031179087
000200 05 e3 37 3c df ce ec bc 63 b3 f6 bc 75 f1 d7 bc
       0.011223559 -0.028907238 -0.030114835 -0.026360253
000210 8e 37 31 3d a1 5d d2 3b 22 60 e9 bb 4f 74 a0 3c
       0.04326587 0.006419853 -0.0071220556 0.01958671
000220 aa d5 33 3d de a8 1f 3d 9a 65 50 3c f5 1b 52 3b
       0.043904938 0.038979404 0.012719536 0.003206012
000230 55 02 b4 3c 54 ca 02 3d e5 ff 8c bc e8 65 bb 3c
       0.021973768 0.031931236 -0.017211864 0.022875741
000240 f8 c8 33 3c f7 cb 3e bb d0 6a 36 3d dd 56 84 3c
       0.010973208 -0.0029113272 0.044535458 0.0161547
000250 76 a2 9c bc bf 36 bd 3c 9c 23 32 bc 38 76 0b 3d
       -0.019120436 0.023097394 -0.010872748 0.03404829
000260 91 f3 3f 3c 7f 9d 16 3b 9d 94 5b 3c bc 85 1d bb
       0.011715786 0.0022982059 0.013402131 -0.002403601
000270 37 47 27 bd 2a da 0a bd 53 78 08 bd a9 76 03 3c
       -0.0408394 -0.033899464 -0.033317875 0.008023896
000280 6e f2 13 3a 87 12 db 3b 9a 3c bb bb 4f 4a 98 bb
       0.000564373 0.0066855582 -0.0057140114 -0.00464753
000290 72 bf a8 3b 88 87 15 3d ad 71 62 bc 61 74 71 3b
       0.005149775 0.036506206 -0.013821048 0.003684305
0002a0 90 b0 99 3c 6b 87 97 37 04 fc ec 3b 56 49 da 3b
       0.01876095 1.8063662e-05 0.007232191 0.0066615744
0002b0 c2 22 56 bb 40 16 8e bb e6 87 56 bc 8e 45 28 bc
       -0.0032674526 -0.0043361485 -0.013093924 -0.010270489
0002c0 3c 2e 38 3c 94 7c 2f 3d 93 37 a7 3c 82 51 91 bc
       0.011241492 0.042843416 0.020412242 -0.017739061
0002d0 07 fd 98 bc fc 11 ef 3c 53 17 51 3b 50 6d f5 bb
       -0.01867534 0.02918338 0.0031904771 -0.0074898377
0002e0 6b 67 1f bc 54 4c 3c bc 31 1e 91 bc 09 af a3 bc
       -0.009729247 -0.011492807 -0.017714592 -0.019980924
0002f0 aa 07 08 bd cd a2 29 3d 71 9a 92 3c b8 5f 24 3c
       -0.033210434 0.041415025 0.017895909 0.010032587
000300 6e 1b 60 3d bc 28 25 3d c3 a4 96 3c d0 c6 46 3c
       0.05471366 0.04032205 0.018389111 0.0121323615
000310 fe 83 0c 3d bc 49 23 3d c5 fa ae 3b 08 43 45 3d
       0.034305565 0.03986524 0.0053399527 0.04815963
000320 e4 7a 31 3d 84 cc 51 3d a1 b3 6b 39 90 d9 e2 bc
       0.04333009 0.051220432 0.00022478263 -0.027691633
000330 d7 0b 75 3c 38 a5 17 3c 81 11 20 3c 35 2b 51 bc
       0.014956436 0.0092557 0.009769798 -0.012766649
000340 b2 b2 90 bb 09 4d c5 3c 7b 98 8e bc 40 e8 c7 bc
       -0.0044158334 0.024084585 -0.017406693 -0.024402738
000350 b6 a3 45 bc 05 98 ea 3b fe e0 35 bd 77 2e c5 3c
       -0.0120629575 0.0071592354 -0.044404022 0.024070008
000360 17 35 c0 bc 33 9d d9 3c d3 dc f8 3c e0 c4 14 3d
       -0.023462815 0.026564216 0.030378735 0.036320567
000370 41 d1 30 3d f2 bd f8 3c 0f 62 91 3b 18 02 a1 bc
       0.04316831 0.03036401 0.0044367383 -0.019654319
000380 16 97 e7 3c 66 22 c2 3a 65 86 4f 3d 25 d1 1c 3d
       0.028270286 0.0014811277 0.050665278 0.038285393
000390 eb 42 81 3d 9e 80 f4 3c 46 c5 34 3b 07 b4 e2 3c
       0.06311592 0.029846486 0.0027583404 0.027673734
0003a0 a1 e4 ca bc 27 54 d7 bc 35 34 e0 3c 32 55 87 3c
       -0.024767222 -0.026285244 0.027368644 0.016520116
0003b0 f4 b6 85 bb b2 04 b8 3b 8a 17 74 3c 0a 7b 18 3d
       -0.0040806476 0.005615794 0.01489819 0.037226714
0003c0 63 ca f5 bc 56 23 d8 bc 97 07 21 bd 35 48 31 3c
       -0.030003732 -0.026384037 -0.03931388 0.010820438
0003d0 d0 6a 56 bc ae 7b 95 3c 3d ac 02 3d 9b 17 d4 3c
       -0.0130869895 0.018247452 0.03190254 0.025890162
0003e0 a5 9a 20 3c 6d de 95 39 89 8c 66 bc 9b ea 8b bc
       0.009802495 0.00028585215 -0.014071592 -0.017079642
0003f0 9a 87 0f 3d dc e3 21 bc d8 49 07 3d 2c 84 47 3c
       0.03504143 -0.009880986 0.033029407 0.012177508

bias f4 [128]
000000 99 2c f8 3d e5 cd ef 3d 88 24 6d be 4a 2c 8c bc
       0.12117881 0.11709193 -0.23158467 -0.017110962
000010 0d 3a ec 3d d0 6a d7 bc 55 a4 d0 3d eb ef 5b bc
       0.1153451 -0.02629605 0.10187594 -0.0134239
000020 be fb 8a bc a5 52 2f bd 66 a3 31 3d 14 cb 50 3d
       -0.016965743 -0.042803425 0.04336872 0.05097492
000030 87 65 31 3e 4c 2c 8d bc e6 57 1f be 51 9a 6c 3d
       0.17323886 -0.017233036 -0.15560874 0.057764355
000040 fb 62 20 3b b7 b2 be 3c 89 bd bc 3c 64 bf 4a 3c
       0.002447306 0.023278577 0.023039596 0.012374733
000050 c6 81 04 3e a3 e4 6e 3d f2 97 d6 bc a9 eb 0b 3d
       0.1294013 0.058323514 -0.0261955 0.03416029
000060 4d 22 b0 bd a9 92 22 bc 5e f7 3b 3d f0 d7 62 bd
       -0.08600292 -0.009922662 0.045890205 -0.055381715
000070 0e 54 ba bc be a3 be bd 18 6b 91 bc 59 7a 3d 3c
       -0.022745159 -0.09308575 -0.017751262 0.0115648145
000080 6a dd 3f bb b9 38 0f be 00 fb 10 3d fd 81 e2 bc
       -0.002927626 -0.13986482 0.035395622 -0.027649874
000090 72 da fb bd a3 c7 06 bd 19 50 8b bb 11 28 8e bb
       -0.122975245 -0.032905232 -0.0042514917 -0.0043382724
0000a0 d1 8a 5f bc 79 4c e2 3d 78 60 67 3c 33 e8 58 3c
       -0.013643936 0.11049742 0.014122121 0.013238954
0000b0 6d 53 9f 3d 50 d8 44 3d 5a 46 14 3d c2 37 55 bc
       0.07779584 0.048057854 0.036199905 -0.013013782
0000c0 a2 8e 95 3d 37 85 93 bc 20 b3 3e 3d 69 85 f8 3c
       0.07302596 -0.018007858 0.046557546 0.030337052
0000d0 f8 d3 4f 3d 6d 64 e2 3a 1a 0b d6 3d bf b3 8d bb
       0.05073926 0.0017272361 0.10451336 -0.004324406
0000e0 e3 86 e0 bc e9 fa 70 3d 54 ba d8 bc f6 a2 06 3e
       -0.027408069 0.058833037 -0.026456036 0.13148102
0000f0 1e db dd bb 91 05 60 bd 52 10 22 3c 45 f5 0d be
       -0.0067705056 -0.05469281 0.009891586 -0.13863094
000100 70 26 de bb 44 f4 41 3e f9 69 b7 3d 9f c4 9b 3d
       -0.0067794845 0.18940836 0.089557596 0.07605862
000110 02 ad 98 3d b9 ee 74 3c 19 11 82 3d f7 d1 9e bd
       0.074548736 0.014949494 0.06350917 -0.07754891
000120 2e d8 c5 bd e0 2b 74 3c 6c d3 8a 3b 7a ac 18 bd
       -0.09660374 0.014903039 0.004236629 -0.03727386
000130 81 3e 6a 3d af 12 b1 bd c9 69 a4 bc 01 44 a6 3b
       0.057188515 -0.08646142 -0.020069974 0.0050740247
000140 b9 23 33 3d 82 26 9b 3d 52 3f ba 3d a9 40 39 bd
       0.04373524 0.07575704 0.09094109 -0.04522768
000150 86 82 79 3d ad 33 20 3d b3 e8 0b 3c d4 1e e1 3d
       0.060915492 0.039111782 0.008539367 0.10992208
000160 04 5b 1f bd 83 cd 03 3e 7f da 3e bc 0a f3 db 3d
       -0.03890516 0.12871365 -0.011648773 0.107397154
000170 e3 db 98 3d 9a 95 9a 3c 61 63 67 3c 5e 99 22 3d
       0.07463815 0.018870164 0.014122815 0.039697044
000180 62 f2 65 3d 36 f1 78 3c 3e 58 97 3d e1 c8 aa 3d
       0.056139357 0.015194228 0.07389878 0.08339096
000190 d5 0c 1a bd a5 ec 7e 3d 97 fc c3 bd e3 c3 d2 3d
       -0.037609894 0.0622374 -0.09569662 0.10291269
0001a0 a2 89 fc bc 5b 73 85 bd 72 0c aa bd cb a6 67 bd
       -0.030827347 -0.06516143 -0.08303155 -0.05655555
0001b0 18 70 db 3c a8 64 65 3d a8 da cf 3d b5 92 a4 3d
       0.026786849 0.056004196 0.10149127 0.08035795
0001c0 a3 0d fc 3b a6 b6 6c 3d f0 08 9c 3d 31 bf bf 3d
       0.0076920553 0.057791375 0.07618892 0.09362639
0001d0 a6 82 80 bc ad 0a 6d 3e 87 ad a6 3a eb 2d 98 3d
       -0.015687298 0.23148604 0.001271651 0.07430633
0001e0 a8 0b 81 3d 3f 9a 82 3d b3 52 73 bb 32 96 3d 3d
       0.063010514 0.06377076 -0.003712815 0.046285816
0001f0 f1 0d 0b 3e ce cd 92 3d ae ff 53 3b 5c 0c 7c bd
       0.13579537 0.071681604 0.0032348442 -0.061535224

weight f4 [64, 128]
000000 23 d3 c0 3d b8 56 b1 bd 1f 52 10 3e 9e c3 2b 3d
       0.09415271 -0.086591184 0.14093827 0.041934602
000010 df 22 86 bc 53 05 c4 3d 2c b2 09 3e 5f 5f 66 3d
       -0.01637405 0.09571328 0.13446873 0.056243297
000020 59 5d 95 ba a0 df de bc 4d 88 c7 3c fc 51 d7 3c
       -0.0011395618 -0.027206242 0.024356985 0.02628421
000030 bf 42 03 be d6 1a 76 3e f6 e7 25 3e 67 80 e4 3d
       -0.1281843 0.24033675 0.16201767 0.11157303
000040 5b 32 f9 3c ee 08 47 bd eb a8 57 3c 96 dd b0 bd
       0.03041952 -0.0485925 0.013162832 -0.08636014
000050 fc 8a 7f bd d7 16 d1 bc b8 bc ce bd 1d 3a a3 3d
       -0.062388405 -0.025523586 -0.10094589 0.079700686
000060 43 85 1e 3e 85 c6 90 bd 04 69 56 3d 04 a6 d5 bb
       0.15480523 -0.070691146 0.052346244 -0.0065200347
000070 44 bf a2 3d 26 ef 07 3e 2b 32 53 3d c8 b6 38 3c
       0.07946637 0.13274822 0.051561516 0.011274047
000080 c2 8b 60 3d 75 72 13 3d dd 66 f8 3b ba d1 2f 3d
       0.054820783 0.035997827 0.0075806216 0.04292462
000090 df eb 38 3e e7 0c 22 3d 12 3a ac 3c 21 a9 33 bc
       0.18058728 0.039563086 0.021023784 -0.010965616
0000a0 a4 9c 24 bc 88 89 e5 bd a1 17 b6 bb 79 c7 df 3d
       -0.010047112 -0.11207873 -0.005557016 0.10926718
0000b0 ba 19 76 3d 5d 95 db bc a7 fe d1 3b e3 5d 94 3c
       0.06008313 -0.02680462 0.0064085308 0.018111175
0000c0 93 11 c1 bd 7c 1b f8 3d 82 34 3d 3d 8c 25 8d bd
       -0.0942718 0.12114617 0.046192653 -0.06891927
0000d0 11 33 32 bd 76 c0 46 bd 94 59 25 3c f0 f1 f8 bd
       -0.043505732 -0.04852339 0.010092158 -0.12155521
0000e0 50 46 a0 3b 21 76 6f bd ea 42 50 3e 85 2d 20 be
       0.0048911944 -0.058462266 0.20338026 -0.15642364
0000f0 12 bd c0 bd d8 a9 0b 3d 87 cc a7 3d e7 87 05 ba
       -0.09411062 0.034097522 0.08193307 -0.00050937984
000100 f5 a1 01 bd c2 31 d6 bb 5f 1f 96 bb b2 e5 1b be
       -0.031648595 -0.0065366933 -0.0045813764 -0.1522434
000110 62 bb 5b 3e 0d 26 9f bc c5 52 cd bc f0 59 9e 3c
       0.214582 -0.019427324 -0.025063882 0.019329995
000120 f8 fc e9 3c 07 99 1c bc 88 6c c6 3b 48 29 ce bb
       0.028563008 -0.009557969 0.0060554184 -0.006291542
000130 a9 12 23 3e fa d8 8c 3d bb ab 2e bc 3f e3 af bc
       0.15925087 0.068773225 -0.010661061 -0.021470664
000140 a5 80 08 be 9b 6e 63 3c 6f ec 49 3d 58 5d a8 bd
       -0.13330324 0.013881351 0.049297746 -0.08220929
000150 ea 65 c7 bb 75 17 a1 3b 62 a9 8a 3d 83 14 81 bd
       -0.006085147 0.0049161264 0.067705885 -0.063027404
000160 ef c5 31 3e c0 f2 57 3d 5b 75 13 3d 9c 12 a0 bc
       0.17360662 0.05272174 0.03600059 -0.019540124
000170 2a 9a b7 3c 26 b2 9e bd af 4f b5 3d 87 67 e9 3c
       0.022412378 -0.07748823 0.08853089 0.028491748
000180 ad bb 14 be 11 86 b2 bd 25 8a d7 bd 4a fa 8f 3c
       -0.14524718 -0.087169774 -0.10524396 0.017575402
000190 a8 c9 40 3d d0 cf d9 bc db 6e 38 3e 00 45 d4 3c
       0.047067314 -0.02658835 0.18011038 0.025911808
0001a0 d0 ec b7 3d 49 c9 28 be dd 25 09 bc df 18 e7 3d
       0.08980715 -0.16483034 -0.008370844 0.11284041
0001b0 23 7c a6 bd dc e5 fb 3b 82 a6 ba 3c ed fe 9d 3d
       -0.08129146 0.0076873135 0.022784475 0.07714639
0001c0 ca 97 43 bc 36 a7 22 bc 61 fe 01 3d 0a 59 c9 bd
       -0.011938045 -0.0099275615 0.031736735 -0.09831436
0001d0 75 15 3f 3d e8 54 05 bc f6 d5 b8 3c 7e fb 11 3d
       0.046651322 -0.008137919 0.022562962 0.035640232
0001e0 a3 be c2 bd c8 09 d7 3c 8a 50 f9 3c d8 ce ab 3d
       -0.09509017 0.026249781 0.030433912 0.08389062
0001f0 53 e5 50 3d 70 3e 16 3c 2a b0 ad bc 2b 1a c0 3d
       0.05099995 0.00917016 -0.021202166 0.09379991
000200 cf 15 a5 bc 4e 9c ce 3b 6d 0a 97 3d 17 d0 8f bd
       -0.020152 0.006305254 0.073750354 -0.07022112
000210 75 72 fe 3d 73 61 95 3c 5d 8e 71 bd f3 9b 87 3d
       0.12424175 0.018234944 -0.05897366 0.06621542
000220 ee de d7 3c b3 27 9c bc ec c2 38 bd b5 dd ae bc
       0.026351418 -0.019061899 -0.045107767 -0.021345953
000230 ae f0 13 3c 11 c2 db bd f4 0d 3e bc d4 f2 3d bd
       0.0090295505 -0.107303746 -0.011600006 -0.046374157
000240 84 7b 43 3e 7a 42 b4 bd e6 30 72 bc 9b 36 44 3e
       0.19090086 -0.08801742 -0.014782166 0.19161455
000250 80 cd e4 bc 46 32 74 3c a4 b2 0c 3c 90 47 75 bd
       -0.027930021 0.014904564 0.008587513 -0.0598827
000260 51 a1 45 bd 78 74 b2 39 88 9b 7b bd 48 97 e0 bb
       -0.048249546 0.00034037582 -0.061427623 -0.0068539716
000270 38 d2 b8 bd df e1 80 3c 9a fb 5f 3d 67 ad 07 3e
       -0.09024471 0.015732704 0.054683305 0.13249741
000280 d5 ae 62 bc 22 28 d6 3c fa 9d fc bc af f3 f6 bc
       -0.0138356285 0.026142184 -0.030837048 -0.030145494
000290 b3 b2 81 bd 78 83 41 3d d4 c6 78 3b 1d 4a 30 bd
       -0.06332912 0.04724452 0.0037960308 -0.04303943
0002a0 1d 88 1c 3e 08 7e 31 3d f7 19 63 3c 83 f8 e9 3b
       0.15286298 0.043333083 0.013861171 0.0071402206
0002b0 40 56 af 3d 31 03 80 3b 79 c3 3e 3d ef 1e 94 3d
       0.08561373 0.0039066304 0.046573136 0.072324626
0002c0 90 94 1c bd 14 5e 76 3d c9 f2 75 3d ad 26 92 3d
       -0.038227618 0.060148314 0.06004599 0.07136283
0002d0 ae fc 5c bd 54 25 98 3d a2 88 01 3e 5e 3e 52 3e
       -0.05395191 0.07428995 0.12649778 0.20531604
0002e0 f9 19 7a 3d ac 49 a0 3c 91 4f 13 be ba 97 f2 3c
       0.061059926 0.01956638 -0.14385821 0.029613364
0002f0 36 b9 15 3d 41 29 ba bd d1 5b 65 bd b0 7c 3a bd
       0.036553584 -0.090899 -0.055995766 -0.045529068
000300 0e 04 e8 3c 3a c0 9b bc eb 99 ac bb 97 ea 1c 3e
       0.028322246 -0.01901256 -0.005267372 0.15323864
000310 ce 69 dd bd 81 bd f4 3c ab ce 27 ba 14 42 ef 3d
       -0.10811196 0.029875519 -0.00064013404 0.11682525
000320 c7 7e 92 3d 4a ab b1 3d d6 6e d3 bc 4f 11 0f 3d
       0.07153087 0.08675249 -0.025809687 0.034928616
000330 d3 ca a4 bd ca ef 99 3d f9 e9 5c bc 5b 39 06 3e
       -0.08046498 0.07516439 -0.013483518 0.13107817
000340 22 0d 00 bd 4a 93 9d 3d 37 00 15 3d e7 ca 50 3d
       -0.031262524 0.07694109 0.036377158 0.050974753
000350 47 99 1a 3d 37 ac 89 bc 43 17 00 bd 40 01 82 bd
       0.037743833 -0.016805751 -0.031272184 -0.06347895
000360 63 f4 07 be c3 5a 3b bd 45 04 88 bd 0c c2 a2 bc
       -0.1327682 -0.045740854 -0.06641439 -0.01986792
000370 96 87 fa bc 73 a0 cd bc 5b 13 0a 3d 1d af b7 bc
       -0.03058223 -0.025100922 0.033709865 -0.022422368
000380 7c 82 8f 3d 57 28 6d 3d 9a 0f bf bd 8a 3a 9a bb
       0.0700731 0.0578998 -0.09329148 -0.0047066854
000390 a9 04 c6 bd 82 18 ab 3d 95 ec ed 3d 53 df f5 3c
       -0.096688576 0.08354284 0.1161739 0.030013716
0003a0 f0 15 9b bd 94 39 a5 3d 8d 82 b5 3d 84 88 a6 bd
       -0.075725436 0.08067623 0.08862791 -0.08131507
0003b0 29 3d a2 ba f9 d6 eb 3d 0d 17 02 bc 44 1c 41 bc
       -0.0012377846 0.11515612 -0.007940066 -0.011786524
0003c0 a8 b4 61 3d 74 21 b9 bc c8 9f ac bd 18 56 27 3e
       0.055103928 -0.02259896 -0.08428913 0.16341436
0003d0 a5 21 5e 3d 47 cb 01 be 60 da 49 bc e4 6d e1 3c
       0.054231305 -0.126752 -0.012320131 0.02751822
0003e0 bd ab d2 3a 98 91 c1 3c 36 ef 28 3d 3c 29 b3 bd
       0.001607291 0.023628995 0.041243754 -0.08748099
0003f0 c5 40 81 3d 1d a1 40 3d 93 3b 1b 3e e4 be 10 3d
       0.06311182 0.04702865 0.15159445 0.035338297

bias f4 [64]
000000 e1 09 a6 bd 61 76 9c 3c 4b 4a 17 3e 4c 83 e7 bb
       -0.08107353 0.019099416 0.14774434 -0.0070652124
000010 3e 30 11 be 3a 05 9d bd b7 b6 37 3e 75 56 00 bd
       -0.14178559 -0.076670125 0.17940794 -0.03133245
000020 78 2b 3e 3d 26 78 98 3d 95 97 15 3d 3b 24 47 3c
       0.046428174 0.074447915 0.036521513 0.012154634
000030 3a 26 23 3e d2 e1 2b 3e 35 41 19 3e ce d6 f0 3d
       0.15932551 0.16785362 0.14966281 0.11759721
000040 9a 6e b9 bd 0d b0 98 bc 5a b6 7a 3b f4 bc 26 bc
       -0.09054299 -0.018638635 0.0038255663 -0.010176886
000050 41 18 e7 3c 77 e8 52 3e 87 74 c9 bc a8 69 68 3d
       0.028209807 0.20596491 -0.024591697 0.056741387
000060 cf 5e d9 bd 19 6a 3f 3e 73 35 82 bd a4 cd 9d 3d
       -0.106137864 0.18692817 -0.06357851 0.077052385
000070 3d 1f 47 3d ac d4 18 3e 59 6a b6 bd 1f d8 73 3d
       0.048613776 0.14924878 -0.08907003 0.05953228
000080 8d ad 8d 3e 21 91 0b be 57 4f 70 3e 9d e8 c7 3d
       0.2767147 -0.13629581 0.23467766 0.09761164
000090 fc 11 92 bd d5 bc 76 3d 57 e7 bc bd 6b 2f 36 3e
       -0.071323365 0.060238678 -0.09223812 0.17791526
0000a0 c2 fb 97 3e 8c 40 e2 3c ac ac b9 3d 0d a4 cb 3b
       0.29684263 0.027618669 0.09066138 0.0062146247
0000b0 e0 7d 92 3e da d9 60 bc b3 29 fc 3d 27 a3 a4 3d
       0.2861166 -0.013723815 0.12312641 0.08038931
0000c0 59 f9 4c 3e ce b8 02 be 28 9c e0 3d e1 13 6d 3d
       0.20016994 -0.1276581 0.109672844 0.057880286
0000d0 91 17 14 3e c9 b7 2b 3e 82 0f 87 3c a5 97 99 3d
       0.14462115 0.16769327 0.016486887 0.07499627
0000e0 d1 e1 a6 3d 5a a6 85 bd 12 6b f6 bd 31 8c 9c 3d
       0.0814854 -0.0652587 -0.12032141 0.07643927
0000f0 64 69 7d 3d c6 c7 24 3e 37 28 da 3d 0f 4a 1e 3e
       0.061868086 0.16091833 0.106522016 0.15457939

weight f4 [10, 64]
000000 03 80 01 be f3 1b 45 3e 2e e8 4e 3e 28 da 52 be
       -0.12646489 0.19248943 0.20205757 -0.20591033
000010 7a 5a 82 3e 89 44 14 be a2 a8 41 3e 5c 3b 88 3e
       0.25459653 -0.14479269 0.18911985 0.26607788
000020 fd 76 53 3e 36 55 6e be 48 f7 39 be 62 3f c5 bd
       0.20650859 -0.23274693 -0.18160737 -0.0963123
000030 82 74 6a be ed 68 a3 3e b1 34 a6 3e e4 ad 27 3e
       -0.22896007 0.3191599 0.32462075 0.16374928
000040 87 ed 78 bd 17 b0 4a be ba 4f 55 be df a9 ce bd
       -0.0607734 -0.19793735 -0.20831195 -0.10090994
000050 7a 9e 38 be 66 56 5c be 65 dc 24 be a5 05 8f bd
       -0.18029204 -0.21517333 -0.16099699 -0.069834985
000060 a4 73 3c be e8 be 4f be 38 ad 85 3e 23 3a 30 3e
       -0.18403488 -0.20287669 0.26108718 0.17209677
000070 ef ba 9c 3c d3 25 2b be 2c 4c c5 bd c1 36 e9 3d
       0.019132106 -0.16713648 -0.09633669 0.113873966
000080 9b 5f f8 bd 55 9c 5b be 27 77 be be d6 d9 0f 3e
       -0.1212761 -0.21446355 -0.3720028 0.14047942
000090 15 35 d4 3d 6f 5b 97 bd 06 44 9c 3d 81 89 56 3e
       0.10361687 -0.073904864 0.07630162 0.20950891
0000a0 ca 6e 65 3e 83 4e 19 be dc d6 43 3e 8b 76 b4 bd
       0.22405544 -0.14971356 0.19124931 -0.08811673
0000b0 88 21 f7 3c 7f 2a 2f be e7 6b 81 be 3c 5f 6b 3e
       0.030167356 -0.17106055 -0.25277635 0.22985548
0000c0 a4 d1 72 3e 32 60 a1 3c 83 8f 4b 3e 2e d6 01 bd
       0.23712784 0.01969919 0.19878964 -0.0316984
0000d0 01 6c 34 3e ab ad 3e be ce 85 62 3e 5e 7b 6a 3e
       0.17619325 -0.18620937 0.22121355 0.22898623
0000e0 f4 20 1c 3d dd a1 59 be 40 a4 87 be c2 ac 9a be
       0.038117364 -0.21253152 -0.264925 -0.3020993
0000f0 7e 7e 30 3e d2 5e 98 be 77 88 78 3e 0c 76 4c bd
       0.17235753 -0.29759842 0.24270807 -0.049917266
000100 1a e9 aa 3e c6 68 82 be 17 ee 77 be 89 31 3a be
       0.33380967 -0.2547056 -0.24211918 -0.18182959
000110 0b bc 29 be e5 09 a2 3d 2d c9 9d be 0a f4 14 be
       -0.16575639 0.079120435 -0.30817547 -0.14546219
000120 88 12 c1 3d ab 8c a4 3c e4 18 35 be da 94 c4 bc
       0.09427363 0.020086607 -0.17685276 -0.02399676
000130 87 bc 19 bd 9b 22 a1 3e f2 15 a3 3e 86 0d c8 3d
       -0.03753331 0.31471714 0.3185268 0.097682044
000140 59 ae 1b be 82 aa 8e 3e 11 29 0f 3e e3 a8 24 be
       -0.15203227 0.27864462 0.1398051 -0.1608005
000150 65 58 ef 3c 8e ac 40 be ee 6a 64 3e 42 10 27 be
       0.029216954 -0.18815824 0.22306415 -0.16314796
000160 8c 28 7d be 91 21 98 be 3b d2 6e 3e 1a f6 8f be
       -0.24722499 -0.2971311 0.23322384 -0.28117448
000170 41 7a 2e be 36 34 85 3e 86 83 ce 3e 5a 31 ae 3e
       -0.17038824 0.26016396 0.4033472 0.34022027
000180 f4 dc 5b be e9 8a 08 3e cc 93 48 3e de 58 8b be
       -0.21471006 0.1333424 0.1958763 -0.27216238
000190 8e 02 af 3d cc b2 cf bd be 20 f9 bd fd 46 a6 be
       0.08545409 -0.10141525 -0.12164448 -0.32476035
0001a0 91 58 95 bd 25 a0 93 3e d2 ea 8f bd 87 d6 6e 3e
       -0.07292283 0.28833118 -0.0702721 0.23324023
0001b0 2f 4f 8b 3e 77 ca 99 3e e9 14 89 3e 4a fd 58 3e
       0.2720885 0.3003728 0.26773766 0.21190372
0001c0 6c c9 84 3d 14 33 ce 3e 8c df 45 be ac 2a d1 bd
       0.06483731 0.40273345 -0.19323558 -0.10213217
0001d0 93 0e 43 3e ca 69 8f be 22 8e 6b 3e 90 22 90 be
       0.19048528 -0.28010398 0.23003438 -0.2815137
0001e0 ac 1e fb 3d d7 e9 a1 bd e0 5e 51 3e 2f ed a4 bc
       0.122617096 -0.079059295 0.20446348 -0.02013263
0001f0 52 83 69 3e 0d d2 f3 bd 81 4b e7 bd fa cb 05 be
       0.22804001 -0.119052984 -0.11293698 -0.13066092
000200 86 b3 0c be a8 fb 26 3e bf 5a 78 be 0e b2 dc be
       -0.13740358 0.16306937 -0.24253367 -0.43104595
000210 d7 96 6e 3d 76 f2 82 be 34 9b 21 3e a5 cb 04 be
       0.05824932 -0.25575608 0.15781862 -0.12968309
000220 e4 2c 53 3e 9e 1e 36 be 1b 1b 3f be 7d 16 3a 3d
       0.20622593 -0.17785117 -0.18662684 0.045431603
000230 8f bc 31 be 72 75 89 be 2b 0a 75 be 91 6f 26 3e
       -0.17357086 -0.26847416 -0.2392966 0.16253497
000240 7a af 02 be f5 d6 bb bd dd c6 7a 3e 1c df ab be
       -0.12762251 -0.09171859 0.24489923 -0.33568656
000250 dc bb aa 3e fe 89 a7 bd 90 d1 98 3e 6f c3 85 be
       0.3334645 -0.08180617 0.29847383 -0.26125666
000260 fb 28 48 3e 39 cd 82 be c5 02 7f be 61 ac 29 3e
       0.19546883 -0.25547197 -0.249034 0.16569664
000270 a2 1e 79 3e 2e 78 e5 bd 4d 39 9e 3c 5f 4e b8 3e
       0.24328092 -0.11204563 0.019314433 0.35997292
000280 6a c2 94 bd eb de 54 3e 35 55 5f 3e 2c 02 90 3d
       -0.07263644 0.20788161 0.21809848 0.07031664
000290 db ba df bc ef 64 7b be 21 77 c7 3c 87 20 3f 3e
       -0.02731078 -0.24550222 0.024348797 0.18664752
0002a0 d8 c0 73 3e 6b 01 3e be a6 63 62 3e 55 6b 5d be
       0.23804033 -0.18555228 0.22108325 -0.21622975
0002b0 1d 9e 6d 3d 7b 65 8b 3e 9b 1d 47 be 83 be 99 be
       0.058012117 0.2722586 -0.19444887 -0.3002816
0002c0 e1 63 76 3e 77 20 a9 3c 82 62 27 3e 77 d2 9d bb
       0.24061538 0.020645363 0.16346171 -0.004816349
0002d0 6a 2e 35 3e ee 97 89 be 98 49 4a be 14 d0 91 be
       0.17693487 -0.26873726 -0.19754636 -0.28479064
0002e0 13 cf 5d be 40 48 3d 3e 59 66 92 3e e1 e2 7e 3e
       -0.21661024 0.18484592 0.2859371 0.24891235
0002f0 c6 a5 6e 3e bf ac 6b 3e 85 6b 82 3e 3d 13 04 be
       0.23305425 0.23015116 0.25472656 -0.12897964
000300 a3 a9 97 3e 29 4e 8d 3d 44 c7 3a be c6 67 fd 3d
       0.2962161 0.068996735 -0.18240076 0.12373309
000310 e2 a7 04 be 71 3c 4e 3e 80 bd eb 3d 68 62 3f 3e
       -0.12954667 0.20140244 0.11510754 0.18689883
000320 c9 b4 40 3e f1 ec 78 3e f1 2d e7 3c 65 83 ac be
       0.18818964 0.24309136 0.028220149 -0.33693996
000330 ff 73 42 be 9a 84 9f 3e 1c 72 9a 3e e8 40 20 3e
       -0.18989561 0.31155854 0.30165184 0.1564976
000340 ba 9f 8d 3c 02 63 5e 3e 99 6d 24 3e ab 02 26 be
       0.017288078 0.21717456 0.16057433 -0.16211955
000350 56 a5 b9 bd 19 ad db bd 82 d0 5c be a1 f8 06 be
       -0.090647385 -0.10726375 -0.21563914 -0.13180782
000360 41 f0 57 be 08 e8 87 be cb da 6a 3e 96 0e 0e 3e
       -0.21087743 -0.26544213 0.22935025 0.13872752
000370 a6 22 82 be 58 0c 6b 3e 11 56 01 be c7 e9 68 be
       -0.2541706 0.22953928 -0.12630488 -0.22745429
000380 ff 52 ae 3e 47 a3 93 be 6f 41 99 bc ca 71 0f 3e
       0.34047696 -0.28835508 -0.018707959 0.14008251
000390 e7 99 00 be f7 b0 a1 3e 21 84 c0 3c fe 94 23 3e
       -0.12558709 0.31580326 0.023500504 0.15974805
0003a0 79 a2 32 be c2 b9 8a 3e b2 4c 59 be 47 12 5c 3e
       -0.17444791 0.27094847 -0.21220663 0.21491347
0003b0 08 d8 08 be 35 a0 d6 3c 9f c6 63 be 17 45 69 3e
       -0.1336366 0.02619944 -0.22243737 0.22780262
0003c0 3c 1b 4c 3e 98 a2 71 be f0 9f 32 3e e7 81 17 be
       0.19932264 -0.23597181 0.17443824 -0.14795648
0003d0 d6 80 48 3e ce de 4e be e9 bf 4d 3e 33 d4 19 be
       0.19580397 -0.2020218 0.20092739 -0.15022354
0003e0 c4 fa 52 be 34 e7 49 be ef 41 96 bd ac af bf 3d
       -0.20603472 -0.19717103 -0.073367946 0.093596786
0003f0 97 3f 36 3e 91 f5 98 bd ac 9c 2a be 0a 47 46 be
       0.17797695 -0.07468713 -0.16661328 -0.19363037

bias f4 [10]
000000 ca a3 3d 3e d2 20 2b be 78 89 48 3d a8 ef 42 3e
       0.18519512 -0.16711739 0.048959225 0.19036734
000010 ec eb e5 be 0f f4 a9 3f d8 74 a9 3e 4d 40 2a be
       -0.44906557 1.3277606 0.33096957 -0.16626091
000020 f9 f2 e4 be cf 22 42 bf
       -0.44716623 -0.75834364
