models/conf_2.pt (torch, 441470 bytes, 6 tensors)

weight f4 [128, 784]
000000 15 a0 32 3c 16 ec 87 bc b1 72 d5 3c 99 f5 08 bc
       0.010902424 -0.016592067 0.026055666 -0.008359336
000010 40 5c 76 bc 0d d9 03 bc b8 94 db bb ff a1 09 bc
       -0.015036643 -0.008047354 -0.0067010783 -0.008400439
000020 ca a4 09 bd 75 ae d6 bc 01 e8 1f bd bb 38 8f bb
       -0.03360442 -0.026206234 -0.039039616 -0.0043707765
000030 c1 c4 6a bc 6a 92 35 bc ee 51 4f bc 8d e7 11 3d
       -0.014329136 -0.011082271 -0.012653811 0.035621215
000040 f3 57 a6 3c ce 99 e6 3b 0d dc 10 bc 0d af be 3c
       0.02030561 0.007037378 -0.008841527 0.02327683
000050 39 4d 1b bd 7c fe 82 bc a0 79 fe 3c 06 60 91 b9
       -0.037915442 -0.015990488 0.031063855 -0.00027728098
000060 65 3a 95 bc 28 d5 7d 3c 1d 3d 6a ba 60 2f 14 3c
       -0.018216321 0.015492715 -0.0008935498 0.009044498
000070 a4 db a0 3b aa 58 cc 3c 4f b5 08 bd 1d 06 02 bd
       0.0049089957 0.024944622 -0.033376034 -0.03174411
000080 12 fb 0a bd 48 48 18 3b 80 ba 32 bc 20 fc b4 3b
       -0.033930846 0.0023236442 -0.010908723 0.0055232197
000090 f6 e3 2e bd 8d 6d 4d bd 64 91 36 bb e3 cf 47 3a
       -0.04269787 -0.050153304 -0.0027857656 0.0007622225
0000a0 88 25 4b 3d c0 aa 74 bc bb e4 5e 3b 16 02 36 3b
       0.04959634 -0.014933288 0.0034010846 0.002777224
0000b0 5e 29 56 bb 5e 6a 22 bd 3a 91 28 bd 2e 42 13 bc
       -0.0032678465 -0.03965222 -0.041154124 -0.008987946
0000c0 79 2c f9 bc bb 23 ad 3c dd 30 cb bc da ec 79 3c
       -0.030416714 0.021135202 -0.024803573 0.015254224
0000d0 74 3a c8 bc c1 06 85 bb f9 a0 a5 bc 36 8c 8a bc
       -0.024441935 -0.004059643 -0.02021836 -0.01691256
0000e0 70 bb 99 3c bf 0b e4 bc 06 d8 e7 bc e7 3e 3e 3c
       0.018766135 -0.027837632 -0.02830125 0.011611677
0000f0 18 fd 46 bc 44 c0 1d 3c fd eb 18 3d d1 07 c5 3c
       -0.012145303 0.009628359 0.03733443 0.024051579
000100 13 f5 d9 bc b8 02 75 3c 22 d0 44 bc d4 72 86 bc
       -0.026606118 0.0149542615 -0.012012513 -0.016412176
000110 d9 7a e2 3c 31 d7 c2 3c d9 82 40 bc 17 e9 8c 3c
       0.027646469 0.023784252 -0.0117499465 0.01720099
000120 29 ac a6 3b 10 3f 06 bd 6f af 9e 3c b8 5c 44 3b
       0.005086441 -0.032774985 0.019370763 0.0029962491
000130 d7 81 56 3b 4d e0 d1 ba 25 77 d9 bc 37 b5 93 3c
       0.00327312 -0.0016012281 -0.02654607 0.018030746
000140 03 ad 1f 3c 9e dc d0 bc b1 d8 29 3c c5 3d 13 3c
       0.009745839 -0.025495823 0.010366605 0.008986895
000150 d4 7f 8c 3b f9 ca 66 3c 43 de a4 bc a3 fe 4f 3c
       0.0042876992 0.014086478 -0.020125514 0.0126949875
000160 48 a8 b9 bc b8 46 df 3c 1e f2 fc 3c 38 20 7d 3a
       -0.02266325 0.027255401 0.03087717 0.0009655985
000170 75 12 a6 3c 91 2d ee bc d5 94 e8 bc 75 52 fa 3c
       0.020272473 -0.029074462 -0.028391281 0.030556897
000180 dd 75 e5 3c ed ca eb 3c 8a 8b c7 3c 88 5e a3 bc
       0.028010303 0.028783286 0.02435853 -0.019942537
000190 6b c0 9c bb df 8d 36 3c 2d 0a 26 bd 94 11 38 bc
       -0.00478368 0.011142223 -0.040537048 -0.01123466
0001a0 31 a7 33 bd b4 d7 68 bc 95 62 fc bc 72 3f 2a 3c
       -0.043860618 -0.014211584 -0.030808726 0.010391103
0001b0 5c 19 4b 3c 36 29 5c bc a7 2d e7 bc 1c 0e c6 bc
       0.012396183 -0.01343756 -0.02822001 -0.02417665
0001c0 80 95 98 3c 87 f2 4c 3c 8a be f6 3a 47 2e 99 3b
       0.018625975 0.012508995 0.0018825096 0.004674706
0001d0 3e a2 13 3d df 80 c7 3c e3 cb 03 3d cd 18 9a bc
       0.036043398 0.024353443 0.032176863 -0.018810654
0001e0 39 bc 09 bd f8 8a 37 3c ce 06 02 bd f8 54 fe bc
       -0.03362677 0.011202566 -0.03174477 -0.031046376
0001f0 e4 37 0b 3d 84 46 90 3b c1 e7 aa bc 3e f6 06 bc
       0.03398885 0.0044029374 -0.020862462 -0.00823742
000200 b0 0f 12 bd ae 4b 12 bd 32 12 88 bb 9d a2 32 bd
       -0.035659492 -0.035716705 -0.0041525597 -0.04361211
000210 1f 67 95 3c 99 50 c8 3a 15 81 7a bc 41 5e c3 3c
       0.018237649 0.0015282809 -0.015289565 0.023848655
000220 4b 47 d7 3a 91 a2 0d 3c f7 a6 d2 3c 64 02 54 bc
       0.0016424445 0.008644716 0.02571438 -0.012940023
000230 dc 81 e3 bc 7e b9 b4 3c ce 58 e8 bc 32 34 ec bc
       -0.027771883 0.022061106 -0.028362658 -0.028833482
000240 a7 23 3c bc 43 04 cc 3c bf e1 fb 3c 70 8d 7f bc
       -0.01148311 0.024904376 0.030747293 -0.015597686
000250 fb a0 81 bc 8a bb d2 bc a3 9d fa bb f9 62 95 3b
       -0.015823832 -0.025724191 -0.0076481863 0.0045589176
000260 73 42 03 bd a4 4b a8 bc 99 79 79 3c 18 32 b5 3c
       -0.032045793 -0.02054388 0.015226745 0.022118613
000270 e6 5c 38 3b 86 18 8f bc a8 40 80 bc 2c e6 b8 bc
       0.0028131544 -0.017467748 -0.01565583 -0.022570692
000280 e3 f5 1f 3b 4b 0f 2e bc 87 9a 0d 3d e6 0c a0 3c
       0.0024408035 -0.010623763 0.034571197 0.0195374
000290 4b 71 a0 3c 34 a6 ac 3c 86 5e 86 bc 23 15 99 bc
       0.019585272 0.021075346 -0.016402494 -0.018686837
0002a0 cf fd f4 3c c4 47 3f 3b b6 1b 72 3c ef ae fd 3b
       0.029906182 0.0029187063 0.014777115 0.007741801
0002b0 a8 90 02 bb 30 fc 7b bb 28 af 3f 3d fe be 0b bc
       -0.0019922648 -0.0038449876 0.0467979 -0.008529423
0002c0 a7 ef 1d 3d 0a 87 18 bc cf b1 6f bc 24 0f 89 3c
       0.03855863 -0.00930954 -0.014629795 0.016730852
0002d0 10 bc 7d bc 41 03 c9 bc cd 8f 89 bc ef fa 5c 3b
       -0.015486732 -0.024537684 -0.016792202 0.0033718904
0002e0 89 f2 01 3c 33 16 c1 3c 5e 90 ad ba d5 38 ac bb
       0.00793136 0.023570156 -0.0013241877 -0.0052557983
0002f0 9c a0 a5 3c 3a 6a 7b 3b be 27 f7 3c 01 96 fe 3c
       0.020218186 0.0038362877 0.030170318 0.031077387
000300 a2 4e f0 3c 81 7b c0 bc 8a 6d d5 3c 32 22 04 bd
       0.02933437 -0.023496391 0.026053209 -0.032259174
000310 a8 7a b0 3c 91 15 ec bc 23 0e 0d bb 58 60 55 3c
       0.021542862 -0.028818877 -0.0021523319 0.013023458
000320 ac 61 42 3d 5d a9 58 3b da 35 83 3d cc 44 7a bc
       0.04745643 0.0033059933 0.06406756 -0.0152751915
000330 6b a0 10 3d 2e 1a ff bb 04 9b 80 3c 0a de 2c 3c
       0.035309236 -0.0077851033 0.015698917 0.010550985
000340 57 81 b9 bc 6b 03 96 3c b6 b2 c8 bc c9 d3 2c bd
       -0.022644682 0.018312177 -0.024499279 -0.04219416
000350 90 39 97 bb 82 f9 3c bc b0 5e 81 3c b4 d9 e6 bc
       -0.0046150163 -0.011534097 0.01579222 -0.02817998
000360 52 97 02 bd 85 19 e9 3c 44 ae 5e 3c 27 8b 3d 3c
       -0.03188259 0.028454551 0.013591353 0.011568821
000370 fb 75 f2 bc 59 11 c7 bb 5d 38 1d 3d 30 e5 9d bb
       -0.029597273 -0.006075066 0.03838383 -0.004818581
000380 36 e2 94 3c 0f 65 d6 bb e5 0e 8b bc de 46 ac 3c
       0.018174272 -0.006542809 -0.016974876 0.021029886
000390 83 b0 d1 3c 58 81 56 3d d1 e6 b7 3c 8c 12 a6 3c
       0.025596863 0.052369446 0.022448929 0.020272516
0003a0 89 fd 5a 3d 82 cb 0f 3d da 47 29 3d 3d 8f 3a bb
       0.053464446 0.03510619 0.04132829 -0.0028466724
0003b0 c1 97 a5 3c 0a fb b1 bc 19 d1 75 3c 12 6c 90 bc
       0.020213963 -0.02172615 0.015003466 -0.017629657
0003c0 8e e3 0d bd d1 09 15 bd 8c db 05 3d 47 9d 19 3d
       -0.03464084 -0.036386315 0.03268008 0.037503507
0003d0 f9 ef 84 bb 31 00 99 3b 52 f8 ff 3b 7c 2e 28 3d
       -0.0040569273 0.0046692123 0.0078115845 0.041059956
0003e0 60 f8 fc bc 2d cb f8 bc b0 d4 19 3d 02 92 86 bc
       -0.030880153 -0.03037032 0.03755635 -0.016427044
0003f0 fd 50 87 bc 26 f6 80 3c 89 ef de 3c 90 22 f5 bb
       -0.01651811 0.015742373 0.027213829 -0.007480927

bias f4 [128]
000000 3b 9f dd bb 86 2b 3d 3d 78 1a 2e bd bb a0 3f 3d
       -0.0067633665 0.046184085 -0.04250571 0.046784144
000010 54 33 38 3b 5a 4c d3 3b 71 e1 21 3c d0 b0 d7 bc
       0.0028106766 0.006448311 0.00988041 -0.026329428
000020 dc 5d 08 bd fd f6 43 3d f8 cf 6e 3d 67 14 8e bb
       -0.033292636 0.04784297 0.058303803 -0.0043359282
000030 20 c5 63 3c 85 60 87 bc 8d b9 2b 3c ae 04 82 bc
       0.013901979 -0.016525516 0.0104812505 -0.015871372
000040 3a 0e db 3a f4 d5 a3 bb 79 a9 5f 3c b7 29 d8 3c
       0.0016712614 -0.0049998704 0.013651245 0.026387079
000050 3d 67 74 3d fb 77 19 3d 7d 3a a1 3d 70 47 3c 3d
       0.05966877 0.037467938 0.07872484 0.045966566
000060 eb d0 10 3d 92 46 83 3c ce 7c 2c bc 4c 8a c1 bc
       0.03535549 0.016024861 -0.010527803 -0.023625515
000070 73 99 86 bc 94 a5 64 3d a9 86 ae 3c 59 fd 5e 3b
       -0.016430592 0.05582197 0.021304445 0.0034025519
000080 ae 4b 9c 3d 0a c7 df 3b 12 ac 8b 3d ba f8 b2 bc
       0.07631622 0.006829147 0.06819929 -0.021847118
000090 88 ae 7b bb 02 4b 86 bc c4 f1 72 bc 3e 44 b1 3b
       -0.003840359 -0.016393188 -0.014828149 0.0054097464
0000a0 d6 bf 24 3c e6 28 be bc 09 f8 c4 bc 7d d5 d7 bc
       0.010055503 -0.023212861 -0.024044054 -0.026346916
0000b0 81 13 1a 3d 6c 44 9b 3c d3 d8 0d 3b cd a2 00 bc
       0.037616257 0.018953525 0.002164413 -0.007851315
0000c0 3c d9 3a bc dc b3 c0 3c 81 39 b5 bc 02 ec 26 3d
       -0.011404332 0.023523264 -0.022122147 0.04075242
0000d0 c1 27 84 3c 81 a5 a4 3d 0c a8 8a 3d 3a 44 8f bc
       0.016132237 0.0803938 0.06770334 -0.017488588
0000e0 d5 e8 87 bc cc 4f 9a 3b 76 7b 60 bd 91 92 2f bc
       -0.016590515 0.0047092196 -0.05480524 -0.0107160965
0000f0 01 35 5b 3c ba 36 99 bb 94 ba 1b bc f6 f9 74 3c
       0.013379336 -0.0046757134 -0.009504933 0.014952173
000100 f9 1d 1a 3d 58 19 11 bd 54 9d 04 bd 9c af 09 3c
       0.03762624 -0.03542456 -0.032376602 0.008403685
000110 03 15 1d 3b 31 7e dd 3c f1 f1 b1 3c b6 b9 7a 3c
       0.0023968823 0.027037712 0.021721812 0.015303066
000120 64 08 ae 3c 4a 08 ce 3d 6e fb d4 bc b6 76 1e bd
       0.021244235 0.10060175 -0.025998797 -0.03868743
000130 b6 27 c8 bc e5 e2 0b bd 9a 23 d8 3c 8f 88 be bb
       -0.024432998 -0.03415193 0.026384164 -0.005814619
000140 c7 a5 44 3d d5 b1 34 bd a8 81 ac bc d7 f3 80 3c
       0.04800966 -0.044114906 -0.021057919 0.015741272
000150 a8 14 bc 3c d8 ec 02 bd 3c 88 f6 bb 8f 89 ee bc
       0.022959068 -0.031964153 -0.0075235646 -0.029118327
000160 d8 0e 0c bb a3 cf 1f 3c a6 d2 93 ba 59 63 96 3d
       -0.0021371152 0.009754094 -0.0011277988 0.07343168
000170 cc 35 28 bc 84 e2 a2 bb ce 3e fa 3c 8e 92 a5 3c
       -0.010266732 -0.0049708504 0.030547526 0.020211484
000180 94 3d 2a 3d 98 19 99 bb 09 2a 98 3c 8f 7d 2c 3d
       0.04156263 -0.0046722405 0.018574731 0.04211193
000190 ab b1 dd bb ff 5f 66 3d 19 13 0e 3d f9 13 69 b8
       -0.0067655644 0.056243893 0.03468618 -5.557013e-05
0001a0 eb 28 83 3d 7a cb 99 bc f1 8e 5e 3c 27 9c 50 3d
       0.06404289 -0.018773783 0.013583885 0.05093017
0001b0 3f 77 8c 3b b5 25 5a 3c 9e 55 e4 3c 7a 72 64 3c
       0.004286676 0.013314654 0.027872857 0.013943309
0001c0 cc 92 1c 3d d8 7e 42 bc ee 3f cf 3c 16 66 ce 3c
       0.038225934 -0.011871062 0.025299039 0.025195163
0001d0 51 17 12 3d 82 31 dd 3c 75 06 59 bc 5a 5a 1c 3d
       0.035666768 0.027001146 -0.013246168 0.038172103
0001e0 c6 c6 8b bb cd 66 57 bd 24 8b 74 3d 51 16 b2 3c
       -0.004265639 -0.052588273 0.059703007 0.021739157
0001f0 e0 19 05 bd b3 af 83 ba 63 9f 74 3d 69 25 12 3c
       -0.03249538 -0.0010046869 0.059722316 0.008920052

weight f4 [64, 128]
000000 50 4c 0e 3d 31 ff 16 3d f9 f7 6f 3d 2e 23 8e 3c
       0.034740746 0.036864463 0.058586095 0.01735076
000010 fb b4 c7 3c ac 2f 1e bd e8 32 2e ba d4 b5 b4 bd
       0.02437829 -0.038619682 -0.0006645159 -0.088237435
000020 ae c7 ac bc e5 74 7f 3d dc 27 ab bb 3c 22 56 bd
       -0.021091308 0.06236734 -0.0052232575 -0.052278742
000030 9f b6 01 bd 82 cf 8f bd 8e a8 d0 3c 74 bd 16 bd
       -0.0316683 -0.07022001 0.025470998 -0.03680177
000040 51 db a8 bd 9f 44 60 bd 5d 0d 16 b9 c0 0b 8d bc
       -0.08244956 -0.054752942 -0.00014310093 -0.017217517
000050 c6 8b ae 3c 92 37 88 3d fb a6 75 3b dd e8 a2 3d
       0.021306884 0.06651224 0.0037483561 0.079545714
000060 80 64 a9 3d 57 38 98 3d 88 70 8d 3a d3 52 91 bd
       0.08271122 0.07432621 0.0010790983 -0.070958756
000070 ee 76 05 3c 64 1c 28 3d 04 f7 43 bd bc d3 89 bc
       0.008146031 0.0410427 -0.047842994 -0.016824596
000080 c7 76 b1 3d d4 e5 51 bd 17 b1 b2 3d a6 c0 69 3d
       0.08665233 -0.05124457 0.087251835 0.05706849
000090 b2 b8 45 bd b9 0a 92 bd 47 4d ad 3d 7a b3 7f bd
       -0.048271842 -0.071309514 0.08462005 -0.06242702
0000a0 3d 32 b4 3d b2 9f b2 3c 40 e0 ba 3b 6d f8 89 bd
       0.08798645 0.021804664 0.005703002 -0.067368366
0000b0 98 82 6d 3c 21 6d b4 bd a4 2f b5 3c a6 06 ab bd
       0.014496468 -0.08809877 0.022117443 -0.083508775
0000c0 74 0b df 3c ba 5f 9d 3d da e1 8d bb 93 59 63 3d
       0.027227141 0.07684274 -0.004329902 0.055505347
0000d0 51 1f 20 3d 17 d1 2f bd 5c 92 d9 bb 2e 70 72 bd
       0.039092366 -0.042924013 -0.006639762 -0.059189014
0000e0 18 4b 9d 3d f9 6d b0 bc 0b 7e ca 3b 91 bc 6d 3d
       0.076803386 -0.021536814 0.0061795763 0.05804116
0000f0 86 06 20 bd 1e b7 d1 bb 82 98 92 bc 05 6b 57 bd
       -0.03906872 -0.006400003 -0.017894987 -0.052592296
000100 63 30 e1 bc 53 93 36 bd 40 f4 a8 3d a5 56 a5 bd
       -0.027488893 -0.044574093 0.08249712 -0.08073167
000110 34 a4 a6 bd 7e 42 64 bd f0 61 94 3d ff 85 5c 3c
       -0.08136788 -0.055727474 0.072452426 0.0134596815
000120 8e 76 20 bb 26 ce b5 3b d4 7c e3 3c 5f 6f 61 bd
       -0.0024484727 0.0055482564 0.027769484 -0.055037852
000130 d3 89 9a 3d 81 a8 27 bd a6 92 1a bd 1a 0f 19 3c
       0.07545819 -0.040932182 -0.03773751 0.009341979
000140 0b 69 08 bd f8 1f 95 bd 4a d9 e8 38 fc 3d 41 bb
       -0.0333033 -0.07281488 0.00011103095 -0.0029486408
000150 c6 af 57 bc 16 0f f4 3b 02 4b 72 bb cb ad 56 3d
       -0.013164466 0.0074480874 -0.0036970978 0.052411836
000160 6c 40 45 bd 5e 54 a3 bd 74 57 8a 3c ad 2c af bd
       -0.04815714 -0.07975076 0.016887404 -0.08553443
000170 18 9a 88 bc e8 3b 80 bd 33 76 a5 bd 46 28 a9 bc
       -0.01667504 -0.06261426 -0.08079185 -0.020649087
000180 4b d6 54 bc c0 f3 a5 bd 33 b6 17 bd e7 e8 24 bd
       -0.012990545 -0.08103132 -0.037038993 -0.040261175
000190 f8 f2 17 3c 60 8e 39 bd 3a 9a a8 bd 06 65 8f bd
       0.009274237 -0.045301795 -0.082325414 -0.070016906
0001a0 15 52 ac bd cd 22 37 bd b5 70 a7 3d 08 6b a9 3d
       -0.084140934 -0.044710923 0.08175794 0.08272368
0001b0 ff 8d 2c 3c 5c fc 90 bd ee 78 15 bd 16 14 eb bc
       0.010531901 -0.07079384 -0.03649228 -0.028696101
0001c0 5a 9e 3a 3c a5 b9 5a 3d 49 fe d0 bc ef 3e 86 bd
       0.011390293 0.0533997 -0.025511878 -0.065549724
0001d0 c6 03 9a 3d d9 0c 3a bd 04 00 c7 bc 2f 06 95 bd
       0.07520251 -0.04542241 -0.024292 -0.0727657
0001e0 42 0c 8a bd fe 35 8a 3d 7c 75 d7 bb 52 9f 33 3d
       -0.06740619 0.067485794 -0.0065752845 0.04385311
0001f0 6b aa 85 bd 2f a1 b9 3a 80 96 5d 3d c4 5a 45 3d
       -0.06526645 0.0014162416 0.054098606 0.048182264
000200 11 cc 0b 3d f0 3e 36 3d 6b 63 89 3c 57 dd 01 3e
       0.03413016 0.044493616 0.016771039 0.1268209
000210 bc 09 01 3e 24 64 58 bd a6 85 9e bd 17 b5 f2 3c
       0.1260137 -0.052829877 -0.07740335 0.029627366
000220 79 a6 7d 3d 38 fb ab bb c5 c6 1e bd d0 70 04 3e
       0.06192634 -0.0052484535 -0.03876378 0.1293366
000230 41 1c 9f bd bc ba 1d bd 58 41 ac 3d 0e 11 b3 bc
       -0.07769061 -0.038508162 0.08410901 -0.021858718
000240 3e 9f 29 3c 9f 04 4e bd 7e 9c 10 3e c1 c2 01 3d
       0.010352908 -0.050297376 0.14122197 0.031679872
000250 4e ef 20 3e a1 f7 37 3d 51 b2 e5 3d 50 10 94 bd
       0.15716287 0.04491389 0.11215652 -0.07229674
000260 99 82 da ba 60 b1 a7 bc 79 15 15 3c 68 19 11 3d
       -0.0016671001 -0.020470321 0.009099358 0.03542462
000270 07 51 b0 bd 97 4c d5 3d 77 6e bf bd c1 ff 21 3d
       -0.08609205 0.10414999 -0.09347241 0.039550547
000280 4a c5 87 3d 2d 94 1b bc cb 9c 70 3d 47 f6 09 3d
       0.06629427 -0.009495777 0.05874328 0.033682134
000290 cc 2d 94 bd c7 a7 94 bd 98 1e 94 bc 0f 3b a7 bd
       -0.072352976 -0.072585635 -0.018080994 -0.081655614
0002a0 65 36 b9 bc 1b 0b 74 3c 3f 20 db 3c bb 3e 18 3e
       -0.022608945 0.014895226 0.026748775 0.1486768
0002b0 75 9a 6f bd ee 44 3b bc 25 62 1c bd 8d 22 c8 3d
       -0.05849691 -0.011430008 -0.038179535 0.09772215
0002c0 74 6a 52 3d e9 0f fb bc 8f 57 94 3d b8 ec a3 bd
       0.051371053 -0.030647235 0.07243263 -0.08004135
0002d0 c5 00 5c 3d 85 f4 68 bd 80 76 3b 3d 56 d9 d7 3d
       0.05371167 -0.056873817 0.045767307 0.105395004
0002e0 1e f8 80 bd 92 5e 67 3d 47 db b5 3d 82 05 97 3d
       -0.062973246 0.056486674 0.088797145 0.073740974
0002f0 33 64 11 3d 32 b9 a5 bb eb f3 f0 3d 0d f2 a3 bd
       0.035495948 -0.0050574774 0.11765274 -0.08005152
000300 c8 e0 1f 3d ec f1 ae 3d b0 6c 1c 3d 98 76 71 3d
       0.039032727 0.08542237 0.03818959 0.05895099
000310 ae 02 a5 3d d4 61 36 3e f4 a8 26 bd 02 c0 e2 bc
       0.08057152 0.17810756 -0.04068847 -0.027679447
000320 9c 71 05 3e 28 9d 92 bd 5f 4d 69 bd 0c 18 62 bd
       0.1303162 -0.071588814 -0.056958552 -0.055198714
000330 51 20 ea bb 05 90 83 3d 0d 3e d5 bb 15 d8 a6 3c
       -0.0071449657 0.06423954 -0.006507641 0.020366708
000340 5a 6a 78 bd f7 ed 2e 3e 22 17 62 3e 8a 20 b4 3d
       -0.0606483 0.17082964 0.22079137 0.08795269
000350 68 0c 76 3d 2d 80 c7 b9 44 0e ad bd c6 e8 d4 3d
       0.060070425 -0.00038051736 -0.084499866 0.103959605
000360 ee ad 6d bd fa 17 46 3c 59 4b 9c bc 69 db 88 bd
       -0.0580272 0.012090677 -0.019078897 -0.06682474
000370 c0 fb 1a 3d 0f 54 52 3d 14 1a 8d bc 3b 1f 04 bd
       0.037837744 0.051349696 -0.01722435 -0.032256346
000380 45 8e b7 bd 46 cf 20 3a 9b 3c fc 3d f0 e5 f0 3c
       -0.08962683 0.0006134402 0.12316247 0.029406518
000390 d4 e9 a1 bd 47 11 44 3c 12 e6 bb 3d 50 b0 9b bd
       -0.07905927 0.01196701 0.09174742 -0.07601988
0003a0 9c 68 93 bd 34 35 10 bd 45 b7 12 3e 63 f8 7e 3d
       -0.07197687 -0.03520699 0.14327724 0.0622486
0003b0 ea 94 ea bd 15 b4 8c 3d 6a 38 f9 3d e1 3b 09 3e
       -0.11454184 0.068702854 0.12168963 0.13401748
0003c0 db f7 9a bb 64 05 08 3e 57 8a c4 3d 52 0f 43 3d
       -0.0047292537 0.13283306 0.09596699 0.047622032
0003d0 c4 d2 59 3e b0 0a 8f bd 3a f7 bb 3c 26 24 84 3d
       0.21271807 -0.0698446 0.022945035 0.06452207
0003e0 e3 27 a3 3d bb 85 78 3d 44 95 57 3d 90 12 ed bd
       0.07966592 0.06067441 0.052632585 -0.11575806
0003f0 d6 65 df 3d e8 02 a3 3d bc c9 22 bd cd bd f2 3d
       0.109080955 0.07959539 -0.03974317 0.11852608

bias f4 [64]
000000 48 3e 10 bb f0 d5 2d 3d f7 4e 1a 3e df 75 8f 3c
       -0.0022009779 0.042440355 0.15069185 0.01751226
000010 a8 eb 3b 3d 36 de b2 3d ae 9a a9 3d 70 e6 88 3e
       0.045879036 0.087337896 0.08281456 0.2673831
000020 df b2 f0 3c ad 67 65 3d eb 9d 13 3e dd 03 5c bd
       0.029382167 0.056007076 0.1441571 -0.05371462
000030 82 5d 62 bd 0b df 16 3d c6 e7 e2 3c 81 46 00 3d
       -0.055264957 0.036833804 0.027698409 0.031317238
000040 51 d2 46 3c 2f 2c 77 bb ff 19 da bd 03 33 ec bc
       0.012135104 -0.0037715544 -0.106494896 -0.028832918
000050 3f 74 24 3d 94 52 88 bb 7b 33 94 3d 66 44 d4 bd
       0.040149923 -0.0041602347 0.072363816 -0.103646085
000060 8c c5 f4 bb a5 36 c5 3d 25 7c 33 be 99 d1 9f bd
       -0.0074698385 0.09629563 -0.17527826 -0.078036495
000070 3b 55 d9 3d a2 f4 b4 bd 66 4d 98 3d 8e b2 33 3e
       0.106119595 -0.088357225 0.074366376 0.17548582
000080 72 cc 70 bd 82 77 4b bd 73 51 cc bc ef c9 02 bd
       -0.058788724 -0.04967452 -0.024941182 -0.03193086
000090 d1 19 04 bd 41 c7 1a 3d 4f 58 21 3e a9 70 67 3b
       -0.032251183 0.03778768 0.15756343 0.0035314953
0000a0 51 a6 1c bc ea d5 a9 bd 83 da ad 3b 75 65 63 3d
       -0.009561137 -0.08292754 0.0053055896 0.05551668
0000b0 b7 d7 1c 3e 78 f9 17 3d 2d 0c be bc 26 92 a3 3b
       0.15316664 0.037103146 -0.023199165 0.0049917875
0000c0 2c f0 18 3d ad eb 40 3c dd 3d f3 bd 66 eb 2a 3d
       0.03733842 0.0117749395 -0.11877034 0.0417284
0000d0 fa c1 46 bd 80 c4 14 be 98 ab 35 3e e4 af fa 3b
       -0.048524834 -0.14528084 0.17741239 0.0076503623
0000e0 09 f0 22 bd a6 ea 27 3e c1 ff 7b bc 5c 23 9b bd
       -0.039779697 0.16398105 -0.015380801 -0.07575104
0000f0 b5 44 a2 3d 18 27 e9 bc 6e 26 0a 3c 5d 9b 15 3e
       0.07923261 -0.028461024 0.008432014 0.14610048

weight f4 [10, 64]
000000 13 d9 7b bc 7f e3 10 3e 83 e2 3a bd 38 60 27 3d
       -0.015371579 0.14149283 -0.045626175 0.040863246
000010 35 0a 26 3e ee a3 eb bb f0 cd 53 3e 2a e8 f6 bd
       0.16214831 -0.007191173 0.20684028 -0.120560005
000020 26 6c f4 3c 81 d8 bf be cf 15 77 3e 89 02 bf bd
       0.029836725 -0.37469867 0.24129413 -0.093266554
000030 4b 53 e7 bd 4f c6 3d bd 68 8b 69 be 8a 05 1a be
       -0.11295184 -0.0463317 -0.22807086 -0.15041175
000040 03 85 88 be 29 2b 03 3e 08 16 34 bd 13 8a 3c 3e
       -0.2666398 0.12809433 -0.043966323 0.18412046
000050 e2 94 c3 3d e9 a7 95 be b2 52 d5 bd 7f 72 20 be
       0.095498815 -0.29229668 -0.104161635 -0.15668677
000060 f6 02 5c 3d ab d0 07 be b6 d1 16 3e 55 73 e2 bd
       0.05371376 -0.13263194 0.14728436 -0.11057154
000070 ea 87 95 3b 70 e2 00 3d da 9f ba 3d 47 b8 23 be
       0.0045633214 0.031465948 0.091125205 -0.15988265
000080 79 bd 7e 3e 09 6a 3f bd 23 5a 9a 3c 61 88 4d bd
       0.24876966 -0.046731982 0.018841809 -0.05017889
000090 ed a1 6f be 10 d5 f9 bc ad 4a 9f bc ef b9 ee 3d
       -0.23401614 -0.030497104 -0.019444788 0.11656558
0000a0 c8 98 2d 3e a2 f8 c5 bb 18 0f f7 bc bf cb 99 bd
       0.16952813 -0.006041602 -0.030158564 -0.075095646
0000b0 a0 82 0f 3e 36 60 d7 3d 1e 7d 80 bd bd 8a 47 be
       0.14014673 0.10516398 -0.06273864 -0.19486518
0000c0 c6 fe 61 3d 3e ee 17 3e fc 59 42 be 6e d7 de 3d
       0.05517461 0.14836976 -0.18979639 0.10880934
0000d0 4f 11 f1 3d 1d 42 e8 3d 27 fe 4e be c4 15 f5 3d
       0.117708795 0.11340735 -0.20214139 0.11967042
0000e0 8a c5 5f 3e 13 38 2a be 88 ee b5 bd 8c fa 1b 3d
       0.21852699 -0.16622953 -0.08883387 0.038080737
0000f0 17 40 60 3b eb c6 0b 3e 23 63 81 3e d6 aa 8a 3d
       0.0034217888 0.136501 0.25270948 0.067708656
000100 3d ea 7f bd 86 c8 21 3e cb 93 8d 3e 05 88 83 3e
       -0.062479246 0.1579915 0.2765182 0.25689712
000110 41 e8 9e 3e 1c 7f 7a bb e4 2e 7b bd 6b 40 2c 3e
       0.3103657 -0.0038222736 -0.061324015 0.16821449
000120 5e 24 4a be 7c 4b 81 be fd ba ee bd 26 d5 42 bc
       -0.19740435 -0.25252903 -0.11656759 -0.011891639
000130 b8 1f ce 3c 21 ef 29 be be 0b 9b bd ab 4a ec 3c
       0.025161609 -0.16595127 -0.07570599 0.028844198
000140 e8 21 8c bd fc b8 eb bd 8c 1b 29 be 7d 95 50 3e
       -0.068424046 -0.11509892 -0.16514415 0.20369525
000150 b9 14 65 bd 0b 85 e6 bd d4 43 b8 be 0d ad 5e be
       -0.055927966 -0.11255845 -0.3598925 -0.21745701
000160 f3 38 38 3e 27 bc 11 be a3 20 7b be 78 63 ac 3d
       0.17990474 -0.1423193 -0.24524169 0.0841741
000170 29 bc c4 bd 33 48 d4 bd c1 61 01 be fb 73 89 3e
       -0.09606201 -0.103653334 -0.12634946 0.268463
000180 6a 46 51 bd 44 53 84 bd c8 8b 9b 3e 44 ad 4c 3e
       -0.051092543 -0.06461194 0.30380082 0.1998797
000190 a7 de 24 3d 2e 6e 85 3c f9 e7 01 be e9 40 92 3d
       0.0402514 0.01628789 -0.12686147 0.07141287
0001a0 14 cc 51 be 24 3c a0 3c d0 33 8d 3e be 2e 89 3e
       -0.20488006 0.019559927 0.27578592 0.26793474
0001b0 a6 05 84 be bc 82 5e be 4b d2 e2 bd 65 94 3b bd
       -0.2578556 -0.21729559 -0.110752665 -0.045795817
0001c0 6d dd 41 bc 03 1a 15 be e2 4e ac 3e c9 1e 3c 3d
       -0.011832577 -0.14560704 0.33653933 0.045927797
0001d0 7f db 54 bd 5e 82 aa 3c 10 71 8c be ad 7c 59 be
       -0.05196714 0.020814117 -0.2743001 -0.21238966
0001e0 07 bd ba bd 53 0a e3 bd cb 95 89 3e 69 ba 82 3c
       -0.09118085 -0.110859536 0.26872095 0.015958028
0001f0 de 16 15 be 7c 21 17 be 4d c3 1f 3c 51 c5 fc bd
       -0.14559504 -0.14758867 0.009751153 -0.123423226
000200 96 b8 91 3d 93 af 11 3e 01 fd 3c be 39 0d a6 bc
       0.07115285 0.14227132 -0.18455888 -0.020269977
000210 82 4c 1c 3d 93 81 a9 3d d7 f6 07 3e 46 90 3d bd
       0.0381589 0.082766674 0.13277756 -0.046280168
000220 ec d8 2b 3e b9 97 83 3c 33 ce 79 3e 0d 1f 3a be
       0.16781968 0.016063558 0.24395065 -0.18175907
000230 ce a5 c2 3d 6b 12 f7 bd 8b 51 c1 bd 12 7d ab bd
       0.09504281 -0.1206406 -0.09439381 -0.08373465
000240 92 0d d9 bc 57 27 04 be 5e e0 a1 bd e2 95 20 3e
       -0.026495729 -0.12905632 -0.07904123 0.15682176
000250 0e 1c e8 3b 63 8b 1f be d5 87 16 3d 97 e9 1e 3e
       0.0070834225 -0.15580516 0.036750633 0.15518795
000260 6a 55 4b 3d b0 96 25 3e cd 7c 59 be 59 60 99 3d
       0.049642004 0.16170764 -0.21239014 0.0748908
000270 d9 77 80 be 2d 0d 1c bd 10 86 10 be 98 4d 2a 3e
       -0.25091437 -0.038098503 -0.14113641 0.16631162
000280 fe e8 d1 3d dd 12 ca bd 47 cd 08 3c ba a4 44 3e
       0.10249518 -0.09866879 0.008349723 0.19203463
000290 18 12 18 bd 20 98 59 3d 98 ee 5d bd 5e f2 88 3d
       -0.03712663 0.053123593 -0.05418262 0.06686853
0002a0 6a e2 15 3e f1 3d 46 bc 98 f5 30 bd e2 b5 1f 3e
       0.14637151 -0.012099729 -0.043202966 0.15596727
0002b0 be 8a 67 be f1 fc c8 3d a7 ba aa bc 40 b9 e0 3c
       -0.2261152 0.0981387 -0.020840956 0.027432084
0002c0 58 5d aa 3d a2 c1 39 3e b5 c6 1c be b7 43 f7 3d
       0.08318585 0.18140271 -0.15310176 0.120734625
0002d0 91 fc d6 3d 71 ab 1a 3e f1 be 75 3d 02 30 6e be
       0.10497392 0.15104462 0.05999655 -0.23260501
0002e0 b0 2c dd bd 93 9a 79 be 1f fa 23 be aa 5a 84 bd
       -0.10799539 -0.24375372 -0.16013382 -0.06462605
0002f0 2a a7 20 be ea e1 16 3d 4d cf a4 bb f9 0a 6b be
       -0.15688768 0.036836542 -0.005029595 -0.22953404
000300 33 5c 57 bd 03 62 1d 3e 09 8c 5a 3e bb 21 12 3e
       -0.052578162 0.1536942 0.21342482 0.1427068
000310 46 d8 23 3e ee ae 19 3d 3f 19 85 3d d3 4b 5f 3e
       0.1600047 0.03752034 0.06498956 0.21806268
000320 85 18 a4 bd 7a 39 3d bd 9c bc e8 3b d1 1b 99 bd
       -0.08012489 -0.046197392 0.007102562 -0.07476009
000330 dd 6c 52 3d 08 37 bc bd 2e 0e 56 be db 52 3b be
       0.05137335 -0.09190184 -0.20903847 -0.18293326
000340 d8 fb 61 be b7 fc 3c 3d 64 65 5c 3e c2 6e 4a bc
       -0.22068727 0.046139445 0.21523052 -0.012355508
000350 23 03 f8 bc d3 41 83 be cc 8a ca 3c f6 e8 a7 bd
       -0.030274933 -0.25636157 0.024724387 -0.08198731
000360 b4 d7 d5 3d 6c 7f e4 bd 5f fc 7d 3e c6 8f f4 3d
       0.10441533 -0.11157116 0.24803303 0.11941485
000370 9a c5 1d be ea ce e3 3c 03 17 ff 3d 08 5f e2 bd
       -0.1540741 0.027808625 0.12455561 -0.11053282
000380 9b 89 14 be 9f 2d f7 3d 15 69 3f be 18 8d 3b be
       -0.14505617 0.120692484 -0.1869243 -0.18315542
000390 7e 0a bb bd 83 da c4 bc 37 19 34 bc 9d 56 c8 3d
       -0.091328606 -0.024029976 -0.01099234 0.09782145
0003a0 02 b8 05 3d bb 22 a6 3b 10 a1 2c 3e f6 a1 ab 3b
       0.032646187 0.005070058 0.16858315 0.005237813
0003b0 e9 35 06 3e 12 ed 16 be ba 41 cc bc 34 99 57 3e
       0.13106503 -0.14738873 -0.024933685 0.21054536
0003c0 f2 ec bb 3c 19 69 ec 3d 10 87 75 bd da 80 28 be
       0.022940133 0.11543483 -0.05994326 -0.16455403
0003d0 7d 2f 6d bd 2e 4c c8 3d 4c ed cf bd ef dd 22 3e
       -0.057906616 0.09780155 -0.10152683 0.15904973
0003e0 4d cd 3c 3e 01 07 b2 3e 8f cb 65 3e 07 bc c0 3d
       0.18437691 0.3477097 0.22440933 0.09410863
0003f0 d1 6b 08 3e d5 ad 4a bc 27 28 bb bd 55 28 2e be
       0.13322379 -0.012370546 -0.09138518 -0.17007573

bias f4 [10]
000000 e9 d0 cd 3d 15 8d b8 bc 3e 1b c3 bd 35 06 4c 3c
       0.10049612 -0.02252821 -0.095266804 0.012452652
000010 47 36 3d be 4d 9c 3c 3f e9 ba f8 ba 25 cc 07 bd
       -0.18477736 0.73675996 -0.0018976602 -0.03315367
000020 4b ba 43 be 06 35 85 be
       -0.19114034 -0.26017016
