models/conf_7.pt (torch, 441470 bytes, 6 tensors)

weight f4 [128, 784]
000000 5c 75 16 bc 40 9e 00 bd 62 6d 47 3c 4f 17 be 3c
       -0.009183254 -0.03140092 0.012172075 0.023204474
000010 ca 9b 01 3d 1f 78 ee bc ca 6e 00 bd e0 6f 1a bc
       0.031642713 -0.029110013 -0.031355657 -0.009426087
000020 87 c2 e8 3c c7 99 82 3c 0c b3 0e 3c d0 22 2a 3c
       0.02841307 0.015942467 0.00870968 0.0103842765
000030 8e 34 0d 3d bc 94 92 3c 03 85 96 3c f4 cc 12 bc
       0.03447395 0.017893188 0.018373972 -0.008959997
000040 3d 8e 26 3c 46 e7 73 bc 69 2d ca 3c ff 64 b3 3c
       0.010165748 -0.014886683 0.024679856 0.021898745
000050 ea 5d bf 3c df bb d4 3c c7 a6 b8 3c 26 62 00 3d
       0.023360211 0.02596849 0.022540463 0.0313436
000060 48 e0 cd bb 98 1e 03 bd b0 ce 98 bc 05 88 6f bc
       -0.00628284 -0.0320116 -0.018653244 -0.014619832
000070 77 7f cc 3a 67 3c af bc 69 72 04 bd 0b 50 0f 3d
       0.0015601952 -0.021391107 -0.032335673 0.034988444
000080 60 85 38 3c 1a 2b d6 bc 0a 8a 0e bd c3 02 2f bc
       0.011262268 -0.0261436 -0.034799613 -0.010681811
000090 eb 4b 27 3c 40 2d 03 3d 0c 67 e0 3c ac 80 0f bd
       0.010210971 0.032025576 0.027392887 -0.03503482
0000a0 89 8f a3 bc 92 d9 b0 bb 17 8c aa 3c b0 8d 10 bb
       -0.019965904 -0.00539703 0.020818753 -0.0022057109
0000b0 40 7b c6 bc b6 6d c7 bc 11 0f 81 bc b4 06 f8 3b
       -0.024228692 -0.024344306 -0.015754255 0.0075691584
0000c0 28 93 c2 bc 2e 14 a7 bc be 17 0a 3d ec 50 6e bb
       -0.02375181 -0.020395365 0.03371405 -0.0036364151
0000d0 dd b9 90 bb eb 59 dc 3c 7a 1e b1 bc 93 4b 02 bd
       -0.004416688 0.026898345 -0.021620978 -0.031810354
0000e0 1d 3f f1 ba fa 77 e7 3b a1 e7 0c bd c3 f9 16 3c
       -0.001840565 0.007063863 -0.034400586 0.009214821
0000f0 ad a8 34 3c 84 60 01 bd 7c f4 4c bb 70 01 af 3b
       0.011026544 -0.031586185 -0.0031273654 0.0053407475
000100 25 b4 aa bc 5c df 67 bc 5c 06 63 3c 42 3c c6 3c
       -0.020837853 -0.014152374 0.013856497 0.024198655
000110 03 6c a9 bc 2a 34 90 3c 12 4e 92 3c fa 8e 06 3c
       -0.020681387 0.017602999 0.017859492 0.008212799
000120 58 9d b0 bc 1d 55 93 3c 6d 14 fa 3c 6b 8e 98 bc
       -0.021559402 0.017984921 0.030527318 -0.018622598
000130 57 f5 82 bc f0 29 37 3b 60 45 c8 3c 5a 90 98 3b
       -0.015986128 0.002794858 0.024447143 0.00465588
000140 51 6e 5e bc 42 b2 ec 3c 4e 91 88 3c 62 57 8f 3c
       -0.013576106 0.028893594 0.01667085 0.017497722
000150 b5 01 f8 bc fe 65 b0 bc f8 fb af bc 1e 01 94 3c
       -0.030274251 -0.021533009 -0.021482453 0.018066939
000160 47 b3 f5 3c de c5 7c bc 45 88 b1 3c 58 f4 35 3a
       0.029992713 -0.015428035 0.021671424 0.0006941012
000170 f5 3b 94 3c e4 21 e0 3c 1c ce b9 bc a0 53 7e bc
       0.018094996 0.02735991 -0.022681288 -0.015522867
000180 b2 1b 4d 3c 03 9a 10 bb a6 30 04 3d 76 84 c8 bc
       0.01251881 -0.0022064454 0.032272957 -0.024477225
000190 cf dd d6 3c 7e 9a ed 3c a7 a9 17 bc 4c 31 fa 3b
       0.026228813 0.029004332 -0.009256757 0.007635271
0001a0 d3 50 06 bd 77 ef b3 bc 75 22 c2 bc 46 fa 1c bc
       -0.032791924 -0.021964772 -0.023698071 -0.009581154
0001b0 a7 d7 84 3c 7e 65 aa bb c7 e7 38 3c 21 9c 0c bd
       0.016216112 -0.005200087 0.011285729 -0.034328584
0001c0 da c2 35 3c a8 78 9c 3c c4 24 a4 bc 0e dd c5 3c
       0.0110938195 0.019100502 -0.020037062 0.024153259
0001d0 ae 33 0a 3d f6 13 4f bc a8 f9 90 bc 30 e8 e7 3b
       0.03374069 -0.012639036 -0.01769717 0.0070772395
0001e0 8d d1 1e 3c cf 73 83 3c db 19 7a bb 34 09 bd bc
       0.0096935155 0.016046433 -0.0038162384 -0.023075677
0001f0 e1 b9 82 bc fa c7 01 bd 0d 02 c2 bc 16 6a ae bc
       -0.015957775 -0.031684853 -0.023682619 -0.02129082
000200 32 2f 31 bc c8 16 4c 3c 5b 8a d5 3c b2 9f c0 bb
       -0.010814475 0.012456603 0.02606695 -0.005878412
000210 b1 0e 55 bb f2 c1 9e 3b 75 52 24 3c 17 5b 9e 3c
       -0.0032509977 0.0048448974 0.010029425 0.019330544
000220 55 5c cb bc 9f 35 f3 bc ca 7e 6f 3a e0 7e f1 bc
       -0.0248243 -0.029688654 0.00091360195 -0.029479444
000230 08 a6 f4 3c 5a d4 f7 bc cf 51 49 bc 34 f5 0d bd
       0.029864326 -0.030252624 -0.012287571 -0.034657672
000240 56 3b 89 3c 74 61 82 bc fd ca 77 bc 11 a0 44 38
       0.016751926 -0.01591561 -0.01512408 4.6879115e-05
000250 7c c5 94 3c fd 96 ff 3b 7c 37 c9 bc ba b0 03 3d
       0.018160574 0.0077999816 -0.02456259 0.03215096
000260 42 c1 84 3c 29 88 08 3d cd 99 24 3c 32 21 d8 3c
       0.016205434 0.033332977 0.010046435 0.026383016
000270 9a e9 e3 3b 59 be 4d 3c 07 89 52 3c 9a 9e b4 bb
       0.0069553377 0.012557589 0.012850053 -0.005512071
000280 4e d8 3c 3b b6 66 85 3c 31 28 91 bb 9d 80 bc bb
       0.002881545 0.016284328 -0.00442984 -0.0057526366
000290 3a 83 0a 3d 11 e4 07 bd 61 65 bc bc 74 86 40 bb
       0.033816554 -0.033176485 -0.02299756 -0.0029377015
0002a0 93 80 2a bc 9d 38 11 3c 02 36 99 3c 22 5b 4d bc
       -0.010406631 0.008863595 0.01870251 -0.012533935
0002b0 97 5d d5 bc 74 c4 85 bb 5e 9e 56 3b c9 34 d3 bc
       -0.026045604 -0.004082257 0.0032748203 -0.025782006
0002c0 1d 5e f8 3b 2d 15 07 bb a1 46 1f bc e6 8a 57 bc
       0.0075795786 -0.0020611987 -0.009721429 -0.013155675
0002d0 11 1f 04 3c ed fc 90 3b 06 7f 56 bc 42 f8 09 bd
       0.008064047 0.0044246824 -0.013091808 -0.033684023
0002e0 7d 20 11 bd 63 b8 a8 3c 1a 3e 5a bc 63 d2 c1 3c
       -0.035431374 0.020595735 -0.01332047 0.02365989
0002f0 31 4b 0b 3c b9 d9 fb bc cf d7 d1 3c 2f 6c 8e 3c
       0.008501814 -0.030743467 0.0256156 0.01738557
000300 c8 d2 07 bc d5 a9 d6 bb b6 2b 75 bc a8 d1 d5 3b
       -0.00829 -0.0065510073 -0.014964035 0.006525237
000310 b1 87 97 3c fe 63 c2 39 08 05 03 3d 70 19 fc 3c
       0.01849732 0.00037077063 0.03198722 0.030773848
000320 c2 19 0c 3d ac 80 cb 3c 6c 8d 06 bc 6e 3e c2 bc
       0.034204252 0.024841629 -0.008212429 -0.02371141
000330 a8 8f 97 bb 0c 61 ca bc 4b f0 e0 bc 07 75 51 bc
       -0.0046252795 -0.024704479 -0.02745833 -0.012784249
000340 25 0f b0 3b af d4 05 bd 58 4d 07 3c 27 aa 2f bc
       0.005372899 -0.032673534 0.008258186 -0.01072172
000350 d3 01 90 bc 86 20 9e ba 5b 27 2c 3c fa 64 0f 3c
       -0.017578995 -0.0012064136 0.01050743 0.008752102
000360 6d e1 8a 3c 39 f4 eb 3c bc 09 49 bc 57 8f dd bc
       0.016953195 0.028802978 -0.012270387 -0.027045889
000370 8e 74 95 39 02 9e 6c 3c 4b 62 0a bd f0 6d 24 3c
       0.00028506335 0.014441969 -0.033785146 0.010035977
000380 46 00 0e bb 49 17 2b bb a2 4c e8 3c 06 6f 11 bd
       -0.0021667643 -0.0026106408 0.028356854 -0.03550627
000390 68 67 64 bc dc 36 e1 3c 76 47 b5 3a 4f b2 d5 bc
       -0.01394067 0.02749198 0.0013830501 -0.026086
0003a0 90 38 b2 ba 61 cb e2 3b fc c9 6b bc ef 54 fd bc
       -0.0013597179 0.0069212173 -0.014391419 -0.030924289
0003b0 7d 24 02 bd c7 64 93 bc 4c e5 94 3c 37 71 f3 bb
       -0.03177308 -0.01799239 0.018175744 -0.0074292677
0003c0 70 87 cb bc 89 37 d5 bc bd e8 d3 bc 54 ba 26 bc
       -0.024844855 -0.026027458 -0.025867814 -0.01017626
0003d0 4e a2 c8 3a 94 d0 60 bc 7c b9 a8 bc 8f 0c c1 3b
       0.001530716 -0.013721604 -0.020596258 0.0058913897
0003e0 b2 28 17 3c 53 fa 1f bc 83 81 ad 3b 1c 72 d2 3c
       0.009226011 -0.009764272 0.00529498 0.025689177
0003f0 d9 6b 88 bc 00 9b 05 bd 49 79 d5 bb 1f 29 5c 3c
       -0.016652988 -0.032618523 -0.0065147025 0.013437538

bias f4 [128]
000000 b0 4e 8e b9 76 f2 04 bc 66 ba 8a 3d 23 44 d0 ba
       -0.00027142977 -0.008114448 0.06773834 -0.0015889447
000010 0d 01 91 3d 59 8d d6 3d d4 ef 40 be 45 cf d3 3d
       0.070802785 0.10476179 -0.18841487 0.10342268
000020 2d f2 22 be 89 59 ea bc 5c 5d 6f bd 54 e4 f5 3c
       -0.15912695 -0.028607147 -0.058438644 0.030016102
000030 d2 f0 bf bd c1 ba 8d 3d 24 3b 4c 3d 26 65 21 bc
       -0.09372105 0.06920386 0.04986109 -0.009850776
000040 59 c5 21 3d 34 92 78 bd 40 fc bb 3d 12 14 68 3c
       0.039494846 -0.060686305 0.09178972 0.014164941
000050 e1 0d ba 3c 2b ee e3 bc 20 c9 c8 3d 60 f2 f8 bd
       0.022711696 -0.027823528 0.098039865 -0.12155604
000060 69 a3 a1 bd 18 f0 84 3c aa 4d 30 bd 57 04 a8 3c
       -0.07892496 0.016227767 -0.043042816 0.020509882
000070 b3 d7 4b be 44 d1 b3 3d f6 22 bf bc f7 03 4e bc
       -0.19906501 0.087801486 -0.0233321 -0.0125741875
000080 90 02 a9 bc 92 9a 94 3d 34 a0 7a 3d 5a 41 10 be
       -0.020631105 0.072560444 0.061187938 -0.1408743
000090 98 28 1a be 02 2e 15 be 89 2f 5b 3e c1 24 f1 3d
       -0.15054548 -0.14568332 0.21404852 0.117745884
0000a0 b6 a6 43 3e 20 e4 ff 3d 15 31 44 3d 95 7e 21 bd
       0.19106564 0.12494683 0.04789837 -0.03942736
0000b0 1d a4 61 3e b8 e2 49 3e d3 6d 0d bd 58 89 fb bd
       0.2203526 0.19715393 -0.034528565 -0.122820556
0000c0 b6 4a 22 bd 55 45 fc 3d ce 84 d2 3d 67 a4 27 3c
       -0.03962203 0.123179115 0.10279237 0.010232068
0000d0 9b 00 3e bc 85 c9 42 bd 35 70 d9 3c e8 68 bd 3d
       -0.011596824 -0.047555465 0.026542762 0.09248525
0000e0 2e b7 54 bc 63 74 64 bd 96 37 51 3e b3 8c 5d 3d
       -0.012983127 -0.055775058 0.2043136 0.05408926
0000f0 ee 7d fb 3c 62 be 11 3e 6e cf 5f 3d b7 1f 16 3e
       0.030699696 0.14232782 0.05464118 0.14660536
000100 f7 3e f6 bc e1 cb 25 bd 89 29 a8 3c c6 66 22 bd
       -0.03005932 -0.040477637 0.020527618 -0.039648794
000110 4a 7e 6f 3d 3c cc 49 bd 09 9e 88 3d 08 a0 5c 3e
       0.058470048 -0.04926704 0.06670768 0.21545422
000120 44 2d 7c 3d 5b fd 5e 3c 57 b8 f5 bd c0 09 91 3d
       0.061566606 0.013610209 -0.11998051 0.07081938
000130 a6 ae 8c 3d 61 f1 b8 bd c4 a4 8d bb 23 36 96 bd
       0.06869249 -0.090304144 -0.00432262 -0.073345445
000140 01 83 9c 3d 62 e3 8b 3c b8 5d e5 3d e3 df 15 3d
       0.076421745 0.017076198 0.11199516 0.03659047
000150 84 20 6a 3e 6b 3b 1c 3d 44 96 0e bd bf a4 c8 3c
       0.22863966 0.038142603 -0.034811273 0.02449262
000160 8e fa 27 3c 84 13 be bc d6 89 80 3d 80 6f 1b be
       0.010252608 -0.023202665 0.0627629 -0.15179253
000170 87 4a b3 bb 0d 57 04 be 71 0f 86 bc e3 6c ce 3c
       -0.005471531 -0.12923832 -0.016364785 0.025198406
000180 11 5c 7b 3d c9 1a c6 bc 0a 79 27 3e d9 66 70 bb
       0.0613671 -0.024182694 0.16354766 -0.0036682396
000190 48 d1 6a 3d 96 84 a0 3c c3 da bd bd 63 24 2f 3d
       0.057328492 0.019594472 -0.09270241 0.04275931
0001a0 cf 57 b7 3d c6 c7 5f be 83 d3 84 3c 30 bc 28 be
       0.08952295 -0.21853551 0.016214138 -0.16478038
0001b0 1a 0a 6d 3e b6 6e 13 bd a6 17 a1 bb 14 87 0a be
       0.23148385 -0.035994254 -0.004916149 -0.1352809
0001c0 5e c5 7b 3d 7b fa a9 bc 1c 6d e2 3d 2f 45 b7 3d
       0.06146752 -0.020749321 0.11055967 0.089487426
0001d0 e5 a5 c3 3d 61 29 2c bc b1 3d 52 3d 6e 4b 63 bd
       0.09553126 -0.010507912 0.051328365 -0.055491857
0001e0 ac 21 06 3e d7 d1 ec bd 4a ed 2d 3c d8 3c 84 bd
       0.13098782 -0.11563461 0.010615656 -0.064569175
0001f0 fa 92 7b bc 14 05 e1 3b e8 a5 f1 bd e1 8d 4b bd
       -0.015354866 0.0068670604 -0.11799222 -0.049695853

weight f4 [64, 128]
000000 47 ac ac 3c 9b 54 d5 bb 9f 1f ac 3d e4 7b 68 bc
       0.021078242 -0.00651033 0.08404469 -0.014189694
000010 76 62 bb bd 48 19 9a 3d 17 db 1d be a7 a0 5c 3d
       -0.09149639 0.07524353 -0.15415607 0.053864148
000020 f3 7c e3 bd d6 ed 3a 3c 27 fd 64 3e 46 3e a7 bb
       -0.111078165 0.011409244 0.22362195 -0.005103859
000030 62 6a 4b bd 3f b6 c0 bd 86 03 dc 3c 77 f5 d1 bd
       -0.049662 -0.09409761 0.026857149 -0.10251897
000040 71 7e 40 bd 13 3c a3 bd 18 a5 c8 3d f8 06 7c bd
       -0.046995584 -0.079704426 0.09797114 -0.061530083
000050 ec 9a 25 3e b4 95 59 bd 9c d4 6b 3b b4 77 b8 bd
       0.1617238 -0.053121284 0.003598488 -0.090072066
000060 9b 4b d6 bd 03 3a e1 3d f9 7d 0f bd 3b b3 3c 3c
       -0.10463639 0.10997393 -0.035032246 0.011517341
000070 81 27 88 bd a6 5b 8c 3b a8 13 0d 3d 82 66 83 bc
       -0.0664816 0.0042833863 0.034442574 -0.01604009
000080 93 42 0a 3d 3e b2 5a 3d 20 0a 90 3d 07 4b 0b 3d
       0.033754896 0.05339264 0.07033181 0.0340071
000090 38 aa b6 bc c0 96 8b bd b1 e9 d0 3d cc bf 1e 3e
       -0.022297964 -0.06815863 0.10200823 0.15502852
0000a0 ef be fe 3c 55 9f f9 bc 3f d8 6c bd d6 05 6f 3c
       0.031096904 -0.030471483 -0.057823416 0.014588794
0000b0 18 0c 8a 3d cf 07 f9 bc 53 80 0c 3a d0 71 10 bb
       0.06740588 -0.030399231 0.0005359698 -0.0022040494
0000c0 99 93 96 3c d2 d0 5e 3d c6 48 73 3e f9 66 4d bd
       0.018380927 0.054398365 0.2375823 -0.05014703
0000d0 13 b2 12 3d 31 cb c5 3c 25 ff f6 bb f4 9a ee 3d
       0.035814356 0.02414474 -0.00753774 0.11650649
0000e0 1a db 9b 3c f5 f0 bd 3d ee de 4f 3d 24 9e f4 bc
       0.019025374 0.092744745 0.05074971 -0.029860564
0000f0 bc bf 01 3d 7e f2 10 3e b4 65 24 3e a8 6b 24 3e
       0.031676993 0.14155003 0.16054422 0.16056693
000100 62 a6 17 3d c5 4c 2f bc e8 c2 79 bc 41 43 b5 3d
       0.03702391 -0.010699456 -0.015244223 0.08850718
000110 5d c1 9e 3c f6 6d 85 bc c2 df 08 3e bd ed 0e 3e
       0.019379312 -0.016287785 0.13366607 0.13957877
000120 20 38 81 3c be 81 b9 bd aa de dd bd 83 6f 17 3e
       0.015773833 -0.090579495 -0.108334854 0.14788632
000130 39 28 e4 3d 4a f1 bf 3c 49 a8 06 3c ba b6 1e 3e
       0.11140484 0.023430485 0.008218833 0.15499392
000140 60 3a 88 bc d3 89 fe 3b d3 43 1c bd de 8c f1 3d
       -0.016629398 0.007767895 -0.03815062 0.117944464
000150 63 17 f7 3d 26 39 f1 3d 0d b1 b3 bb d3 9e 39 bd
       0.120650075 0.11778478 -0.0054837526 -0.045317482
000160 26 9c 6c 3d 65 4d 13 3d 28 12 91 3c 8f 7a 78 bc
       0.057766102 0.03596248 0.017708853 -0.015165939
000170 8d b7 7c 3d 2a 60 4d bd 5f 2b fb 3c 73 10 6c bd
       0.061698485 -0.050140537 0.03066033 -0.057632875
000180 e7 ac f1 bb e4 53 85 3d b0 9e 41 3e 2a a5 cf 3b
       -0.007375348 0.065101415 0.1890819 0.0063368278
000190 a0 75 b5 3d 3d 4c 19 bd 91 b0 84 bd af f7 0a 3c
       0.08860326 -0.037426222 -0.0647899 0.008481904
0001a0 05 da 16 bd d5 f7 ab bd b7 3b 18 bd f3 b6 2a bd
       -0.036829013 -0.083968796 -0.037166324 -0.04167838
0001b0 bb 19 85 3e 3f d0 ee 3d 93 72 22 bc 94 c9 0e bd
       0.25996193 0.116608135 -0.009915012 -0.03486021
0001c0 27 87 a2 bd f8 ef 79 bc 0e 1a 05 bd 49 9a c6 bc
       -0.079359345 -0.015254967 -0.03249555 -0.02424349
0001d0 f1 17 04 3e 35 fa 46 bd 95 ee 98 3c ab 5f d9 3a
       0.12899758 -0.04857846 0.018668452 0.0016584297
0001e0 01 ae 54 3e 9f 41 6d bd e6 47 0e 3d a3 6a cb bd
       0.20769502 -0.05792391 0.034736536 -0.09932449
0001f0 73 ab 25 3c 1b f4 d1 3c 44 13 19 3e 4b a8 17 bd
       0.010111677 0.025629094 0.14948756 -0.03702573
000200 b8 69 98 bd be 23 5c bd d2 37 a5 bc 45 b0 e8 3b
       -0.07442039 -0.053745024 -0.020168219 0.007101091
000210 7f 5d 84 3c 7e da 0f bd 5e a5 b3 bb f8 e5 e4 bb
       0.016157864 -0.03512048 -0.00548236 -0.006985422
000220 ad 06 af 3d 8d d8 ba bc 50 2a 83 bd 7d bf b7 3c
       0.08546195 -0.022808338 -0.06404555 0.022430176
000230 8a c3 4b 3e de 84 28 3d 42 1d 32 3e f2 de 0a 3d
       0.19898811 0.041142337 0.17393973 0.033904023
000240 b8 b4 4c 3e eb 8b 7a 3d 52 66 4c 3e 6c 22 2a bc
       0.19990814 0.061168592 0.19960907 -0.010384183
000250 4b d2 09 be 25 c7 9f bd b7 de b5 bd ad 3f 71 3d
       -0.13459127 -0.07801656 -0.0888037 0.058898617
000260 3f d5 0d 3e c8 00 14 3d c5 5f c4 bc cf 38 99 bb
       0.13850878 0.036133558 -0.023971448 -0.0046759616
000270 0d 89 36 3d cc 84 3f bd 20 f5 bb bc 14 45 c0 bd
       0.044564296 -0.046757504 -0.022944033 -0.093881756
000280 8a 38 bc bd d2 48 97 3d bf 55 2c 3d 19 e4 b1 3d
       -0.091904715 0.07386936 0.04207396 0.08686084
000290 28 92 9c bd 00 83 a4 3d f0 38 a4 3d cb 36 0c 3b
       -0.076450646 0.08032799 0.080186725 0.0021394964
0002a0 af 22 ab bd 3a c7 43 3d d4 67 37 3d 20 07 bb bc
       -0.08356225 0.04779742 0.044776753 -0.022830546
0002b0 fd fa 4e 3c 98 8e 0e 3c 46 97 69 3c 44 f4 e3 bd
       0.012633082 0.008700989 0.014257258 -0.11130574
0002c0 95 0b da 3d d4 f6 8b bd 60 60 0f 38 57 51 88 bd
       0.1064674 -0.06834188 3.4183613e-05 -0.06656139
0002d0 a9 89 83 bd 36 8a 93 3d 54 97 5f bd c4 69 4f bd
       -0.06422741 0.07204096 -0.054587677 -0.050637975
0002e0 a9 d4 16 bc 62 3a d4 3d d6 e4 c4 bd fe d0 8a 3d
       -0.009205976 0.10362698 -0.096139595 0.06778143
0002f0 57 8f 3b 3d a8 11 19 3e 91 4e 24 3d 2f 51 14 bc
       0.045790996 0.14948142 0.04011399 -0.009052559
000300 6b 5d ea bc da b5 59 ba 32 94 d5 bc e1 96 8b 3c
       -0.028608998 -0.0008304991 -0.026071642 0.017039718
000310 d7 d7 b3 bd 8d a4 56 3c 6d 4b 2a 3d 77 ff 02 bd
       -0.087814026 0.013100755 0.041575838 -0.03198191
000320 fb e4 2c 3e 69 32 66 bd 80 61 1e 3d 43 0e dc bc
       0.16884224 -0.05620042 0.038667202 -0.02686227
000330 e8 30 02 3d 67 43 ad bd 96 40 84 bd 22 a9 cf bd
       0.031784922 -0.084601216 -0.06457631 -0.101396814
000340 ed 3b ab bd 63 a7 c4 bd 4f 6a bd 3d 40 d6 d5 bc
       -0.08361039 -0.09602239 0.092487924 -0.026103139
000350 fe b1 e4 bb e4 22 7a 3b 40 90 b2 bc 19 0a 76 3d
       -0.006979226 0.003816777 -0.0217973 0.060068224
000360 ca f2 0c 3d 83 28 ea bc f0 1e a5 bd d2 12 97 bc
       0.03441123 -0.02858377 -0.080625415 -0.018441591
000370 06 2e 9f bd eb 1e 9f bd e3 93 53 3c 8f 33 a6 bd
       -0.0777245 -0.07769569 0.012913677 -0.08115303
000380 12 13 57 3e 94 67 05 bd ba 0d 16 bd 6e 5c a2 bd
       0.21003368 -0.032569483 -0.036634184 -0.07927786
000390 1e dd 59 bc f9 69 51 bd d9 d6 09 bd e1 74 a4 bc
       -0.013297347 -0.051126454 -0.03365216 -0.020075263
0003a0 48 cd c8 bd d9 d7 b8 3d f2 e6 c0 3c 90 ca 07 be
       -0.09804779 0.09025545 0.023547623 -0.13260865
0003b0 e4 b8 fd 3c 28 f4 15 bd 83 9c 38 bd 0f 4e 2d be
       0.030971952 -0.0366098 -0.045071136 -0.16924308
0003c0 5b 70 9c 3c 7f 6a da bc ec 8d 03 3e 85 3c 82 bd
       0.019096544 -0.02666211 0.12847108 -0.063591994
0003d0 17 50 2c 3c c5 b8 d4 3d 91 ff d1 bd 29 0d ec bc
       0.010517142 0.103868045 -0.102538235 -0.028814869
0003e0 a8 da f1 3c d3 80 95 3d 18 eb 42 bd a2 20 ad bc
       0.029523209 0.07299962 -0.047587484 -0.021133725
0003f0 89 4f a8 bd f7 a3 02 bd 8f e6 a3 3d 8d 59 a8 3d
       -0.08218295 -0.03189465 0.0800296 0.082202055

bias f4 [64]
000000 1d 1f 5e 3e f0 28 20 3e 1d 93 26 3d 04 10 dd bd
       0.21691556 0.15640616 0.040667642 -0.1079407
000010 36 6d 9d 3c 35 d4 27 3b 77 7f a8 3d 47 23 cf 3d
       0.019217115 0.0025608663 0.08227437 0.101141505
000020 b8 80 ab bd d2 24 1f 3c f7 9d 76 3e 18 2d 4e 3d
       -0.083741605 0.0097133685 0.24083696 0.050335974
000030 95 7b 94 bd 9c 62 c4 3e 09 c9 b9 3d ab f1 92 bc
       -0.07250134 0.38356483 0.090715475 -0.017937502
000040 d4 c8 0b be 9e ae 00 3e c6 07 f8 3d c6 ae 19 3c
       -0.13650829 0.12566611 0.12110858 0.009380048
000050 c7 a6 35 3e f7 71 1a bb 8d 5f c9 3d ab 38 ad 3e
       0.17739402 -0.0023566463 0.09832678 0.33832297
000060 88 20 8d bd 9b f8 24 3e dc 1b 56 3e c8 75 a8 3d
       -0.068909705 0.1611046 0.20909065 0.0822559
000070 28 8d 9b bb 0a 8c e9 3c 3c 50 46 3e f4 ba ae 3d
       -0.0047470517 0.028509159 0.19366544 0.08531752
000080 77 c1 28 3e f6 f8 2e 3c 6d b0 46 3e 99 72 e4 3d
       0.16480051 0.010679474 0.19403239 0.1115467
000090 52 0c f5 bb 3e 63 03 3e 19 9e ce 3d fb 36 a3 bb
       -0.0074782753 0.12830827 0.100887485 -0.0049809194
0000a0 04 ad 1c bd 9b da f2 bc 69 39 8a 3e db 84 17 3e
       -0.038250938 -0.029645255 0.26996925 0.14796774
0000b0 8c a3 90 3d a5 cf 97 3d d1 59 0c 3d e9 93 20 bd
       0.07062444 0.07412652 0.034265343 -0.039203558
0000c0 24 8e 90 3e eb 7a 1f 3e d9 9e 49 3e 0e 5a 2a 3e
       0.28233445 0.15574233 0.19689502 0.16635916
0000d0 c7 d1 c8 3d f3 4b 02 3e 61 f5 b9 3d 59 1f e6 3b
       0.09805637 0.12724285 0.090800054 0.00702278
0000e0 2b 40 c4 3d d8 fa 33 3e 35 05 0f bd 28 1a ec 3d
       0.095825516 0.17576158 -0.034917075 0.115284264
0000f0 32 ea 26 3e e3 d8 45 3e a6 2f 10 3d 45 2e c6 3d
       0.16300276 0.19321017 0.03520169 0.09676794

weight f4 [10, 64]
000000 18 b9 58 3e db 86 66 3e 24 67 75 bd 5b c2 ab bd
       0.21164358 0.22512381 -0.059912816 -0.0838668
000010 28 38 f9 bb c0 29 20 be 8f 7a 1c be 4b 46 bb bc
       -0.0076055713 -0.15640926 -0.15281127 -0.022860667
000020 93 91 a2 bd 37 96 69 3e 5e 62 bf bd 5a b7 69 be
       -0.07937922 0.22811209 -0.09344934 -0.2282385
000030 86 07 22 3e f2 6d 2b be fd 71 26 be b8 18 51 be
       0.15823182 -0.1674116 -0.1625442 -0.20419586
000040 1b d6 c6 3b ca 99 a3 3e ed 65 9d be 16 22 99 3d
       0.006068004 0.3195327 -0.30741826 0.074772045
000050 b7 0a 4a be 42 a2 b7 3e bc 52 12 be e4 c1 bd be
       -0.1973065 0.3586598 -0.14289373 -0.3706199
000060 52 cb 95 3d ce c2 40 3e e6 49 fc 3e c6 a6 9a be
       0.07314171 0.18824312 0.4927513 -0.30205363
000070 bb a2 8a 3e 14 29 7d 3d 6e be 4e 3e 84 cd 43 be
       0.27077278 0.061806753 0.2018983 -0.19121367
000080 df c3 b1 3e df 71 3a 3e e6 3c 6f be 0c d2 39 be
       0.3471975 0.18207501 -0.23363075 -0.18146533
000090 6b 57 f0 3d 95 8a ba bd 71 c8 6f 3e c7 46 be be
       0.11735424 -0.09108464 0.23416306 -0.37163374
0000a0 dd 6c 55 3e 07 23 38 ba 0d d9 8f 3e 8f f5 dd 3e
       0.2084231 -0.00070242624 0.28095284 0.4335141
0000b0 e2 bb 91 3c 72 e8 e0 3d 7e 29 7a 3e 47 a3 32 3e
       0.017789785 0.109818354 0.2442989 0.17445098
0000c0 dc 71 2d 3d 6e b3 13 3d fb f9 63 3e 38 76 01 3d
       0.042344913 0.03605979 0.22263329 0.031606883
0000d0 0d f3 b9 bd 68 bb 63 3e b2 2c 3a 3e 77 21 08 bd
       -0.090795614 0.22239459 0.18181112 -0.03323504
0000e0 b1 e6 72 3e a1 ea ad 3e b2 e3 01 3d ab 83 74 be
       0.23720814 0.3396807 0.031711288 -0.23878352
0000f0 7c a6 90 3e ea ea a9 3e 16 5c 8d bd 93 97 41 be
       0.28252017 0.33187038 -0.069023296 -0.18905477
000100 5d 4f 06 be 39 4c b1 3e a0 69 88 bd 2e 06 84 3e
       -0.13116212 0.34628466 -0.06660771 0.25785965
000110 a4 ba 9c be ed 9d d7 3e 05 9b 9a 3e 63 a4 77 bd
       -0.30611145 0.42112675 0.30196396 -0.060459506
000120 3b cd f0 bd 74 a7 90 3e 30 e4 82 be 79 32 91 3e
       -0.117578946 0.28252757 -0.25564718 0.2835882
000130 65 97 b8 3e d5 39 79 bd 90 86 f5 bd d6 8d 6d 3e
       0.36053005 -0.06084617 -0.119885564 0.23198637
000140 b9 3d e4 bd 6a b1 55 be 8a a7 83 3e b5 e2 5b be
       -0.11144585 -0.2086846 0.2571376 -0.214732
000150 a9 78 a6 be b6 90 93 3e b0 ec 2f be 99 37 ae be
       -0.3251393 0.28821343 -0.17180133 -0.34026793
000160 9f 60 f6 3b 5e 1d b7 3e 6d 74 37 be f1 28 41 be
       0.0075188424 0.35764593 -0.17915507 -0.18863274
000170 81 8c 85 be 17 fa e4 3d b5 a3 63 3c f9 e9 8c 3e
       -0.26083758 0.11180513 0.013894011 0.27522257
000180 8a 4f 37 be 33 47 75 be 44 cd e7 bd 43 6b 91 be
       -0.17901435 -0.23952942 -0.11318448 -0.28402147
000190 c7 14 8c bd 58 ce b0 3e 34 98 3c 3e c0 a7 ac 3e
       -0.068399005 0.34532428 0.18417436 0.33721733
0001a0 52 fc ac 3e ab 6f b2 bd 0f 20 43 be 14 4b a0 bd
       0.33786255 -0.08712705 -0.19055198 -0.0782682
0001b0 98 fa 92 3e 62 ac 18 be f6 3c b1 be 75 78 71 be
       0.28706813 -0.14909509 -0.34616822 -0.23581107
0001c0 72 b0 be bc 46 45 92 3e a5 65 8b 3e 62 1f 85 be
       -0.023277495 0.28568476 0.27225986 -0.26000506
0001d0 10 47 d2 bd db 79 8a bd ab 47 a8 3d 90 62 05 be
       -0.1026746 -0.06761523 0.082167946 -0.1302588
0001e0 35 bc a2 bd 57 b6 80 be 52 b5 d8 bc ff 4d 58 be
       -0.07946054 -0.25139114 -0.026453648 -0.21123503
0001f0 ed 56 ab 3e a2 8d 50 bd 07 e2 72 be 18 ea a7 3e
       0.33464757 -0.05091632 -0.23719035 0.32795787
000200 29 3f d9 be 81 0f a9 bd 92 e3 24 be b2 23 b5 bd
       -0.42431 -0.0825491 -0.16102436 -0.08844699
000210 bd 95 52 be 9d 9b 7e 3e 9a 27 a4 be 84 41 4a bd
       -0.20564933 0.2486405 -0.32061464 -0.049378887
000220 a2 1e 78 be e8 ec d2 be b1 11 96 3e 02 d1 b9 3d
       -0.24230435 -0.4119637 0.29310372 0.09073068
000230 41 18 70 be d1 24 36 bd f3 21 76 be d5 e3 04 be
       -0.23446752 -0.044468705 -0.24036388 -0.12977536
000240 c2 07 00 be 5e 1a 6e be 6b be a0 3e 50 ed 95 3e
       -0.1250296 -0.23252246 0.31395277 0.29282618
000250 ba 3a 9b 3e 4c 06 1e be 3b 6a 61 be db 78 22 3d
       0.30318242 -0.1543209 -0.2201318 0.039666038
000260 5d d1 81 be d2 0d ea 3e a0 c7 55 be 1d 83 09 be
       -0.25355044 0.4571367 -0.20876932 -0.13428922
000270 62 af ec bd 8f f1 03 3e 94 62 95 3e 95 26 37 be
       -0.11556889 0.12885116 0.29176772 -0.17885812
000280 73 de 7c be 76 c8 46 3e 2c 25 8d be 86 c9 2f be
       -0.24694233 0.19412407 -0.27567422 -0.17166719
000290 b7 59 46 be 21 97 41 be 19 1d 85 3e 70 72 a7 3e
       -0.19370161 -0.18905307 0.25998762 0.32704496
0002a0 34 22 10 be 33 5a 4b bd 6d 4d 32 3e f9 2c 8e be
       -0.14075547 -0.049646568 0.17412348 -0.27768686
0002b0 43 af 17 be dc 38 85 3e db 17 ae 3e 48 02 74 3e
       -0.14812951 0.26019943 0.34002575 0.23828995
0002c0 64 62 b4 bd 65 29 91 3e c1 a3 76 3e dd 6f 26 be
       -0.08807829 0.28351894 0.24085905 -0.1625361
0002d0 c2 50 8d bd fa 86 83 3e e5 f8 96 3e 21 01 b6 be
       -0.06900169 0.25688916 0.29486766 -0.35547736
0002e0 50 b8 74 3e 85 29 cc 3d 1a 87 1c 3c 17 50 89 be
       0.23898435 0.09968857 0.009553695 -0.26818916
0002f0 ed 5d 9a be b8 b6 ca 3e e8 c5 9d 3e 69 26 82 be
       -0.30149785 0.39592528 0.30815053 -0.2541993
000300 d8 fe d5 3d 45 05 a0 3e 3b df a9 3e 6e 25 79 3e
       0.10448998 0.3125402 0.33178124 0.24330685
000310 dc 70 c7 bd ee cc d8 bd 28 60 90 3e fb 0e b0 bd
       -0.09738323 -0.10585962 0.2819836 -0.08596607
000320 23 26 7b 3e 22 aa 6f 3e 05 70 f0 3c 3c 84 5b 3e
       0.24526267 0.23404744 0.02935029 0.21437162
000330 22 46 a1 3e 70 b0 7b 3d 46 c9 98 be 45 99 55 3e
       0.3149882 0.06144756 -0.2984106 0.20859249
000340 25 70 63 be 31 7a 86 be 07 ba 12 be d9 f2 66 be
       -0.22210748 -0.262651 -0.14328776 -0.22553577
000350 b4 48 be bc 7a 77 0b be b1 37 9d be e6 e3 4e 3e
       -0.023228027 -0.13619795 -0.30706552 0.20204124
000360 d8 1d 27 3e 68 e2 b5 ba 7c d8 c5 3e bb 19 50 3e
       0.16319978 -0.0013876678 0.38641727 0.20322315
000370 39 2f 21 be ad 08 93 be ec 17 80 be 93 cf 95 3e
       -0.1574067 -0.28717557 -0.2501825 0.2925993
000380 37 2a 9e 3e c1 19 a7 3d ec d0 a2 3e eb ee 14 be
       0.30891582 0.08159209 0.3180002 -0.14544265
000390 63 b7 d4 bd e8 3c 80 be 40 d4 63 3e 9d de a0 be
       -0.10386541 -0.25046468 0.22248936 -0.3141984
0003a0 25 c2 53 be 58 31 8a bd 1a 4a 38 3e 3b 02 ae 3e
       -0.20679529 -0.06747693 0.17997018 0.33986077
0003b0 d6 fb 5d 3d f4 9f 50 3e 2d 0e 41 3e 74 9e 9c be
       0.054195248 0.20373517 0.18853064 -0.3058964
0003c0 99 81 2c be 0d 74 8b 3e b8 f0 85 3e d1 69 06 be
       -0.16846313 0.27236977 0.26160216 -0.13126303
0003d0 c0 a2 76 3e 61 9d 42 3e 8f ee 70 be 09 bd 76 bd
       0.24085522 0.19005348 -0.23528503 -0.06023887
0003e0 8a b2 17 3e 85 74 90 3e 91 a3 0b 3e eb 0c 13 be
       0.14814201 0.28213897 0.13636614 -0.14360397
0003f0 8b 8c 9f 3e 0f a5 0e be 97 c9 2f 3c e7 3d 9a be
       0.31161913 -0.13930152 0.010729215 -0.30125353

bias f4 [10]
000000 9a 9e 36 3d 35 18 35 be 9b a6 a7 3e db 4f b9 3d
       0.044584848 -0.17685015 0.32744297 0.09048434
000010 f0 04 28 be 41 72 9b 3f d0 1a 4d 3e c0 51 a5 be
       -0.16408134 1.2144243 0.2002976 -0.32288933
000020 84 5b 15 bf 90 46 4d bf
       -0.58342767 -0.80185795
