models/conf_2.pt (torch, 441470 bytes, 6 tensors)

weight f4 [128, 784]
000000 e5 e4 00 bc aa ba dd bc 38 f1 05 bd 3f e2 88 bc
       -0.007867073 -0.027066547 -0.032700747 -0.016709445
000010 9f e8 9b bc ab e5 b3 3c 61 46 da 3b 42 b4 be 3c
       -0.01903182 0.0219601 0.006661222 0.023279313
000020 9e 72 d6 3c 51 09 a2 bb 11 18 6f bd d4 df fb bc
       0.0261777 -0.0049449583 -0.05837256 -0.030746378
000030 e2 1e d3 bc f4 a4 ba 3b d9 a2 01 3d c3 ec 8b bc
       -0.025771562 0.0056959335 0.031649444 -0.01708067
000040 23 30 c9 3b fa 48 04 bc 03 89 ee bb e3 c1 f2 bb
       0.0061397715 -0.00807404 -0.0072795167 -0.007408367
000050 2d 18 ab bc d0 97 a1 bc 57 b2 05 3c cd 7a d8 bc
       -0.020885551 -0.01972571 0.008160195 -0.026425743
000060 2b 6f 0e bd c6 4c ea 3c a7 8a c8 ba 91 eb 90 3b
       -0.034773987 0.028601062 -0.0015300111 0.004422613
000070 b1 30 b0 bb 7f 33 f9 bc ec c3 cd bb ac e2 49 bc
       -0.005376898 -0.030420063 -0.006279459 -0.012322109
000080 93 f8 7f bc 31 a7 a7 3c 70 01 f3 bc c6 98 17 bd
       -0.01562323 0.020465465 -0.029663771 -0.03701093
000090 67 43 f8 bc 6e b2 23 bc 07 c0 73 bc 5a 18 f4 bc
       -0.030305577 -0.009991271 -0.014877326 -0.029796768
0000a0 69 3f 03 bd 12 5c 8e bc d7 c5 cf bb 50 b4 8c 3c
       -0.032042895 -0.017377887 -0.006340723 0.017175823
0000b0 53 9c 22 bd a0 fc 58 bd f2 8c 77 bc 6f 61 47 bd
       -0.039699864 -0.052975297 -0.015109288 -0.048676904
0000c0 73 fa 32 3c 0c 13 1a 3c d9 52 e4 3c 45 b8 d3 3c
       0.01092397 0.009403955 0.027871536 0.025844702
0000d0 a2 f7 78 bc 3e 03 09 3d 94 78 da bc 02 e0 b2 3c
       -0.015195759 0.033450358 -0.026668824 0.02183533
0000e0 59 f5 6c 3c a6 04 f9 3c e8 e7 9b bc 67 32 e0 bc
       0.014462792 0.030397724 -0.01903148 -0.027367784
0000f0 a3 91 42 ba 02 7f 26 bd a1 02 23 3a 11 55 57 ba
       -0.0007422214 -0.040648468 0.0006218348 -0.0008214275
000100 7a 19 90 bd 0d 16 a9 3b 5c d9 1e bb 5d 70 74 3c
       -0.07036109 0.0051600994 -0.0024238443 0.014919368
000110 4d 7c c9 bc ae 87 8d 3b 0e b6 26 bc 95 79 05 3b
       -0.024595404 0.004319153 -0.010175241 0.0020366658
000120 16 fc 9f bc e3 54 88 3b d1 37 30 3c d0 7f bb bc
       -0.019529384 0.00416051 0.010755495 -0.022888094
000130 13 a9 44 bd ba a1 46 bd 1b b2 b2 ba d9 2d 3b 3c
       -0.048012804 -0.04849408 -0.0013633402 0.011424505
000140 3c 4b db 3c 37 ed 17 3d bd 49 00 bd b5 90 0d bc
       0.026769273 0.03709146 -0.031320322 -0.008640458
000150 96 19 5d 3c 32 9f 0a bd c5 f1 06 bd 7d f9 f5 3c
       0.01349487 -0.033843227 -0.032945413 0.030026192
000160 6e d1 cb 3c e8 bb 16 bc 78 55 4d 3c 4c 2b 0d bd
       0.024880137 -0.009200074 0.012532584 -0.03446512
000170 eb 8e 38 3c bd 09 93 3c 29 00 87 bc f9 1f e1 bc
       0.011264543 0.01794898 -0.016479569 -0.027481066
000180 ea 5f 06 3c 9b a3 67 bb 85 b4 c8 3c 21 80 0d 3d
       0.008201579 -0.003534532 0.02450014 0.03454602
000190 00 6c 09 3d 8e 5d d7 3b 93 f6 d8 bc ff c5 bc 3c
       0.033550262 0.006572432 -0.026484763 0.02304363
0001a0 75 ae 8c bc 7a 7a e6 ba 09 5e 98 bb 6b ff 54 bc
       -0.017173031 -0.0017584108 -0.0046498817 -0.0130003495
0001b0 62 86 0c bc 2d f3 e0 3c ea d8 00 bb 9e 5c f4 3c
       -0.008576961 0.027459705 -0.001966054 0.02982932
0001c0 b1 c8 10 3d a8 4f eb 3a 91 e1 f9 bb fa 15 11 3d
       0.035347644 0.0017952817 -0.0076257666 0.03542135
0001d0 af 20 e5 bc 43 ce b2 bc e8 d8 a0 bc 2b b2 41 bc
       -0.027969686 -0.021826869 -0.019634679 -0.011822264
0001e0 13 a4 4b bc 81 6d de 3a a5 f3 a4 bb 1d 68 22 bd
       -0.012429255 0.001696989 -0.0050339275 -0.03965007
0001f0 d3 fe de bc aa 7c ca 3c 06 91 6b 3c a9 be 96 bc
       -0.027221119 0.024717648 0.014377838 -0.01840146
000200 ec 8b fd 3c d5 0a e4 3c 4a a3 17 bd ec d3 0a ba
       0.030950509 0.027837196 -0.03702096 -0.0005295861
000210 64 93 01 bd 6a 27 e0 bc b1 bd 68 bc 9f 87 ff bc
       -0.031634703 -0.027362544 -0.014205382 -0.031192599
000220 b7 8a 03 3c a1 40 2b 3d ea 8c bd 3c 77 56 0f 3d
       0.008028678 0.04180968 0.023138482 0.03499457
000230 03 3b 20 bc 52 a9 ba bc de ed 8e 3c a1 d1 07 bd
       -0.0097796945 -0.022785816 0.017447408 -0.033158902
000240 55 08 4c 3c f4 60 8a 3c 40 2b 1d bc e7 5f de bc
       0.012453158 0.016891934 -0.009592831 -0.02714534
000250 fd c5 3f bb af e7 7f ba fa 63 29 bd 3f 96 df bc
       -0.0029262297 -0.00097620016 -0.04135511 -0.027293323
000260 81 d2 ae bc 8c 46 da bb 22 6e b4 bc 58 fc 97 bb
       -0.02134061 -0.006661242 -0.022025172 -0.004638236
000270 ad ab a7 bc e2 73 04 bd 04 5d a5 3c 19 76 75 bc
       -0.020467604 -0.032337077 0.020185955 -0.01498177
000280 0b 2e 83 3b 92 d8 37 3c 6c 91 9a bb 27 42 f1 3c
       0.0040032915 0.011221068 -0.0047170427 0.02945049
000290 2c cb af bb 39 bb 26 3d de 8a 81 bc c0 50 95 3c
       -0.005364796 0.040705893 -0.015813287 0.018226981
0002a0 4d 19 91 bb f6 58 7f 3c 25 17 53 bc d6 af ed bb
       -0.004428065 0.015585175 -0.012883936 -0.0072536273
0002b0 23 63 2d bd c3 9f 3f bc 27 1d 24 bd 0c 7e 3f bd
       -0.042330872 -0.011695805 -0.040066864 -0.046751067
0002c0 12 7e e5 bc 96 6d 34 ba 04 42 51 bb ec 4e c2 bb
       -0.028014217 -0.00068827847 -0.0031930218 -0.0059298184
0002d0 42 ca 8b bc 1e 00 74 bb a9 b9 59 3c 4e 1b a8 bc
       -0.017064217 -0.0037231515 0.013288894 -0.020520832
0002e0 02 76 c0 bc 68 84 e9 3c 2d f2 59 3c c3 72 9e 3c
       -0.02349377 0.028505519 0.013302368 0.019341832
0002f0 b1 c4 41 bb 74 4e 72 bc 4b d0 62 bc fc f6 4e bc
       -0.00295667 -0.0147892125 -0.013843606 -0.012632128
000300 10 8b d5 bc 77 1b 30 3d ff f6 3d bc 84 5e b1 3c
       -0.026067287 0.042994943 -0.011594533 0.021651514
000310 b4 aa d5 bc 98 8e fb 3c 0f 55 c8 3c b7 40 2f 3c
       -0.026082374 0.030707642 0.024454622 0.010696582
000320 f1 a6 fa bb 1e dd 41 bc fd de 89 bc ea 1b 30 3c
       -0.0076492955 -0.011832504 -0.016829962 0.010748843
000330 d3 25 9e 3c 86 96 54 bc 2e 2e a2 bc d0 3c 22 bd
       0.019305145 -0.012975341 -0.01979741 -0.039608777
000340 fd 87 83 3c 29 85 84 bc 57 e3 d0 3c 4d 62 47 3c
       0.016056055 -0.016176777 0.02549903 0.012169433
000350 78 bb 92 3c a5 2a 0b 3d e4 eb 50 3b e4 36 9a ba
       0.017911658 0.033976216 0.0031878883 -0.0011765626
000360 ad f7 00 bd 2a 6b 92 bc ac 55 94 bc 57 4d c8 bc
       -0.031486202 -0.017873365 -0.018107258 -0.024450941
000370 14 61 e6 bb 20 1a 07 3d 37 fb 7b 3b f7 e8 02 bc
       -0.0070306156 0.0329839 0.0038449296 -0.007990113
000380 06 19 61 3b 44 63 eb 3c 5f 5c a9 3c c5 dc 8a 3c
       0.003434719 0.028733857 0.020673929 0.016950974
000390 f5 de 53 bc 5c 3a 1f 3c d8 3f 11 bd cc b1 76 bc
       -0.012931575 0.009718504 -0.035461277 -0.0150570385
0003a0 47 81 94 3b b0 4d 59 bc d9 c2 9b bc c9 a3 a8 3c
       0.0045320126 -0.013263151 -0.019013809 0.020585911
0003b0 36 ca 8f bc 95 cc ae bb 21 d8 20 b9 ad 78 93 3c
       -0.017552476 -0.0053344467 -0.00015339303 0.018001879
0003c0 21 db 0f 3d 9f 38 ba bc d6 a9 91 bc 88 a1 eb ba
       0.035121087 -0.022732077 -0.01778118 -0.0017977217
0003d0 eb ee 53 3c 67 9a ed 3c af b2 c4 3c 88 1c ae bc
       0.01293538 0.029004289 0.024010984 -0.02125384
0003e0 7c e2 7c 3c b7 0b 8e 3c b5 f5 8b 3c 9b a6 d7 bb
       0.015434857 0.01733957 0.017084936 -0.00658114
0003f0 0d 72 c9 bc 1c e3 e0 bc 86 11 da 3c 6a 13 bb bc
       -0.024590516 -0.027452044 0.026619684 -0.022836406

bias f4 [128]
000000 29 ae 26 bc c3 d7 12 3d c6 18 ad 3c 07 a5 12 3d
       -0.010173359 0.035850298 0.021129977 0.035801914
000010 58 4f ce 3c a8 f9 9f 3d 4b 31 d9 3a e5 17 45 3d
       0.025184318 0.0781129 0.0016570477 0.04811849
000020 35 6e 0c bd a7 cf e3 3c 87 5b c5 bc 88 be 7c bc
       -0.03428479 0.027808977 -0.024091495 -0.015426286
000030 d2 5c ca 3b b8 1a a7 bc f0 f4 25 3d fd 6d 03 ba
       0.006175616 -0.020398483 0.040516794 -0.0005013643
000040 6d 06 b7 39 6a cd 03 3a 09 db 46 bc d0 3c 66 3c
       0.00034909268 0.00050278625 -0.012137183 0.014052585
000050 72 4a 94 bc 86 d3 65 3c f2 26 30 3d 75 12 9d bb
       -0.018101905 0.014027482 0.04300589 -0.00479346
000060 95 d3 72 bc 63 98 a3 3c 97 9c 4e 3c 39 8f bb bc
       -0.014820953 0.019970125 0.012610576 -0.022895442
000070 ed 48 f1 3c 74 6c d3 3a 09 65 03 bd c1 fb 07 bd
       0.029453719 0.0016130344 -0.032078777 -0.033199076
000080 5f be 2e bd be b0 9b bc c2 b2 9c 3b 66 7a c6 3c
       -0.04266202 -0.019005176 0.004782052 0.024228286
000090 e6 30 36 3c 25 13 a9 3c dc a9 80 bb ea c7 1d 3d
       0.011120057 0.020639012 -0.003926499 0.03852073
0000a0 b2 6c f6 bb e2 66 11 3d d0 2f 1c 3d 60 df 3b bb
       -0.0075202817 0.035498507 0.038131535 -0.0028667077
0000b0 41 2a 62 bc c3 14 00 3b 81 32 8f ba bd 5f ab 3c
       -0.013804019 0.0019543625 -0.0010925086 0.020919675
0000c0 61 c9 0d 3c 2c 1d 34 3c bf c4 00 3d f3 1a 99 ba
       0.0086539695 0.010993283 0.03143763 -0.0011681005
0000d0 b8 6f 6f 3d 66 74 b8 bb eb 16 ce bb 4a 7e 07 bd
       0.058456153 -0.00562911 -0.006289353 -0.033079423
0000e0 b9 05 56 3b 17 eb 07 3c c7 48 41 b9 c2 c6 93 bd
       0.003265722 0.008295796 -0.00018433026 -0.072156444
0000f0 c8 09 93 bc cd 44 f4 ba 6d 0a 41 3d dc 08 0d 3d
       -0.017949 -0.0018636227 0.047129083 0.034432277
000100 b5 3a 46 3d 88 92 4a 3d 08 97 f1 3b 02 25 6c 3b
       0.04839583 0.04945615 0.0073727407 0.00360328
000110 f9 60 3b 3d 0b a3 36 3b c1 25 13 bd f2 50 62 3d
       0.045746777 0.0027868177 -0.035924677 0.055252977
000120 59 49 c2 bc ec 17 05 3b 3e 6f b0 bc 05 f8 ac 3d
       -0.023716616 0.0020308448 -0.02153742 0.084457435
000130 ca cb 0d bc cb d6 df bc de 5c 07 3d 41 3a de 3b
       -0.008654544 -0.027324101 0.03304755 0.0067818468
000140 6e da 3c bd f1 f7 be bc bf 83 b3 bc d2 9b 3a bd
       -0.04610675 -0.023311587 -0.021913407 -0.045558758
000150 c7 a4 be bc 25 1e 5d bb ed 61 f0 3c 7a 80 2a 3d
       -0.023271931 -0.0033739891 0.02934357 0.04162643
000160 6f bc 81 3c b2 4f 7f 3d ad 82 0c bc 3f 68 28 3c
       0.015836922 0.062331863 -0.008576077 0.01027876
000170 e8 0f 16 3d a9 c4 03 bb 4d e8 ce 3b 1c 42 b9 3c
       0.036636263 -0.0020106232 0.0063143135 0.022614531
000180 a2 dd 60 3c e5 76 a2 39 36 24 75 bc c8 fd cd bc
       0.013724716 0.0003098763 -0.014962247 -0.025145426
000190 20 d5 1c 3c ff a1 41 3c 1f 94 ab bb 18 9e 87 3d
       0.009572297 0.011818408 -0.0052361633 0.06621951
0001a0 1c ca 26 3c d9 94 e3 bc b4 35 72 bc 43 63 b7 3b
       0.010180023 -0.027780937 -0.014783312 0.0055965497
0001b0 c7 22 9a 3c c6 f8 01 3a 55 ff 93 3d 49 38 ab 3c
       0.018815411 0.00049580296 0.07226435 0.020900862
0001c0 ca fc 9b bc 78 2d a6 3c c9 7f 14 3c 10 5f 84 bc
       -0.019041438 0.020285353 0.0090636695 -0.01615861
0001d0 ba fa 32 3c 08 a2 0b 3a 2e bf 83 3d ed e4 9d bc
       0.010924036 0.0005326574 0.06432949 -0.0192742
0001e0 c4 1d 0b 3d 19 d5 e0 3c c4 ab 0b 3d 1d c9 0b 3b
       0.033963934 0.027445363 0.034099355 0.002132959
0001f0 b4 ee 9b 3c 7e f1 6b 3c d2 26 52 3a 02 7d 8e bb
       0.019034721 0.014400838 0.0008016649 -0.004348398

weight f4 [64, 128]
000000 dc 9d cb 3d e1 ab ae bc 47 c1 94 3c ee 2d ce 3d
       0.09942219 -0.021322193 0.018158568 0.10067354
000010 06 b2 c5 bd 53 c4 11 bd 73 aa b0 bc ee 08 bf 3c
       -0.09653096 -0.03558762 -0.021565652 0.023319688
000020 58 3f 1b bd dc 97 8e 3c d9 b2 1a 3c ff 5e 12 3d
       -0.037902206 0.017406397 0.009442055 0.035735127
000030 f7 a1 f7 3c b7 62 71 bc 92 4b 33 3d 2e ce 0a 3c
       0.030228598 -0.014733008 0.04377324 0.008472009
000040 1c 2c 52 bd 78 71 f4 3d a9 aa 9e 3c f3 0c 90 bb
       -0.051311597 0.11935705 0.019368486 -0.004396075
000050 7a 02 4b bd f5 78 09 bd ec 70 b6 bd 08 e4 7e 3c
       -0.04956291 -0.03356262 -0.08908257 0.015557297
000060 af da ac 3c 4d 6b 9f bd 89 26 f6 3c e4 5d 4d bd
       0.02110037 -0.07784138 0.030047672 -0.05013837
000070 c0 b4 e8 bd 07 1b 84 3d d4 54 a7 3d 42 f0 a0 3d
       -0.113626 0.064504676 0.081704766 0.078583255
000080 56 30 cb 3d 9b 9c 23 bd c6 9c 15 bb e5 17 f6 bd
       0.09921329 -0.039944272 -0.002282904 -0.12016276
000090 4e d1 0f bd db fc 88 3d ae b1 eb bc b7 70 17 bd
       -0.035111718 0.06688853 -0.028771248 -0.036972728
0000a0 eb 81 06 3d 00 01 dd 3c 18 ac 9b bd d7 21 7c bd
       0.032838743 0.026978016 -0.07601184 -0.06155571
0000b0 7b b7 9e 3d e0 7d 10 bd ae f3 a3 3d 6e 6d 32 3d
       0.0774984 -0.035276294 0.080054626 0.04356139
0000c0 29 06 6d bd 95 21 91 3d 18 7e 39 3d 3c 65 f4 3d
       -0.057867203 0.070864834 0.045286268 0.119333714
0000d0 dc 00 d6 3c 91 50 9b 3d c5 c0 29 bd 09 fc 3d bc
       0.026123457 0.07583726 -0.041443605 -0.011595734
0000e0 4e aa 80 3d f3 60 a1 3d 1f df 0c 3d 9c 73 06 3e
       0.06282483 0.0787982 0.034392472 0.13130039
0000f0 62 2d 70 3d 4d f7 16 bd 0a bf da bc 93 a5 e7 3c
       0.05863703 -0.03685694 -0.026702423 0.028277194
000100 c4 be 31 bd 8a e0 fd bc 59 a8 95 bd 43 fc 86 3d
       -0.04339482 -0.030990858 -0.073075004 0.06591084
000110 e4 03 aa 3d 6f b1 6c bd 02 ea bc 3c 49 46 59 bc
       0.08301523 -0.0577864 0.023060802 -0.013261386
000120 40 ef 6a 3b a2 48 74 3d e3 62 09 3d 65 3f 4d bd
       0.003584817 0.05963958 0.03354157 -0.050109286
000130 b5 5b 16 3e a0 e3 8c 3d 20 5c 91 bd d5 79 3d 3d
       0.14683421 0.068793535 -0.070976496 0.046258766
000140 e8 21 60 bd 3d 8e 9a 3d f4 9c bb 3c 18 57 84 3d
       -0.054719836 0.07546661 0.02290199 0.06461924
000150 73 ba ad 3d a1 b8 0c bd ae 36 03 3c 85 e1 31 bd
       0.08482828 -0.034355763 0.008008642 -0.043427963
000160 bd eb 08 3c 08 28 01 be 83 d3 a7 bd 4d 60 e8 bb
       0.008356986 -0.12612927 -0.081946395 -0.007091558
000170 22 a6 6e bc 82 12 7e bd 5f 0f fc bd 37 17 24 3c
       -0.014565976 -0.06202937 -0.12307619 0.0100153005
000180 c2 dd c8 3d f2 0b b3 3c 80 33 76 3c 46 db d5 3c
       0.09807922 0.021856282 0.015026927 0.026105534
000190 ae 3a af 3c 89 78 24 bd b6 05 c0 3d 2b 27 41 bb
       0.021390285 -0.040154014 0.09376089 -0.0029472809
0001a0 69 a1 b5 bd a9 eb c5 3c 83 f5 8f bd 53 c8 c6 3d
       -0.08868677 0.024160223 -0.070292495 0.097061776
0001b0 fb fd 54 3d d7 de ac bc cb 17 54 bc fe f2 c7 3c
       0.052000027 -0.021102352 -0.012945126 0.02440786
0001c0 c1 8c 94 3d 68 43 f8 bd 6f f1 66 3d 17 d1 09 bc
       0.07253409 -0.12122232 0.056382593 -0.008411667
0001d0 34 4c 07 3c 4d cb 3e 3c 5c 5b 2a bd 62 e1 09 bd
       0.008257914 0.01164515 -0.041591033 -0.033662207
0001e0 b2 26 f1 3d e4 da 50 bc db 38 a3 bc 13 a6 d7 3d
       0.11774959 -0.0127475 -0.019924572 0.10529723
0001f0 f5 e5 94 3d 51 19 c4 bc 51 0d fe bc 52 00 96 bd
       0.07270423 -0.023937853 -0.03101221 -0.0732428
000200 0a 1b 6b 3d 8e 66 e0 3d 0a 01 df 3c 8c 0b b3 3d
       0.057398833 0.10957061 0.027222175 0.08742437
000210 10 2b 89 3d c6 e9 90 3d e7 f4 62 bd 8b e5 8e 3d
       0.06697667 0.07075839 -0.05540934 0.069773756
000220 84 aa 96 3c 1f 69 48 3d 89 38 7e bd a4 1f 8f bd
       0.018391855 0.048928376 -0.062065635 -0.06988457
000230 4b 4f 58 b8 77 80 d3 bc 7b b4 34 3d 47 2c 47 bd
       -5.157226e-05 -0.025818093 0.044117432 -0.04862621
000240 f9 eb 28 3d ce 51 99 3c 3d 83 ee bc 0f 7b 24 3d
       0.041240666 0.018715765 -0.029115314 0.04015642
000250 80 9c 09 3d 1b c8 99 bd b3 a2 9d 3c 8c 93 48 bc
       0.033596516 -0.0750887 0.01924262 -0.012242209
000260 db de 8e bd 5e a8 73 bd 55 33 30 bd 05 82 3a bd
       -0.069761 -0.05948674 -0.043017704 -0.045534153
000270 01 b0 a8 3d 69 8f cc bc 53 c7 83 bd 6a 01 5d bc
       0.08236695 -0.024970727 -0.064345025 -0.013489107
000280 6d f4 39 bd 78 22 99 bd 74 74 c1 bc d9 a2 cd bc
       -0.04539912 -0.074772775 -0.0236151 -0.025102066
000290 93 95 d8 bb 1e 17 83 3d bf c0 db bc 42 53 91 3d
       -0.0066096275 0.06400894 -0.026825307 0.07095958
0002a0 7f 31 b3 bd b7 a3 c5 bd 2d 5f 0a 3e 17 4b 88 3d
       -0.08749675 -0.09650367 0.13512869 0.06654947
0002b0 fc 00 f3 bb 18 0e 1c bb 3d 53 a0 3d d7 61 6b 3d
       -0.007415889 -0.0023812111 0.078283764 0.057466354
0002c0 f6 35 91 3c 5f d5 d9 3d 81 6f 6c 3d 2f 4f 9d bd
       0.017725926 0.106364004 0.057723526 -0.07681119
0002d0 c1 b7 1d bd 3e 11 c7 3d dd 81 9b bb 69 51 fa bc
       -0.03850532 0.097200856 -0.0047457055 -0.030556398
0002e0 1c 99 45 bc 79 6d 87 3d 19 b7 9f 3d ae d6 29 ba
       -0.01206043 0.06612677 0.07798595 -0.0006478828
0002f0 64 82 d0 bd c7 f0 0f 3d 97 ca e4 3d ca 62 c1 3d
       -0.1018112 0.035141733 0.111714534 0.09442671
000300 71 3c 94 3d 0a 79 3e bd 31 1e e8 3d 84 a4 92 3c
       0.07238091 -0.04650215 0.113338836 0.017900713
000310 2b 25 b8 bd 86 b4 1c bd 59 f6 85 bd 7d 55 ba 3d
       -0.08991464 -0.038258098 -0.06541128 0.09098337
000320 a0 e1 79 bd d4 c8 db bc 46 08 b8 bc 00 c2 0f bd
       -0.06100619 -0.02682916 -0.022464883 -0.035097122
000330 50 f8 6c 3b c7 9e a2 3d dc 77 0a 3d f0 e2 ab bd
       0.0036158748 0.079404406 0.033805713 -0.08392894
000340 ba da d9 bd 6c 6e 4a 3d f1 fd 40 bd 57 ce ab b9
       -0.10637422 0.049421713 -0.047117177 -0.00032769397
000350 69 97 a9 3d 26 64 bf 3d ce 88 23 3d 5c 4f b9 3c
       0.08280832 0.09345274 0.03992539 0.02262085
000360 36 d2 0b bd b2 7e f1 3d f9 10 81 3d 58 d1 13 bd
       -0.03413602 0.11791743 0.063020654 -0.036088318
000370 88 af 2c bd 6f 8f 44 bd 1a 6f 7d bd b9 d9 84 3d
       -0.042159587 -0.04798835 -0.061873533 0.0648684
000380 59 12 88 bd 44 9f 5b 3d e9 24 17 bd 07 0d 3f 3b
       -0.066441245 0.053618684 -0.036900435 0.0029152052
000390 57 58 05 bd ca 44 a8 3d c0 16 12 3d 9a 73 5e bd
       -0.03255495 0.082162455 0.035666227 -0.054309465
0003a0 19 52 68 bd ba cb ad bd de 3f c8 bc 94 e9 37 3d
       -0.05671892 -0.084861234 -0.024444517 0.04490049
0003b0 77 9c a7 3b 38 86 8a 3d 9e cc 88 3d 52 16 b8 3c
       0.0051150876 0.067638814 0.06679653 0.02247158
0003c0 2d 5d 81 bc 7b 82 ae 3d 24 23 39 bd 2b d0 7b bd
       -0.0157915 0.08520981 -0.04519953 -0.06147782
0003d0 be 46 c0 3d e1 b6 17 bc 08 b5 ba 3d 83 54 ae bd
       0.09388493 -0.00925991 0.0911656 -0.08512213
0003e0 85 17 98 bd 34 c7 a4 bd 04 9a b3 bd b2 2d ca bd
       -0.07426361 -0.080458075 -0.087696105 -0.09871997
0003f0 f2 eb 17 bd b3 d7 b3 3d 71 86 5a bd 3c 8b 95 3d
       -0.03709025 0.08781376 -0.05335087 0.073019475

bias f4 [64]
000000 9f a3 05 be ae 98 1e 3e 6c f4 4f 3e 0a 21 9b bc
       -0.13050698 0.1548793 0.20308083 -0.018936653
000010 4a 0e 22 bd 07 20 55 3d d9 50 d6 3d 76 18 13 bd
       -0.03956441 0.052032497 0.10464639 -0.035912
000020 3c ee 0c 3e 5e 5d b7 3c 32 cc 3d 3e 67 cc 92 3c
       0.13762754 0.022383388 0.18534926 0.017919732
000030 d4 0a 4e 3d 76 d1 e4 3d 89 45 33 3d 2c 65 11 bd
       0.050303295 0.11172764 0.043767486 -0.035496876
000040 8c 3c c8 bc 74 27 9b bd 6d a4 90 3d e0 ef 59 bb
       -0.024442933 -0.075758845 0.07062612 -0.003325455
000050 1e 21 94 3d a5 26 40 bd ea 7f 58 bd 99 84 be 3d
       0.07232879 -0.046911854 -0.052856363 0.09302635
000060 ed da 18 3b 54 e4 a0 bd 17 4f 6a 3d 18 2d a7 bc
       0.002332385 -0.0785605 0.057204332 -0.020407245
000070 a7 7e 0c 3e e8 d0 9a 3d f9 d0 ab 3d 29 6a 25 3c
       0.13720189 0.07559377 0.08389468 0.010096111
000080 3c fe 79 3b 8a 96 2b 3e b6 b8 cc bd 73 e5 2a 3d
       0.003814592 0.16756645 -0.09996168 0.041722726
000090 5b d1 a3 bc a4 32 11 3e 0f 0d 15 3d fb f0 c0 3d
       -0.01999729 0.14179474 0.036389407 0.094209634
0000a0 58 21 2d 3d af 5c c4 3d 3b c7 5e 3c 1a 0f 0b be
       0.042268127 0.095879905 0.013597305 -0.1357998
0000b0 c7 d9 99 3c 33 52 4f 3d d7 f3 8e 3d 6e a5 5d bc
       0.018780602 0.0506155 0.069801025 -0.013528211
0000c0 92 2b fe bd ee bc c9 3d 37 23 ef 3d ee 0a e9 bc
       -0.12410654 0.098504886 0.116766386 -0.028447594
0000d0 bc 60 ea 3d a9 26 f4 bc db 0e da 3c 88 8f 05 3d
       0.11444232 -0.02980359 0.026618412 0.032607585
0000e0 ff 7c 04 bd f1 60 18 bd 4c 30 b2 bd 54 c5 6d bd
       -0.032345768 -0.037201826 -0.08700618 -0.058049515
0000f0 1c 17 64 bd fb ef 70 3d c1 b9 3a 3d 4a 75 bd bc
       -0.0556861 0.058822613 0.045587305 -0.023127217

weight f4 [10, 64]
000000 63 e9 d5 3d fe c5 49 bd 13 fd 08 be 7e c2 be bd
       0.104449056 -0.049261086 -0.1337779 -0.0931444
000010 4a 82 00 3e f9 00 16 3d 8a 80 10 3e 68 61 81 39
       0.12549701 0.03662202 0.14111534 0.0002467737
000020 66 58 8a 3e fe 5e 2a 3e 43 bf d1 3d cf 2c ea bd
       0.27020568 0.16637799 0.102415584 -0.11434328
000030 97 bc 36 3e 58 d7 5c 3e f2 5f 7f 3e ae 83 99 3d
       0.17845379 0.21566522 0.24938944 0.07495819
000040 48 76 47 be 96 ab 28 3c 0b c7 99 bd 6c 3a 0a bd
       -0.19478714 0.0102948155 -0.075086676 -0.03374712
000050 97 45 43 be 0d 29 8f bc e9 52 8a be 0c a6 2e be
       -0.19069515 -0.01747563 -0.2701638 -0.1705553
000060 ab 57 cc 3d be 71 88 bd 6f c4 8d bd cf 58 9d 3d
       0.09977659 -0.066623196 -0.06922232 0.076829545
000070 3b 57 41 bc 81 50 19 bc 8b bf 3e 3c 8b 8f 37 be
       -0.0118005825 -0.0093575725 0.011642347 -0.17925851
000080 83 60 b0 bd 8a e3 df bd 42 bd 20 bd ea 3f 40 3e
       -0.08612158 -0.109320715 -0.03924299 0.18774381
000090 a3 0f 84 3e e7 50 63 be 45 5d 01 3d 09 dd 11 bd
       0.2579318 -0.2219883 0.03158309 -0.035611186
0000a0 60 9a 72 be 08 49 49 be 1f 91 fb 3c 8f 8e 8e 3d
       -0.23691702 -0.19656765 0.030708848 0.06960785
0000b0 52 7f 65 3d 5b 1f 4b bd 79 46 54 be 2c 2b db 3d
       0.056029625 -0.04959045 -0.20730008 0.10701594
0000c0 ea 82 80 3d 7c 7b a7 bd c8 c5 91 be 91 97 25 be
       0.0627497 -0.0817785 -0.28471208 -0.16171099
0000d0 37 d2 96 3d 47 4e 4e bd 78 50 c4 3c 86 9d 15 be
       0.07364314 -0.05036762 0.023964152 -0.14610872
0000e0 7e 3c 6b bd a9 42 36 3e c4 3f 6c bd 23 51 36 bd
       -0.057430737 0.17798866 -0.057678 -0.04451097
0000f0 f4 8b df 3d 0d 26 55 3e 35 66 cc 3c 88 59 ec 3d
       0.10915366 0.20815296 0.02495108 0.11540514
000100 ac 11 8f be 0d ad 03 3e ac 4f b1 3d d9 e8 ea 3d
       -0.2794317 0.12858982 0.08657774 0.114701934
000110 bd 3d ee 3d 22 5f 11 be 59 7b b9 3d 2a 6d 5a bd
       0.116328694 -0.14196447 0.0905673 -0.053326763
000120 ca 51 85 3e bd ca ba bd 87 54 07 3e 26 34 1d 3d
       0.26038963 -0.091207005 0.13215838 0.03837981
000130 e2 49 b2 3d b5 dd 1c 3e af 32 6d 3e ad 8f 4f 3d
       0.08705498 0.1531895 0.23163866 0.05067413
000140 42 b6 3f 3c c4 6b c5 bc b1 fd 96 3e 03 23 7a bd
       0.0117011685 -0.024099238 0.29490426 -0.061068546
000150 62 0e 9d 3e 0e cd 82 3d db 27 42 3e 7e b7 37 bd
       0.30675036 0.06386767 0.18960516 -0.044852726
000160 36 1b a2 bd 46 38 2e bd 07 e1 c8 3d 68 eb 54 3e
       -0.07915346 -0.042534135 0.098085456 0.20792925
000170 2a 0a 89 3e 13 da 08 3d ee ae 87 bd 2d 01 9c be
       0.26765567 0.033411097 -0.06625162 -0.30469647
000180 2e 89 ed bd 2c dc 96 3e 3f e5 c8 bd f8 de 5a 3b
       -0.115984306 0.29464853 -0.0980935 0.003339706
000190 dd c3 0a be f5 a8 51 bd d9 bd 91 3c 38 91 41 bc
       -0.13551278 -0.05118652 0.017790722 -0.011814408
0001a0 d8 ff 8e be e0 05 6c be 55 09 ee 3d f7 a1 80 be
       -0.27929568 -0.23049116 0.11622874 -0.2512357
0001b0 bc 4e 97 3d bf 1b d5 3c 9f d0 98 be d8 ef d3 3c
       0.07388064 0.026014207 -0.29846665 0.025871202
0001c0 b5 c2 6d 3c 7b 42 b7 3e 4b de 5f bc a2 4d 45 be
       0.014511754 0.35792908 -0.013663839 -0.19267896
0001d0 5a fc 31 3e 81 df d6 bd 44 48 5a be a1 c9 11 3e
       0.1738142 -0.10491849 -0.2131663 0.14237072
0001e0 87 44 31 be 91 ee 05 be f5 fc d1 bd 4e 18 b0 bb
       -0.17311297 -0.13079287 -0.10253326 -0.005373991
0001f0 f7 d7 e4 bd 37 f2 ad 3e 8f a4 51 3e b2 f2 6f 3c
       -0.111740045 0.33973858 0.2047293 0.014645265
000200 f7 5d 52 bd f6 be a1 bc cc a5 eb bd 05 ef e8 3d
       -0.051359143 -0.019744378 -0.115062326 0.11373714
000210 f8 cd f4 3b dd 8d 99 bd 38 cd 08 3e a3 46 48 3d
       0.0074708425 -0.074977614 0.13359535 0.04889549
000220 7c a7 31 be d2 5c 34 3e 1c 15 3f 3e e0 9e c6 bd
       -0.17349046 0.17613533 0.18660396 -0.09698272
000230 28 4a 0b 3e af e6 91 be 18 01 dd bc 48 f1 51 3d
       0.13602507 -0.2849631 -0.02697806 0.051255494
000240 7b fb 3a 3d a0 8d ac 3d 7b a6 18 be a9 30 eb 3d
       0.045649987 0.0842545 -0.14907257 0.114838906
000250 fb 91 24 3e 5e 8c c8 3d 9c 4e ba 3c 5e a0 a4 bd
       0.16071312 0.09792398 0.022742562 -0.080384
000260 28 4b c9 bd 6a e3 9c bd 14 d9 52 3d 85 e0 17 3d
       -0.09828788 -0.07660563 0.051476553 0.037079353
000270 ba d3 4c be c7 12 0e be bf 37 9e 3a 0a dd 2b 3e
       -0.20002642 -0.1387435 0.0012071057 0.16783538
000280 6c 49 d4 bd 1a ef 35 be d1 a7 6b 3d 4c 3e b8 3d
       -0.103655666 -0.17766991 0.05753309 0.08996257
000290 83 a6 c4 3d f1 5c ca bd 58 38 3a be 80 c3 2e 3e
       0.09602072 -0.098810084 -0.18185556 0.17066765
0002a0 ce af 83 3d 92 31 4a be 12 70 42 3d c4 ad 9e 3d
       0.064300165 -0.19745472 0.04747016 0.07747987
0002b0 97 1a e0 3d f2 7a f2 3d 95 25 e5 bd e9 c1 7d 3d
       0.109425716 0.11839856 -0.11188809 0.061952505
0002c0 87 14 50 bd 28 fd 52 be 24 99 34 3d a9 24 67 be
       -0.050800826 -0.20604384 0.04409136 -0.22572578
0002d0 1c d0 9e 3d fe b7 8c 3b 8b 90 84 3d 8d 2e f7 3d
       0.077545375 0.0042943945 0.06472882 0.12069426
0002e0 73 a4 51 be df 38 12 3e 80 4c 31 3d b7 84 b7 bd
       -0.20472889 0.14279507 0.043285847 -0.0896086
0002f0 eb 66 1d 3e 1e d8 da b7 5a 28 66 bd 69 52 35 3e
       0.15371291 -2.6088263e-05 -0.056190826 0.17707218
000300 60 ea ec 3d d4 db b2 bd 3c 40 5f bc 28 f7 f3 3d
       0.11568141 -0.08733335 -0.0136261545 0.11912376
000310 3f d8 58 bd e1 7f 04 be 71 7d ce 3d d5 89 a3 3d
       -0.052940603 -0.12939407 0.1008252 0.07985274
000320 9e 94 8a 3e 27 83 ad bd 26 d8 36 be 44 67 5d bd
       0.2706651 -0.08472281 -0.17855892 -0.05405356
000330 ca 78 11 3e 35 7a 1d 3e 30 b0 92 3d 1a a1 cc bc
       0.14206234 0.1537865 0.07162511 -0.024979163
000340 56 03 24 bc 4b f3 c7 bd b9 55 9e 3c 72 10 90 3d
       -0.010010561 -0.09763201 0.019327985 0.07034387
000350 0c d0 a5 bd 69 df d7 3d ef 9b 96 bd ca f2 4f be
       -0.080963224 0.10540659 -0.07353961 -0.2030746
000360 14 8a db 3d 91 db 14 3b 37 94 4d be b5 e1 31 3e
       0.10719696 0.002271388 -0.2007607 0.17371257
000370 84 11 8c 3e 7b 16 1f be 85 ed 33 bc d2 93 55 3d
       0.27357113 -0.1553592 -0.010981922 0.052142926
000380 49 d9 5a 3e 7f 26 39 be 94 16 6f bd 31 39 18 be
       0.2137195 -0.18081091 -0.05837114 -0.14865567
000390 2b 77 f9 3a 0f 75 cd 3d eb b2 70 3e 07 6d 0c 3d
       0.0019032707 0.10032093 0.23505752 0.034283664
0003a0 ea 29 46 be 28 6f 59 be bc eb c0 bd 79 41 12 3d
       -0.19351926 -0.21233809 -0.09419963 0.03570697
0003b0 9e 34 6b bd 87 f9 1e be a1 27 5d 3e 8b 80 00 bc
       -0.057423227 -0.15524875 0.21597148 -0.007843147
0003c0 ad ee 04 bd 53 e1 6d 3e 93 07 6f 3c bd d7 1b bd
       -0.03245418 0.23230486 0.014589208 -0.03804754
0003d0 71 d5 a2 3d 6a 81 de bd 60 5e 40 3e 67 7a f7 3b
       0.07950867 -0.108645275 0.18786001 0.0075524333
0003e0 29 a2 a9 bb 42 89 14 3e 7b aa 05 bd 06 70 af bc
       -0.0051768017 0.14505485 -0.032633286 -0.021415722
0003f0 00 52 67 3d a5 96 ff bd aa 23 19 be 7a e3 d2 bb
       0.056474686 -0.12479905 -0.14955011 -0.0064358087

bias f4 [10]
000000 a4 6f 09 bd 55 b4 00 be e9 5f 2b bd 3f 04 15 3e
       -0.033553734 -0.12568791 -0.041839514 0.14552401
000010 74 3f 0e be 1d 4d 10 3f 0d 65 09 3d f9 01 4e 3d
       -0.13891393 0.56367666 0.033543635 0.05029485
000020 2c 51 e6 bd eb e6 24 be
       -0.11245951 -0.16103713
