models/conf_3.pt (torch, 441470 bytes, 6 tensors)

weight f4 [128, 784]
0	0x3c8d4220	0.017243445
1	0x3b089861	0.0020842778
2	0x3be211d0	0.006899096
3	0x3b57f1a3	0.0032950423
4	0x3cf0adb5	0.029379705
5	0xba13c2e7	-0.00056366477
6	0x3cacae0d	0.021079088
7	0xbcb184b6	-0.021669727
8	0x3baf388d	0.0053473176
9	0x3a16454e	0.0005732373
10	0x3c693f78	0.014236324
11	0x3c8f49b3	0.017491197
12	0x3c5dbde7	0.013534046
13	0xbb0741fe	-0.00206387
14	0xbc3f3918	-0.011671327
15	0xbccd1b4d	-0.025037432
16	0x3a2ab0cc	0.000651133
17	0xbc7bd0c0	-0.015369594
18	0xbc066d5c	-0.008204784
19	0x3c71f01a	0.014766717
20	0x3c6499c6	0.013952678
21	0xbcd33f8b	-0.025787136
22	0xbbfa1749	-0.0076321703
23	0xbcffa64f	-0.031207232
24	0xbbded366	-0.006800103
25	0xbce885db	-0.02838414
26	0xbd11a717	-0.03555974
27	0x3cd757a6	0.026286911
28	0x3c11c9bd	0.008898196
29	0xbce3cb39	-0.027806865
30	0x3c98f7ed	0.018672908
31	0xbcfb4c60	-0.030676067
32	0x3cc982d6	0.02459852
33	0x3c6b0128	0.014343537
34	0x3c958b11	0.018254789
35	0x3ca74a4a	0.020421166
36	0xbcda956b	-0.026682576
37	0x3cfa05ba	0.030520309
38	0x3b0d1b88	0.0021531302
39	0x3d2ab033	0.041671943
40	0x3c858d5f	0.016302763
41	0xbc501ffb	-0.012702937
42	0xbc81354b	-0.015772482
43	0xbc954781	-0.018222572
44	0x3cf86384	0.03032089
45	0xbad717ad	-0.0016410254
46	0x3c8e2736	0.017352682
47	0x3a20157b	0.00061067165
48	0x3cb36afd	0.021901602
49	0xbc2b9d9c	-0.010474589
50	0xbc080d20	-0.0083039105
51	0xbd138f75	-0.036025483
52	0xbc833fd7	-0.016021652
53	0xbc99164c	-0.01868739
54	0x3ca1a547	0.01973213
55	0x3cd4f0d2	0.025993738
56	0x3cbc1032	0.022956941
57	0x3c32aed8	0.010905944
58	0xbc87f096	-0.016594213
59	0x3c8cd46c	0.017191134
60	0xbc2c0585	-0.010499363
61	0xbc961598	-0.018320844
62	0x3c8f8a2b	0.017521938
63	0x3c0922b6	0.008370092
64	0xbcb7cb5f	-0.022435842
65	0x3ccd4b22	0.02506024
66	0xbc4dd18e	-0.012562169
67	0x3d3cffd4	0.046142414
68	0xbbbb56da	-0.0057171406
69	0x3d43ca71	0.047800485
70	0x3d4ad999	0.049523924
71	0x3d1bfaa4	0.038080826
72	0x3d27ec2d	0.04099672
73	0x3b9b43f7	0.0047383267
74	0x3d05a5f0	0.032628953
75	0x3cc71498	0.024301812
76	0x3d18e0af	0.03732365
77	0x3c591247	0.013248987
78	0x3c6dabee	0.014506323
79	0xbc2651a1	-0.010151298
80	0x3ce17f5c	0.02752655
81	0x3cb016e1	0.021495285
82	0x3d0090d3	0.031388115
83	0x3ccb16d0	0.024791151
84	0xbcc52f5e	-0.024070438
85	0xbc1944f0	-0.009354815
86	0x3c044426	0.0080728885
87	0x3c5e8415	0.0135812955
88	0x3addf27a	0.0016933226
89	0xbc2f84bb	-0.010712798
90	0x3d094115	0.033509333
91	0x3be4627a	0.006969747
92	0xbce07b10	-0.02740243
93	0xbb0be881	-0.00213483
94	0x3d4343b1	0.047671977
95	0x3cf15681	0.029460194
96	0x3d052d60	0.032513976
97	0x3bac1b39	0.0052522686
98	0x3cccafdc	0.0249862
99	0xbc066c6d	-0.008204562
100	0xbca82316	-0.020524543
101	0x3d15387f	0.036430832
102	0xbcb99f09	-0.022658842
103	0xbca47fa5	-0.020080397
104	0x3d28d789	0.041221175
105	0xbc05ea72	-0.008173572
106	0xbc0e8f44	-0.008701149
107	0x3c03f08f	0.008052959
108	0xbcae8847	-0.021305216
109	0x3d05f88f	0.032707747
110	0x3954a380	0.00020278804
111	0x3c768627	0.015046633
112	0xbc8d67a0	-0.017261326
113	0x3b944139	0.0045243767
114	0xbc1fbd9b	-0.009749795
115	0x3b03aedf	0.0020093245
116	0x3c476b7d	0.012171623
117	0x3c835a41	0.016034247
118	0xbc8dcaff	-0.01730871
119	0xba6b5f7f	-0.00089787686
120	0x3cbafe16	0.022826236
121	0x3d08a82e	0.033363514
122	0xbbdc6a58	-0.0067265444
123	0xbc892503	-0.016741281
124	0x3c3282c3	0.010895434
125	0x3ca9fdc6	0.020750891
126	0xbbb54198	-0.005531501
127	0x3cf183b1	0.02948174
128	0x3d0cd917	0.03438672
129	0x3cebc0e1	0.028778495
130	0xbb88cb94	-0.004174659
131	0xbc25d756	-0.010122141
132	0xbcb24d2b	-0.021765312
133	0x3c9c3ef5	0.019072989
134	0x3b90cf28	0.004419226
135	0xbcac6eb9	-0.02104889
136	0xbc3e5c5c	-0.0116187
137	0xbd0c11c3	-0.034196626
138	0x3c4a71fa	0.012356276
139	0xbc658b59	-0.014010274
140	0x3c0fd652	0.008779125
141	0x3bbd8cd2	0.0057846094
142	0x3ccd3aef	0.025052516
143	0x3b5634d1	0.003268529
144	0xbd107be8	-0.035274416
145	0xb95654de	-0.00020440246
146	0xbc0f2401	-0.008736611
147	0x3d1476a3	0.036245953
148	0xbb85fbd9	-0.0040888605
149	0x3af9e04c	0.0019064038
150	0xbbbead8c	-0.0058190282
151	0xba107d4c	-0.0005511835
152	0x3c263702	0.010144951
153	0x3d1124c7	0.035435464
154	0x3cb361f0	0.021897286
155	0x3c082ad7	0.008310995
156	0x3d1b3b10	0.037898123
157	0x3cddf321	0.027093472
158	0x3c97835a	0.01849525
159	0x3cbb0f3a	0.022834409
160	0xbb9c0245	-0.0047610127
161	0xbcd3e12c	-0.025864206
162	0xbcadeb7c	-0.021230452
163	0xbcad46f0	-0.02115199
164	0x3ae73d60	0.0017642193
165	0x3c918e11	0.017767938
166	0xbca4b783	-0.020107036
167	0x3cb037f6	0.02151106
168	0xbc53c1ee	-0.012924654
169	0x3ac06075	0.0014677184
170	0xbc526c56	-0.012843212
171	0xbbbe464c	-0.00580672
172	0xbcd30d23	-0.0257631
173	0xbcd18a44	-0.025578626
174	0xbac8f11a	-0.0015330643
175	0xbcf92cbc	-0.030416839
176	0xbb9531fd	-0.004553078
177	0x3d066a3c	0.032816157
178	0x3d2284b9	0.039677355
179	0x3c50040b	0.012696276
180	0x3b6de8d1	0.00363021
181	0x3c130711	0.008973853
182	0x3d3bb942	0.045830972
183	0x3c2d83e3	0.010590526
184	0x3d20be6f	0.03924411
185	0xbbbf68d1	-0.0058413525
186	0xbc215720	-0.009847432
187	0x3cffa6b5	0.031207422
188	0xbce4b83e	-0.027919885
189	0xbcdeacfc	-0.027182095
190	0xbbf00590	-0.007324882
191	0xbcb847b5	-0.02249513
192	0x3bda9d37	0.0066715735
193	0x3c3c1948	0.011480637
194	0xbbdb54e8	-0.006693471
195	0xbcdbff11	-0.026855024
196	0x3b33430d	0.0027353198
197	0xbbab0fe3	-0.0052203997
198	0x3c6b4865	0.014360522
199	0xbc8fb1a9	-0.01754077
200	0xbd0c9263	-0.034319293
201	0x3ce19ce4	0.027540632
202	0x3ca2c0ca	0.01986732
203	0x3cbd5fd3	0.023116982
204	0xbcb159f6	-0.021649342
205	0x3c487b5c	0.012236442
206	0x3a81963d	0.0009886693
207	0x3c56a034	0.013099719
208	0x3d33753a	0.043812968
209	0xb9848aba	-0.0002528036
210	0xbc0e6029	-0.008689919
211	0xbc141585	-0.009038334
212	0xbcb23072	-0.021751616
213	0x3cedec9e	0.029043492
214	0x3c88f84a	0.016719956
215	0x3d12037f	0.035647865
216	0xbb3f868b	-0.002922448
217	0x3cc18257	0.023621721
218	0xbd02ba6d	-0.03191607
219	0xbd0da898	-0.03458461
220	0xbd1851b6	-0.0371873
221	0x3c1840dd	0.009292808
222	0x3c8ec0e5	0.017425964
223	0xbb6573a7	-0.003501156
224	0x3cefc146	0.029266965
225	0x3d011e1a	0.031522848
226	0x3c6c2e86	0.014415389
227	0xbae005a6	-0.0017091527
228	0x3b34f68d	0.0027612776
229	0x3d07f95f	0.033196803
230	0x3cac12ad	0.021004999
231	0xbb9762cc	-0.004619932
232	0xbc877833	-0.016536808
233	0x3c68d2b4	0.014210392
234	0xbb143ac0	-0.0022618026
235	0x3bafaa40	0.0053608716
236	0x3cb6beaa	0.022307713
237	0x3ce10632	0.027468774
238	0x3d26bf48	0.040709764
239	0x3bea648c	0.0071530994
240	0x3d3b87d5	0.045783836
241	0xbc3f138d	-0.011662376
242	0x3ae864aa	0.0017730196
243	0xbce986a9	-0.028506594
244	0x3c82237a	0.015886057
245	0xbcf4fb53	-0.029904997
246	0x3b665e15	0.0035151292
247	0xbc90d186	-0.017678034
248	0xbc84a3ab	-0.016191324
249	0xbc420f93	-0.0118445335
250	0x3bb3ce0a	0.0054872083
251	0x3acc45c0	0.0015584752
252	0x3b8800eb	0.0041505
253	0x3cdc3f6e	0.026885714
254	0x3bf382b0	0.0074313506
255	0x3ace1d01	0.0015725197

bias f4 [128]
0	0x3d2cb660	0.042166114
1	0x3c9b1075	0.018928746
2	0x3d166284	0.036715046
3	0x3c485c49	0.012229034
4	0x3d12c1df	0.03582942
5	0xbcbfcb64	-0.023412414
6	0xbc3c21e7	-0.011482692
7	0x3cd1eb8e	0.025625017
8	0xbba36cd7	-0.00498734
9	0x3d60c938	0.054879397
10	0xbc98a8d3	-0.01863519
11	0xbc94bc97	-0.018156333
12	0x3c775f03	0.015098336
13	0x3cbb652c	0.022875391
14	0xbc49dc62	-0.01232061
15	0xbd240b32	-0.04004974
16	0x3bc73432	0.00607922
17	0xbc8245fb	-0.01590251
18	0xbc5bf848	-0.013425894
19	0xbafead81	-0.001943037
20	0xbd9202b2	-0.0712942
21	0xbc810307	-0.015748514
22	0x3d6a5463	0.057209384
23	0xbcb6fa24	-0.022336073
24	0x3ce3c470	0.02780363
25	0x3d102052	0.035187073
26	0xbc8eb9eb	-0.017422637
27	0xbbdde4cb	-0.006771659
28	0xbc6bb879	-0.014387243
29	0xbcc22dfe	-0.023703571
30	0x3bb352b9	0.005472508
31	0x3d1d807f	0.03845262
32	0x3c72482b	0.014787714
33	0xbcadb01e	-0.021202143
34	0x3ca62c68	0.020284846
35	0x3cb926e4	0.022601552
36	0x3d14be6e	0.03631442
37	0x3cd734a6	0.026270222
38	0x3b7586b8	0.0037464332
39	0x3d0c7691	0.03429276
40	0x3c5670fc	0.013088461
41	0x3d7a87ff	0.061164852
42	0x3cc9058e	0.024538781
43	0x3d537d4b	0.05163316
44	0xbc4a4e91	-0.012347833
45	0xbcb47486	-0.022028219
46	0x3cada12c	0.021195017
47	0xbb8d80db	-0.0043183393
48	0x3c7662c7	0.015038199
49	0xbc7e8db7	-0.015536717
50	0xbc977bd8	-0.01849167
51	0x3d165ffb	0.036712628
52	0xbcfc6feb	-0.030815085
53	0x3c854e1a	0.016272593
54	0x3d0bdd27	0.034146454
55	0xbcf31212	-0.029671703
56	0xbc942d4b	-0.018088004
57	0x3c261173	0.010135996
58	0x3c8fb509	0.017542379
59	0xbd482b1d	-0.04886924
60	0xbc21f42b	-0.009884874
61	0xbd23175a	-0.03981719
62	0x3d1ef5a5	0.038808484
63	0xbcb05f56	-0.021529835
64	0x3cbb4372	0.022859309
65	0xbc818ab9	-0.015813218
66	0xbcd6ddfa	-0.026228894
67	0x3b27ce9f	0.0025605334
68	0x3ca6d625	0.020365784
69	0x3cfc0411	0.030763658
70	0x3d8c43e9	0.0684889
71	0x3d5e8a91	0.054331366
72	0xbcd45b62	-0.025922481
73	0xbce614f5	-0.028086165
74	0xbcd53068	-0.026024058
75	0xbce9e7e4	-0.028552957
76	0x3d5d54e4	0.054036036
77	0xbca016ae	-0.019542065
78	0xbd81159c	-0.0630295
79	0xbd5e58a3	-0.05428375
80	0x3d3d8f91	0.046279494
81	0x3d0e96b6	0.034811698
82	0x3d1d38eb	0.03838436
83	0x3b15eb35	0.002287579
84	0xbcb615f6	-0.022227269
85	0x3bb9a3a3	0.005665259
86	0x3c4df60d	0.01257087
87	0x3d681a81	0.0566659
88	0x3d6adce1	0.057339553
89	0xbc507b8e	-0.01272477
90	0x3d247bc5	0.0401571
91	0x3c564b2a	0.013079444
92	0x3d98b3ea	0.07456191
93	0x3c3d010f	0.011535897
94	0xbd35a7ca	-0.04434947
95	0x3cc8a0ec	0.024490796
96	0xbce5b17a	-0.028038729
97	0x3cf3b77e	0.029750582
98	0x3cea9a52	0.028638039
99	0x3c3f6fb7	0.01168435
100	0xbcbff4f6	-0.023432236
101	0xbb5cbdb8	-0.0033682417
102	0xbd294f1c	-0.04133521
103	0x3cc66905	0.02422
104	0x3c97e71f	0.018542824
105	0x3d2ad060	0.041702628
106	0x3c995d93	0.018721377
107	0xbb8e4e59	-0.004342836
108	0x3d49c20d	0.049257327
109	0x3ca5cdce	0.020239737
110	0x3d9062df	0.07050108
111	0x3bbbb406	0.0057282476
112	0x3c49fd38	0.012328438
113	0x3c697565	0.01424918
114	0x3bf33581	0.0074221496
115	0xbbf931d1	-0.0076048155
116	0x3d0abb11	0.033869807
117	0xbc0656b8	-0.008199386
118	0x3cdfc4f1	0.027315589
119	0x3cdf27cb	0.027240654
120	0xbc11127e	-0.008854507
121	0xbcadb8bb	-0.02120625
122	0x3c09d641	0.0084128985
123	0x3c81b286	0.015832197
124	0x3c829f27	0.01594503
125	0x3c9ab82a	0.018886644
126	0x3c6eedc7	0.014583058
127	0x3d5d178a	0.053977527

weight f4 [64, 128]
0	0x3c52c617	0.012864611
1	0x3dadb482	0.08481695
2	0xbd35b006	-0.044357322
3	0xbd4179f6	-0.04723545
4	0x3ca5f7c9	0.020259755
5	0x3cc75605	0.02433301
6	0x3d16cb3a	0.036814906
7	0x3d172d4b	0.03690843
8	0xbcf96e22	-0.030448023
9	0xbde858e0	-0.113450766
10	0xbd913847	-0.07090812
11	0xbd11cc4f	-0.035595234
12	0x3dcdfdcf	0.10058176
13	0xbd618488	-0.055058032
14	0x3beb4f36	0.0071810735
15	0x3d87f51e	0.06638549
16	0x3c68f433	0.014218378
17	0xbd159bd1	-0.03652555
18	0x3d8cb919	0.06871242
19	0xbdb67ec3	-0.08910897
20	0x3d95efd5	0.07321135
21	0xbd1ebac8	-0.038752347
22	0x3d5ce1e1	0.053926352
23	0x3e012105	0.12610252
24	0x3dab33e1	0.083595045
25	0xbcad2f0b	-0.021140596
26	0xbc518eeb	-0.012790422
27	0x3d803fc8	0.06262165
28	0x3dd25240	0.10269594
29	0x3d742609	0.059606586
30	0xbc3ad4a7	-0.011403239
31	0xbc388545	-0.011262243
32	0xbd845b5b	-0.06462737
33	0x3d940268	0.072270215
34	0xbc51c8c7	-0.012804217
35	0x3de87a87	0.11351495
36	0xbd11d81f	-0.0356065
37	0x3ca0b258	0.01961629
38	0x3c5e668b	0.013574253
39	0x3c074cf4	0.008258093
40	0xbc0196f2	-0.007909523
41	0x3a27906f	0.0006392067
42	0x3c8b95fc	0.017039292
43	0xbd95afb5	-0.07308904
44	0xbd1186f3	-0.03552909
45	0x3d6efed8	0.058348507
46	0xbd702561	-0.058629397
47	0xbc2dfac0	-0.0106188655
48	0x3dc75b88	0.09734255
49	0x3d69d01b	0.05708323
50	0x3d592c60	0.053020835
51	0xbbb7542b	-0.0055947504
52	0x3cdb41f4	0.026764847
53	0x3c88e6aa	0.016711552
54	0x3e1c87d4	0.1528619
55	0x3cda0933	0.026615715
56	0xbda180fb	-0.07885929
57	0xbd0b4d07	-0.034009006
58	0x3cebab52	0.028768215
59	0x3c5f67ed	0.013635618
60	0x3da35b95	0.07976452
61	0x3d03ef66	0.03221073
62	0xbcb924bf	-0.02260053
63	0xbdaa912a	-0.08328469
64	0x3d003f09	0.031310115
65	0x3db4e7fa	0.088333085
66	0x3d8f87d0	0.07008326
67	0x3dd5a977	0.104327135
68	0xbd807442	-0.062721744
69	0x3d102fb5	0.035201747
70	0xbde6662a	-0.11249955
71	0x3d57b29c	0.05266057
72	0x3d30ef80	0.043197155
73	0x3cf6c3d8	0.030122682
74	0x3ccadd02	0.024763588
75	0x3db7d8c1	0.089768894
76	0xbc8f768d	-0.017512584
77	0x3d24928a	0.040178813
78	0x3cbea5c6	0.023272406
79	0x3d681dbc	0.056668982
80	0xbb3a3947	-0.0028415488
81	0x3cbea287	0.023270858
82	0xbd5ecc35	-0.054393966
83	0x3dcc12d1	0.099645264
84	0x3de8a9d5	0.11360518
85	0x3a850146	0.0010147474
86	0xbe092359	-0.1339239
87	0x3bfa20e1	0.007633314
88	0x3d2c329a	0.042040445
89	0x3dcc0d15	0.09963433
90	0xbc44d833	-0.012014437
91	0x3d936c64	0.07198408
92	0xbd84e137	-0.06488269
93	0xbda901b9	-0.08252282
94	0xbcfbacd8	-0.030722067
95	0x3d136714	0.035986975
96	0x3d32e749	0.043677602
97	0xbdb58c0c	-0.088646024
98	0xbd1937b0	-0.037406623
99	0xbd5c0dad	-0.05372398
100	0x3d45be29	0.048277054
101	0x3df40d6e	0.11916624
102	0x3c12e9ce	0.008966876
103	0x3d4e8e1f	0.050428506
104	0x3d9d82d7	0.07690971
105	0xbdc5af6b	-0.09652599
106	0x3d71271f	0.0588752
107	0x3c8eed24	0.017447062
108	0xbd2be8fd	-0.04197024
109	0xbcf41cbd	-0.02979886
110	0xbd6b4992	-0.05744321
111	0xbd8af2fd	-0.067846276
112	0xbd2a0f5c	-0.041518554
113	0xbd9dfb88	-0.077139914
114	0x3b98f085	0.004667344
115	0xbc8a4b13	-0.016881501
116	0x3b326925	0.0027223316
117	0x3d4a1f05	0.04934599
118	0x3e397249	0.18110003
119	0x3cc2838a	0.023744363
120	0xbc991964	-0.018688865
121	0x3d5b2ddb	0.053510528
122	0xbd64d1db	-0.055864196
123	0x3da413c5	0.08011583
124	0x3d5ac5b4	0.0534112
125	0x3bbab222	0.0056975046
126	0x3d757ed4	0.059935406
127	0xbcd0a562	-0.025469486
128	0x3cd49a46	0.02595247
129	0x3d630930	0.055428684
130	0x3d3ba3c8	0.04581049
131	0xbd674bc6	-0.056468748
132	0xbd303d0d	-0.043026973
133	0x3d33f07c	0.043930516
134	0xbd1d719b	-0.03843842
135	0xbd46784c	-0.048454568
136	0x3db1e407	0.08686071
137	0xbda4f744	-0.08054975
138	0x3bc1f09a	0.0059185745
139	0xbcfacd74	-0.030615546
140	0x3c9afec7	0.018920315
141	0xbd936e99	-0.07198829
142	0xbb8021df	-0.0039102877
143	0x3cc3c1b2	0.023896072
144	0x3d997789	0.07493503
145	0x3d76dcf5	0.060269315
146	0xbb9f685f	-0.004864737
147	0xbd2a389b	-0.04155789
148	0xbb33322e	-0.0027343142
149	0xbd100b70	-0.035167158
150	0xbc9dd4bb	-0.019266477
151	0xbd97adaf	-0.074061744
152	0xbc163cf7	-0.009169809
153	0xbd96c7e1	-0.073623426
154	0x3d64e820	0.055885434
155	0xbdaed4b4	-0.08536664
156	0x3da7cb92	0.08193125
157	0xbdaceaee	-0.08443247
158	0xbc9a91e8	-0.018868402
159	0x3d70ef9c	0.05882226
160	0x3d8f9db3	0.070125006
161	0xbcd00985	-0.025395164
162	0x3d005879	0.031334374
163	0xbd785842	-0.060631044
164	0xbd611f39	-0.054961417
165	0x3daaff43	0.083494686
166	0xbd441302	-0.04786969
167	0xbd453b67	-0.048152354
168	0xbd4a1c4b	-0.04934339
169	0x3d899636	0.067181036
170	0xbbf8b382	-0.0075897584
171	0xbc4feeee	-0.012691243
172	0x3d6cd6e5	0.057822127
173	0x3d979cf8	0.07402986
174	0x3c06bef8	0.008224241
175	0x3ae42cab	0.0017408332
176	0xbc90f157	-0.017693205
177	0xbd092c3d	-0.033489455
178	0xbd9f15db	-0.077678405
179	0xbd807f6c	-0.06274304
180	0x3c1d7636	0.009610703
181	0xbc17243a	-0.009224946
182	0xbd862908	-0.06550795
183	0x3da7eeed	0.08199868
184	0x3c81170f	0.015758066
185	0xbd13e418	-0.0361062
186	0xbbf28fcd	-0.0074023963
187	0xbd5f270f	-0.05448061
188	0x3ba49f83	0.005023898
189	0xbcd2a382	-0.025712732
190	0xbd8871ea	-0.066623524
191	0xbd35ca80	-0.044382572
192	0xbda27358	-0.07932156
193	0x3c6d3938	0.014478974
194	0x3cc96abc	0.024587028
195	0xbd44b275	-0.048021752
196	0x3d496669	0.04916993
197	0xbdbc1f22	-0.091856256
198	0x3b9007db	0.0043954677
199	0xbc884c7f	-0.016638039
200	0x3d54e1b8	0.051973075
201	0xbcf207eb	-0.029544791
202	0x3d8b7e0b	0.0681115
203	0x3c756497	0.014977596
204	0xbd5c4669	-0.053778086
205	0x3d8884cc	0.06665954
206	0x3d6b7ae3	0.05749024
207	0xba3c6b20	-0.0007187594
208	0xbda9e7da	-0.08296175
209	0xbd86fd69	-0.06591303
210	0x3ba54592	0.005043694
211	0xbd8a8ebf	-0.06765508
212	0xbdab86f9	-0.08375353
213	0xbd90bc56	-0.07067172
214	0xbc8112f0	-0.0157561
215	0xbd0cd7eb	-0.034385603
216	0xbcc5b1a2	-0.024132553
217	0xbd90c35f	-0.07068514
218	0x3db0fb09	0.08641631
219	0x3d3e0dee	0.046400003
220	0x3d160aae	0.03663128
221	0xbd4723a3	-0.04861797
222	0x3baae3db	0.005215151
223	0xbd5fa036	-0.05459615
224	0x3b3529a6	0.0027643233
225	0x3d85e0ce	0.06537019
226	0xbd7294aa	-0.05922381
227	0xbda6ff27	-0.08154135
228	0xbcacc4eb	-0.021089992
229	0xbdb24ef7	-0.087064676
230	0xbc2e365c	-0.0106330775
231	0xbcf8ddd7	-0.030379219
232	0x3d8fc722	0.070204034
233	0xbd5819a4	-0.052758828
234	0xbc36195b	-0.011114444
235	0xbdb2f4e9	-0.08738119
236	0xbd9ade9e	-0.07561992
237	0x3caef6d0	0.021357924
238	0xbd3fce06	-0.04682734
239	0xbd8b388e	-0.06797896
240	0x3bb6d75b	0.0055798716
241	0x3d95ecd3	0.07320561
242	0xbce165aa	-0.027514298
243	0x3c8adf3c	0.01695215
244	0xbd8e2467	-0.06940537
245	0x3d60fce8	0.05492869
246	0x3d5f2089	0.054474387
247	0x3d3e4f4c	0.046462342
248	0x3d63ef4c	0.055648133
249	0xbc6180ac	-0.013763588
250	0x3d8812c1	0.06644202
251	0xbb4fd24e	-0.0031711045
252	0xbdb0b827	-0.08628874
253	0x3d93e5f3	0.07221594
254	0x3d98dcf0	0.074640155
255	0x3da14f8c	0.078765005

bias f4 [64]
0	0xbd862aa4	-0.06551102
1	0xbd8dcaa2	-0.06923415
2	0xbd076d96	-0.033063494
3	0x3da2c5b3	0.079478644
4	0xbd0491c7	-0.032365587
5	0x3cf81850	0.03028503
6	0x3da89713	0.0823194
7	0xbcabd823	-0.020977085
8	0x3e22ef14	0.15911514
9	0x3d8c677d	0.06855676
10	0xbd9d911b	-0.07693692
11	0x3dc1f16f	0.09469878
12	0xbd355e80	-0.044279575
13	0xbd0028ff	-0.031289097
14	0x3c93e577	0.018053753
15	0xbe023c6c	-0.12718362
16	0xbc05a6a4	-0.008157406
17	0xbcbe53b1	-0.023233267
18	0x3db53792	0.0884849
19	0x3db2cd83	0.087306045
20	0x3ba2de74	0.004970366
21	0xbc82c47b	-0.01596283
22	0xbd05e37f	-0.03268766
23	0xbd2d7d9f	-0.04235613
24	0xbcaa9f53	-0.020827925
25	0xbc726b39	-0.014796072
26	0xbbd509c9	-0.0065014106
27	0x3e2509b3	0.16116981
28	0x3e1c02df	0.1523547
29	0xbdb73c41	-0.089470394
30	0xbd2f0995	-0.042733748
31	0xbd8ff10b	-0.07028397
32	0x3dcbaf49	0.09945542
33	0xbd32e86a	-0.04367868
34	0x3ca7c387	0.020478977
35	0x3e087e54	0.1332944
36	0x3cbaa59f	0.022784052
37	0xbd5a79f5	-0.053338964
38	0xbcdfc313	-0.027314698
39	0xbd54554c	-0.051839158
40	0x3d04788a	0.032341518
41	0xbd73f821	-0.059562806
42	0x3e389198	0.1802429
43	0x3d5316f9	0.05153558
44	0xbdf6f10a	-0.12057693
45	0xbc124a32	-0.008928822
46	0x3c144480	0.009049535
47	0xbc3f7a2e	-0.011686845
48	0x3e066577	0.13124643
49	0x3e39bb05	0.18137749
50	0x3e33a568	0.17543566
51	0x3d50dd6e	0.05099242
52	0x3dc3453f	0.09534692
53	0xbca81d72	-0.020521853
54	0x3d49b663	0.049246203
55	0xbd43f48d	-0.047840644
56	0x3e09f329	0.13471664
57	0x3d75c235	0.059999663
58	0x3bd32c74	0.006444508
59	0x3d417996	0.047235094
60	0xbbff88c9	-0.0077982885
61	0x3e0f72fb	0.14008705
62	0xbd81ed41	-0.06344081
63	0xbce1d244	-0.027566083

weight f4 [10, 64]
0	0xbe1c98cf	-0.15292667
1	0x3d07a1ec	0.033113405
2	0x3d97fd23	0.07421329
3	0x3e2200f5	0.15820678
4	0x3db13b26	0.0865386
5	0x3e23c293	0.15992193
6	0xbd157f5b	-0.03649841
7	0x3e288f1d	0.16460843
8	0xbdf83a80	-0.12120533
9	0x3e782a78	0.2423495
10	0x3d89cdd6	0.06728713
11	0xbcda266e	-0.026629653
12	0xbe557f18	-0.20849264
13	0xbd750690	-0.05982071
14	0xbe28e6e0	-0.16494322
15	0xbe859301	-0.26088718
16	0x3d9509f1	0.07277287
17	0xbe0f8c9e	-0.14018485
18	0x3de830e0	0.11337447
19	0x3e39b2f8	0.18134677
20	0xbe32c992	-0.17459705
21	0xbd40e059	-0.047088955
22	0xbd812cb6	-0.06307356
23	0x3e318ea0	0.17339563
24	0x3c9e9a62	0.019360725
25	0xbdb1bfa5	-0.086791314
26	0x3dbf26b1	0.09333552
27	0xbda5b532	-0.08091201
28	0xbe25ad04	-0.16179281
29	0x3d8082ea	0.0627497
30	0x3dd58858	0.10426396
31	0x3e105b61	0.14097358
32	0xbde38674	-0.11109629
33	0xbc7c7a87	-0.015410072
34	0xbe3fcd52	-0.18730667
35	0x3e80a06d	0.25122395
36	0xbdc3a001	-0.09552003
37	0xbc1616a2	-0.0091606695
38	0x3e36a779	0.17837323
39	0xbe0abbf0	-0.13548255
40	0x3d889e2c	0.06670794
41	0xbd85b00c	-0.06527719
42	0x3d353471	0.044239465
43	0xbd79c095	-0.060974676
44	0x3d58f01a	0.052963354
45	0xbe64f4bb	-0.22358982
46	0x3d8579bf	0.06517362
47	0x3e628874	0.22122365
48	0xbbb437a9	-0.0054997993
49	0xbd062dd4	-0.03275855
50	0xbe048f9b	-0.12945406
51	0x3c9ba27f	0.018998383
52	0x3e07638c	0.13221568
53	0x3dcf9054	0.1013495
54	0x3e379521	0.17927982
55	0xbe11f40e	-0.14253256
56	0xbe0477f4	-0.12936383
57	0x3dc83177	0.0977506
58	0xbe8347da	-0.25640756
59	0x3d05629d	0.032564748
60	0x3decd114	0.11563316
61	0x3e3dbe7b	0.18529694
62	0x3c03fcf6	0.008055916
63	0x3e5f2a45	0.21793468
64	0x3e83ec51	0.25766233
65	0xbd2eefac	-0.042709038
66	0xbdd9909d	-0.10623286
67	0xbcc5194a	-0.02405991
68	0xbe7cfddb	-0.24706213
69	0x3e6303e3	0.22169451
70	0xbe93bbec	-0.2885431
71	0xbdfa6283	-0.12225821
72	0x3e305965	0.17221601
73	0x3e60f506	0.21968469
74	0x3ca18f1c	0.01972156
75	0x3eb18f31	0.3467956
76	0xbd087e99	-0.033323858
77	0x3c4a52fb	0.012348886
78	0x3e925262	0.28578478
79	0xbd819974	-0.06328097
80	0xbd4d19bc	-0.05007337
81	0xbe347ab2	-0.1762493
82	0x3e68e1cf	0.22742389
83	0x3e8a2f68	0.26989293
84	0x3d7d8a18	0.061899275
85	0x3d4f1a82	0.05056239
86	0x3d79e81c	0.061012372
87	0xbe3ed196	-0.18634638
88	0xbdd3e66f	-0.10346686
89	0x3d05e021	0.03268445
90	0xbe136cb4	-0.14396936
91	0xbdec4ed7	-0.11538475
92	0xbe0a4a1c	-0.13504833
93	0x3e1621bb	0.14661305
94	0xbd0cf278	-0.034410924
95	0xbdba4d78	-0.09096807
96	0xbdcdc68f	-0.10047638
97	0x3c991651	0.0186874
98	0xbe4b7bfa	-0.19871512
99	0xbcce903a	-0.025215257
100	0xbe50046c	-0.20314187
101	0x3dded902	0.10881235
102	0xbe00bb94	-0.12571555
103	0x3e87afb1	0.2650123
104	0x3e2f9022	0.17144826
105	0xbdf7c9ba	-0.12099023
106	0xbd4858e6	-0.048912905
107	0x3e85af97	0.26110527
108	0x3ce0b69b	0.027430823
109	0xbe27ebc4	-0.16398531
110	0x3d9c0197	0.07617491
111	0x3e84a2a7	0.25905344
112	0xbdb80f12	-0.089872494
113	0xbe4d0e0d	-0.20024891
114	0xbd8b227b	-0.06793686
115	0xbdbdc059	-0.09265203
116	0x3dd1111e	0.10208343
117	0xbe73085c	-0.23733658
118	0x3e3e67b4	0.18594247
119	0x3e58335f	0.21113347
120	0xbe4f037d	-0.20216174
121	0xbe79d3a5	-0.24397142
122	0x3e2c1834	0.16806108
123	0xbe18cb9e	-0.14921424
124	0xbe4ddd50	-0.20103955
125	0x3e5f4c7f	0.21806525
126	0xbd81d13a	-0.06338735
127	0xbc4c3c2e	-0.01246552
128	0xbd51f865	-0.051262278
129	0xbdac5487	-0.0841456
130	0x3dbcb9dc	0.09215137
131	0x3e341954	0.17587787
132	0x3de819a5	0.11333016
133	0xbe3ad71c	-0.1824612
134	0x3e0f63f1	0.14002968
135	0xbde3773f	-0.11106729
136	0xbd25bcf7	-0.040463414
137	0xbdd374e9	-0.10325033
138	0x3d9e959d	0.0774338
139	0xbdd85373	-0.10562792
140	0x3d81d6f0	0.06339824
141	0x3c71a744	0.014749352
142	0xbe38cec0	-0.18047619
143	0x3dc9df9c	0.09857103
144	0x3e37727f	0.1791477
145	0xbe0ac3c7	-0.13551246
146	0xbdc64f8c	-0.09683141
147	0xbe520469	-0.20509495
148	0xbdbfca70	-0.09364784
149	0x3d08bded	0.033384252
150	0x3c19daf4	0.009390581
151	0x3e1cd515	0.1531566
152	0x3cef613d	0.029221172
153	0x3d5fcc10	0.05463797
154	0x3e4297de	0.19003245
155	0xbe243da2	-0.16039136
156	0xbe1c60bc	-0.15271276
157	0x3d0c811a	0.03430281
158	0xbd1149fd	-0.03547095
159	0xbdaa5023	-0.08316066
160	0xbe610375	-0.21973975
161	0x3e251ba8	0.16123831
162	0xbe3ccdcf	-0.18437885
163	0x3c42f782	0.011899831
164	0x3e25b4e7	0.1618229
165	0xbd7726ec	-0.060339853
166	0x3e11063e	0.14162537
167	0xbe33c59d	-0.17555852
168	0x3dbfbd77	0.093623094
169	0x3d0d5ade	0.034510486
170	0xbc872a6d	-0.016499722
171	0x3e2cf42b	0.16890018
172	0x3cca351e	0.024683531
173	0xbe427aeb	-0.18992202
174	0x3e0a0ccd	0.13481446
175	0xbe2e7918	-0.17038381
176	0xbd73a6a2	-0.059485085
177	0xbe720a1e	-0.23636672
178	0xbe19ab5e	-0.15006778
179	0x3e274e09	0.16338362
180	0x3e09b168	0.13446581
181	0x3de6f3c7	0.112769656
182	0x3e43b053	0.19110231
183	0xbe37d5ff	-0.17952727
184	0xbdf6946d	-0.12040029
185	0x3dde4fdf	0.10855078
186	0xbdb46066	-0.08807449
187	0xbe089b5e	-0.13340518
188	0x3e109f30	0.14123225
189	0xbe74aa56	-0.23893103
190	0xbdee193f	-0.11625909
191	0xbdbef128	-0.09323341
192	0x3c222736	0.009897044
193	0xbd32b5eb	-0.04363052
194	0xbe4e0d27	-0.20122205
195	0x3df7d3f4	0.12100974
196	0x3dc49071	0.095978625
197	0x3e4e9469	0.20173801
198	0x3e43a4de	0.1910586
199	0x3ded278e	0.1157981
200	0x3e1b36b0	0.1515758
201	0x3e5b4234	0.21411973
202	0xbd48f0b3	-0.049057674
203	0x3d9aaa01	0.07551957
204	0xbdd4ef9c	-0.10397264
205	0xbddde7f4	-0.10835257
206	0x3e6603dc	0.2246241
207	0xbe3a107a	-0.18170348
208	0xbe04f7cd	-0.12985153
209	0x3e07d50f	0.13264869
210	0x3e3401e2	0.17578843
211	0x3e61caf3	0.22050075
212	0xbd3b5a3c	-0.04574035
213	0xbe0ef455	-0.13960393
214	0xbdac2270	-0.08405006
215	0x3dc8c349	0.09802873
216	0x3d877bad	0.06615386
217	0x3e01d785	0.1267987
218	0xbd2c137c	-0.04201077
219	0xbe08d15f	-0.13361119
220	0x3e169ba4	0.1470781
221	0xbe15890e	-0.14603063
222	0x3da38b9f	0.07985615
223	0xbdbc6a6e	-0.09199987
224	0xbe02111c	-0.12701839
225	0xbe057aaa	-0.13035074
226	0xbe5dbdad	-0.21654387
227	0x3d5024d3	0.05081637
228	0xbd388548	-0.045048982
229	0x3d070dcd	0.032972146
230	0xbe0f538e	-0.13996717
231	0x3e6a5720	0.22884798
232	0xbc1c455b	-0.00953802
233	0x3d82cbf4	0.06386557
234	0x3e17c172	0.14819887
235	0xbdda8cb7	-0.106713705
236	0xbe1a9620	-0.1509633
237	0xbd14ff46	-0.03637626
238	0xbdfd975e	-0.123823866
239	0x3e4be880	0.1991291
240	0x3e539953	0.20663957
241	0xbda66bd4	-0.08126035
242	0xbe38bdb6	-0.18041119
243	0x3dbbb294	0.091649204
244	0x3defdfa8	0.11712581
245	0x3d842eff	0.06454276
246	0x3e3c5a6b	0.18393867
247	0x3c656e7b	0.014003391
248	0xbe1d2935	-0.1534775
249	0x3e0b6a0d	0.13614674
250	0xbe527c2e	-0.20555183
251	0x3e4e280b	0.20132463
252	0xbd6d4624	-0.05792822
253	0x3e18e1d4	0.14929897
254	0xbd254d44	-0.04035689
255	0xbdd710b8	-0.10501236

bias f4 [10]
0	0xbd5b10aa	-0.05348269
1	0xbb601607	-0.0034192817
2	0xbe0d53d4	-0.13801509
3	0xbda5d012	-0.08096327
4	0xbe9162d1	-0.28395703
5	0x3f3c70e5	0.73609763
6	0x3c7db731	0.015485571
7	0x3d0a5dc6	0.033780836
8	0xbd652aba	-0.05594895
9	0xbeb39eea	-0.3508218
