models/conf_3.pt (torch, 441470 bytes, 6 tensors)

weight f4 [128, 784]
00000000: 2491 883c b8a6 273c 7c95 0639 bf01 26bc
00000010: bfb4 9bbc 0473 893c b970 0d3d bfc5 98bc
00000020: df67 43bc 52c1 703c abf9 b83c ad66 8abb
00000030: cd1f 733d e660 fb3c cba3 053d 30d0 153d
00000040: 3f44 f93c 0d54 163d 3235 e0bc cca3 c63c
00000050: f8ee 5fbc 4405 a5bc 76ec e53c 0376 70bc
00000060: 11c2 7dbc 704d cd3b f512 e6bc 52ca f43c
00000070: 0c48 cbbb d953 a73c b0a6 aa3c 7e07 cebb
00000080: 7e25 81bb 9bc0 74bb a583 fb3b 3fbf cebb
00000090: 4c94 0a3c 85ea db3c 921f 5abb 8d74 443c
000000a0: 821c 1d3c 8004 b43c 8590 d93b a0f4 263d
000000b0: 75ad 0a3d 50f3 783c 4502 36bc 70fe 0dbd
000000c0: d7ad 7a3c 991f 89bc ee6e e2bc 9c06 ebbc
000000d0: ebf8 cfbc 173b 0bbd 37b0 523c 20be f3bc
000000e0: 0ab0 073d cf09 adbc d145 ed3c b8ce 7d3c
000000f0: a825 05bb dac3 efbc f77f 3d3b af0d fabc
00000100: 3c48 02bb 8132 af3c 2a8f b43c 07e6 c2bb
00000110: 21fd 04bc 1688 8b3c 5a56 6c3d 3ba2 e83c
00000120: 84e3 88bc 72a3 fd3c 2f22 c33a 38e4 f13a
00000130: 65db b33a ec80 9cbc 7a2b e7bc bc61 1ebd
00000140: 8d1f cebb ebd7 11bd 8f9a 14bd b238 e9bc
00000150: 1d50 babc 40ee cabc b5de ecbc 67e4 7bbc
00000160: 9300 03bd 41ae 93bc db9d 04bd 5e29 92bb
00000170: 240c 593b 6abe ca3c 613e 193d d567 df3b
00000180: 1192 823c fde9 5dbc 66f5 0e3d a5ce af3c
00000190: 1569 f43c dbc2 a23b 6087 0d3c 1b9f 18bc
000001a0: babc d33b 6305 55bd 4893 62bc 5d54 d23b
000001b0: 8493 e13a c8df b5bc 3011 0ebd 1999 c43c
000001c0: e913 ed3c e677 8bbc 8124 dbbc 7ba8 713a
000001d0: e562 6f3c 3bc1 883b 26d4 1a3c b8fd 003d
000001e0: f93b 123c 6b4f 74bb 0fb1 193d 233d 483d
000001f0: 8809 ed3b 4e4f 403d eae2 403d 2e98 0d3d
00000200: 1014 b1bc 48e6 d1b9 736f 653c 1e6c 9c3c
00000210: 52d5 723c ec2e ebbc c8c1 773b 3f3c 03bd
00000220: 8bb8 b83c 142f a2bc 38ac b83c 9aea 16ba
00000230: 6e7e 85bc 6e46 8b3c 6726 9bbc cf44 903c
00000240: 14a9 8f3b 38b3 d9bc 0e48 733c 09ee e6bb
00000250: c0f2 ed3c f668 bf3b 1971 543d d6f3 9fba
00000260: a524 0cbc c3e4 8ebb eb2f 813b 78a3 aebb
00000270: 239d d53c 47fe 54bc af3d 183d ea02 803a
00000280: 6020 913c 245f 093c 2b6c 2bbd ef4f 1bbd
00000290: eb8d 3fbd 59f3 d03c 3131 8c3c b4c4 c43b
000002a0: e84a b3bc 271c 16bb bcfe 26bc e16d 11bd
000002b0: ee73 f5bc 80c0 16bd 50f6 d53c 7062 aebc
000002c0: 3422 20bc 4b29 903b 38c4 b23c f745 4e3d
000002d0: ece8 793c 1ef0 213d 6738 963c 08bd 603c
000002e0: b2d4 af3c 0890 903c a590 b9bb 4f4f a8bb
000002f0: 1b08 12bd 9ad4 993c ee14 04bc 73f0 d2bc
00000300: dfb6 8dbb f857 1abd 7396 25bd 665a 063d
00000310: aa2a c5bc 69c6 c23c 551d cf39 49de ae3c
00000320: bb13 a03c 0f85 dbbb cdbb 44bc d6ce 973c
00000330: 94d6 9fbc 4343 103d 03cb 1abc d835 4d3d
00000340: 348e 4d3d 64ba 513d 02ea f93c 40fb 193d
00000350: 85c0 923c 0731 aebc 0dae 4fbc 5d2a 5cbc
00000360: cc2a b5bc 51bc d83c 58ec d2bb 954b 3ebd
00000370: 42c5 fbbc 5648 5cb9 b6ac bfbc 9bc9 8a3b
00000380: cb8f 223c 2e07 a03c 22af 1cbc 3732 0fbd
00000390: 58c4 04bd e750 6b3c 094c b0bc 6ee9 f03c
000003a0: b41c 6bbc e2c9 76bb feb4 bb3c fe2a 1c3d
000003b0: c795 ccbb 2acb 3f3c 8435 123d a135 5b3c
000003c0: 8a42 86bc d735 883c 3bf8 28bc 6274 a83c
000003d0: 4c2b 80bc aa2c 62bc d643 babc 8a2e e6bc
000003e0: b980 35bc ef51 bfbb c85a ebba c2e8 dd3c
000003f0: 2fbd 6cbb 6edf c9bc 80f1 ca3c e190 f0bc
0.016670771 0.01023262 0.00012834923 -0.010132252 -0.019007085 0.016778477 0.03453133 -0.01864898
-0.01192662 0.014694529 0.022579988 -0.0042236657 0.0593565 0.030685853 0.03262691 0.036575496
0.03042805 0.03670125 -0.027369116 0.024248026 -0.013667814 -0.020144112 0.028066855 -0.014676574
-0.015488164 0.006265335 -0.028085211 0.02988163 -0.006203657 0.020425724 0.020831436 -0.006287514
-0.003941237 -0.0037346247 0.0076756054 -0.0063094194 0.008458208 0.026845226 -0.0033282978 0.0119906785
0.009589316 0.021974802 0.0066395425 0.040760636 0.033856828 0.015194729 -0.01110894 -0.03466648
0.015300236 -0.0167387 -0.027640786 -0.028689675 -0.025387248 -0.0339919 0.012859396 -0.029753745
0.03312687 -0.021122841 0.028963955 0.01549118 -0.0020316634 -0.029268194 0.0028915384 -0.030524103
-0.001987948 0.021386387 0.022040922 -0.0059478316 -0.008116991 0.017032664 0.05769954 0.02839767
-0.01671005 0.030961726 0.0014887507 0.0018454855 0.0013722001 -0.019104443 -0.028218973 -0.038667426
-0.0062903822 -0.035606306 -0.03628021 -0.028469417 -0.02274328 -0.02477181 -0.028914789 -0.01537428
-0.03198297 -0.018027427 -0.032377105 -0.0044604978 0.0033118809 0.024749 0.037413005 0.0068177977
0.01593879 -0.013544557 0.034902 0.02146084 0.029835263 0.0049670762 0.008638233 -0.009315277
0.006461707 -0.05200709 -0.01382906 0.0064187483 0.0017210101 -0.022201434 -0.03468436 0.023998784
0.028940158 -0.017024945 -0.026750805 0.0009218526 0.014610981 0.0041734255 0.009449994 0.031491965
0.008925431 -0.0037278782 0.03752237 0.04888643 0.007233802 0.04695063 0.047091402 0.034568958
-0.021616012 -0.0004003516 0.014003622 0.019094523 0.014821367 -0.028708898 0.0037804712 -0.032039877
0.022548934 -0.01979784 0.022543058 -0.0005757004 -0.016295638 0.017001357 -0.01893921 0.017610935
0.0043841694 -0.026574716 0.014848722 -0.007047419 0.029046416 0.0058413697 0.05186567 -0.0012203406
-0.008553659 -0.0043607666 0.00394248 -0.0053295456 0.026075905 -0.013000078 0.0371682 0.0009766493
0.017715633 0.0083845 -0.041851204 -0.037918027 -0.046766203 0.025506662 0.0171133 0.006004894
-0.021886304 -0.0022904964 -0.010192569 -0.03550518 -0.029962506 -0.036804676 0.026118428 -0.021287173
-0.00977378 0.0043994538 0.02182208 0.050359692 0.015253287 0.039535634 0.018337442 0.013716944
0.021463726 0.017646804 -0.005662995 -0.0051364074 -0.03565226 0.018778134 -0.008061631 -0.02574942
-0.0043247784 -0.03768155 -0.040426683 0.032801054 -0.024068195 0.02377625 0.0003950397 0.021346228
0.019540658 -0.0066992114 -0.012007666 0.018531244 -0.019511499 0.035220396 -0.009447816 0.050100178
0.050184444 0.051203147 0.030507091 0.037593126 0.017914066 -0.021263612 -0.012675774 -0.013437835
-0.022115134 0.026456984 -0.006436866 -0.0464588 -0.030733708 -0.00021007782 -0.023397785 0.004235459
0.009921978 0.019534674 -0.009563239 -0.034959998 -0.03241381 0.01436255 -0.021520631 0.029408183
-0.014350105 -0.0037656953 0.022913452 0.038126938 -0.006243441 0.011706153 0.035695568 0.013379485
-0.01638915 0.016627235 -0.010313089 0.020563308 -0.015645646 -0.013804594 -0.022737425 -0.028098363
-0.011078053 -0.0058386247 -0.0017956132 0.027088527 -0.0036123504 -0.024642672 0.02477336 -0.029365959

bias f4 [128]
00000000: 2b33 e03c 3bea 8fbb f48a 333d a7bf cabb
00000010: 5690 0a3d d5e4 b93b 5afb 033d 014c 0d3d
00000020: 4e65 3f3c 3931 713d d745 203c 5e1c e93c
00000030: 6b5c 77bc 4507 673c 7a8d 203d 2cd2 b83c
00000040: 8bbb 0c3d a1a6 243d 9ff9 6dbb 290b 703c
00000050: 9b1f 953c b969 873d 0859 923c ab69 c1bc
00000060: e14a b83a 3d60 8239 c1b8 443d 4f16 263d
00000070: e27a 483c a966 64bb 7958 98bb 9013 5dbd
00000080: 9510 c73c 2fa2 2c3d 38f9 253b 9220 16bc
00000090: 31d8 1c3b 7212 413d 907e d93c bf22 ad3b
000000a0: 506b 333c 13c0 803d efc0 45bc 5abc b03d
000000b0: 9b70 a73c 6c54 943b a45a ae3b 8ff2 203d
000000c0: e448 633d 8942 253d fa08 653d 587d b3bc
000000d0: 04de eabc b6e7 8fbb 2f57 803c 645d c3bb
000000e0: 3ab7 cf3c 2fbd 6b3d 2373 923c 7c05 bbb9
000000f0: 6e91 21bd c661 473d 13be 6c3d ace2 d2bc
00000100: 629b 8f3c 1c77 34bc f19d 0e3c db4c 343c
00000110: a207 11bd c3db 8f3c c806 d93b bc02 2c3d
00000120: 7ab6 0e3d 2a71 3c3d 4fc3 afbc 9baa d63c
00000130: 2096 0c3d 39c7 53ba 5d84 6e3c 46f3 9e3c
00000140: fabd 6ebc cdc3 15bd 0392 d83c e55b 9ebc
00000150: 80ab 1fbd 522f d83c 15bf ab3c d1e5 7dbc
00000160: 5309 b73c f02c a4bc 0193 463c 692f 30bc
00000170: b1ff 393d 1f6f 6c3d 6f18 2d3d 1cc6 3c3c
00000180: 7394 75bd c475 fd3b d566 02bc 45ef 973b
00000190: 891b 3e3d 25a2 d03c 77e1 243d 2291 c4bc
000001a0: 92b2 0b3d a2f0 483c 1a8b b43c e6de 45bc
000001b0: 2cb9 963d 06fb 45bc 5b69 623d dff8 f73c
000001c0: f8e4 b33c 2ac0 213c 7df7 c23c 0017 093d
000001d0: 8431 61bd 08a2 24bd 8572 01bd 205c 60bc
000001e0: aacb 5d3c 01f5 913c f2c6 c9bb 183f 1a3d
000001f0: 6fff b3ba 75b6 843c 1c9d d4bc b577 643b
0.027368149 -0.004391936 0.043833688 -0.0061873975 0.033829056 0.005673031 0.03222213 0.03449631
0.011681868 0.058884833 0.009782276 0.02845591 -0.015097718 0.014100854 0.039197423 0.022561155
0.034358542 0.040197972 -0.0036312116 0.014651098 0.018203547 0.06611962 0.017864719 -0.023609957
0.0014060402 0.00024867235 0.048027758 0.04054862 0.012236329 -0.003485123 -0.0046492186 -0.053973734
0.0242999 0.042146858 0.0025325548 -0.009163039 0.002393257 0.04713673 0.026549608 0.005283683
0.010950878 0.06286635 -0.012069925 0.08629675 0.020439437 0.0045266654 0.005320864 0.039293822
0.055489436 0.040346656 0.055916764 -0.021910354 -0.028670318 -0.004391636 0.015666572 -0.0059620608
0.025355924 0.057553466 0.017877167 -0.00035671506 -0.039445333 0.04867723 0.057798456 -0.025742851
0.017530147 -0.011014726 0.008704648 0.011004652 -0.03540767 0.017560845 0.006623123 0.041994795
0.034841992 0.04600636 -0.021455435 0.026204398 0.034322858 -0.0008078698 0.014557925 0.019403111
-0.014571661 -0.036563683 0.026436811 -0.019330928 -0.038981915 0.026389752 0.020965138 -0.015496687
0.022343313 -0.02004096 0.012120009 -0.010753491 0.045409862 0.05772316 0.04225963 0.011521842
-0.059956025 0.007734986 -0.007959087 0.0046366774 0.04641298 0.025467942 0.040254083 -0.023994986
0.034105845 0.012264403 0.022038985 -0.012077069 0.073595375 -0.012083774 0.055276256 0.030270038
0.021959767 0.009872476 0.023799652 0.0334692 -0.054978862 -0.040193588 -0.031603355 -0.013693839
0.013537327 0.017817022 -0.0061577493 0.037657827 -0.0013732741 0.016200284 -0.025953822 0.003486139

weight f4 [64, 128]
00000000: 6032 e63d c324 0a3d 16fc a53c bf00 45bd
00000010: 7a25 c3bc 71bf 5bbc f1fc 96bd 4c06 bc3d
00000020: 47aa 57bd 9ed3 63bd a303 92bc c80e 98bd
00000030: 08ea dd3c 5282 223d 9244 d4bc 882a ca3b
00000040: 771a 4cbc ae1f d5bb fd1f 513d 3b70 d0bc
00000050: 7830 4bbd 790d 1abd 6fcc 323d ffbd a0bd
00000060: a137 4abd 11ab b93c c132 673c 57a5 92bd
00000070: 7a77 dd3d 28d8 01bd 65ea 853d 6028 76bb
00000080: 0512 4fbd 3ffb 5cbd ea88 1ebd 20c6 423c
00000090: 9489 dfbc 5c41 73bd 1e5d a53d 94e5 cb3d
000000a0: 1afa 16bd 52a4 e6bc 191a 46bd b707 29bd
000000b0: 4dab 853d de99 543d 2cf3 d43c 041d 4ebd
000000c0: bd42 a7bc 8e9c ccbc e4fe 053d 3407 573d
000000d0: bce7 64bc 2412 803b b6cc d33c dc56 43bd
000000e0: 593c e13d 9965 9fbd 7592 bc3d 55f4 83bb
000000f0: 3e5a 9b3d c0f4 233d 9628 0f3b adc2 783d
00000100: 58de 41bd 0d10 f43c a06f 14bd f740 6fbd
00000110: 1900 203d 6e66 dd3c 56b2 9bbc 8109 d6bd
00000120: 403a 8abc b629 e33c 216c ecbd 0c45 b6bc
00000130: 76e2 ca3c 784f b73b 6849 74bd dd4c 7d3d
00000140: 3cef a7ba 5a61 21bd 5481 abbd 54be 2bbd
00000150: 8bbb 133d db1e 973d 48de c3bc 7376 3a3d
00000160: 6538 963d 8d50 4dbd 92a8 113d 2a2b 22bd
00000170: d35b b4bc a4b3 833d 82a7 33bd f8b4 bbbb
00000180: 45a9 9b3d 3a6b 983d 40a5 7c3d 0b04 443c
00000190: ed11 d2bc ad06 b0bc f2f0 3e3d 679d a53c
000001a0: a2a6 9fbd e9b0 333d 2fe4 b73d 03d7 d53d
000001b0: b167 b4bd b65f 52bd b8c8 50bd 0c0a 02bd
000001c0: f8bc e8ba 4948 29bc a2cf a83a a999 99bd
000001d0: 94f3 ec3c 5656 843d 6fd4 033d b108 053e
000001e0: 5456 873d 85c6 b83d 501e b73d 322a 48bd
000001f0: 1dfb f13d e54f 26bd 33ce 923d be8f 04bd
00000200: bb88 d3bd a019 26bc f575 5f3d 6c08 3fbd
00000210: f47f 33bd 59a9 d93b 1023 02bd f4e1 00bc
00000220: f8b1 cdbc f61a 87bc cfa2 47bd 8873 b6bc
00000230: d834 583d b0e2 983d 2b64 c63c efe2 e1bd
00000240: f6bd 5d3d 671a 503d 4509 353d 4d12 debc
00000250: a614 54bc 888f e93d ef16 17bd 6fb2 87bd
00000260: 0968 553d 3222 15bd 7ca2 393e 2682 77bc
00000270: 4e03 683d aee8 72bd 6ded 98bd 6031 433c
00000280: bd91 e3bc f7c6 1bbd e1fd 34bd fef7 80bd
00000290: 18fe ee3c 761d bf3d 5bca 9d3d 1483 c03d
000002a0: 9959 82bd 0dac 323d 3a1d 3abd 2443 9f3d
000002b0: 5745 013e 92f6 24bd c48c 73bd 69a6 313d
000002c0: b3b2 6c3d 4e93 ba3d 9316 24bd 23b4 af3c
000002d0: f3a1 24bd 6298 f3bc 6ca3 bd3d 5484 443c
000002e0: ef9e 94bd 8955 9e3d b10f bfbc 15f0 913d
000002f0: 6b84 35bd f128 a53c 996f 0d3d 93ac 83bc
00000300: db58 a9bd fbff 5fbd 3f6f 75bd 617a 413d
00000310: 4a13 b43d c2c0 44bd f00a b2bb 705b 553d
00000320: 3eaf 2c3d 7363 61bc 0b77 a83c 0b8d ac3d
00000330: 073e aa3d f552 abbd 5c50 c53d 56c9 55bd
00000340: 0bea 4a3d 2d60 02be 3edf 07bc d4f6 3bbc
00000350: b5a9 96bd 2afe 32bd 3ea1 b93d ff86 993d
00000360: 4621 c43a 6562 98bd 53d9 a1bc b1a5 d1bb
00000370: 12f3 3b3e c5f5 8c3d 4f5b d7bd 4bb3 9f3d
00000380: a748 a1bd 69bb a93d 1353 563d 860f ef3d
00000390: 361d 583a 81a9 dc3d 54c2 55bd 009d 5e3c
000003a0: b478 6f3d 3bd1 adbd 60af e1bc ada9 4e3d
000003b0: ea42 153e 0b26 683d d5b7 2d3e 636a 393d
000003c0: e427 17bd ddff 7ebd 41d5 9dbc a339 a43d
000003d0: 1390 68bd 3368 2b3d 5103 3fbd 0b60 293d
000003e0: 4b8b 673d c7f0 2a3b bc30 d3bc 2399 673d
000003f0: 1897 7e3d 7832 ba3c 78ca 39bb 629f 353d
0.11240077 0.033726465 0.020261806 -0.048096415 -0.023821581 -0.013412342 -0.073724635 0.091808885
-0.052652624 -0.055621736 -0.017824 -0.07424694 0.027089134 0.039675064 -0.025911603 0.006169621
-0.012457482 -0.0065040207 0.051055897 -0.02544414 -0.04960677 -0.037610505 0.043651994 -0.07848739
-0.049369458 0.022664579 0.014111222 -0.07160442 0.10813804 -0.031700283 0.06538848 -0.0037560686
-0.050554294 -0.053950544 -0.03870479 0.011888057 -0.027287282 -0.059388503 0.08074401 0.09955898
-0.03685961 -0.028154526 -0.048364732 -0.041267123 0.06526814 0.05190455 0.02599486 -0.05032064
-0.020417565 -0.024976995 0.032713786 0.052497104 -0.013971265 0.0039084125 0.02585445 -0.047690257
0.109978385 -0.0778305 0.09207622 -0.0040269294 0.07585572 0.040028334 0.002184426 0.060732532
-0.047331184 0.02979281 -0.036239266 -0.058411565 0.039062593 0.027026381 -0.019005936 -0.104510315
-0.016873479 0.02772985 -0.115440615 -0.022249721 0.024766188 0.00559419 -0.05964032 0.06184088
-0.0012812386 -0.039399482 -0.08374277 -0.041929558 0.036067527 0.07378932 -0.023909703 0.04552312
0.07334975 -0.050125647 0.03556115 -0.039591946 -0.022016441 0.06430748 -0.04386092 -0.0057283603
0.07600645 0.07442327 0.061681032 0.011963855 -0.025643313 -0.021487558 0.046616502 0.020216657
-0.077954546 0.043869887 0.089790694 0.10441401 -0.0880884 -0.05136081 -0.05097267 -0.031747863
-0.0017756512 -0.0103321755 0.0012879262 -0.075000115 0.02892474 0.0646178 0.032185014 0.12991597
0.06608263 0.090222396 0.089413285 -0.048868366 0.11815474 -0.040603537 0.07168236 -0.032363646
-0.10328814 -0.010137945 0.054555852 -0.04663889 -0.043823197 0.0066425023 -0.03177172 -0.007866371
-0.025109276 -0.016492348 -0.04873925 -0.022271886 0.05278477 0.07465112 0.024217686 -0.11029612
0.05413624 0.05080643 0.044198293 -0.027108336 -0.012944376 0.114043295 -0.036887106 -0.066258304
0.05210117 -0.036409564 0.18128389 -0.015106713 0.056643777 -0.059303932 -0.074671604 0.011913627
-0.027779454 -0.038031545 -0.04418743 -0.06297301 0.029173896 0.09331791 0.07704612 0.09400001
-0.06364746 0.04362111 -0.04543803 0.07776478 0.12624107 -0.04027421 -0.059460416 0.04337159
0.05778761 0.091101274 -0.04006059 0.0214482 -0.04019351 -0.029735748 0.09259686 0.01199444
-0.07256877 0.07731158 -0.023322912 0.0712587 -0.044315737 0.020161124 0.034530256 -0.0160735
-0.08268901 -0.05468748 -0.059920546 0.04723585 0.087927416 -0.04803539 -0.0054334328 0.052089155
0.04215931 -0.013756621 0.020564577 0.08425339 0.08312612 -0.08365432 0.09634468 -0.052193962
0.049539607 -0.12732 -0.008292971 -0.011472423 -0.07356588 -0.04369942 0.09063958 0.074964516
0.001496353 -0.07440642 -0.019756949 -0.006397926 0.18354443 0.06882814 -0.105154626 0.07797869
-0.078751855 0.08287699 0.05232532 0.11672883 0.0008244099 0.10774518 -0.05218728 0.013587236
0.05846472 -0.08487173 -0.027549446 0.050454784 0.14576307 0.056676906 0.16964658 0.045267474
-0.036903277 -0.06225573 -0.019266726 0.08018806 -0.056778025 0.04184742 -0.046634022 0.04135136
0.056529325 0.0026083456 -0.025780074 0.056542527 0.062155813 0.022729144 -0.002834944 0.044341452

bias f4 [64]
00000000: 73e3 8bbd aaa1 b83d eeef ce3d 31e4 dcbd
00000010: 223e d93c b338 81bd 9213 d33d 9717 173e
00000020: 11bc 23bd 60d3 d73d b50b 253e 5d2f 7b3c
00000030: 7818 e2bc 4f8a c03c b76f 26bd 3b17 82bd
00000040: eacb 373d e91f 363d bbd0 c8bc 0871 cdbc
00000050: 9057 2d3e dd80 1dbc cbd0 503e a5d3 e0bd
00000060: 516f 97bd 806b 5a3d 2b05 ee3d 1f56 733c
00000070: aaff be3d 09a5 7dbd f0a0 cbbc 0d43 1ebc
00000080: e47a f53c 8bf1 9b3d 7eaa 05bb 1c3c 713d
00000090: 0708 623d cf5c 2b3e be6c 08be bb92 cf3d
000000a0: f2fc 5e3d 75d0 243d c9c6 6cbd 1ef4 2f3e
000000b0: c89e 1f3e 1f34 753c 4bcb 0a3e 1ac7 e1bc
000000c0: a1e6 e63d 75b0 283e 27de 36bd 10c9 40bd
000000d0: 694b b63c 352c 463d 6927 943c 9bed 8f3d
000000e0: 3357 2b3d 21b8 0e3d 5e9d 5fbc 1d47 87bb
000000f0: cc2d 923c f7d3 b2bd 60f0 8ebd 755e fcbb
-0.06830492 0.0901521 0.10104357 -0.107857116 0.026518885 -0.06309643 0.10306467 0.14755093
-0.039974276 0.105383635 0.16117747 0.0153311165 -0.027599558 0.02350345 -0.040633883 -0.06352087
0.044872202 0.044464026 -0.024513593 -0.025078312 0.16927934 -0.009613243 0.20392148 -0.10977868
-0.07394279 0.053325176 0.116220795 0.014852076 0.09326108 -0.061924968 -0.024857014 -0.009659541
0.029965825 0.0761443 -0.002039581 0.058895215 0.055183437 0.16734622 -0.13322732 0.101354085
0.054440446 0.040237863 -0.057806764 0.17182967 0.15587914 0.01496604 0.13554113 -0.02756076
0.11274458 0.16473563 -0.044645455 -0.04706675 0.022252755 0.048382003 0.018085198 0.070277415
0.041831207 0.034843568 -0.013648359 -0.0041283504 0.017844103 -0.08731835 -0.06979442 -0.00770169

weight f4 [10, 64]
00000000: 7a98 21be f3ab 78bd 7a60 7c3e 4c2e 13be
00000010: 8dd8 473e cadf 723d ba30 183e 6542 483b
00000020: 8109 393e 79bc 3bbe 73c3 c0bd 4a6b 403e
00000030: a40d 7dbd 4ad5 443e b8b6 d0bb 20a0 14bc
00000040: 770c 18be f716 00be 31fe 8c3d ee54 163d
00000050: 6931 d33d 3cf3 343d 6696 44bd dfd8 ccbd
00000060: c94c 08be eacd bbbd bca0 99bd aa5b 1ebe
00000070: 871e 48be 534c ed3d 4f44 76bd b1fe b3bd
00000080: f663 c1bd 84d4 8b3e 7927 89be 67a6 2dbe
00000090: 95c7 cabd 4aa0 1fbe 282c 45be 51ce 373e
000000a0: 29d5 0cbe 9766 2b3e 524c 26be 03da 133e
000000b0: d77e b73d e034 ddbd 6d31 3d3e bdb9 07be
000000c0: f7fe 31be 80ca 663e 3d0f 8fbd 5bf6 6ebe
000000d0: f8dc 943d adc5 dcbd f560 7bbd 009a 31bd
000000e0: f2de 42be d531 223e 320d 4e3e 0436 a83d
000000f0: 94f4 0f3e eeeb 14be 4ccc f1bc f33a 1e3e
00000100: 411d 1abc 7fb1 39be 754f 7e3e 28f8 943e
00000110: f0f4 96bd ca01 fbbd 6847 84be 1fef 81bd
00000120: f0dd bbbd 5b7b 5ebd f968 963e 1895 eebd
00000130: 7a22 903e aa9d 0cbe 52c4 ab3e 052f 08be
00000140: f928 413e 6561 e03c 603a c8bd f4c0 243e
00000150: a90f b8be a70e 18be 1f08 54bd 04ba 70be
00000160: 238a 25be 28ba 8cbd 244d 0ebe f03e 583d
00000170: 8baa 26be b495 c53d e38e 18be 7c2c 163e
00000180: 8a71 7d3d 29bf 23be bbed 353e 71d6 34be
00000190: ad90 cabd ff78 0fbe 7f1b 8e3d f410 27be
000001a0: adda fe3d 0a4b 48bd a17a 19be cf2c 9cbd
000001b0: 5dd2 07be 5913 063e c9e3 343e 399d e03d
000001c0: 9896 b8bd 6885 953e 119b 82bd d13d 083d
000001d0: fc14 1f3e a800 04be a334 c73c 3151 463e
000001e0: d4f2 893e d6ad 2ebe 5658 87be 3feb 15be
000001f0: 5eb1 033e 7202 8b3e 15b7 363e 046c 833d
00000200: a71c a6bd deaa b9bd b650 2cbe 285d 213e
00000210: 9445 54be 08e0 6f3d 126f 193e 647c 66be
00000220: 3716 963d 617e 29be 4c4e 3abe 6a9e 373e
00000230: e63c 2abe b9ad 03be 57de 17be a4cd 683d
00000240: 255d 42bd 4ab6 b9bd 0e99 793d 301b a3bb
00000250: 1084 4d3d d3b0 f4bd a455 35bd 56a3 c7bd
00000260: 7c2e 23be fb95 493d 9d4d 18bd 41df 27be
00000270: 27c7 423e 3eef 9d3c 7ac2 a03d 6913 02be
00000280: f1c8 053e 1dba 503e 6b9f 503e 3680 97bd
00000290: c16e 90bd 4c7f 2ebe 6734 60be a9fc 473e
000002a0: 60ba 86bd 62b4 a8bd cf2b ae3d 4a07 7dbe
000002b0: cd5a 3ebe 6966 03be 8bf4 253e 6d8a e63c
000002c0: 2385 23be f26e 5fbe bb94 943d f859 2c3e
000002d0: 9aa3 283e 59b0 0ebe af4c c03b ef62 67bd
000002e0: 582b a9bd 25e7 203e 1e98 7a3d 11cd 4f3e
000002f0: 73a9 ee3d 99b1 da3c 5599 2a3e a8c1 fabc
00000300: ef7b 2a3c c294 c8bd 6287 673e cc63 27be
00000310: 425d 793e 91d5 083c 98d7 a7bd 96f2 0abe
00000320: ff86 d6bd 7dad 47be 412f 6e3e 2523 093e
00000330: 908f 6b3e 68bd 5b3e d731 2d3e e3b6 cc3d
00000340: bff6 2abe 7c14 66bd 5334 ce3c 6e4e e3bd
00000350: 7d15 fbbd 1f4d e1bd 303d 43be 8c25 85bd
00000360: cd8c 0bbe b1bb 93bc 8910 03be a1eb efbd
00000370: ee1a debd 31d4 2f3d 13ea ad3d 1303 803e
00000380: 3fc6 c9bd 4043 083e c2bc b1bd ebc5 4fbe
00000390: 32e2 99bd 518c 583e a910 1c3e 8b54 83bd
000003a0: ef5d b9bd 3c5d f73d 76a0 14be 7e6d 5e3e
000003b0: 0143 4d3d 9cdb ec3d 1734 353e 934b eabd
000003c0: 9877 67be 881b 843e b00d f43c cf9f 08be
000003d0: 8b3b 0b3e cdcc 5a3a b1f0 a0bd 55e6 cdbd
000003e0: 78c6 d33d 9b37 cd3d 548d 9e3d dd6b 28bd
000003f0: f938 0e3e 9921 503e b41f d2bc e4b9 36be
-0.15780821 -0.06071086 0.24646178 -0.1437313 0.19516201 0.059295453 0.14862338 0.0030557152
0.18070032 -0.18333615 -0.09412279 0.18790928 -0.061780587 0.19221988 -0.006369438 -0.00907138
-0.14848505 -0.1250876 0.06884421 0.03670209 0.103121586 0.04417728 -0.047994994 -0.100023024
-0.13310541 -0.09170134 -0.07501361 -0.15464655 -0.19542895 0.11586823 -0.060123738 -0.08788813
-0.09442894 0.27310574 -0.26787928 -0.16958009 -0.099013485 -0.15588489 -0.19255126 0.17949797
-0.13753189 0.16738354 -0.16240051 0.14438634 0.0895974 -0.10801101 0.18475886 -0.13254447
-0.17382418 0.22538185 -0.06985328 -0.23336165 0.07268709 -0.10779891 -0.061371762 -0.043359756
-0.1903036 0.15839322 0.20122221 0.08213428 0.14058143 -0.14543125 -0.029516362 0.15452175
-0.009406389 -0.18134116 0.24834998 0.29095578 -0.07370937 -0.122562006 -0.2583573 -0.06344437
-0.091731906 -0.05431686 0.29376963 -0.11649531 0.28151304 -0.13732019 0.33548218 -0.13299187
0.18863286 0.027390191 -0.09776759 0.16089231 -0.35949448 -0.1484934 -0.051765557 -0.2350846
-0.16165976 -0.06871444 -0.13896614 0.052794397 -0.16275994 0.09647694 -0.14898257 0.14665407
0.061875857 -0.1599089 0.17766468 -0.17659928 -0.09890876 -0.14011 0.06938838 -0.16315061
0.12444053 -0.048899688 -0.14988185 -0.07625734 -0.13263841 0.13093318 0.17665018 0.10967488
-0.090130985 0.29203343 -0.06377233 0.033262078 0.15535349 -0.12890875 0.024317091 0.1936691
0.26943076 -0.170585 -0.26434582 -0.1464052 0.12860629 0.27150303 0.17843278 0.06417087
-0.08110934 -0.090657935 -0.16827664 0.15758193 -0.20729667 0.058563262 0.14983776 -0.22508389
0.07328456 -0.16552116 -0.1819393 0.17931524 -0.16624793 -0.12859239 -0.1483091 0.05683674
-0.04745211 -0.09067972 0.06093698 -0.0049776062 0.050174773 -0.11947789 -0.044271126 -0.09747951
-0.15935701 0.0492153 -0.037183393 -0.16393758 0.19021283 0.019279119 0.078495935 -0.12702717
0.13064934 0.20383497 0.20373313 -0.07397501 -0.07052375 -0.17040747 -0.2189499 0.19529976
-0.06578517 -0.0823753 0.085044496 -0.24709812 -0.18589325 -0.12832035 0.16206567 0.028142178
-0.15968756 -0.21819666 0.072549306 0.16831195 0.16468659 -0.13934459 0.0058685164 -0.056490835
-0.0826022 0.15713175 0.061180227 0.2029307 0.116534136 0.026696013 0.16660054 -0.03060992
0.010405525 -0.09793998 0.22610238 -0.16346663 0.24351981 0.008351699 -0.08195418 -0.13569102
-0.10474967 -0.19499774 0.23260213 0.13392313 0.23003983 0.21458972 0.16913544 0.099958204
-0.16695689 -0.05617188 0.025171435 -0.11098944 -0.12259958 -0.11001038 -0.1906631 -0.06501302
-0.1362793 -0.018033834 -0.12799276 -0.117148645 -0.1084498 0.04292697 0.08491912 0.25002345
-0.098522656 0.13306904 -0.08678581 -0.20290343 -0.075138465 0.21147276 0.1524073 -0.0641261
-0.090511195 0.1207833 -0.14514336 0.21721455 0.050112728 0.11565325 0.17695652 -0.11440196
-0.22604215 0.25802255 0.029791683 -0.13342212 0.13596933 0.0008346558 -0.07858408 -0.10053698
0.10340589 0.100203715 0.077418 -0.04111849 0.13888921 0.20325316 -0.025649883 -0.17844349

bias f4 [10]
00000000: aef9 c43d 0344 3abe faba 953d 09fb 083e
00000010: 1870 aabe 22ca 183f 9c7d ca3d 53ff 6abd
00000020: 672c bdbe 8a47 04bf
0.09617935 -0.18190007 0.073110536 0.13377012 -0.33288646 0.5968343 0.09887239 -0.057372402
-0.3694794 -0.5167166
