models/conf_1.pt (torch, 441470 bytes, 6 tensors)

weight f4 [128, 784]
000000 43 61 12 bb 4f fc 71 bc 7a 26 8f 3b 1f 0f 92 3c
       -0.0022335805 -0.014769628 0.0043686004 0.017829476
000010 c4 ea 0f bd 2c b0 82 3c b0 57 86 b9 0e 29 08 3b
       -0.035136 0.015953146 -0.00025623804 0.0020776424
000020 1d ad 8f 3c 59 01 17 bb 67 a2 b0 bc e3 a1 93 bb
       0.017538602 -0.0023041575 -0.021561814 -0.0045053824
000030 d0 9b b4 bc fd 7f a9 bc 3a 25 e9 bb 1e 28 c1 3b
       -0.022046953 -0.020690912 -0.0071150335 0.005894675
000040 49 57 ea 39 82 16 71 bc 10 f9 d7 bb a3 bb 64 3c
       0.0004469699 -0.014714839 -0.00659097 0.013960752
000050 15 18 90 bc 54 6e 3e bc 9b 9c ea bc a0 74 d9 bc
       -0.017589608 -0.011622984 -0.028639128 -0.026544869
000060 c0 8d 8f 3b 99 09 b3 bb 00 d2 0d bc 2c de d0 ba
       0.0043809116 -0.0054637906 -0.008656025 -0.0015935353
000070 71 46 81 bc 8f 82 10 bd e1 b5 b8 3c 9c 1a 05 bd
       -0.01578066 -0.03528076 0.022547664 -0.03249608
000080 2a 9b 9c bc ae 2f 9f 3c 9e 13 8e bc e6 da a3 bb
       -0.019116957 0.019431915 -0.017343339 -0.00500046
000090 7b e3 f6 bc ff 1b 8b bc 7e 35 14 bc 1e 60 28 bd
       -0.030137768 -0.016981123 -0.009045957 -0.04110729
0000a0 89 81 41 3c 09 44 6b bc df 02 eb 39 71 64 5b 3c
       0.011810669 -0.014359483 0.00044824832 0.013390646
0000b0 47 78 a4 bc 34 0c 83 bc 24 30 df bc a4 38 0e bd
       -0.020076884 -0.01599703 -0.027244635 -0.034721985
0000c0 6b 4f ee bc 6e ed aa bb 1e 0d fe 3b 1b d0 a6 bb
       -0.029090604 -0.005216292 0.0077530285 -0.005090726
0000d0 22 1b 88 3c 56 52 b0 3c 80 17 e5 bc e3 82 0d 3d
       0.0166145 0.021523636 -0.027965307 0.03454865
0000e0 ad a5 70 3c c4 5d e2 bb c5 1a 60 bc b0 e6 9d bc
       0.014687938 -0.0069081504 -0.013678257 -0.01927504
0000f0 53 4b 65 3c 87 1a b6 bc db d6 4a 3c 23 ef 04 bd
       0.0139950095 -0.022229446 0.012380327 -0.03245462
000100 50 0b 84 bc 1d 7a b8 bc 5d c9 a6 3c 9b 01 c9 3b
       -0.016118675 -0.022519166 0.02035969 0.0061342246
000110 31 45 ff 3b f0 84 79 bc 30 d1 fc 3c 34 64 0f bc
       0.0077902307 -0.015229449 0.030861467 -0.008751918
000120 83 e2 0f 3b 6b de c7 b9 de 65 59 3b 66 b6 4f bd
       0.002195508 -0.00038121952 0.003317229 -0.050711058
000130 38 75 c5 3b d0 29 8c bc 76 77 21 bd 23 9a 74 3b
       0.0060259365 -0.017109782 -0.039420567 0.0037323318
000140 49 83 cf 3c bf d9 25 3c 5d 65 81 3c 21 53 95 3c
       0.025331156 0.0101227155 0.015795404 0.018228116
000150 3f 91 3c bc 54 7b fd bc 60 f6 ea bb fd 6b aa bb
       -0.011509239 -0.030942596 -0.0071704835 -0.0052008615
000160 dc 32 f5 bc d8 61 7e 3c a9 41 96 bb b7 51 2c bd
       -0.029931478 0.015526257 -0.004585464 -0.042070117
000170 08 1f 11 bd 09 6d 84 3c c7 fa 95 3c cb 63 bc 3c
       -0.035429984 0.016165273 0.018308057 0.022996804
000180 2e d7 16 3d de 44 ac 3c f0 87 e9 39 7a 64 dc bc
       0.036826305 0.021028932 0.00044542504 -0.02690338
000190 21 0d ce bc 25 f6 92 3c d5 0c 08 3c ee 03 95 bc
       -0.025152745 0.017939636 0.008303841 -0.01819035
0001a0 bc ff 0e bd a5 2b c3 bb a5 f5 8c bc 88 62 42 3b
       -0.034911856 -0.0059561306 -0.017206976 0.002966078
0001b0 1f c9 ec bc 35 0d 35 3c f0 cc 1a bc b9 55 a3 3c
       -0.028904496 0.011050512 -0.009448275 0.019938337
0001c0 85 01 65 bc c8 e9 2a bb 9e f9 1e bb 32 d7 67 bc
       -0.013977413 -0.0026079286 -0.002425767 -0.014150428
0001d0 48 5c 19 bc e2 fb 01 bd f7 fc eb bb aa 31 22 bd
       -0.0093603805 -0.031734355 -0.0072017866 -0.039598145
0001e0 ed ec 64 bc ba 3d 05 bd b6 a6 08 3b cb cb 1a 3d
       -0.013972503 -0.03252957 0.002085132 0.03779201
0001f0 40 a8 91 3b 49 5d a7 3c 66 ee 84 3c d4 64 14 bd
       0.004445106 0.020430224 0.016226958 -0.03622897
000200 ad a4 9e 3c 3c 84 19 bd f6 d2 06 bc f0 c1 10 bc
       0.019365633 -0.037479624 -0.008229008 -0.008835301
000210 b3 19 9a 3c 4d 48 3a bc 63 29 37 bd a6 b4 81 bc
       0.018811082 -0.011369777 -0.044717204 -0.01583321
000220 3b df a8 bc 98 4a 31 3c 5f e1 8d bb 98 44 05 bd
       -0.020614257 0.010821007 -0.004329845 -0.03253612
000230 b2 a3 0b 3d d7 d4 83 bb 18 15 16 3b 1d 16 a2 b9
       0.03409166 -0.004023175 0.0022900756 -0.00030915524
000240 33 3b 87 bc b0 f0 ea 3b 03 f9 c3 bc 4e 84 54 bc
       -0.01650772 0.0071698055 -0.023922449 -0.012970997
000250 fb 86 a0 3c d1 37 e1 3c 48 8b e5 3c c1 2c 87 3c
       0.019595614 0.027492436 0.028020516 0.016500833
000260 f0 b7 63 3c d6 a4 89 3b 67 19 bf bb 4f 75 1c 3c
       0.013898835 0.004200558 -0.0058318856 0.009549453
000270 3b 99 ae 3c e1 ff 87 bc 74 9e 0c bd 35 14 c5 ba
       0.0213133 -0.016601505 -0.0343308 -0.0015035929
000280 bd 8e e3 3b db 6e 41 3c 77 8d 4d 3c 37 17 eb 3b
       0.006944506 0.011806215 0.012545935 0.0071743983
000290 0f aa 58 bc 50 f5 4d bc 62 a0 87 3c b7 1d d3 3c
       -0.013224139 -0.012570694 0.016555969 0.025771005
0002a0 cf 42 ce 3b 67 0b de bc e4 15 a5 bc fd 47 d0 bb
       0.0062945853 -0.027105046 -0.02015204 -0.006356238
0002b0 64 73 d2 bc 39 fb 84 bc dd 6a 85 bb 96 d5 10 bb
       -0.025689788 -0.016233074 -0.004071577 -0.0022099963
0002c0 17 9d de 3c 92 0e f9 3c b8 84 34 bc 0c 8f 9a bc
       0.027174516 0.030402455 -0.011017971 -0.018867038
0002d0 cc 2d 77 3c 26 0f c0 bc d5 79 fe 3c a4 6b c5 3b
       0.015086602 -0.023444723 0.031063953 0.0060247947
0002e0 43 2a bd 3c 1e 2b 26 bd 39 5d 1a 3c 6e 10 e7 bc
       0.023091441 -0.040568464 0.00942164 -0.028206076
0002f0 60 c2 fe bb 6a 59 60 bc 31 3e 47 bb a7 cb e3 bc
       -0.007774636 -0.013693193 -0.003040206 -0.02780707
000300 c0 cc 00 bd 27 06 01 bc 3c 02 fb 3b cc dd e0 bc
       -0.031445265 -0.007875002 0.0076601785 -0.027449511
000310 bc 6b b2 bc 15 d6 9e 3c 3e 17 d9 bb 15 67 c2 3b
       -0.021779887 0.019389192 -0.006625085 0.0059326985
000320 c4 4b 3b bc 6a b8 ce 3b 34 cf a8 bc c4 51 df 3c
       -0.011431638 0.006308605 -0.020606615 0.027260669
000330 a8 a7 88 3c 3f e0 4f 3c af a2 b6 bb 2c b5 ad bc
       0.016681507 0.012687742 -0.0055735926 -0.021204554
000340 aa 83 95 bb 61 2c 08 3b 79 71 09 bb dd e2 4f bc
       -0.0045628147 0.0020778405 -0.0020972176 -0.012688366
000350 99 d9 99 bb f1 cd 19 bd d9 c1 c9 bc 86 4c c6 bc
       -0.004695129 -0.037549917 -0.024628567 -0.024206411
000360 91 cb 8a 3c 13 e9 2a bd b9 47 39 bd 0c ee db bc
       0.016942771 -0.041726183 -0.045234416 -0.026846908
000370 a3 16 16 bd e8 ed 86 bc ed 89 75 bc cf 67 0c 3d
       -0.03664268 -0.016470864 -0.014986497 0.034278687
000380 70 6f 61 3b b6 6c de 3c 45 37 a6 bb a4 4b 00 3d
       0.0034398697 0.027151447 -0.0050725066 0.031322137
000390 15 a5 fa bc 34 4a 19 bd 91 f5 0f bb 26 5f fa 3c
       -0.030596295 -0.03742428 -0.0021966437 0.030562948
0003a0 19 54 02 3d cc f6 05 3c 2f a6 dd bb 5f 08 78 3c
       0.031818483 0.008176517 -0.0067641954 0.015138715
0003b0 f9 45 80 3c ac 8c 24 ba 13 a5 d9 bc 22 40 e0 bc
       0.015658366 -0.0006277065 -0.026567971 -0.02737433
0003c0 91 99 07 bd 24 bc 45 3c dc af 52 bd 33 a7 b8 bc
       -0.033105437 0.012068782 -0.051437244 -0.022540664
0003d0 a4 14 cf bb 5e 17 ac bc 57 f4 ab bc b1 07 57 bd
       -0.006319599 -0.021007236 -0.020990534 -0.05249757
0003e0 98 d4 c6 bc e9 46 24 bd 90 3c 48 bc 72 3b e6 3c
       -0.024271294 -0.040106688 -0.0122214705 0.028104518
0003f0 1c 21 06 3d 31 72 8b 3c 54 79 3a bc 30 fd d1 bc
       0.03274642 0.017022224 -0.011381466 -0.025633425

bias f4 [128]
000000 c7 b2 30 3d 33 8e c7 bc fc 82 1d 3c 84 60 34 3c
       0.043139245 -0.024359798 0.009613749 0.011009339
000010 89 51 77 3c bf 05 9b bb d8 13 8e 3b 01 d9 a4 bb
       0.015095123 -0.0047309096 0.0043358617 -0.0050307517
000020 c4 71 e2 3c 8e 6f b3 bc b4 4c e8 3a 81 f5 00 39
       0.027642138 -0.02190378 0.0017723055 0.00012298489
000030 94 7c c9 3c f9 e9 e1 bc 27 b0 e9 3b e9 9e 98 3c
       0.024595536 -0.027577387 0.0071315947 0.018630462
000040 68 0e b4 bc 91 4e e7 bc 12 ba 36 3c 4b 71 af bc
       -0.021979526 -0.028235706 0.011152761 -0.021416327
000050 36 3f 9b bc fb 87 14 bc 1f f0 3e 3d cf 9b 39 ba
       -0.01895104 -0.009065623 0.046615716 -0.0007080407
000060 0c 14 ee 3c 4c 9d 59 3c 48 24 9e 3c d7 84 75 3c
       0.029062293 0.013282131 0.01930441 0.014985285
000070 f3 12 fa 3c c9 64 27 3c 27 3c 31 bc 3f 4a d5 3c
       0.030526614 0.0102169 -0.010817564 0.02603638
000080 70 fd a6 3b 80 3a 5d bc ad f5 90 ba c5 d1 86 3c
       0.00509613 -0.013502717 -0.0011059545 0.016457448
000090 43 c7 16 bd 31 6b 9f bc 8c 4f 93 bc 03 3d fa 3c
       -0.036811125 -0.019460293 -0.017982267 0.03054667
0000a0 00 c8 40 bb f3 2c 0d 3c c5 f2 0e 3d a6 c6 8d 3d
       -0.0029416084 0.008616674 0.03489949 0.06922655
0000b0 9a d1 1e 3d fd 6c 6a bb 8c fc 94 bc 64 c6 7f bb
       0.03877411 -0.0035770528 -0.01818683 -0.0039028162
0000c0 10 db 40 bb 86 60 49 bc c4 15 18 3c 53 c5 15 3b
       -0.0029427446 -0.012291079 0.009282533 0.002285321
0000d0 e7 f0 9c bc 99 ec f9 3c 03 3f 1f 3d 48 4d e0 bc
       -0.01915784 0.030508326 0.038878452 -0.0273806
0000e0 44 a9 3e 3d fc 14 dc 3b 6d d7 da 3b c3 e4 50 bc
       0.046548143 0.0067163687 0.006678513 -0.012749854
0000f0 6c 03 ad 3c dd 9e d5 bb 51 26 06 3c 49 62 30 bc
       0.021119796 -0.006519182 0.008187846 -0.0107656205
000100 18 89 c2 bc 22 1b 6c bc 4c 42 15 3d 8a 12 31 bb
       -0.023747012 -0.014410766 0.03644018 -0.0027019107
000110 a4 b6 60 3d 27 fb 49 3d 36 6b f0 3b 13 e3 79 bb
       0.05486168 0.049311783 0.0073369993 -0.0038129732
000120 7e 41 63 3c 59 5e 3f 3d 9f 47 e5 bc 8e 32 b1 3c
       0.013870595 0.046720836 -0.027988253 0.021630552
000130 87 dd 84 bc 93 12 2d 3d 01 97 6b 3d 0c 76 78 3a
       -0.016218914 0.042254042 0.057517055 0.00094780396
000140 9c db 31 bd 4c 60 14 3c ee 1f db bb df 09 55 3c
       -0.043422326 0.009056162 -0.006687156 0.013002842
000150 ee ec 01 3c af 1a bb 3c d3 dc 14 3c 93 51 09 3c
       0.007930024 0.022839872 0.009085852 0.008381265
000160 1c 7c 8a 3d b3 4b ab 3c 92 ca 20 bb c0 0d 8a b9
       0.06761953 0.02091012 -0.0024534804 -0.00026331656
000170 a8 34 45 3d b7 ed c8 3b c9 d6 a1 bb 96 b7 3a bb
       0.04814592 0.0061318534 -0.0049389345 -0.0028490773
000180 67 44 70 3c d4 7c 88 3c 40 9b 73 3b 24 11 9e bc
       0.014664746 0.016661085 0.0037171394 -0.019295283
000190 14 a9 a2 bc ff 19 f4 3b d8 33 0a 3c f1 19 8f bb
       -0.019856013 0.007449388 0.008435212 -0.004367106
0001a0 00 b6 19 3c 77 2e a6 b9 fc de 8c bc ec ef 5b 3c
       0.009381771 -0.00031696606 -0.017196171 0.013423901
0001b0 7c 69 10 3d e9 31 81 bb b5 11 c5 bc 6d 05 2f bc
       0.035256848 -0.0039427173 -0.024056295 -0.010682446
0001c0 69 55 f8 3c 3b 91 53 3c aa 8b 38 bc 60 22 77 3d
       0.030314164 0.012913044 -0.011263767 0.060335517
0001d0 70 48 0e bd 14 5f ae bc 3c a5 82 bb 21 cf 5f 3c
       -0.03473705 -0.021285571 -0.0039869826 0.013660223
0001e0 cd e1 4b 3d 40 31 93 3c ff 6e cd bb da 18 bd bc
       0.049775887 0.01796782 -0.0062693353 -0.02308314
0001f0 79 5a 8c 3c 28 9e c9 3c a5 c6 1a bc e5 19 55 3d
       0.017132984 0.024611548 -0.009446775 0.052026648

weight f4 [64, 128]
000000 a6 0c 1c bd 3b 86 f3 bb 4c 8b 73 3d 41 14 68 bd
       -0.038098 -0.007431773 0.059459016 -0.05665994
000010 13 47 4c bc 59 2b 9d bd 34 f5 73 3d e5 90 8c 3d
       -0.012468117 -0.076742835 0.059560016 0.06863574
000020 bc eb 65 3d 45 b8 b5 bd 9b 85 84 bc 7f 4e 5f bd
       0.056133017 -0.08873037 -0.01617699 -0.05451822
000030 15 14 11 bc 27 ad a9 ba f2 41 42 3d f1 9e 7b bb
       -0.008854886 -0.001294528 0.04742617 -0.0038394297
000040 a7 69 f5 bc 8b 3e 0a bd 77 06 db 3d 37 c0 7f 3c
       -0.029957606 -0.033751052 0.106945924 0.015609792
000050 1d a6 7e 3d be db da 3d 2c 7b e6 3c 1f 03 f5 bc
       0.062170137 0.10686444 0.028134905 -0.029908715
000060 53 f5 a5 3d 66 6f c1 3c 28 2f 71 bd 9a de 05 3d
       0.081034325 0.02361269 -0.058882862 0.032682993
000070 c5 e7 4b 3d e0 d0 a6 3d c0 a3 0f 3d fa 2d 01 bc
       0.04978158 0.081453085 0.035068274 -0.007884497
000080 67 79 0e bc 4b f0 b2 bd 9d 45 25 3d a3 d7 3c bc
       -0.008695937 -0.087372385 0.04034959 -0.011526021
000090 f9 b0 81 3d 24 da 34 bd 7b 25 32 3d 9a c5 5a bd
       0.06332583 -0.044153348 0.043492775 -0.053411104
0000a0 44 84 22 bd 36 26 a7 3c d7 d6 98 bd 93 f6 f6 bc
       -0.03967692 0.020403963 -0.074628524 -0.030146873
0000b0 bc 77 30 bc 3d 9c e4 bc 62 38 14 bd 9d 26 1b bc
       -0.010770734 -0.027906531 -0.036186583 -0.009469655
0000c0 2c 8d 4d bd 7a ad 84 3d 0a 8f 22 3d 65 e9 ca 3c
       -0.05018346 0.064784005 0.039687194 0.024769494
0000d0 30 e7 67 3d d0 81 87 3d 1f 06 37 3d 27 54 23 bc
       0.056616962 0.06616557 0.044683572 -0.009968794
0000e0 c3 8d 0d 3c 4b ff b3 bb 53 8d db bc 91 e1 99 3b
       0.008639756 -0.00549308 -0.026800787 0.004696079
0000f0 23 26 1f 3d 84 ca 4d bd be fa 83 3c 55 e8 b2 bd
       0.03885473 -0.050241962 0.016110774 -0.0873572
000100 7f 80 00 bd db 15 50 bd 69 83 6c 3d 44 d9 9e bc
       -0.031372543 -0.050802093 0.05774251 -0.01939071
000110 82 73 a0 3d 20 62 ca 3d 6c af 42 bd 0a 2e aa 3d
       0.07834531 0.09881997 -0.047530577 0.083095625
000120 0b 22 aa 3c 6c c3 0f 3d a5 55 05 3d a4 c8 8d 3d
       0.020768186 0.03509848 0.03255238 0.06923035
000130 d5 10 84 3d 89 a9 85 3d fa 09 02 3d ac 86 96 bc
       0.06448523 0.06526477 0.031747796 -0.018374763
000140 49 27 0d 3d e4 cc 89 3c c3 70 13 3d 80 c9 d2 bc
       0.034461293 0.016821332 0.03599621 -0.025730848
000150 29 1a a0 bb 31 2b 7f ba b0 f2 6e 3d 08 40 63 bc
       -0.004885931 -0.0009733914 0.058336914 -0.013870247
000160 7b 6d 59 3d 65 c5 b6 bb e7 ff 3f 3c cc ad b4 bc
       0.053082924 -0.0055777305 0.011718727 -0.022055529
000170 94 c5 4b bd 04 e2 04 bd 9f be 9b 3d 36 fd 91 3c
       -0.049748972 -0.032442108 0.076047175 0.017820936
000180 02 36 06 3d f5 95 3c bb c3 52 66 bd c9 fd 81 bd
       0.03276635 -0.0028775905 -0.05623127 -0.06347234
000190 ee 2f f7 3b 5b e3 66 bd b3 c4 df bb ed 30 b8 3c
       0.0075435555 -0.056369167 -0.0068288683 0.022484267
0001a0 3b bb 8e 3d 85 21 2d bd 0f b5 25 bd ba 95 86 ba
       0.06969305 -0.042268295 -0.040455874 -0.0010268011
0001b0 55 e6 5c 3d d5 b1 77 bd 50 76 e9 bc ac d8 68 3b
       0.0539306 -0.06047233 -0.028498799 0.0035529537
0001c0 e9 66 88 bc ab 11 2b bd 6d 3b cb bb bd 56 47 3d
       -0.016650634 -0.041764896 -0.0062021525 0.048666704
0001d0 9a 52 30 bc eb 22 4e bd 48 52 48 bd 5e 19 83 3d
       -0.010761881 -0.05032627 -0.048906595 0.06401323
0001e0 4d 0d 1b bd a6 e4 c0 3d 0d ca 54 3d b5 72 4c bd
       -0.03785448 0.09418611 0.051950503 -0.04991408
0001f0 bb 60 7b bc d4 21 7f bc 2f 9f 1b 3d fa 5f 4b bd
       -0.015342887 -0.01557203 0.037993606 -0.049652077
000200 65 a8 15 3d 59 44 19 bc 15 3f 15 bd e2 98 8b 3d
       0.036537547 -0.009354674 -0.036437113 0.068162695
000210 a7 7b 2a bd 6c 6b 96 3d 73 93 9f bd 4d 73 21 bc
       -0.04162183 0.07344708 -0.077917956 -0.00985415
000220 70 06 59 3d 50 9e b1 bd 2c 4c 13 bd f1 28 66 3d
       0.052984655 -0.08672774 -0.035961315 0.05619139
000230 f7 aa 72 bd b0 12 37 bd 15 c1 61 3c 78 f0 1e bc
       -0.059245076 -0.044695556 0.0137789445 -0.009700887
000240 83 58 02 bd 02 28 6e 3c 4a af 07 bd 9a 60 01 3d
       -0.031822693 0.014535906 -0.033126153 0.031586267
000250 16 9b 9b bd 5c ba f8 3c c6 e5 d1 3d 34 74 6c bd
       -0.0759794 0.0303623 0.10248904 -0.057728007
000260 a0 73 8d 3d 4f cb 31 3d 4a 67 87 3d 32 a9 97 bd
       0.06906819 0.04340678 0.06611498 -0.07405318
000270 d6 38 16 bd df 73 f7 3c f6 41 2a bd 05 3d df 3c
       -0.036675297 0.030206619 -0.04156681 0.027250776
000280 23 81 80 bd e4 b7 8c bd 65 75 8d bd 1b 97 e1 3d
       -0.06274631 -0.06871012 -0.06907157 0.11015149
000290 5c a5 a1 3c 3a 83 ee bc 50 7c 2f 3c b8 f0 bc 3c
       0.01973217 -0.029115308 0.010710791 0.023064002
0002a0 23 12 3e 3d 58 32 24 3d 1b 1d 1f bc 0a 44 3e bd
       0.046404015 0.040087074 -0.009711529 -0.046451606
0002b0 5f c5 20 3d 1c 6a af bd 7a ef 3a 3b 40 69 01 3d
       0.039250728 -0.08565161 0.0028524087 0.031594515
0002c0 12 f9 5d 3d 67 8f 57 3d 59 db 35 3d e5 68 15 3d
       0.05419261 0.052626994 0.04439864 0.03647699
0002d0 97 48 cb bc 21 a8 75 bd 76 22 2c bd 7f 53 2e 3b
       -0.024814887 -0.059974793 -0.042025052 0.002660006
0002e0 87 5d d6 3d af fa 80 3c b7 89 ab bd b7 30 e6 3c
       0.10467058 0.015744535 -0.083758764 0.0280994
0002f0 7f 61 85 3d a5 c2 7f bc 35 32 39 3d 68 b3 87 bc
       0.065127365 -0.015610372 0.045213897 -0.01656504
000300 f7 b9 88 bc d5 4e 05 3d c9 8e 4b bd a7 8a 3a bd
       -0.016690237 0.032545883 -0.049696717 -0.045542385
000310 43 38 f5 3c 4f a9 d7 3d 65 8e 0b 3d 52 35 ae 3c
       0.029934054 0.1053034 0.034071345 0.02126566
000320 69 c4 6e 3d d3 4c 6b 3d 07 4f 8c b9 b4 2e be bc
       0.05829278 0.057446312 -0.0002676176 -0.02321563
000330 65 ff 46 bd 40 1c af 3c 61 27 06 3d 53 92 96 bd
       -0.048583407 0.021375775 0.0327524 -0.07352128
000340 3f e5 4e bc 51 0c f3 3d be 97 82 bd 93 dd 93 3d
       -0.012627899 0.118675835 -0.06376599 0.07219996
000350 75 fe b6 3d 3d 90 c3 3c b5 35 89 bd 5c 08 85 bd
       0.089352526 0.02387249 -0.06699697 -0.06495735
000360 ed cd 74 3d 0b c5 84 bd b2 24 1c bc 78 c5 05 3d
       0.0597667 -0.064828955 -0.009530233 0.032659024
000370 99 46 7d bd 58 b7 b4 bc e4 21 ca bd 6f f5 20 3d
       -0.061834905 -0.022060081 -0.098697454 0.039296564
000380 17 15 27 3d 38 f1 99 3d b3 fc 63 3d af e1 93 3d
       0.040791597 0.07516712 0.055660915 0.0722078
000390 41 c5 fe bc 75 a2 11 bd 6b 99 3a 3a f1 fd 76 bd
       -0.031099917 -0.03555532 0.0007118198 -0.06030077
0003a0 8d c2 6d bd 77 ec 98 3d 35 90 75 3d 73 56 d7 3d
       -0.058046866 0.07466977 0.05995198 0.10514536
0003b0 ce 1e e2 bc 5f bf ae 3d a4 14 a9 bd b9 14 ee 3c
       -0.02760258 0.08532595 -0.0825589 0.029062616
0003c0 b0 17 b9 3c 14 54 75 3d c6 d7 be 3c ad d3 19 bd
       0.022594303 0.059894636 0.023296248 -0.037555385
0003d0 b5 f2 12 ba da 7d a4 bb e1 40 67 3b 5f 35 86 3d
       -0.0005605624 -0.0050198855 0.0035286474 0.065531485
0003e0 87 eb 73 3d a0 cc 4b bd 74 dc 11 3d 68 96 5c 3c
       0.05955079 -0.049755692 0.03561063 0.013463594
0003f0 b2 f4 35 bd 83 7a 9e 3c a5 3b 48 bd 84 b8 3f 3d
       -0.044422813 0.019345528 -0.048885006 0.046806827

bias f4 [64]
000000 1f 19 80 3d 18 62 09 3d 9b 45 ea bc e3 f9 5c 3d
       0.062547915 0.033540815 -0.028597644 0.053949248
000010 43 93 4f 3d af 78 3c bb df 6d 66 ba 54 8d 89 bd
       0.05067755 -0.0028758456 -0.0008790176 -0.06716409
000020 31 ed 9d 3d ac e8 bc 3d bf 5b a7 bd 0f 24 87 3d
       0.07711256 0.09224066 -0.08171796 0.065986745
000030 4e d6 40 bd 38 d9 5c 3e 8b 6c f4 bd d1 ef cd bc
       -0.047079377 0.21567237 -0.119347654 -0.025138767
000040 d6 8a af bd ec b8 b1 bc 8a 55 73 3d 06 71 57 bd
       -0.08571403 -0.021694623 0.05940775 -0.052598022
000050 cd c8 91 bc e8 2c 90 bd 34 b0 4c 3d da 2a 1f 3b
       -0.017795945 -0.07039815 0.049972728 0.0024287016
000060 89 89 08 be 3f 61 21 bc f6 d5 15 bd 57 74 a5 3d
       -0.13333715 -0.009849845 -0.036581002 0.08078831
000070 76 a5 2f 3d 3d 91 be bc 5a c9 bc 3b e7 41 e3 3d
       0.042882405 -0.023262614 0.0057613077 0.11096554
000080 10 08 8c 3c 84 94 f3 bd a8 85 16 bd 25 4e f5 3c
       0.017093688 -0.118935615 -0.03674856 0.029944489
000090 0d 10 cd 3d e7 f7 bc 3b 47 29 8c bd 98 de 6a 3d
       0.10012827 0.005766857 -0.068438105 0.05734119
0000a0 4d 6c db 3c 84 2e 55 bd 8f 77 01 bd b0 60 e9 bd
       0.02678504 -0.052046314 -0.03160816 -0.11395395
0000b0 59 b8 05 3e 09 aa f0 3d 3b bb 82 bc 86 49 f2 3d
       0.13058604 0.11751182 -0.01595842 0.1183043
0000c0 e4 7c c0 3d cd 3d 0a 3d b9 80 05 3e 40 09 a0 bd
       0.09398821 0.033750344 0.13037385 -0.07814264
0000d0 a6 d8 ad bd 0b c1 cd 3c f3 50 9f bd 45 46 40 3c
       -0.08488588 0.025116464 -0.07779112 0.011735504
0000e0 4b fc d2 3d 05 5b a6 3d e9 a5 c7 3c 43 7c 8d 3d
       0.10302027 0.08122829 0.024371104 0.06908467
0000f0 4d ef d2 bd bd ba 82 3d 3f 48 5f bd 20 6b b8 3d
       -0.10299549 0.06383274 -0.05451226 0.090048075

weight f4 [10, 64]
000000 d6 b6 1f be 1f 7a 06 be a7 17 0c 3d 1b 69 cc bd
       -0.1559709 -0.13132523 0.034202244 -0.09980985
000010 ba d5 a6 bd b5 e7 c9 bd 33 48 3e 3e 7b fe 45 be
       -0.08146234 -0.09858648 0.1858223 -0.19335358
000020 d6 c6 09 3e 09 ce 04 3e 21 44 f1 3d ea a2 1a bd
       0.13454756 0.12969221 0.11780573 -0.037753023
000030 3f 1f bf bd ac 8c 07 be 04 e8 d2 bd d1 89 8e bd
       -0.093321316 -0.13237256 -0.1029816 -0.0695988
000040 b5 76 f0 bc a8 36 c3 3d 74 52 54 3e ba e8 fc 3d
       -0.029353479 0.09531909 0.20734578 0.123490766
000050 f7 8d 8a bd b6 db 91 3d 79 37 0b be 34 78 58 be
       -0.06765359 0.07121985 -0.1359538 -0.21139604
000060 78 35 4c bd 6b a8 e6 bd f3 c8 fc 3d a8 d8 2b 3d
       -0.04985568 -0.11262592 0.123430155 0.041954666
000070 c9 ca b0 bd b2 db 5e 3e af 5f 3d bd f8 4d 0c 3d
       -0.08632428 0.21763495 -0.04623383 0.034254044
000080 59 11 74 bd db c7 f8 bc 4d 4c 5c bd 9c 0e 5c 3e
       -0.059586857 -0.030368736 -0.053783704 0.21489948
000090 07 6c f2 bd a1 8e 67 3d 8d a3 78 3d cd 3e 0d 3e
       -0.11837011 0.056532506 0.06070285 0.13793488
0000a0 72 f2 cc 3c 55 a5 32 3e 8b 8d c6 bd ca b2 f3 bd
       0.02501795 0.17445882 -0.09694966 -0.11899336
0000b0 25 13 85 3d 89 88 92 3d 81 6c 09 3e 07 37 6f 3d
       0.06497792 0.07154948 0.13420297 0.058402088
0000c0 42 cd d5 3d f6 6f 22 3d 7e 07 d3 3c a0 e8 45 be
       0.104395404 0.039657556 0.025760408 -0.1932702
0000d0 56 d5 9f bd 4e 99 b1 bc 0a 93 d9 bd ca 41 55 3e
       -0.078043625 -0.021679547 -0.106237486 0.20825878
0000e0 eb 62 03 be b7 8b 52 3e 4d 2e 75 3d cd 1c 83 3c
       -0.12830703 0.2056111 0.05985861 0.016004944
0000f0 20 36 16 3e 6e 90 d4 bd b0 19 b1 be d4 0b f8 3b
       0.14669085 -0.1037911 -0.3458991 0.0075697694
000100 25 35 db 3c 0e f8 2d bd 36 57 32 3c 59 73 67 be
       0.02675874 -0.04247289 0.0108850505 -0.22602595
000110 66 14 5e bc 01 32 92 bd ec 2b 9e be d0 60 a1 3e
       -0.013554668 -0.07138444 -0.30892885 0.31519175
000120 0a 41 8e 3e d5 5d 88 3e 5f 08 6e 3e 6a 63 a2 3d
       0.27783996 0.26634088 0.23245381 0.07929118
000130 d4 1b 9d 3e 7b f9 9a bd e9 4a f8 bd 9b 77 86 3c
       0.30685294 -0.07567116 -0.12123663 0.016414454
000140 fd 77 92 3d fd a1 35 bc 16 c3 24 bd 37 6e f1 bd
       0.07151792 -0.011085984 -0.04022511 -0.117886
000150 b9 7b 3f be 17 68 b9 3c 49 4f 6d be 93 ec 50 be
       -0.1869954 0.022632642 -0.23174776 -0.20402746
000160 ff 83 0b be 47 4f 1c be cc ce 82 bd bf 1b fd bd
       -0.13624571 -0.15264617 -0.063870996 -0.12358808
000170 b3 4e 8f 3d e2 cf f9 bc f6 69 ba bd e6 45 b7 be
       0.069974326 -0.030494634 -0.09102242 -0.35795516
000180 6f e6 7c 3e cf 24 49 be 47 22 c6 3d 85 2f d7 bd
       0.24697278 -0.19642948 0.09674507 -0.105071105
000190 53 42 55 3d 12 a5 a1 3d c8 df d9 bc e9 eb 2c bd
       0.052065205 0.07892813 -0.026595965 -0.04221717
0001a0 27 18 ae bd dc a6 1c bb 85 39 a3 3d f9 ac 0c be
       -0.085007004 -0.0023903167 0.07969955 -0.13737859
0001b0 78 fb 9d 3e 25 0d fa bc 5a bf 09 3e ab d9 88 3e
       0.30855918 -0.030523846 0.13451901 0.26728567
0001c0 03 24 56 3d d7 ee 2a 3d af ab 43 3d f8 5b 84 bd
       0.052280437 0.04173168 0.047771152 -0.06462854
0001d0 7d 19 f8 3d ec 72 5b be b1 5f ae bd b8 8e f5 3d
       0.121142365 -0.21430558 -0.085143454 0.11990112
0001e0 81 cc a8 be 4b 12 20 3c c5 bc bc 3e 8b 6c 45 be
       -0.32968524 0.009769986 0.3686277 -0.19279687
0001f0 9d 31 e0 bb 89 4a 66 3b b1 b5 c9 bc d2 31 11 bc
       -0.006841852 0.0035139641 -0.02462277 -0.008861976
000200 09 70 28 bd 8e 25 c8 3d 9f 55 01 bd 5c b1 6c bd
       -0.04112247 0.09772788 -0.031575795 -0.05778633
000210 fc d6 ea bd b4 e6 fa bd 09 8f b0 3d df 80 8b 3d
       -0.11466786 -0.122510344 0.08621032 0.068116896
000220 da 1a ac 3d 3b f5 2e be d0 ec 43 38 24 94 c6 bd
       0.08403559 -0.17085735 4.671217e-05 -0.09696224
000230 f5 30 55 3e e8 ca 3b 3d 95 93 7b bd b0 dd dd 3c
       0.20819457 0.045847803 -0.061420042 0.027083248
000240 9b 67 04 3c 66 42 a2 bd 00 11 67 3d 87 24 8e 3d
       0.008081342 -0.07922821 0.056412697 0.06940561
000250 8a f4 6a 3d 34 8d e3 bd ab c9 95 bd 09 32 f2 bd
       0.057362117 -0.11110917 -0.07313856 -0.1182595
000260 38 92 17 3e 6f 3d 09 3e 56 e6 41 3a 03 b5 2f 3e
       0.14801872 0.13402341 0.00073966885 0.17158894
000270 f6 70 11 be 1d 98 2e 3e 84 27 b7 bd bc 57 02 3d
       -0.14203247 0.17050214 -0.08943084 0.03182195
000280 7a 7f 1d 3e 9f 1b 06 bc 98 3c 2b bc ba 49 2a 3e
       0.1538066 -0.008185296 -0.010451458 0.16629687
000290 58 44 58 be ed 5a 70 3d 27 b7 5b bd 3e 14 8c 3d
       -0.21119821 0.058680464 -0.053641465 0.068397984
0002a0 38 ee d8 3d 0b b3 1c 3d ce 55 52 bd 10 a0 f0 bc
       0.105923116 0.038256686 -0.05135136 -0.029373199
0002b0 88 72 4e bc da 44 fb bd 9b ca 18 bd f2 87 82 be
       -0.012600549 -0.12268992 -0.037302595 -0.25494343
0002c0 4d b7 bd be bb f0 8d bd c3 80 37 bd dc 82 30 3e
       -0.3705391 -0.06930681 -0.04480053 0.17237419
0002d0 eb 3e 51 3d cc 93 16 3e bd 80 ff bd e4 73 01 bc
       0.051085394 0.14704818 -0.12475727 -0.007901166
0002e0 8c 45 0a be 0d 12 eb 3d 3d 11 19 be c6 49 bf 3d
       -0.13503093 0.11478052 -0.14947982 0.09340243
0002f0 c2 dd 16 3e 06 dd 6e 3d c5 9c df 3d 0c ad 49 be
       0.14733031 0.058316253 0.10918573 -0.19694918
000300 34 ca a4 3d 7c a3 1a 3c 33 ef be 3d e6 cc 25 3e
       0.0804638 0.009438392 0.093229674 0.16191444
000310 81 46 b1 bd 98 c8 35 bd 40 44 2c be 4f 07 44 be
       -0.08656026 -0.044380754 -0.1682291 -0.19143413
000320 9b 55 3e 3e 4d 40 cb 3d 77 8d 64 bd ca 71 d9 bd
       0.18587343 0.09924374 -0.055798974 -0.10617407
000330 a6 74 cf 3d 2e 9d d2 bd 03 04 02 be ef ce 48 3d
       0.10129671 -0.10283886 -0.12696843 0.049025472
000340 a1 68 85 3d bc a6 b4 3d bf ea 0e 3e 9f 7f c5 3d
       0.06514097 0.088208646 0.13956736 0.096434824
000350 c1 49 69 be 07 71 fc bc f4 21 c7 3d e2 c2 f6 3d
       -0.22782041 -0.030815614 0.09723273 0.1204889
000360 bb ef 07 be 22 37 a1 3d 69 6b 4e 3d 9e aa 13 3e
       -0.13275044 0.07871844 0.050395403 0.14420554
000370 a0 e2 2e be 68 dc 12 3e e0 c8 4d 3c 5e 2e e2 3c
       -0.17078638 0.14341891 0.012560099 0.02761
000380 d8 99 9e 3d 84 39 4c be 36 4e 9a bc 8b df b2 bd
       0.07744187 -0.19943815 -0.018836122 -0.08734044
000390 57 e6 3b bc 77 dc 5f bd 0f 12 fa 3d 23 d3 a9 3d
       -0.0114684915 -0.05465361 0.12210476 0.08292224
0003a0 41 6f 9d 3d ba 1d c9 bd 69 23 6a 3e 9d bd 08 3e
       0.076872356 -0.09820123 0.2286507 0.13353582
0003b0 02 69 74 3e 48 c0 69 3d 18 a4 24 3e cf 18 5d 3e
       0.23868182 0.05706814 0.16078222 0.21591495
0003c0 4a 78 66 3e 77 bc 80 bd f6 d2 4b bd 0d a7 cf 3b
       0.22506824 -0.06285947 -0.049761735 0.0063370527
0003d0 6f 6a 1f bd 2e 2d f4 bd 3a 5a a9 3d c7 9c e0 3d
       -0.038919862 -0.1192268 0.082691625 0.10967403
0003e0 46 56 10 bd 9d d6 1d 3e d0 19 39 be fa 12 13 be
       -0.035238527 0.154139 -0.18076253 -0.14362708
0003f0 25 29 7e 3c a2 7b f3 bd 29 e3 42 be f6 a6 e0 bd
       0.015512739 -0.118888155 -0.19031967 -0.10969345

bias f4 [10]
000000 46 86 33 3d 08 44 11 3e cc 20 16 be 95 6a 98 bd
       0.043829225 0.14186108 -0.14660949 -0.07442204
000010 dd 53 09 be 1f 33 dd 3e 3c c5 36 3e a5 3b bb 3b
       -0.13410898 0.43203065 0.17848676 0.0057138973
000020 2c d0 29 be d3 58 2f be
       -0.16583318 -0.17123728
