models/conf_2.pt (torch, 441470 bytes, 6 tensors)

weight f4 [128, 784]
00000000: 159c 91bc f124 00bd eb51 01bd 2d49 c9bc
00000010: 927b d7bb b4ac b6bc 77ce bbbc 6f0f 623c
00000020: 69af 4ebc acc5 023d c27f 743c f528 f9bc
00000030: b6e6 3a3d ed27 c8bd e738 afbd 608f 3e3c
00000040: 8ad3 be3c a6a5 58bc 0fd0 a93a d904 23bd
00000050: f634 a8bc e770 863b 992a 76bb d18e 80b9
00000060: dcdb 15bc 5620 6a3c 0e78 473b 6528 d13c
00000070: fb9b 743b 2bd5 0b3b 51de d3bc 4ce5 063d
00000080: 6a48 9a3c 3401 d53b 7605 4f3d fdd6 0a3d
00000090: b87d 403d 4384 d5bc 7933 67bd 3c87 06bd
000000a0: c549 963d d521 213d 5cd9 943a 125b 413d
000000b0: 9608 16bd ed30 fdbd d579 d5bc 4412 13bd
000000c0: bc3e 2fbc e657 303b b12a cdbc 1774 1cbc
000000d0: 92fc be3c 8454 87bb 7150 73bc b39f f1bc
000000e0: dc32 fdbc 5997 39ba 138f 14bd 5953 963b
000000f0: 37a0 9c3c 252d e03a c356 863d d87e bb3c
00000100: ea3a 2e3d f655 1e3d 98da c93c 18e3 8e3d
00000110: f8d2 30bd d7b0 d23b cf8f 9cbc 9c7c 9cbd
00000120: 86a8 febc d68e 203d 3225 be3c 3222 303c
00000130: 6d7a 113d f216 903c b011 943c 9d31 013d
00000140: a027 f73c 2bfb 35bd 48df 613c fc2b 80bb
00000150: 703d 9abc fb92 bebb bfc4 f2bc f6b4 143d
00000160: 7e5d b5bc 026a ba3a 3b26 7d3d bdc8 3d3d
00000170: 6a36 1c3d e52c 673c eb01 d1bc 641b 1abd
00000180: 54cc eb3c 49f8 793c e812 4bbd 6f11 90bc
00000190: 0e57 32bc 7b64 f7bb 1bfb 90bc d7d3 a43c
000001a0: 1d94 703d 8877 5d3c 6494 46bc 3169 d43b
000001b0: 3401 44bc b095 7a3c 5439 3f3c 8d8d 8abc
000001c0: 3d64 0cbd 82cd 393c 469c babb c20b 843c
000001d0: b1b6 e43c 06ef 763c d0d0 7c3d 9f68 af3d
000001e0: 6530 8d3c 372a 16bd 3d88 afbc 3221 133d
000001f0: f13f fdbc c1a1 40bd ca03 b9bb e91e 4a3d
00000200: 0b3b 21bd 5474 003d 7746 d8bc 1e64 4fbd
00000210: a3c0 ac3c 670a 7c3d c3e9 893b 9b9e 62bd
00000220: d2b1 253b 47a6 f4bc ddaa 8c3c ea9a 893c
00000230: 60f6 643c 24e5 f0bc e0b6 ecbc 4d9c 48bc
00000240: 27ca 4dbd a1d9 14bb e326 2fbb d699 383d
00000250: 214e 0a3d 0715 1fbd a478 a23c 712f e4bc
00000260: 0bba 8cbd 2231 c8bc 07ea 72bd 3329 be3c
00000270: 45b3 b0bc 99e1 6cbd 995f babb 9017 713c
00000280: 2c39 283d 899b 0a3d bce8 893c d0fd debc
00000290: c7c7 ecbc 750e cbbc 659c c2bb 8cc3 1dbd
000002a0: 1cc6 e93c 84a5 df3c e2c0 8d3c b8af 18bd
000002b0: c299 3abd 2f80 debc f846 44bd 7ae6 b23c
000002c0: 9e7d 193d 4fd2 203d fb4b f13c ea4e e2bc
000002d0: 8bca f2bc 3854 17bd 8192 a3bd 6fe3 c5bc
000002e0: 3e7f 803a b5a8 913c 68f8 fb3c 2c4f 0d3d
000002f0: 8f9d c33b 956e 1b3d 67f7 13bc 9206 6abd
00000300: 5d54 7abc 210e a1bc 1f07 1dbd 4d8a 24bd
00000310: 7465 9e3c ae4c e5bc 3566 89bc 7fa2 dc3b
00000320: 956e 3fbc 2c57 673c 0548 39bd 3e58 a5bc
00000330: 4a3b 743c 7262 5139 115a 14bc 1530 343c
00000340: 9439 65bd e506 24bd 1726 a8bb e4bf 47bc
00000350: b979 503d 703e 97bb d0da ad3c d8d3 003d
00000360: ab17 683d 69a2 333c 44dd 65ba 8298 a93c
00000370: aa94 ca3c 6416 b8bc d49a cf3c 8301 683b
00000380: 4ed0 0c3c f775 573b b4d7 fe3c 1ccc 373b
00000390: 6269 3bbd 4898 b6bb a48d 563c 7168 3b3d
000003a0: 5612 123d bde5 333c 9e08 abbd 768f 71bb
000003b0: 7400 453c 559e 28bd 807a 8fbb 901c 093d
000003c0: e26b 2e3d d243 443d bbd6 513d 33a3 d73d
000003d0: d2c1 ce3d c14a 963c 7514 553d afad 1ebd
000003e0: bc43 23bd ce20 663b 6606 eb3c d58f d1bb
000003f0: e763 4a3c 6e4c 2c3b 2a95 06bd 2627 9139
-0.017774621 -0.03128523 -0.031572264 -0.024571026 -0.00657601 -0.022299148 -0.022925599 0.013797625
-0.012615063 0.031926796 0.014923038 -0.030415038 0.04563018 -0.0977324 -0.08555775 0.011630863
0.023294229 -0.013223087 0.0012955683 -0.039799545 -0.020533066 0.0041028145 -0.0037562011 -0.0002452047
-0.009146657 0.014289936 0.0030436548 0.025531957 0.0037324417 0.0021336775 -0.025862845 0.03293352
0.018833358 0.0065003876 0.050542317 0.033896435 0.046994895 -0.026064044 -0.056445573 -0.032843813
0.07338289 0.039338905 0.0011356282 0.047205992 -0.036629282 -0.123628475 -0.02605907 -0.03590609
-0.010696109 0.002690786 -0.02504477 -0.009549162 0.023313794 -0.004129948 -0.014850722 -0.029495096
-0.03090804 -0.00070797425 -0.03626926 0.0045875725 0.019119365 0.0017103298 0.06559517 0.022887632
0.042536654 0.038656197 0.024640366 0.069769084 -0.043169945 0.0064297724 -0.019111542 -0.07640955
-0.031086218 0.03919872 0.023211095 0.01075034 0.035517145 0.017589066 0.01807484 0.031541456
0.030170262 -0.044428986 0.013786145 -0.0039114933 -0.018828124 -0.0058158613 -0.029634831 0.03630539
-0.022139307 0.0014222267 0.061804038 0.046334017 0.03813783 0.014109825 -0.02551361 -0.037623778
0.028783955 0.01525695 -0.049578577 -0.017586438 -0.010885013 -0.00754982 -0.017697861 0.020120544
0.058735 0.013517268 -0.01212034 0.0064822664 -0.0119631775 0.015294477 0.011671383 -0.0169132
-0.034275282 0.011340501 -0.005694899 0.016118888 0.027919145 0.015071636 0.061722577 0.08564877
0.01723499 -0.036661353 -0.021427268 0.03592033 -0.030914279 -0.04702926 -0.0056462036 0.049345884
-0.03936295 0.03136094 -0.026400788 -0.05063259 0.02108795 0.061533358 0.004208775 -0.05532704
0.002528299 -0.029864443 0.017171318 0.016797502 0.013974756 -0.029406138 -0.028895795 -0.012244296
-0.050241616 -0.0022712725 -0.002672606 0.045068584 0.033765916 -0.038838413 0.019832917 -0.027854653
-0.068714224 -0.02443749 -0.059305217 0.023213005 -0.021569857 -0.057832334 -0.0056876657 0.01471509
0.04107015 0.033839736 0.01683461 -0.027220637 -0.028903855 -0.024787167 -0.005939054 -0.038516566
0.028536849 0.027300604 0.017303888 -0.037276953 -0.04555679 -0.027160732 -0.047919244 0.021838415
0.037473314 0.039263066 0.029455176 -0.02762552 -0.029637596 -0.03694555 -0.07986928 -0.0241563
0.0009803546 0.017780641 0.030758098 0.034499332 0.00596971 0.037947256 -0.009031153 -0.057135172
-0.015278903 -0.019660058 -0.03833687 -0.040170956 0.019335486 -0.027990665 -0.016772369 0.006733238
-0.01168408 0.0141199045 -0.0452347 -0.020183679 0.014906714 0.00019968467 -0.009054677 0.010997792
-0.055963114 -0.040045638 -0.005131494 -0.012191746 0.050897334 -0.0046155974 0.021222502 0.03145203
0.056663197 0.010964015 -0.0008768628 0.020702604 0.024729092 -0.022471614 0.025342382 0.0035401292
0.008594586 0.003287671 0.031108715 0.0028045243 -0.045754798 -0.0055723526 0.013095293 0.0457539
0.035662018 0.010980067 -0.08351253 -0.003685919 0.012024034 -0.041166622 -0.004378617 0.033474505
0.042583354 0.04791624 0.051230174 0.10529175 0.10095562 0.018346192 0.052021462 -0.038739856
-0.03985952 0.0035114768 0.028689574 -0.00639532 0.01235292 0.0026290673 -0.032857098 0.00027685723

bias f4 [128]
00000000: 97f5 463e 1430 c5bc 3abb d93d dec6 213e
00000010: 4a12 5cbc 25e4 1139 c6ed 073e cf15 9f3e
00000020: 4c5b 043c 7da4 07bd c99b c6bb 5031 ac3d
00000030: d1ba b23d 8d2a e83d 23cc 913d a942 ca3c
00000040: 1c2f f43c f284 8d3e 3cda 4d3e 0ca0 a73c
00000050: 5d77 90bd 8212 c23c 1f5a 9b3d 3f26 e0bd
00000060: 0efb 293e 7255 173e 7cef 9c3c f85b 83bd
00000070: 6c5e 363e 1829 603c 0e4d 113d 0d85 933d
00000080: c531 ec3d 434b bd3d 0c57 b03d a6a5 9a3d
00000090: 8f06 593e 30c0 dabc 6c30 59bd 9f4e 963e
000000a0: 8034 2bbd 4c77 2b3e 4673 273e bf58 2d3c
000000b0: 32e7 3ebd 6330 953c fed9 04bd 74f1 b03c
000000c0: 3c59 3b3e 1549 c13b 1780 db3b 1ed0 dc3c
000000d0: 2038 6c3d c371 07bd 6570 f73c 4323 a23d
000000e0: f295 edbc 6582 3dbc 0c93 39bd 1318 ccbd
000000f0: 6624 9dbd a16b 8fbc db6e 733d df6a 303e
00000100: 6015 0a3e 54f3 e23d 7a61 193e 4e65 77bc
00000110: 9d30 5a3d 6a57 6f3c 46fa cabc 0791 bc3c
00000120: ca62 563e 6e65 1fbe abb4 493d bf43 b8bc
00000130: cb95 c53d 591e 813d 5fd2 ad3d abac 8537
00000140: 6150 fcbd 56cc 973d 2ef3 3a3d 142b 933d
00000150: 499e 0f3e ed69 db3d d71f 4bbc 482c 21bd
00000160: 2a4a 263d 2494 dcbd eac7 50bc f0dc 3b3d
00000170: 4b13 453e a3f3 6c3c 6dfb c73d 0186 b13d
00000180: 2482 0fbe a71d d1bd 6194 31be 8404 d4bd
00000190: 4ec6 ceb9 e9e7 d0bb 1ac1 853c 4a97 883d
000001a0: 3a91 2b3d 6224 ff3d d10b eb3b a5f2 8c3d
000001b0: 818b 973e 84ee 10bd 4192 423e 2e63 493e
000001c0: e2ef 763e 2991 aa3e 18c5 1a3d 11fb 44bb
000001d0: b434 263e e4a6 013e 8ce0 903c c103 433e
000001e0: fc54 f23c 32df 5f3e 1aeb 363e 6fb5 023e
000001f0: b8a8 b23d 0c65 ea3c fca1 cd3d 8f95 603d
0.19429623 -0.024070777 0.10631414 0.15798518 -0.013432095 0.00013913268 0.13274297 0.31071326
0.0080784075 -0.033115853 -0.0060610515 0.08407843 0.08727039 0.11336241 0.07119014 0.02468999
0.02980762 0.27640492 0.20102781 0.020462058 -0.07054017 0.023690466 0.075855486 -0.10944795
0.16599676 0.14778689 0.019157164 -0.06414026 0.17809457 0.0136816725 0.035473876 0.07203112
0.1153293 0.09242871 0.08610353 0.07551126 0.21193908 -0.02670297 -0.053024694 0.29356858
-0.041798115 0.16744727 0.16352567 0.010580241 -0.046607204 0.01821155 -0.032434456 0.021599509
0.18295759 0.0058986046 0.006698619 0.026954707 0.057670712 -0.033067476 0.030204961 0.07916882
-0.029002164 -0.011566733 -0.04530625 -0.09965529 -0.07672958 -0.017507376 0.059431892 0.17228268
0.13484716 0.110815674 0.1497859 -0.0150998365 0.053269017 0.0146082435 -0.024777543 0.023018373
0.20936123 -0.15566036 0.049244564 -0.022493241 0.09647711 0.063046165 0.08487391 1.593524e-05
-0.123200186 0.07412021 0.04564207 0.07185951 0.14025225 0.10713563 -0.012397728 -0.03934887
0.040598072 -0.10770443 -0.012742976 0.045865 0.19245641 0.014462384 0.097647525 0.08668137
-0.14014488 -0.10210734 -0.17341758 -0.10352424 -0.0003943913 -0.006375302 0.01632743 0.06669481
0.041886546 0.12458111 0.0071730395 0.06882218 0.2959862 -0.035383716 0.19001104 0.1966674
0.24114946 0.33313873 0.03778562 -0.0030056874 0.16231042 0.1266132 0.017685197 0.19044401
0.02958154 0.21862486 0.17863122 0.12764524 0.08723587 0.028612636 0.10040662 0.05483013

weight f4 [64, 128]
00000000: b527 053c 63c3 27bd d85a 39be cdc3 7cbd
00000010: fe07 d83c fe5d 8dbc caf4 95bd eb8b bc3d
00000020: 96ce f53d 5ccf 6c3d 29fb 4ebd 1b07 3c3e
00000030: e2cb 3ebd b4a7 063e fa28 003e 3338 8d3c
00000040: a672 95be 5723 973d 2bfe d43d 3df4 2c3e
00000050: 5a9f f7bd ab9e f3bc 12dc c4bc 5245 babc
00000060: 6f1a 5abe b90e 4fbe 3b2c 603d 6234 61bd
00000070: 098c 563d 97a1 90bd 8fcb ca3d aad1 773d
00000080: 51cd 34bd 54f1 853d 11cf bbbd 500e 71be
00000090: 58ad 613d 88ef c8bd 3d12 c53d a21a 4dbd
000000a0: 6a30 ad3d cbb1 8a3b e3b2 1c3e 9c20 783d
000000b0: cdc3 083e 82e1 cbbd eb1c 2e3b f5a9 2c3d
000000c0: 7936 df3c 10dc 97bd 313a 83bd f722 a1bd
000000d0: cbd8 673e ca3e 44bd 91b6 2ebd 7d81 2e3e
000000e0: 9b77 53be 02c3 0abe c324 59be 02e3 59bd
000000f0: 672e 773d 3721 a23d 3905 67bc dd07 28be
00000100: 0609 f23d 615a 0b3e 4215 a13e 182e 37be
00000110: c2c6 bd3c c6ec 3c3b 87f4 d4bd 15d1 343e
00000120: 8561 293e 2f52 383e 2f00 fe3d 8796 94bd
00000130: eee7 8f3d 6055 b8bb 115e ae3e 37ec 40bd
00000140: fd78 b13c e494 53be 8a9c 59bc cac7 74be
00000150: 8947 c13b 8d1f 0f3d 63cb 31bd a5b8 27bd
00000160: 152e d53d 5e8d 55bd 8cf6 8fbd 7068 f8bd
00000170: 269c 8e3d 3929 a8bd 9cb2 2d3d 0bfc a9bc
00000180: cb84 07bd 83a0 b2bd 002b 0f3d d431 3cbc
00000190: d702 953d d0f2 783d 1c94 9d3e 619c 26be
000001a0: a7df 77bd b38d 35bd 362d febb aebd f1bd
000001b0: 2322 543e 4fb1 61bc c089 1fbb 82b6 b73d
000001c0: 5df0 b33d 181f 2e3d cea4 103d 5eec d3bd
000001d0: de9d e13c 0c1c b9bc 80ff 453e 754a 9cbc
000001e0: 63ca 6c3b c819 febb e6fb eebc f8ab 013e
000001f0: f271 0bbd dcee 8bbd d989 f0bc a65f 0a3e
00000200: 74c1 1c3e ceeb c7bd 605b 0d3e 6859 49bd
00000210: 33c7 87bd 56bf 8abc 8ad3 3cbd d145 693e
00000220: 3f30 bdbb 2bc4 b3bd deb8 7abd 2e45 4a3d
00000230: a6b6 5c3d c50e 8b3c 5d42 30be 11a4 3e3d
00000240: da4a 2ebe 2952 503e 175c 31bd 7219 a3bd
00000250: 21ae 6e3d d6da 8ebd b6b4 4cbe 314d bdbd
00000260: fb15 6c3d ebf1 95bd 5ef6 ca3d 0c85 bbbc
00000270: 1d87 c3bd 0a62 583d b941 7ebc 1e21 053e
00000280: e2c2 443e dcbf 1cbd 68d8 febd 37e6 4fbd
00000290: d186 123e 6107 73be 4355 7cbd 0752 a43c
000002a0: a336 013e 1d94 a33d 4304 8f3e 4e53 e0bc
000002b0: 88d4 22be 0e1e fcbd 7068 3f3d 0d28 d13d
000002c0: 3a85 853d 02dc 4cbd deba 2cbc 2099 82bc
000002d0: 82d0 873d da8f 823d 6df9 a7bc c85d 9b3d
000002e0: a892 edbc 5b32 bb3d a770 40be d0aa 2abe
000002f0: 6049 0dbd c4e5 a33d ffac e03c dd10 6e3c
00000300: b47e 463d 553c a33d 0bc0 0a3b 75ee 95bd
00000310: e6ac 3a3a 656d 393c 1e4f d33d 5c19 223e
00000320: 24b4 a33d 4e99 a0bd b405 a23c 9a4c 19be
00000330: 9ba0 d9bc a0c1 863e 48f8 2dbd dc56 8abe
00000340: 93d7 dfbd 6f56 c8bd 5c8b a03d a920 abbc
00000350: dd21 e0bd e550 1e3e c48e 65bd 00a7 b23d
00000360: 2f16 e4bc 824e a8bc ed6a 81bd 4340 f73d
00000370: 7e49 7d3d 3cda 8fbc 4d6a 5dbd 3572 073e
00000380: 4ed7 0abe a89b 2c3d 5b50 c6bd d43b 23bd
00000390: c25a 19bc d9e0 473d 9245 e7bb 7cd6 8a3d
000003a0: 572b 7dbc b475 95bd 77f6 abbd ac55 743d
000003b0: 8123 223b b12a 4dbd 226f 103e c073 c83d
000003c0: ddc2 93ba 0949 8d3e 8f4d bfbb b82a 23be
000003d0: 9308 573c db66 d63d 928a 2c3e 5436 763c
000003e0: ef39 25bd 7034 3b3d 905a d53d 5035 023d
000003f0: 17a1 b7bc a7ce 2cbd 22e2 13bd 6f33 043d
0.008127143 -0.04095782 -0.1810106 -0.061710168 0.026370998 -0.017256733 -0.073220804 0.09206375
0.12002294 0.05781494 -0.050532494 0.18362086 -0.046581157 0.13149911 0.12515631 0.017238712
-0.29189032 0.073797874 0.10400041 0.16890045 -0.12090941 -0.029738745 -0.024030719 -0.022738133
-0.21299146 -0.2022046 0.05472968 -0.054981597 0.05237964 -0.07062071 0.09902107 0.060502686
-0.044141117 0.0654017 -0.09170354 -0.23540616 0.055096954 -0.09811312 0.09622619 -0.050074227
0.084565 0.0042326204 0.15302615 0.060577974 0.13355942 -0.099551216 0.002656753 0.04215427
0.027247654 -0.074150205 -0.064075835 -0.07867997 0.22641294 -0.047911443 -0.042654578 0.17041583
-0.20651095 -0.13550952 -0.2120543 -0.053195007 0.060346987 0.079164915 -0.014100366 -0.1640925
0.11818127 0.13608696 0.3146153 -0.17888677 0.023166064 0.0028827651 -0.103982024 0.17657883
0.16541107 0.180001 0.12402379 -0.07255273 0.07026659 -0.005625412 0.34056142 -0.047100272
0.021664137 -0.20662266 -0.013281951 -0.23904338 0.0058984202 0.0349422 -0.043406855 -0.040947575
0.1040918 -0.05213677 -0.07029447 -0.12129295 0.06963377 -0.082109876 0.042406663 -0.020750066
-0.033085626 -0.087220214 0.034953117 -0.011486489 0.07275932 0.06077844 0.3077706 -0.16270591
-0.060516026 -0.044324588 -0.0077568544 -0.11803757 0.20716147 -0.013775184 -0.002434358 0.089703575
0.0878608 0.042510122 0.03531342 -0.10347818 0.027541097 -0.022596382 0.19335747 -0.019078473
0.0036131374 -0.007754538 -0.029172849 0.12663257 -0.034044214 -0.06832668 -0.029362606 0.1351305
0.15308172 -0.09761773 0.13804388 -0.04915753 -0.06629791 -0.01693694 -0.046100177 0.22780539
-0.0057735736 -0.087776504 -0.06121146 0.04938238 0.053885125 0.016974816 -0.17212816 0.046543185
-0.17020741 0.20343842 -0.043300714 -0.07963838 0.05827153 -0.069753334 -0.19990811 -0.09243239
0.05763815 -0.07321533 0.09910272 -0.02289059 -0.09547255 0.052827872 -0.015518599 0.13000914
0.19214967 -0.03826891 -0.1244362 -0.05075666 0.14309241 -0.23733284 -0.06160475 0.020058645
0.12618499 0.07987235 0.2793294 -0.027383473 -0.15901387 -0.1231042 0.04673046 0.10212717
0.065195516 -0.050014503 -0.0105425995 -0.015942156 0.066315666 0.06375094 -0.020504678 0.07586247
-0.029000595 0.09140464 -0.18792973 -0.16666722 -0.034493804 0.08002809 0.027426241 0.014530388
0.048460677 0.07970492 0.0021171595 -0.07320873 0.0007121101 0.011317586 0.10317825 0.15829986
0.079933435 -0.078417405 0.01977811 -0.14970627 -0.02656584 0.263196 -0.042473108 -0.27019393
-0.109297894 -0.09782111 0.07839081 -0.020889597 -0.10943959 0.15460546 -0.056044355 0.08723259
-0.02784261 -0.020545248 -0.063192226 0.12072804 0.061837666 -0.017560117 -0.054056454 0.1322716
-0.13558695 0.042140633 -0.09683295 -0.03985198 -0.009360017 0.048798416 -0.007057854 0.06779191
-0.015452228 -0.07297841 -0.08396619 0.059652016 0.00247404 -0.05008954 0.14104894 0.097877026
-0.0011273284 0.27594784 -0.005838103 -0.15934265 0.013124603 0.10468837 0.16849735 0.015027601
-0.040338453 0.045704305 0.10417664 0.031789124 -0.02241568 -0.042189267 -0.03610433 0.032275613

bias f4 [64]
00000000: b698 903e 8e5c 493e 2d5b 723d 7109 3f3d
00000010: 5bf8 713d acf7 553c 44ac 713e 0a2e 4abd
00000020: 407e a23b 71cb 1a3e a924 a53e dedd 993d
00000030: be2a 403e 0672 fbbd 0a4f 50ba 72d1 573e
00000040: 8e44 8fbd 8e81 e03c 8eb5 89bd d64e ab3d
00000050: cc68 893d 6b60 153e 9eee d53d 7319 52bd
00000060: 1b5e 933c 9a2a 923d 3a9c de3d 2b80 803d
00000070: f856 0c3d 7e98 3a3e a663 293e eca1 8e3d
00000080: b93b 03be ff82 ebbc 380a 50bd 8ade ab3c
00000090: 852e bd3d f52a 823e 59cb 1f3e e657 813d
000000a0: 30d3 ae3e 8816 013e ff28 2c3e 267e 8dbd
000000b0: 9137 773e ab08 36bd 563a 603d 6990 393e
000000c0: 16ae 10be 08a2 ce3d adaa 5cbd 97ea 383e
000000d0: 206c 443e 3a14 b5bd cd97 d13d 7522 033e
000000e0: 6bdd f23b 972c f13b 324f e1bc d7e5 973d
000000f0: 1125 8f3e c4c0 703e a7ba 283e 8479 333e
0.2824151 0.19664213 0.059168983 0.046639863 0.05907474 0.013059538 0.2360087 -0.049360313
0.004958898 0.15116669 0.32254532 0.07513021 0.18766305 -0.122776076 -0.0007946348 0.21075991
-0.06995498 0.027405526 -0.06724082 0.08364646 0.067094415 0.14587562 0.10445903 -0.0512938
0.017989209 0.07137032 0.108696416 0.06274446 0.034262627 0.18222234 0.16541919 0.06964478
-0.12815751 -0.028748987 -0.050790995 0.020980138 0.092373885 0.254234 0.15604915 0.063155934
0.34145498 0.12606251 0.16812514 -0.069088265 0.2414229 -0.04444186 0.054743133 0.18121494
-0.14128909 0.10089499 -0.053873707 0.18058239 0.19181871 -0.088417485 0.10234032 0.12806113
0.007411649 0.007360052 -0.027503584 0.07416885 0.27957967 0.23511034 0.16477452 0.17526823

weight f4 [10, 64]
00000000: 91c2 86be 7105 15be 9352 9e3c 48ba c93e
00000010: 6cf6 7abe a81c 4cbe 6b35 aabe cfef 3ebe
00000020: babc 60bd 0b2a 9ebe 97b5 ff3d 903d a5be
00000030: be13 833c 6a1e 583e 26f1 b83d 39b8 d1bd
00000040: 42cc 25bd 9c9d 8dbe 6bc7 e33d 64bc a2be
00000050: 92f1 fdbd 4c7d d23c dc3c 9a3e 4628 e6bd
00000060: fc0e 043e d008 9dbe 1749 bd3d 9a15 d5bd
00000070: 1aae aebe a706 a73e cfbb 9b3c 01fc c0be
00000080: 1f36 42bd c68a ccbc c9a0 943d f818 b0ba
00000090: 4320 593e 8c56 d0bd 48cb 813e f695 853d
000000a0: bbba 363e f171 cf3e 79ef 78be e193 0d3d
000000b0: 97ca 6f3e 4d3a 4a3d cc32 c43e 6ee8 a43e
000000c0: 1542 a83e 5ad5 1c3e fac6 a33d 5a9d 8f3b
000000d0: 7362 7d3e c46e c93d 75a6 193e 11ad bc3e
000000e0: 6047 a0be 20be aabe 9982 383e 3f89 6b3e
000000f0: bab9 4f3e 85e5 a0be 72ff 033f 5d43 493e
00000100: 7e73 873d 8939 42be 9d61 113d db30 c5be
00000110: 82e9 b73e 6ad1 02bd 0169 cebe 5ae0 d2be
00000120: 0c84 17be d811 fabc ac0d cabd 9c4d 93be
00000130: 22eb 123d ea52 013d 4dfd d13e 76a2 3abd
00000140: 21f9 26bd a03d 30be 5740 45bd 8352 0ebe
00000150: 687c a5bd 7ce2 a93e 0d12 b8be cbba 65bd
00000160: a43e 88bc 0be0 273f dc3e 013f 7f33 4c3c
00000170: f71a 513e 6247 e23e 9096 fb3c d226 05be
00000180: ec60 c9bd 0443 5d3e 4668 de3d 4653 07be
00000190: b795 f53d 5a6f 813d 8a77 55be 137d 393e
000001a0: 977e 5b3e b9e9 8cbe 7e7f 35be 00fd b1be
000001b0: 1ebd bf3e 9d26 cebc 1b36 2c3f ab15 d2bc
000001c0: 0ce0 53be c124 553e 1729 fd3d d181 f93c
000001d0: 8f47 07be 4021 e2be 88ed 103e ffd4 a13e
000001e0: aa71 dbbe 00c0 5f3e 510b 743e 9525 4d3e
000001f0: bc17 08bf 9059 8bbe 7e70 95be b51f b7be
00000200: 9341 cb3e 3097 06bf 6e8a 993d 362b a5be
00000210: 04a9 4d3e 8107 c3bd 2d43 273e fb30 823e
00000220: c8de c3be 0dd4 ebbe 872e 20bf e67a 6d3e
00000230: d8af d33d 00db ffbd c436 88be 3b95 93be
00000240: b74b e33d b7a8 143d bb42 ae3d 55db 1bbe
00000250: c850 2b3e e27d 2f3e 0a6a 683e 889a 99bd
00000260: 87d6 aebe 76cb 993e ca0b 90bd ee9a b53e
00000270: 0ff6 933e 5e31 d43e 371e 0bbe 08be 91be
00000280: b425 8bbe 45eb b8bc d088 31bd 4b2b 153e
00000290: 5f0c 593e 9095 e23e 3320 6c3e 604c cbbc
000002a0: 67c6 043e 6b39 c03e 3ca1 b9be 2225 eabe
000002b0: e786 183e 3754 a7bc 0662 82bc 64bb ab3e
000002c0: 9676 70be e747 453e b4da 923d c7c6 48bc
000002d0: e15e b0be 7983 d83d 99dd 02bf be52 0cbf
000002e0: 3736 4c3e 9eb5 873e bb0e 573e 05fe 633e
000002f0: f023 273e d86a 8e3e aca5 cb3e 56d2 5f3e
00000300: 9233 b2be 062c a2be 327b b93d e76c a93e
00000310: f520 8b3e 9c76 68bd 1f9c b63e 7e60 b83d
00000320: 7e3e e0bd 5eb0 ee3d dd94 b83e 40c6 55be
00000330: 9fd1 14be c566 4abe b3a3 9f3e 8d62 0ebd
00000340: ca05 f2ba 4aef 323e 12f0 3bbc 8520 9a3e
00000350: ed96 2cbe 9633 e13d a08f ecbe eee8 e43d
00000360: 9db3 8c3e 98c6 1bbe 8907 803e 71c4 593e
00000370: be57 e3be 8266 a63d c2be e3bd 35e4 e73e
00000380: ba5c b1be c5e9 6b3d 559b 88bd caea af3e
00000390: 53c1 5c3e 6e15 cbbd d885 09bf 2fd1 dabd
000003a0: 37d7 373e 397d 7b3e 636d 97be 7318 8fbe
000003b0: a253 853e 75f5 51bd e17a 98be 4f44 ae3c
000003c0: ebf7 cdbe e0a5 173e ec0b d33d 5201 c7bd
000003d0: 1127 99be cf9e 0e3e 0b0c 9b3e 82af 613e
000003e0: f297 d23d 584d 733e 4afc ecbe 67ee 573e
000003f0: 6deb cf3d b3bc b6be b871 4e3e 4646 243e
-0.26320317 -0.14552857 0.019326484 0.39399934 -0.24508065 -0.19932806 -0.3324388 -0.18646167
-0.054867484 -0.3089145 0.124858074 -0.3227353 0.016000625 0.21105352 0.090303704 -0.10240216
-0.040478 -0.2765931 0.1112202 -0.31784356 -0.123995915 0.025694512 0.30124557 -0.1123815
0.12896341 -0.30670786 0.092424564 -0.10404511 -0.34117204 0.32622263 0.019010453 -0.37692264
-0.047414895 -0.024968516 0.0725723 -0.0013435176 0.21203713 -0.101727575 0.25350404 0.065227434
0.1784467 0.40516618 -0.24310102 0.034564856 0.23417126 0.049372006 0.38320005 0.3220858
0.32862917 0.15315762 0.07996936 0.0043827714 0.24744587 0.0983558 0.15004905 0.3685079
-0.31304455 -0.3334818 0.18018569 0.23001574 0.20285693 -0.3142511 0.51561654 0.19654603
0.06613825 -0.1896726 0.035493482 -0.38513836 0.3592034 -0.031937994 -0.40314487 -0.41186792
-0.14796466 -0.030526087 -0.09865889 -0.2877015 0.03586877 0.031573214 0.41013566 -0.04556509
-0.04076493 -0.17211008 -0.048157062 -0.13898663 -0.08080369 0.33180606 -0.35951272 -0.056086343
-0.016631432 0.6557624 0.5048654 0.0124634495 0.20420443 0.44195086 0.030711442 -0.1300309
-0.098329395 0.21607596 0.10859732 -0.1321536 0.119914465 0.06320067 -0.20846382 0.18114118
0.21435009 -0.27522066 -0.17724416 -0.34763336 0.37448972 -0.025164897 0.6727006 -0.025645098
-0.20690936 0.20814802 0.12361353 0.03045741 -0.13210891 -0.44165993 0.14153111 0.31607816
-0.42860156 0.21850586 0.23832442 0.20033868 -0.53161216 -0.27216768 -0.29187387 -0.35766378
0.39698467 -0.52574444 0.074971065 -0.3225953 0.20084006 -0.09522916 0.1633422 0.25427994
-0.38255906 -0.4606022 -0.62570995 0.23191413 0.10336274 -0.12492943 -0.26604283 -0.2882479
0.11098426 0.03629371 0.085088216 -0.15220387 0.16730034 0.17137864 0.226967 -0.075001776
-0.34148046 0.3003804 -0.070334986 0.35469764 0.28898665 0.41443914 -0.13585745 -0.28465295
-0.27177203 -0.022573123 -0.043343365 0.14567296 0.21196125 0.44254732 0.23059158 -0.024816692
0.1296631 0.37543806 -0.36255825 -0.45731455 0.14895211 -0.020425899 -0.015915882 0.33541405
-0.23482737 0.1926571 0.071706206 -0.012254423 -0.34447387 0.105719514 -0.5111938 -0.54813755
0.19942556 0.2650575 0.21001713 0.2226487 0.16322303 0.2781589 0.39774835 0.2185758
-0.3480497 -0.31674212 0.09056701 0.33090898 0.27173582 -0.05675374 0.35665986 0.090027794
-0.109494194 0.11654733 0.36051074 -0.20876408 -0.14533089 -0.19765766 0.3117958 -0.034761954
-0.001846486 0.17474094 -0.011470811 0.30102935 -0.16854449 0.10996167 -0.46203327 0.1117724
0.27480784 -0.15212476 0.2500575 0.21266343 -0.4440288 0.081250206 -0.111203685 0.45291296
-0.34641057 0.057595987 -0.06670252 0.34358817 0.21558122 -0.09916197 -0.53719854 -0.1068443
0.17953192 0.24559487 -0.29575643 -0.2794834 0.2604037 -0.051259477 -0.2978125 0.021272806
-0.4022821 0.1480937 0.10305008 -0.09717049 -0.29912618 0.13927768 0.30282626 0.22039607
0.102828875 0.23759973 -0.4628623 0.21087037 0.10152326 -0.3569084 0.20160568 0.16042432

bias f4 [10]
00000000: aec1 1f3e 857b 873b 5a62 03be 7b35 a03e
00000010: 29c7 9bbe 69eb 513f abe9 883d 3ac0 5b3e
00000020: 4def c3be c3db e2be
0.15601227 0.0041345977 -0.12830487 0.31290802 -0.30425385 0.8199983 0.06685194 0.21460047
-0.3826851 -0.4430829
