models/conf_1.pt (torch, 441470 bytes, 6 tensors)

weight f4 [128, 784]
-0.017957104 -0.013434978 0.024692273 -0.010135524 0.024424074 -0.013399664 -0.030184576 -0.02705344
0.011168738 -0.0010074283 0.020802505 -0.03942834 -0.0378493 -0.02667002 -0.05245904 0.011300768
-0.023206092 -0.022507502 0.018441943 0.007238296 0.031508345 0.037170373 -0.0018696054 0.028123045
0.013304443 -0.0066082603 -0.033382725 0.029884735 -0.008361998 -0.024718417 0.03097658 0.029818455
0.012607494 0.009845926 0.03457673 0.007731988 -0.017487668 0.02240007 -0.002618852 -0.0436661
0.015121158 0.0036884095 -0.045378435 -0.030692417 -0.009148453 -0.018061621 -0.00012593022 0.044220008
0.04286819 -0.019065375 -0.009733739 0.037512947 0.026093978 -0.008405448 -0.026509082 -0.013347174
-0.03321805 0.021763261 0.0005196738 -0.0074928855 -0.00956621 -0.024882799 -0.009715908 -0.0241639
0.012990796 -0.018818574 -0.00092028046 0.0017927338 -0.0059148464 0.009035261 -0.037819706 0.0029750946
-0.023667969 -0.032942254 0.015261209 -0.014975969 0.02794129 0.043844394 0.024783535 0.008373728
0.034952823 -0.027550837 0.015301958 -0.022382686 0.0104546985 -0.019934967 0.02311848 0.0008354212
0.03271659 -0.028610181 0.029371036 0.00088965514 0.036878772 -0.034737624 -0.04696065 0.019031843
-0.040335957 -0.015118571 0.006950357 -0.027177537 -0.0022077707 -0.017746137 -0.01668109 0.026035456
0.014489925 -0.005879268 0.00031761982 -0.0040457016 0.02760251 0.02265405 -0.0054434836 0.015447162
0.0068318467 0.034287516 -0.011324277 0.011698959 0.014724111 0.0018371075 -0.014752786 0.0012638796
-0.011243893 0.011028292 0.01312028 0.019195545 0.008429942 0.015682565 -0.008790873 -0.010368828
-0.027934518 0.02336389 0.0041498146 -0.0033844868 0.046569157 0.037892953 0.0075609484 0.024317095
0.030854832 -0.0040235543 -0.004037383 -0.026369503 -0.01922992 -0.024233408 0.00047722485 0.030006519
-0.026839202 -0.027108924 -0.021478692 0.033799093 -0.025542175 0.009063658 0.017113537 -0.05002044
0.010898809 0.012993559 -0.0039600935 0.012025786 -0.024512941 -0.014436189 0.022145707 0.025130432
0.024573049 0.01702308 -0.0014194977 0.019936612 0.046959862 0.044767734 -0.0115350075 0.0009956135
-0.008458565 0.028119784 0.035052653 0.033432953 -0.017765747 -0.016506834 0.024235373 0.015186753
-0.006828829 -0.0077951504 -0.009430335 -0.002985111 0.0018306896 -0.0077448254 -0.0010100937 -0.023641028
2.0554677e-05 0.029884718 -5.1417783e-06 -0.0077915573 0.012060723 0.04929099 0.048054315 0.01527569
-0.0016103914 0.021839134 0.009762019 0.013884831 0.022603652 0.0054509006 -0.027204763 0.03175343
0.003295186 0.026258782 0.018615615 -0.028004734 -0.026515028 -0.011748259 -0.041775275 -0.03308289
-0.015051633 -0.016319947 -0.019143378 0.024912136 -0.0022031213 0.033926193 0.012865362 0.010280253
0.021813307 0.029649861 0.054995667 0.032196574 0.032851823 0.06451194 0.015631158 0.017202586
-0.0019230429 0.0010783526 0.015365541 0.0034204484 -0.012434978 -0.033798717 0.010717365 0.01664671
-0.013665275 0.009599076 -0.026071016 0.014402736 -0.0150933135 -0.017018298 0.006709576 0.007963055
0.03817966 0.014284388 -0.026137827 0.02524731 0.019216035 0.006096581 0.047057196 -0.0047948877
0.044948664 -0.0019264268 0.04684482 0.024397902 -0.029936137 -0.016020713 0.005134014 0.00047565583
00000000: c71a 93bc 621e 5cbc 7347 ca3c 780f 26bc
00000010: ff14 c83c 448a 5bbc a545 f7bc 2d9f ddbc
00000020: 15fd 363c af0b 84ba 046a aa3c 9c7f 21bd
00000030: de07 1bbd 167b dabc 4adf 56bd db26 393c
00000040: b41a bebc a761 b8bc 8f13 973c 3a2f ed3b
00000050: e50e 013d f63f 183d 8c0d f5ba 4d62 e63c
00000060: e1fa 593c 1b8a d8bb 53bc 08bd d5d0 f43c
00000070: c300 09bc 477e cabc 99c2 fd3c d545 f43c
00000080: aa8f 4e3c cf50 213c 54a0 0d3d 9e5c fd3b
00000090: 4c42 8fbc 5a80 b73c 0ca1 2bbb 39db 32bd
000000a0: bcbe 773c 3eb9 713b bdde 39bd aa6e fbbc
000000b0: 65e3 15bc f7f5 93bc 230c 04b9 0a20 353d
000000c0: 8e96 2f3d fd2e 9cbc 437a 1fbc 2da7 193d
000000d0: 0ac3 d53c 01b7 09bc 9329 d9bc 1bae 5abc
000000e0: a60f 08bd de48 b23c b83a 083a e186 f5bb
000000f0: 98bb 1cbc 03d7 cbbc 792f 1fbc 5ff3 c5bc
00000100: 59d7 543c 6929 9abc fa3e 71ba 2afa ea3a
00000110: 54d1 c1bb a208 143c d6e8 1abd cef9 423b
00000120: 54e3 c1bc 75ee 06bd 260a 7a3c c45d 75bc
00000130: 22e5 e43c 2e96 333d d706 cb3c f631 093c
00000140: b12a 0f3d 4bb2 e1bc 10b5 7a3c e55b b7bc
00000150: 2f4a 2b3c a84e a3bc f762 bd3c 2b00 5b3a
00000160: d501 063d e65f eabc 879b f03c bf37 693a
00000170: 320e 173d 0a49 0ebd cf59 40bd abe8 9b3c
00000180: 5137 25bd e2b3 77bc d2bf e33b 6da3 debc
00000190: 3fb0 10bb 5960 91bc c8a6 88bc 4f48 d53c
000001a0: 2667 6d3c e0a6 c0bb 3686 a639 ce91 84bb
000001b0: a91e e23c fc94 b93c 405f b2bb 1816 7d3c
000001c0: afdd df3b 1171 0c3d 7689 39bc feac 3f3c
000001d0: 663d 713c 19cb f03a abb5 71bc c3a8 a53a
000001e0: 4e38 38bc 02b0 343c 71f6 563c fa3f 9d3c
000001f0: bd1d 0a3c b978 803c 9807 10bc 04e2 29bc
00000200: eed6 e4bc a165 bf3c 2bfb 873b 44ce 5dbb
00000210: 4dbf 3e3d a435 1b3d d5c1 f73b a534 c73c
00000220: 46c3 fc3c 05d8 83bb 064c 84bb db04 d8bc
00000230: 1188 9dbc 2485 c6bc 0934 fa39 3bd0 f53c
00000240: e3dd dbbc 8913 debc 15f4 afbc eb70 0a3d
00000250: d33d d1bc bd7f 143c b031 8c3c 3ce2 4cbd
00000260: eb90 323c f0e2 543c acc3 81bb cd07 453c
00000270: 5dcf c8bc c485 6cbc ea6a b53c 56de cd3c
00000280: 6b4d c93c fc73 8b3c 700e baba 1b52 a33c
00000290: fc58 403d 5f5e 373d 54fd 3cbc 3f7f 823a
000002a0: cb95 0abc 765b e63c 5f93 0f3d fef0 083d
000002b0: 7989 91bc 5739 87bc 4389 c63c dcd1 783c
000002c0: 5fc4 dfbb 766e ffbb b181 1abc daa1 43bb
000002d0: c0f3 ef3a 4ec8 fdbb 1f65 84ba d4aa c1bc
000002e0: d56c ac37 ccd0 f43c 8a87 acb6 5250 ffbb
000002f0: 579a 453c 59e5 493d 9ad4 443d e346 7a3c
00000300: c513 d3ba fce7 b23c e0f0 1f3c 347d 633c
00000310: 4b2b b93c 789d b23b 86dc debc e20f 023d
00000320: 0cf4 573b a81c d73c c67f 983c 2f6a e5bc
00000330: 0b36 d9bc c57b 40bc 8d1c 2bbd ed81 07bd
00000340: 209b 76bc 69b1 85bc 93d2 9cbc 8914 cc3c
00000350: 3e62 10bb 31f6 0a3d 3dc9 523c 826e 283c
00000360: d2b1 b23c 44e4 f23c 2343 613d 8ee0 033d
00000370: a28f 063d d61e 843d ea0c 803c 70ec 8c3c
00000380: 9d0e fcba 8257 8d3a c0bf 7b3c 9a29 603b
00000390: 14bc 4bbc 8670 0abd e397 2f3c ae5e 883c
000003a0: 51e4 5fbc 7145 1d3c e292 d5bc 74f9 6b3c
000003b0: f249 77bc f569 8bbc 01dc db3b 7977 023c
000003c0: 4662 1c3d 1109 6a3c ff1e d6bc 72d3 ce3c
000003d0: f26a 9d3c d4c5 c73b 0cbf 403d 6f1e 9dbb
000003e0: 171c 383d 2880 fcba 5be0 3f3d 1cde c73c
000003f0: a13c f5bc df3d 83bc 3b3b a83b 7261 f939

bias f4 [128]
0.021557732 0.0373254 0.035982016 0.005956143 0.087273605 0.0093980925 -0.0084010465 -0.02995309
0.018255983 -0.026258895 0.08049027 -0.07023356 0.031833112 0.011229992 0.02296202 0.08181248
0.034569804 -0.02136205 0.12567483 0.031993903 -0.01875544 0.011645201 0.09496393 -0.027071312
0.110726096 0.002127643 0.06271162 -0.008872765 0.021333171 0.02258224 0.067214616 0.08759135
0.036875926 -0.01226862 -0.023511803 -0.046636112 0.078244105 -0.016487045 0.04465043 0.007701114
0.009112352 -0.032873318 0.014021294 0.032229807 0.00039015105 0.010505602 -0.050389644 -0.0059442692
0.06852285 0.04883823 -0.013093377 0.017486561 -0.015298183 -0.013693535 -0.06043177 0.0123620555
-0.0067008906 -0.038061645 0.067726396 0.06970754 -0.00704111 0.049680226 -0.010721793 0.0847964
0.045745466 0.006282922 -0.021188011 0.026849294 0.005924608 0.008579517 0.05642885 0.0142226
-0.04258752 0.0021762468 0.04468017 0.09616595 0.013667154 0.023447225 0.0022992585 0.0183449
0.040045224 -0.013525831 0.04632123 0.01581311 -0.00025291595 0.07810673 0.01683093 0.024137478
-0.071623735 0.031328373 0.014421356 0.077793434 0.03000231 0.023705887 0.014595689 -0.0016970298
0.028496234 0.045767985 -0.049310807 0.003678038 0.030478666 -0.04548008 -0.00920092 0.021801699
0.018992957 -0.00339804 0.016455691 0.057888318 -0.033971142 0.0022130986 0.009312392 0.025043244
0.0075050597 0.006037665 0.04170355 0.00053407426 0.020356243 0.038926996 -0.0019244823 0.031229272
0.027359558 -0.047353297 -0.025216827 0.092095435 -0.036007166 0.007956527 -0.035413306 0.04582772
00000000: d799 b03c 85e2 183d e161 133d c02b c33b
00000010: 81bc b23d 75fa 193c 8ba4 09bc 2f60 f5bc
00000020: 928d 953c e51c d7bc 15d8 a43d 9dd6 8fbd
00000030: 7063 023d 00fe 373c d91a bc3c 4d8d a73d
00000040: 1199 0d3d 77ff aebc e7b0 003e 0a0c 033d
00000050: 02a5 99bc 83cb 3e3c 737c c23d a8c4 ddbc
00000060: 5dc4 e23d ed6f 0b3b f36e 803d 135f 11bc
00000070: e7c2 ae3c 64fe b83c d1a7 893d 1863 b33d
00000080: 360b 173d 5202 49bc d39b c0bc 8205 3fbd
00000090: 723e a03d d70f 87bc 5fe3 363d a059 fc3b
000000a0: f94b 153c 2ca6 06bd 92b9 653c 6703 043d
000000b0: 308d cc39 b01f 2c3c 5f65 4ebd 25c8 c2bb
000000c0: b555 8c3d 990a 483d 9b85 56bc fa3f 8f3c
000000d0: 3ba5 7abc d95a 60bc 4e87 77bd 388a 4a3c
000000e0: 2593 dbbb 87e6 1bbd 23b4 8a3d d4c2 8e3d
000000f0: 1db9 e6bb 7e7d 4b3d 76aa 2fbc bca9 ad3d
00000100: 995f 3b3d f8e0 cd3b 7b92 adbc 0df3 db3c
00000110: 3723 c23b 1a91 0c3c f021 673d e805 693c
00000120: 4070 2ebd 5d9f 0e3b 8e02 373d a7f2 c43d
00000130: 33ec 5f3c 6514 c03c 28af 163b 0b48 963c
00000140: 7606 243d 729b 5dbc 54bb 3d3d 7f8a 813c
00000150: ce99 84b9 6cf6 9f3d 05e1 893c f6bb c53c
00000160: 77af 92bd 2e52 003d 8d47 6c3c 2a52 9f3d
00000170: 68c7 f53c d932 c23c c222 6f3c df6e deba
00000180: ef70 e93c 3677 3b3d 21fa 49bd 3d0b 713b
00000190: 65ae f93c 5249 3abd 75bf 16bc 7a99 b23c
000001a0: 1e97 9b3c a7b1 5ebb 16ce 863c 4d1c 6d3d
000001b0: 5325 0bbd a209 113b 0193 183c 7d27 cd3c
000001c0: 01ed f53b 9bd7 c53b 57d1 2a3d 1e01 0c3a
000001d0: 23c2 a63c ea71 1f3d e93e fcba 88d4 ff3c
000001e0: 2721 e03c 88f5 41bd 8593 cebc 889c bc3d
000001f0: 407c 13bd 185c 023c 8b0d 11bd d9b5 3b3d

weight f4 [64, 128]
0.037933286 0.039709184 -0.03567655 0.053710844 -0.005741009 -0.003588474 0.017068777 -0.12014967
0.042639315 -0.081568904 -0.0046442575 -0.051905066 -0.072838575 -0.031294703 -0.033883445 -0.044538252
-0.03647673 0.1153475 0.076292455 0.047487408 -0.063197166 -0.066669926 -0.03263218 0.02386341
0.044441156 -0.070216455 0.03572568 0.027608875 -0.08512976 0.079202056 -0.03158375 0.01936725
-0.09671924 -0.076266035 0.08613617 0.07156832 0.067937575 0.009121522 0.049540233 0.044955824
-0.07466788 -0.06621576 0.07166836 -0.036650974 0.008787978 0.0719159 0.09930484 -0.06911526
0.057273127 0.040640783 0.061991047 0.11564172 -0.06057849 -0.015740698 -0.03535334 -0.10545391
-0.08877717 -0.027982444 0.041648496 0.04666583 0.12563787 -0.03100319 0.064157635 -0.06245507
0.088570684 0.13627782 0.058562998 -0.07559759 -0.078955404 -0.07097148 -0.062972754 0.0036934393
0.115954794 0.105461456 -0.068084374 0.09591391 0.055174924 0.07349336 -0.041660383 0.03944921
0.010468926 -0.07898419 -0.057796083 0.018058544 0.07751212 -0.016942237 -0.03738375 0.03668983
0.07959732 -0.02951484 0.08111369 0.062144447 0.06278432 0.07373671 0.014326702 0.048354816
0.038840473 0.04886617 0.015625173 0.073107824 -0.046429735 0.08673445 -0.019450866 -0.04886919
0.032149177 -0.11949345 -0.04853408 0.083278045 -0.0072501674 0.048447184 -0.08514481 0.031087205
-0.009259571 -0.026486104 0.057493214 0.0033241042 0.060044374 0.058458567 0.07668187 -0.086991996
0.06096393 0.025166983 -0.046189953 -0.00419339 -0.006287914 0.009263759 -0.08345167 0.016151814
-0.16538401 0.091664314 0.009308751 -0.0029486541 0.016066082 0.054603048 -0.01764977 -0.06783635
0.01759143 -0.06933743 -0.1521097 0.0091258325 -0.10904469 0.013865575 -0.055925604 -0.03713119
-0.027958097 0.1457564 0.0604411 0.0627914 -0.04611314 0.01743035 -0.12453734 0.0793953
0.042024825 -0.07246476 0.07723333 -0.02172932 -0.11469064 0.12424139 -0.021316534 0.028674455
-0.06512944 0.019328713 0.0010514898 0.060457822 -0.0107543785 0.033182666 0.07723167 0.015177233
-0.10214655 -0.00058992003 -0.046989415 0.11265292 0.06937941 -0.0012806425 0.048613682 0.076739706
0.028168663 0.0675809 0.08103694 0.079053134 -0.0234102 -0.094026394 -0.046273123 -0.07184471
0.014796913 0.057988245 -0.09242587 0.07822214 0.06989424 0.031925067 0.12610161 -0.18804343
-0.12089645 0.12693326 0.07622355 -0.015996939 -0.06340834 -0.0927301 -0.13508148 0.115743086
-0.06765407 -0.055143997 -0.013484251 0.024073407 0.052152313 -0.048136547 0.014204019 0.056660548
-0.0054343636 0.069463514 0.040999442 0.02135018 0.06860857 0.019452881 -0.05001696 0.106039636
-0.08668806 0.024624834 0.07629751 -0.0782771 0.048079453 0.046712637 0.034846522 -0.057458743
0.07233745 -0.022522485 0.16893424 0.041332625 -0.17944738 0.039911035 -0.026777731 0.07517692
-0.09769807 0.035154317 0.024529539 0.098488934 0.030494276 0.04017607 0.046411507 0.05797336
-0.0005694635 -0.06942076 0.11785016 0.0583618 0.08210313 -0.03401488 0.07487091 -0.092880495
-0.027710088 0.15792675 0.05667973 0.064480804 0.06641303 0.077246554 0.06324427 -0.040308315
00000000: ef5f 1b3d 19a6 223d 9321 12bd e7ff 5b3d
00000010: 131f bcbb 9a2c 6bbb d2d3 8b3c 0811 f6bd
00000020: 90a6 2e3d 990d a7bd db2e 98bb 689a 54bd
00000030: 642c 95bd e02e 00bd 5ec9 0abd be6d 36bd
00000040: a068 15bd 4f3b ec3d 383f 9c3d 2882 423d
00000050: 846d 81bd 3e8a 88bd 52a9 05bd 337d c33c
00000060: ee07 363d a5cd 8fbd 1755 123d 022c e23c
00000070: 8358 aebd b034 a23d f65d 01bd 11a8 9e3c
00000080: bd14 c6bd 5e31 9cbd 2968 b03d 6992 923d
00000090: db22 8b3d 7072 153c b3ea 4a3d 9923 383d
000000a0: 79eb 98bd 219c 87bd dcc6 923d 551f 16bd
000000b0: 74fb 0f3c a548 933d 5660 cb3d 4d8c 8dbd
000000c0: 3a97 6a3d f376 263d 53ea 7d3d 91d5 ec3d
000000d0: 2721 78bd a3f2 80bc aace 10bd 38f8 d7bd
000000e0: ced0 b5bd 703b e5bc 9d97 2a3d ab24 3f3d
000000f0: 37a7 003e 67fa fdbc 1465 833d e3d0 7fbd
00000100: 8c64 b53d 6a8c 0b3e c1df 6f3d e9d2 9abd
00000110: 5fb3 a1bd 7f59 91bd dcf7 80bd a10d 723b
00000120: b579 ed3d 2dfc d73d d26f 8bbd 836e c43d
00000130: 1aff 613d b083 963d 14a4 2abd 7f95 213d
00000140: dc85 2b3c 77c2 a1bd 96bb 6cbd 83ef 933c
00000150: adbe 9e3d 72ca 8abc b41f 19bd 1348 163d
00000160: eb03 a33d 1bc9 f1bc ef1e a63d 2d8b 7e3d
00000170: 1195 803d 4603 973d 8bba 6a3c b30f 463d
00000180: 3017 1f3d e527 483d 5d00 803c 8eb9 953d
00000190: 1b2d 3ebd d5a1 b13d 6c57 9fbc 0f2b 48bd
000001a0: dbae 033d fbb8 f4bd accb 46bd ae8d aa3d
000001b0: d092 edbb 8e70 463d 6760 aebd 98aa fe3c
000001c0: 75b5 17bc 63f9 d8bc 017e 6b3d 37d9 593b
000001d0: 17f1 753d 4072 6f3d 620b 9d3d dc28 b2bd
000001e0: 50b5 793d fd2a ce3c ad31 3dbd b468 89bb
000001f0: d80a cebb 05c7 173c b6e8 aabd cf50 843c
00000200: 6d5a 29be 80ba bb3d bb83 183c 353e 41bb
00000210: 049d 833c 72a7 5f3d 4096 90bc c9ed 8abd
00000220: e71b 903c c800 8ebd a5c2 1bbe 8484 153c
00000230: d352 dfbd 702c 633c 3f12 65bd e016 18bd
00000240: 6108 e5bc 2a41 153e 1691 773d c798 803d
00000250: 22e1 3cbd 18ca 8e3c 6f0d ffbd 019a a23d
00000260: 3922 2c3d 6768 94bd 822c 9e3d b001 b2bc
00000270: ede2 eabd 4572 fe3d 03a0 aebc b1e6 ea3c
00000280: 9562 85bd 4057 9e3c 25d2 893a 9fa2 773d
00000290: 2233 30bc 8cea 073d a32b 9e3d eea9 783c
000002a0: 3632 d1bd dda4 1aba f977 40bd 93b6 e63d
000002b0: cb16 8e3d 3bdb a7ba 241f 473d b529 9d3d
000002c0: f8c1 e63c db67 8a3d b2f6 a53d 9ce6 a13d
000002d0: bfc6 bfbc e990 c0bd e388 3dbd 5223 93bd
000002e0: c06e 723c 1585 6d3d c649 bdbd ee32 a03d
000002f0: b624 8f3d dcc3 023d c820 013e 758e 40be
00000300: 8f98 f7bd cbfa 013e 181b 9c3d 030c 83bc
00000310: 3bdc 81bd 47e9 bdbd cd52 0abe b60a ed3d
00000320: 388e 8abd acde 61bd 0ced 5cbc 9835 c53c
00000330: aa9d 553d d42a 45bd f9b7 683c e414 683d
00000340: bf12 b2bb e342 8e3d 08ef 273d 93e6 ae3c
00000350: a682 8c3d a65b 9f3c 95de 4cbd 4f2b d93d
00000360: 8289 b1bd 05ba c93c de41 9c3d bf4f a0bd
00000370: f6ee 443d c055 3f3d 3abb 0e3d dc59 6bbd
00000380: a825 943d 1381 b8bc 19fd 2c3e 664c 293d
00000390: 0ec1 37be c179 233d f95c dbbc 5bf6 993d
000003a0: ed15 c8bd f9fd 0f3d 2cf2 c83c 91b4 c93d
000003b0: 22cf f93c aa8f 243d fe19 3e3d 7975 6d3d
000003c0: 0c48 15ba 792c 8ebd 6d5b f13d c80c 6f3d
000003d0: b025 a83d 3053 0bbd eb55 993d 2138 bebd
000003e0: 4400 e3bc 8db7 213e 0129 683d 830e 843d
000003f0: 8e03 883d 7133 9e3d 3686 813d 551a 25bd

bias f4 [64]
-0.046884764 0.122880444 0.05449928 0.08192726 0.06487105 0.009545924 -0.038120937 0.022568665
-0.064224795 -0.12127849 -0.1028226 0.010424419 0.021950077 0.0025804155 0.1942384 -0.024934167
-0.07283095 -0.008888741 -0.11947485 0.016271252 0.06642441 -0.053807706 0.0031693575 -0.022435835
0.08945719 -0.043471903 -0.1354133 -0.05820829 0.054119226 0.047111202 -0.18067722 0.0893706
0.0715941 0.20822182 0.07498172 0.12004045 -0.06261796 0.036175232 3.1664476e-05 -0.028473612
0.068253875 0.12363837 0.02456342 0.063769504 -0.0629886 -0.078284144 -0.008436103 0.21987921
-0.03524498 -0.13896005 0.095769286 0.08680848 0.07404256 0.2650914 0.046999674 -0.04044088
0.13409658 0.12811202 0.14778481 0.1816786 0.029766552 -0.06425397 0.119945966 0.07905016
00000000: 3d0a 40bd bea8 fb3d a33a 5f3d 7bc9 a73d
00000010: 1ddb 843d 8266 1c3c b324 1cbd ece1 b83c
00000020: 4a88 83bd db60 f8bd a894 d2bd 2fcb 2a3c
00000030: a6d0 b33c 301c 293b 6ee6 463e bd42 ccbc
00000040: 6528 95bd 15a2 11bc 3baf f4bd 4a4b 853c
00000050: 8509 883d 7865 5cbd ffb4 4f3b 5bcb b7bc
00000060: 5535 b73d 980f 32bd c9a9 0abe d16b 6ebd
00000070: 1fac 5d3d adf7 403d 7303 39be ef07 b73d
00000080: ed9f 923d 1a38 553e 0490 993d c4d7 f53d
00000090: d83d 80bd 7b2c 143d 79cf 0438 7e41 e9bc
000000a0: b0c8 8b3d 1d36 fd3d 3a39 c93c 9699 823d
000000b0: 2b00 81bd 7053 a0bd 9537 0abc 0428 613e
000000c0: 0a5d 10bd 8b4b 0ebe b022 c43d a5c8 b13d
000000d0: a0a3 973d 0fba 873e bb82 403d 56a5 25bd
000000e0: 9d50 093e cc2f 033e e754 173e f409 3a3e
000000f0: fcd8 f33c 9697 83bd 3ba6 f53d 0de5 a13d

weight f4 [10, 64]
-0.31394473 -0.28419343 0.16766338 -0.08023815 0.13720576 -0.24280532 -0.07024287 0.093247734
-0.049870644 0.07919314 0.067959145 -0.1214099 -0.16707575 0.025442244 0.02122589 0.10352418
-0.020974547 0.1269025 -0.1374442 0.2607276 -0.24134882 0.10405286 0.046735436 0.1732662
0.13022703 0.0044333343 -0.040593214 0.028765293 -0.06707735 0.15300678 0.082044154 0.107115366
0.15523492 0.00747863 -0.23578475 -0.11024826 -0.30656573 0.1942487 0.10820872 -0.1011189
-0.26917046 0.10344379 0.14161803 0.11397482 -0.25895387 -0.038926013 0.2164475 -0.082868956
-0.016421339 0.05205261 -0.21978503 0.21807885 0.067392476 -0.000891814 -0.05646514 -0.0159362
-0.11269492 0.042441327 0.2817964 0.16640468 0.13433303 -0.2142503 0.08106194 -0.16891897
-0.051026035 0.21935958 -0.09924605 -0.060053654 -0.079544865 -0.19267885 0.037495445 0.08561653
0.07749561 -0.01585396 -0.34816775 0.1860453 0.0038772041 -0.091243684 -0.0035619412 -0.18316826
0.044469256 0.10577396 0.32188934 0.12011354 0.43552357 -0.110366724 0.120798275 0.13902839
0.078392655 -0.0729457 0.18502352 0.07312176 0.1363404 0.1096074 -0.120966434 0.009810424
0.24825975 -0.13349104 0.096824534 0.20390233 -0.33547834 -0.25892153 0.018970039 -0.2023989
0.19101667 0.22586308 0.23816143 -0.35270154 -0.07842716 0.056834076 -0.24694438 -0.11803601
-0.025135087 -0.3004464 -0.14809448 0.006994527 0.30851918 -0.2568156 0.061132878 -0.001604699
-0.19783269 -0.20322548 0.29179934 -0.0832159 -0.10196232 -0.006310003 -0.3292537 -0.23561478
0.08947699 0.1376921 0.13267127 -0.07720199 -0.11313506 -0.2025487 -0.09037951 -0.06538742
0.07602953 0.22100236 0.18787657 0.11028902 -0.18701039 0.021072725 0.15093832 0.05862253
-0.06987484 0.18568803 -0.22022305 0.20966679 -0.02310565 0.041257035 -0.12584455 0.19489995
-0.0074483077 0.092924766 0.0109578585 0.07309211 -0.19723034 0.048747618 -0.011524702 -0.055468775
0.0890072 -0.0610848 -0.24560107 -0.19564831 -0.17202587 -0.12215441 0.12352883 -0.10415051
0.1738469 0.13871457 0.016989056 -0.16729064 0.13564712 -0.026375955 -0.19497754 -0.2506541
-0.06947134 -0.16888507 -0.1744469 0.18474434 0.1152626 0.13554962 -0.060355127 -0.048196305
-0.2474379 0.18306904 -0.32633516 0.012934807 -0.054199833 -0.09745968 0.16252783 0.005406579
-0.0006608396 -0.16840854 0.011389273 0.09429276 0.058547642 -0.23217444 0.10496311 0.005582762
0.051532336 -0.05086646 -0.08758692 -0.0940073 -0.12708896 0.06320721 -0.00095268025 0.12238594
-0.057666477 -0.092614405 -0.22902144 -0.06803442 0.18491338 0.27815038 0.114129715 0.16602536
0.17583466 0.05642936 -0.052175887 -0.11078361 0.32330054 0.16562128 0.0015418916 -0.0053038066
0.16959329 -0.024507156 0.115699805 -0.041303404 -0.0632795 -0.090010956 0.0048407163 0.23697817
-0.11418817 0.11947752 0.20542654 -0.11260913 0.13354705 0.23566091 0.020044627 0.2754369
0.0095183 0.21259268 -0.17280072 0.040915985 0.0291006 0.03332722 0.026354233 -0.00069631654
-0.00648411 0.028296312 0.24156381 0.027989604 0.08055334 0.028935289 0.036976777 -0.18410006
00000000: 5dbd a0be cd81 91be f3af 2b3e e653 a4bd
00000010: ab7f 0c3e f5a1 78be 7edb 8fbd abf8 be3d
00000020: 2945 4cbd 0330 a23d 2a2e 8b3d c1a5 f8bd
00000030: e815 2bbe 416c d03c ebe1 ad3c 7c04 d43d
00000040: d0d2 abbc bbf2 013e 2cbe 0cbe 177e 853e
00000050: 2524 77be aa19 d53d a86d 3f3d b26c 313e
00000060: 3c5a 053e 8145 913b 1245 26bd 31a5 eb3c
00000070: da5f 89bd cfad 1c3e c406 a83d 4d5f db3d
00000080: e7f5 1e3e 4c0f f53b 8f71 71be d7c9 e1bd
00000090: 2ff6 9cbe 22e9 463e 899c dd3d 6d17 cfbd
000000a0: b6d0 89be 56da d33d 5104 113e a16b e93d
000000b0: 9a95 84be e270 1fbd 6aa4 5d3e 33b7 a9bd
000000c0: 0b86 86bc 1e35 553d 540f 61be 1050 5f3e
000000d0: 1105 8a3d a0c8 69ba fe47 67bd a28c 82bc
000000e0: 98cc e6bd f5d6 2d3d 9e47 903e fd65 2a3e
000000f0: 998e 093e 6e64 5bbe cd03 a63d 18f9 2cbe
00000100: ad00 51bd cc9f 603e 8341 cbbd d2fa 75bd
00000110: 6be8 a2bd 9b4d 45be d394 193d b857 af3d
00000120: 05b6 9e3d 2ae0 81bc 0b43 b2be a982 3e3e
00000130: b118 7e3b f8dd babd 756f 69bb 7690 3bbe
00000140: 6525 363d 05a0 d83d aece a43e 16fe f53d
00000150: f2fc de3e f307 e2bd 1665 f73d 755d 0e3e
00000160: 548c a03d 8e64 95bd ce76 3d3e dcc0 953d
00000170: d19c 0b3e d879 e03d 40bd f7bd e7bb 203c
00000180: ce37 7e3e e0b1 08be f14b c63d c6cb 503e
00000190: d1c3 abbe 5d91 84be 0e67 9b3c a841 4fbe
000001a0: e099 433e a748 673e 97e0 733e 4c95 b4be
000001b0: 6b9e a0bd d9ca 683d fdde 7cbe ddbc f1bd
000001c0: 19e8 cdbc 1cd4 99be 14a6 17be 5832 e53b
000001d0: 3af6 9d3e 567d 83be 7866 7a3d c354 d2ba
000001e0: a794 4abe 571a 50be b966 953e 196d aabd
000001f0: 9fd1 d0bd 24c4 cebb f193 a8be 0045 71be
00000200: b63f b73d 28ff 0c3e fada 073e 141c 9ebd
00000210: 5bb3 e7bd ed68 4fbe e418 b9bd d7e9 85bd
00000220: 5fb5 9b3d 714e 623e b762 403e 36df e13d
00000230: a77f 3fbe b5a0 ac3c 938f 1a3e 2e1e 703d
00000240: 8a1a 8fbd 0125 3e3e 2782 61be e4b2 563e
00000250: 0f48 bdbc 23fd 283d 65dd 00be da93 473e
00000260: ef10 f4bb 574f be3d 9788 333c 51b1 953d
00000270: c0f6 49be 95ab 473d 1bd2 3cbc 3a33 63bd
00000280: 6849 b63d 0e34 7abd d97e 7bbe 0858 48be
00000290: 8d27 30be 172c fabd affc fc3d dd4c d5bd
000002a0: ec04 323e 310b 0e3e a22c 8b3c 3d4e 2bbe
000002b0: 14e7 0a3e 6312 d8bc 31a8 47be bc55 80be
000002c0: fd46 8ebd 35f0 2cbe 35a2 32be 9f2d 3d3e
000002d0: cc0e ec3d 85cd 0a3e f036 77bd 7d69 45bd
000002e0: 5c60 7dbe 7376 3b3e 6715 a7be 83ec 533c
000002f0: a500 5ebd f198 c7bd b26d 263e ac29 b13b
00000300: 323c 2dba 4a73 2cbe 139a 3a3c 901c c13d
00000310: a7cf 6f3d 23bf 6dbe e6f6 d63d 9aef b63b
00000320: 9213 533d 5959 50bd c560 b3bd e686 c0bd
00000330: 9c23 02be c872 813d 4abd 79ba 7ba5 fa3d
00000340: af33 6cbd 9fac bdbd 9984 6abe a155 8bbd
00000350: ef59 3d3e ba69 8e3e d7bc e93d 8d02 2a3e
00000360: 000e 343e 7922 673d 62b6 55bd 84e2 e2bd
00000370: a687 a53e a098 293e 4c19 ca3a 8ecb adbb
00000380: dda9 2d3e 3bc3 c8bc 05f4 ec3d c22d 29bd
00000390: af98 81bd aa57 b8bd df9e 9e3b 68aa 723e
000003a0: 7ddb e9bd a1b0 f43d 565b 523e 9e9f e6bd
000003b0: 8fc0 083e 1851 713e a134 a43c 1106 8d3e
000003c0: a5f2 1b3c e5b1 593e acf2 30be 8597 273d
000003d0: 6264 ee3c 1f82 083d d5e4 d73c 0389 36ba
000003e0: a878 d4bb abcd e73c 815c 773e 744a e53c
000003f0: 26f9 a43d b309 ed3c f674 173d ba84 3cbe

bias f4 [10]
0.052951 -0.023460498 0.0280735 -0.057675414 -0.20379722 0.5965044 0.10326143 -0.025873553
-0.22287631 -0.37038976
00000000: 26e3 583d 3b30 c0bc 66fa e53c 0e3d 6cbd
00000010: 38b0 50be 83b4 183f bb7a d33d c6f4 d3bc
00000020: b039 64be baa3 bdbe
