models/conf_8.pt (torch, 944510 bytes, 6 tensors)

weight f4 [256, 784]
00000000: f372 95ba 7b34 503b c42f 0c3d 520b 923b
00000010: 7c5e 12bd 931b 853c 11a7 28bb e579 87bc
00000020: 47f6 c93c 3754 973c a91b ddbc 976a f9bc
00000030: bf15 25bc 6828 b6bc f8f1 013d 1a28 d7bc
00000040: ea43 e53a b507 77bc ab09 3dbc e2b5 fbbb
00000050: c623 023d 0740 233c 45ef 0c3d aaa0 92bc
00000060: ce01 a63c 617c e23c 1ad2 60bc da0c ebbc
00000070: 0515 523b a6e5 003d 98a1 01bd 8d6b b93c
00000080: 6152 083d 9d1c 3e3b 322a 61bb c6bd 8a3c
00000090: bff3 36bc 4b9e 78bc 8381 c13c 7c81 cd3c
000000a0: aeb5 183c a174 97bc f336 80bc bdf1 a8bc
000000b0: 99ea f73c e342 173d bc0a f2bb 7b8c e23c
000000c0: 92c4 df3c feb8 ddbc 917b 203d 3728 043c
000000d0: 8c81 dcbc fca8 14bc da6f 4a3c 920d 013c
000000e0: 9d0c 00bc 6747 08bd 6e50 c43c 7a52 003d
000000f0: 675b 783a 78da 2b3c 9b71 efbc 696b e33c
00000100: 9abd e83b 7b22 b8bb 5857 df3b 1395 19bd
00000110: 482e c23c ed54 08bd b057 9fbc 314b 6b3c
00000120: 4493 04bd cdab 963c db4f 8aba 498e 2e3c
00000130: d17f 9abb 84bf 113c b924 7d3c a331 413a
00000140: 3c9a 303c 73bf 66bc 52c9 94b9 0287 f53b
00000150: fa8a c6ba cef1 d4bb 4f4f 893c 21e2 d73c
00000160: 7f53 02bd 7766 a1bc abb0 64bc b956 f4bc
00000170: a26f c13b 9df2 7d3c 8643 23bd f6ef 0bbd
00000180: b955 913c 1972 59bb 679d cdbc 45ed 063d
00000190: e99e 41bc 911d 18bd 9b3c fc3b c1e4 d23c
000001a0: a6aa fe3c af74 9dbc bf5c 823c 794c 4a3c
000001b0: 81e6 0a3d 74e0 e839 ef75 e83c 0d32 d43c
000001c0: a723 11bc 865c 043d 1598 cebb bd87 d5bb
000001d0: 8e88 013d 023d ebbc e928 d4bc 885d 183c
000001e0: 56ab 153c ed7a 13bd 8e56 e8bc 0b78 583c
000001f0: 269f 37bd d486 13bc 64fd 073b 31ac 61bb
00000200: cd13 f73c 3953 37bc b975 cabc a4ab 213d
00000210: 11aa 4d3c 7a65 acbc f9f0 bc3a 0cf0 bebb
00000220: f143 e13c ebcf aabb be12 8ebc 6a06 02bc
00000230: dbac 763c c2ec 923b 31aa 83bb d01c acb9
00000240: e526 b5bc d19b d53a 603d 653c b2fd f93a
00000250: 6235 c23b 4eb8 fcbc b88d 44bd 15d4 f5bc
00000260: 65d2 83bb 45ff ddbb 8b2c 1cbc e6b2 eabc
00000270: fb68 e03b 2b82 a3bc 8809 093d 90ff 6f3b
00000280: 528b a93c d4a3 a1bc 7418 f13c f06e cabc
00000290: 3cbe ff3c 0ff2 21bc e6bc 063d 173d eb3c
000002a0: a223 03bd 7201 7c3c 255f 16bd e798 ab3b
000002b0: a835 253c b4a7 893c 7840 e33c 2938 9ebc
000002c0: 3506 b23c 42b6 b339 edd2 85bc aaf9 03bd
000002d0: 2fd5 7bbc 4352 d1bc 570b 14bc 7833 abbc
000002e0: 0c1c b23b b849 56bc 67ef 1c3d 7d6a d7bc
000002f0: feac e8bc 0b41 ecbb b51e cabc 649a 79bc
00000300: 3e39 6ab9 46a9 b8bc 1117 353d 5ae2 a9bc
00000310: a02a 8fbc cb56 ebbc a652 aebc c1d8 a93c
00000320: 6767 9a3c 0f2c 273c 5aa3 4bbc d02b 27bd
00000330: a779 ddbc e1e7 00bc 12cd 07bd beba aa3b
00000340: f231 423c 9ec5 9b3c ada5 84bc 2f78 b73c
00000350: 8584 5bbc 3a58 63bc d439 8f3c 8b75 ad3b
00000360: ac76 e83b ccff 6b3c 5dfe 363c 31f1 443c
00000370: 5725 003d 4239 f1ba 4cc4 8dbc 655b b8bc
00000380: 51de a23c 9950 933c 59c9 febc 2793 11bd
00000390: d164 5abc 3005 c73c 5851 3d38 5da4 963b
000003a0: f276 7c3c 2583 313c 0520 9bbc 5526 24bd
000003b0: 0619 c23b 195e abbc d390 0abd c277 d0bc
000003c0: 9fb6 c9bc 742b 0b3d fca8 283c 5f92 103d
000003d0: 7cbe d93b 8e7e a53c 3f30 ff39 3d9e 04bc
000003e0: 3bc0 333d a103 64bc 4053 003d d265 293c
000003f0: 54d7 833c 3312 853c 1899 123b 5231 d33c
-0.0011402055 0.0031769562 0.03422524 0.004456916 -0.03573464 0.0162485 -0.0025734345 -0.016537616
0.024653567 0.018472774 -0.026990728 -0.030446334 -0.010075985 -0.022236064 0.0317249 -0.02626424
0.0017491553 -0.015077521 -0.01153795 -0.007681594 0.031772397 0.009963996 0.034407873 -0.017898876
0.020264532 0.0276472 -0.013721967 -0.028692652 0.0032055986 0.03146901 -0.03164825 0.022634292
0.033281688 0.0029008754 -0.0034357426 0.016936194 -0.011166512 -0.015174459 0.023621326 0.025086157
0.00932066 -0.01848823 -0.015651202 -0.020623082 0.030263232 0.036929023 -0.0073865335 0.027654877
0.027315412 -0.02706575 0.039180342 0.008066229 -0.026917242 -0.009073492 0.012355769 0.007876771
-0.007815507 -0.03327122 0.023964133 0.031328656 0.0009474069 0.010489099 -0.029228976 0.027761178
0.0071026804 -0.005619345 0.006815832 -0.037495684 0.02370371 -0.033284117 -0.019450992 0.014361189
-0.032367006 0.018392468 -0.0010552363 0.010654041 -0.004714944 0.008895759 0.01545065 0.0007369762
0.01077896 -0.014083731 -0.00028378755 0.007492901 -0.0015147619 -0.006498552 0.01676145 0.026352944
-0.03181791 -0.01970218 -0.013958137 -0.029826509 0.0059032002 0.015499738 -0.039859317 -0.03416439
0.017741071 -0.003317958 -0.02509947 0.03294112 -0.011817672 -0.03713757 0.0076976544 0.025743844
0.03108723 -0.019220678 0.015913365 0.012347334 0.033911232 0.0004441772 0.028376548 0.025902772
-0.008858598 0.0323148 -0.0063047507 -0.0065164254 0.03162437 -0.028715614 -0.025898414 0.009299643
0.009135088 -0.036005903 -0.028361585 0.013212214 -0.04482951 -0.0090043135 0.0020750398 -0.003443491
0.030160809 -0.011189275 -0.024714338 0.03947033 0.012552754 -0.021044482 0.0014415077 -0.0058269557
0.027498217 -0.005212774 -0.017342921 -0.0079361 0.01505586 0.00448379 -0.004018091 -0.00032827863
-0.022113273 0.0016297047 0.013991684 0.00190728 0.005926774 -0.030849602 -0.047986716 -0.030008355
-0.0040228837 -0.0067748153 -0.009532104 -0.028649759 0.006848452 -0.01995953 0.033456355 0.0036620833
0.020696316 -0.01973144 0.029430605 -0.024711102 0.03121864 -0.009884371 0.03289499 0.028715653
-0.032016404 0.015381204 -0.03671183 0.0052367332 0.010083593 0.0168036 0.027740702 -0.019313889
0.021731475 0.00034277333 -0.016335929 -0.03222052 -0.015370651 -0.02555192 -0.009035907 -0.020898566
0.0054354724 -0.013079099 0.03831425 -0.026295895 -0.028402802 -0.007209902 -0.024672845 -0.0152345635
-0.00022337303 -0.022541653 0.04421145 -0.020737816 -0.01747638 -0.02872791 -0.021279644 0.02073324
0.018848134 0.0102033755 -0.012429083 -0.040813267 -0.027035547 -0.007867784 -0.033154555 0.0052102497
0.011852728 0.01901513 -0.016192282 0.022396175 -0.013398294 -0.013876015 0.01748363 0.005293553
0.007094225 0.014404248 0.011169043 0.012020395 0.03128561 -0.0018403905 -0.017305516 -0.022504518
0.0198814 0.017982768 -0.03110187 -0.035540726 -0.013329701 0.024294466 4.513687e-05 0.0045972303
0.015409218 0.01083449 -0.018936167 -0.04007562 0.005923393 -0.020918893 -0.03382952 -0.02544773
-0.024623213 0.033976987 0.010294195 0.03529584 0.006645022 0.020201948 0.00048673336 -0.008094368
0.043884497 -0.013916881 0.031329393 0.010339217 0.016093887 0.01624403 0.0022369083 0.025780354

bias f4 [256]
00000000: 565b 90bd 7da9 f43b 63c0 233e cdac 853d
00000010: 29bc 663d a59b 4e3d 9ac2 a6bd 749e 7ebd
00000020: c0a0 073e cc47 513d 3286 71bb b91c 093e
00000030: 2018 9a3d 9652 cd3d 47ae de3c 23a5 f93d
00000040: 0f45 263d a794 063d bcc7 c1bb 8961 c93c
00000050: e98f 583c 341b 08bd 2d0d 963d 11ce b13d
00000060: 7906 bebc 4f54 933d d293 e5bd fcf5 383d
00000070: 518f 9fbc 258d 26bc 899d 69bd d809 a1bd
00000080: 73cd d93d a70e 733c 24bc a4bd 9f31 2cbe
00000090: 3ea5 f6bd 377d dc3d 6624 ae3c 1713 c3bb
000000a0: 54d3 9bbd 1c4e 293c e555 853d 05e6 d43c
000000b0: 9c0f 6c3e bac3 97bd c410 00be 11f8 a73d
000000c0: c2d5 013e 1689 3e3c 073a 513c 99d9 8f3d
000000d0: 77b6 893c cc37 c83d 449f 293d bcb4 b0bb
000000e0: 315a 3b3d 195a 7bbd e098 a43c a675 52bd
000000f0: 17b0 923d 56b9 253d 81de c4bc 7533 67bc
00000100: b4f4 26be f381 8f3c dc7f 0c3d 1451 253e
00000110: f5ac b03d 4f1f 1dbd 050e 21bd 0123 0c3e
00000120: ffc0 693d 9dd8 d73d b192 a23d 688d c13d
00000130: 8132 813c 098e cd3d 3abf 903d 49f3 853c
00000140: e895 033e 55b4 653d 369b 9f3d ffae 96bc
00000150: 09dd bb3c 283c fe3c 9264 363d b364 29bd
00000160: 89e3 633d a0fd e23d 57b2 083e 2e6e 34bc
00000170: 3626 5a3e 0c60 ce3d 5878 d73d caa4 2a3e
00000180: 2070 84bd 156d 19bb b502 303d d584 e83d
00000190: dcfe 8d3d 6bb9 bfbc 5da6 c93d 4aa6 4db9
000001a0: deec 21bd 35c6 0ebc 12e1 c03c 63f3 173c
000001b0: dec4 6d3c ac59 cd3c f7ae c03c bdba 413b
000001c0: 1098 18bd 1cc4 af3c e8ec d23c 74ec fabc
000001d0: c812 d33c a52f 6d3d b084 723d 4de4 c6bd
000001e0: 1a6e c63d 6329 433c 3d7f 293c 5276 3e3d
000001f0: 52cf 1f3d 650e bb3b 75ff cc3d 8382 773d
00000200: d36d eb3d 38e0 d63d 7d9b 863d f50e 6fbb
00000210: c8a7 d43d f7f1 1fbd e350 0d3e cf18 4cbd
00000220: fe35 a53c 4531 0e3e 94fa ca3d 3350 50bd
00000230: 333e c33d 208f d9bc 2c95 23bd d134 323b
00000240: 98fa e33c c45a d2bd a180 8f3d bc4b 91bc
00000250: 08ab 6f3d 37d4 aebd 6d40 15be 2bac 083e
00000260: 8806 4ebd 6a3a e13c 25bd f8bc 45f8 0d3e
00000270: b10f d43c 0c4c 64bc 45bd 953d 483c 7a3d
00000280: e038 223e 0800 243d 9c77 343c b09d 1e3d
00000290: fc9c 76bd 9384 033d ba65 7d3d 5750 f23c
000002a0: 0ee5 2d3e 89ff e93c 7c79 3e3d 3b62 e53d
000002b0: 8544 f33c 1f9d 1eba ddfd 553d 1c9e 143e
000002c0: 8aaf d4bd d483 aabc e4b4 aa3c 3af8 583d
000002d0: aec2 92bd fa8e 1fbd 0feb 973d 6c05 1ebc
000002e0: ced5 063d 6f03 11bd fa92 963c d393 ca3d
000002f0: ba63 b1bd 049c bb3d 67b8 903c a33d ea3c
00000300: 890e 7e3c d2b5 d33c cdd7 9739 bff3 86bc
00000310: c4e7 003d db20 57bb a018 c73d 6731 b9bd
00000320: 4f61 7e3c b4ec 2fbd 7754 e73c 7ebb d03d
00000330: 9e57 773d 9621 8e3b ae70 fa3b 7e0d 99bd
00000340: a18e 91bc faf6 2c3d 0c34 063e a011 5b3d
00000350: c537 053d 3db1 723d ddd9 2f3d 18d7 4b3d
00000360: f093 b03b d16d 83bd 3c95 a7bc f81e 2e3c
00000370: 308a e7bd 7b6e c93c dec1 f43d 42ad 053d
00000380: 293b ee3d 0de7 783d 55b4 753d 0ac9 423d
00000390: 3c65 1abd 84ad 66bc f11d d9bd 61a7 3a3e
000003a0: c90f 3c3d fc27 803d cf33 a13d 88d0 28bd
000003b0: 0fa3 a23d b2ad 9abc 44e3 423e c6a7 14bd
000003c0: ccc1 65bd eacd 0d3e 6e10 923d c199 acbd
000003d0: 4b85 3f3c 27e2 84bd 2b9c d5bd 47fb 7b3d
000003e0: b0de cebc 4819 9e3c f67d 893d 0900 fe3b
000003f0: 0ce7 92bd c4a7 9bbd 3678 4c3e 6e3b c23d
-0.07048671 0.0074664936 0.15991358 0.065271 0.056331787 0.050441403 -0.08142586 -0.06216283
0.13244915 0.05109386 -0.0036853668 0.13389863 0.07524133 0.10025518 0.027182711 0.121897005
0.040593203 0.03285661 -0.005913703 0.024582641 0.013217905 -0.033229068 0.07326732 0.08681882
-0.023196446 0.07193815 -0.11209835 0.045156464 -0.019477518 -0.010165487 -0.057035003 -0.07863206
0.106348895 0.014835036 -0.080436975 -0.16815804 -0.12043236 0.1076607 0.02125759 -0.0059532034
-0.07608667 0.010333564 0.06510524 0.025988588 0.2305283 -0.07410379 -0.12506396 0.08201612
0.12679198 0.0116293635 0.012770182 0.07023925 0.016810639 0.097762674 0.041411653 -0.005392639
0.04574031 -0.06136522 0.020092428 -0.05138173 0.07162493 0.040459953 -0.02403188 -0.014111389
-0.16304284 0.01751802 0.034301624 0.1614421 0.08626739 -0.038359936 -0.03932001 0.13685228
0.05706882 0.105393626 0.079381354 0.09450799 0.015771152 0.10036857 0.070677236 0.016351359
0.12850153 0.05608018 0.07793276 -0.018393992 0.022932546 0.031034544 0.044529505 -0.0413558
0.055636916 0.110835314 0.13349281 -0.011012597 0.21303639 0.10076913 0.105210006 0.16664425
-0.06466699 -0.0023410965 0.04297133 0.11353461 0.06933376 -0.023403844 0.098461844 -0.00019612271
-0.039532535 -0.008714248 0.023544822 0.0092743365 0.014512269 0.025067173 0.02352093 0.0029560768
-0.037254393 0.021455817 0.025747731 -0.030630328 0.025765792 0.057906765 0.059208572 -0.09711514
0.09688969 0.011911723 0.010345277 0.046499558 0.039016075 0.005708503 0.10009662 0.0604272
0.11495557 0.10491985 0.06572626 -0.003647742 0.10383564 -0.039049115 0.13800387 -0.049828347
0.020167347 0.13885982 0.09911075 -0.050857734 0.09533348 -0.026557505 -0.039937183 0.0027192126
0.027829453 -0.102712184 0.07006956 -0.017736308 0.058512717 -0.085365705 -0.14575358 0.13346927
-0.050299197 0.027493674 -0.030363629 0.13864239 0.025886388 -0.013934147 0.07311491 0.061092645
0.15842009 0.040039092 0.011014845 0.0387246 -0.060208306 0.032108855 0.061864592 0.029579325
0.16981909 0.028564231 0.046502575 0.112003766 0.029695759 -0.00060506345 0.052244056 0.14513439
-0.10385044 -0.020814814 0.020838208 0.052971102 -0.071660385 -0.038954712 0.07417881 -0.009644847
0.032918744 -0.035403665 0.01838063 0.098914765 -0.086615995 0.09160617 0.017666055 0.028593844
0.015506395 0.025843535 0.00028961748 -0.01647365 0.03147103 -0.003282598 0.09721494 -0.09042626
0.01552613 -0.042950347 0.028238518 0.10192011 0.060386293 0.0043375 0.007642827 -0.074732766
-0.017768206 0.042227723 0.13105792 0.053483605 0.03252389 0.05925106 0.04293238 0.049765676
0.0053887293 -0.0641743 -0.020456903 0.010627501 -0.11305654 0.024588814 0.1195104 0.032635935
0.11632378 0.060767222 0.05998643 0.047555007 -0.0376942 -0.014079455 -0.10601414 0.18227912
0.04591349 0.062576264 0.0787121 -0.041214496 0.07941257 -0.018881653 0.19032007 -0.036292814
-0.056093022 0.13848081 0.0713204 -0.08427764 0.011689494 -0.06488448 -0.10430177 0.061518934
-0.02525267 0.019299164 0.06713478 0.007751469 -0.07172975 -0.07600358 0.19967732 0.094839916

weight f4 [128, 256]
00000000: 79fd afbc cd31 183d 3ff4 113d be3f 33ba
00000010: a94e d93c 53c8 0ebd 5bd8 773d f0ba 54bd
00000020: bf12 4e3d c72f f73d 2563 153d b872 c0bc
00000030: 4058 eb3c 8df5 383d b735 713c 5df7 2bbd
00000040: 9333 a4bd 0ef8 35bd 3321 483d c1d2 833d
00000050: 2dd4 873b 6036 6d3c 687a 19bc 4059 763c
00000060: 5382 40bd d513 14bc dba7 e13d 9bec edbc
00000070: 0541 2abd 80c0 613d ded4 903c f5bb 05bd
00000080: 2c60 febc 208d 85bc d7d5 20bd 0894 0f3d
00000090: 4f2a cf3c dc56 883c 1528 79bb f069 45bd
000000a0: ec69 493d 1eff 803d eaef f03c af20 66bd
000000b0: 2219 a5bd 63ff 03bd 0bcf 05bd 3d40 87bc
000000c0: 2ab9 353c 98ab 0d3c b49a 193d c0d7 5c3a
000000d0: 9065 863c 93c8 e0bd ac6b b23c 95e3 13bd
000000e0: 31c7 e0bb cf3e a0bd 10c4 18bc 0fcb c6bc
000000f0: dddc 703d 7fe6 423d 7927 75bd 34d7 223b
00000100: bcb4 c13d cc96 943b ab14 b43d 6c12 b9bc
00000110: ea10 3cbd 67e1 b83c ca74 173a 3fc3 ec3d
00000120: 3413 2bbd 994e 59bd e086 513c cd29 b43b
00000130: 7357 133d 5939 153b b10b 903d 8aef 9ebd
00000140: 5b7c 2e3c 776f 5b3d 4298 1dbc f780 893d
00000150: 4ded ddbb c38f 95bd bf70 3dbc 25df acbc
00000160: dcc0 af3d 3d2b adbc d46a 8fbd 7c10 91bd
00000170: 4c58 bb3c 3f87 16bb 1bcc 0a3b 130b 2bbd
00000180: 1fd0 cc3c a25e 4fbd c4a8 98bb 93e0 af3d
00000190: 18cb c1bc 7c0a c2bc 9d54 153b 3a62 48bc
000001a0: be72 59bc fd3a 97bc 84a2 ef3c 0d3b debc
000001b0: 83c2 603d 91d4 443d c2d1 54bc f2c2 ecbc
000001c0: 9925 1e3d d505 9fbd 4754 14bd e2b0 8abc
000001d0: 49f3 94bc 96f0 29bd 6ab3 723b a36f c13d
000001e0: 6216 86bd 9916 8cbd 0baa a43d 0c11 f13d
000001f0: e4a5 cebc c120 f93c 4394 5abc 69f0 20bd
00000200: 005e 03bd ac76 233c d010 8cbd c397 843c
00000210: 6f5e 093d a140 c9bc a444 cb3b 066e 7a3c
00000220: 01c6 833c bb09 aebd 92f9 c83c 6142 4ebd
00000230: cb0b 5e3d 66e9 3e3d df49 01bd 8f8b 40bd
00000240: fef3 f0ba 04b3 2f3d 8458 67bd 5407 013d
00000250: 9f29 22bd bdb9 f2bc 50c9 c23c 2d0d 953c
00000260: aff3 5bbc c8df ecbd 605b abbc 47ed b03b
00000270: 068c a03c f63a f13c c207 0e3e 7d97 60bd
00000280: f15e 8f3b 0e1e 90bc 4681 2dbc a8fd f73d
00000290: 5ed9 b2bd af51 173d 4723 6fbc e51b 58bd
000002a0: f40b 653c 9356 e03b e91f a4bd d607 bc3d
000002b0: 4a7b 3fbd dd8f 83bd b630 333d c3ce 323d
000002c0: f349 1bbc 56cc 903d 7222 863d fccf e03c
000002d0: 8fbf 453d 8624 eb3c acbe 0f3c 1973 d83c
000002e0: c83b d33c 4876 433c 3f37 e8bc bb24 a23d
000002f0: 47f9 11bd ada7 ea3d 11d8 87bd f1b3 1d3d
00000300: 5d6a bdbd 4168 a0bd 1376 713d b07c cfb9
00000310: 9e95 6e3d 9745 e6bc b943 d53c f079 303d
00000320: bc35 f0bc 098a 3a3d 7983 193e 0f2f 653d
00000330: 1075 b6bb dff8 35bd 14ad 04bd 75ca aa3d
00000340: 1fe3 2d3d f1b6 f93c 398f 213e 6195 8a3d
00000350: b780 8a3c 1fd2 e83d f481 2b3d 862a 8fbd
00000360: d762 52bd c089 37bd d2c9 3cbd 0e7e 7e3d
00000370: dac3 2bbd b273 2c3d 4c0f a5bc bf0b 133d
00000380: e1bd da3b 36af bd3d addd b3bc 1c3a e5bd
00000390: 6d9f 4dbd e792 acbc d663 8a3d b7b1 c7bd
000003a0: f18c 1e3d 1ac0 423d c328 0dbd cacd 67bc
000003b0: 4a7e 1c3d aa1b 9b3c d505 87bd 0579 e7bb
000003c0: 284e bcbd bb07 863c 11d1 7abd cf88 debc
000003d0: f584 1e3d a00c 46bc f40a 8c3d 9832 5cbd
000003e0: ff70 743c 67ce 433d ec1d 9fbb da0d ea3c
000003f0: 8f00 42bd 8ac2 e3bc 2ae1 653c 5084 533c
-0.02148317 0.03715687 0.03563332 -0.00068378064 0.026526766 -0.034859013 0.060509067 -0.05193609
0.050310846 0.1206966 0.036471505 -0.023492202 0.028728604 0.04515605 0.014722279 -0.04198395
-0.080176495 -0.044426017 0.048859786 0.064366825 0.0041451664 0.014478296 -0.009367563 0.015035927
-0.046999287 -0.009037931 0.11018344 -0.029043486 -0.041565914 0.055115223 0.017679628 -0.032649953
-0.031051718 -0.016302645 -0.039266434 0.035053283 0.025288729 0.01664298 -0.0038018276 -0.048196733
0.04917328 0.0629866 0.029411275 -0.056183513 -0.08061434 -0.032225978 -0.032668155 -0.016510123
0.01109151 0.008646868 0.037501052 0.0008424483 0.01640585 -0.109757565 0.021779858 -0.03610571
-0.006859683 -0.0782448 -0.009324089 -0.024266748 0.05880438 0.0475831 -0.059852097 0.002484751
0.094583005 0.004534578 0.087930046 -0.022591792 -0.045914568 0.022568418 0.0005777596 0.11560678
-0.04176636 -0.053053472 0.012788504 0.005498147 0.03597207 0.0022769778 0.0703348 -0.07760532
0.010649766 0.053573098 -0.009618821 0.06714051 -0.006772673 -0.07302811 -0.011562525 -0.021102497
0.08581707 -0.021138782 -0.07002798 -0.07083222 0.022869252 -0.0022968797 0.0021178785 -0.041758608
0.025001584 -0.05062736 -0.0046587903 0.08587756 -0.023656413 -0.02368664 0.002278603 -0.01223045
-0.013271986 -0.018460745 0.029252298 -0.027127767 0.054873 0.04805428 -0.012989463 -0.02890155
0.038610075 -0.07764784 -0.036213186 -0.016930047 -0.018182414 -0.041489206 0.0037033209 0.09445121
-0.06547238 -0.06840248 0.080402456 0.117708296 -0.025225587 0.030411126 -0.013341012 -0.039291773
-0.032072067 0.009977024 -0.06839144 0.016185647 0.033537325 -0.02456695 0.006203251 0.015285021
0.016085627 -0.0849795 0.024533067 -0.050356273 0.054210465 0.046609305 -0.03156459 -0.047008093
-0.0018383262 0.042895332 -0.0564809 0.03150113 -0.039590474 -0.029629583 0.023777634 0.01819476
-0.013424798 -0.115661204 -0.020917594 0.0053993794 0.019598018 0.02944706 0.13870147 -0.05483197
0.0043753316 -0.017592456 -0.010589903 0.12108928 -0.08732866 0.036943134 -0.014595813 -0.052760977
0.013979901 0.006846258 -0.08013899 0.09181182 -0.046748437 -0.06423924 0.043747626 0.043654215
-0.00947808 0.07070224 0.06549539 0.027442925 0.048278388 0.02870394 0.008773487 0.02642207
0.025785342 0.011930056 -0.028346656 0.07917162 -0.03563812 0.11457763 -0.06633008 0.038501684
-0.09248803 -0.07832385 0.058950495 -0.00039575016 0.058248155 -0.028109355 0.02603327 0.04308504
-0.029322498 0.045541797 0.14991559 0.05595308 -0.005568154 -0.044426795 -0.032391623 0.08339397
0.042452928 0.030482741 0.15777291 0.06766773 0.01690708 0.113682024 0.04187198 -0.069905326
-0.051363792 -0.044809103 -0.04609091 0.062131934 -0.041934825 0.042102523 -0.020148896 0.035899874
0.0066754674 0.092619345 -0.02195629 -0.11192724 -0.05020087 -0.021066142 0.067573234 -0.09750693
0.03870863 0.047546484 -0.0344627 -0.014148185 0.038206376 0.01893409 -0.06592909 -0.007063987
-0.091945946 0.016361108 -0.061234538 -0.027164845 0.038701016 -0.012087971 0.06838027 -0.053759187
0.0149195185 0.047804262 -0.004855862 0.028571058 -0.047363814 -0.027802724 0.014030734 0.012909964

bias f4 [128]
00000000: 7ebc 803d f084 1d3d 1587 8a3d d860 043e
00000010: 54df d3bc a180 ad3d 31b1 6b3d 55c2 80bd
00000020: a70c e73d 6630 4ebd 2c00 133e c503 083e
00000030: 5665 da3d be26 1f3e 031b 0d3e 5bf0 073d
00000040: 6719 013e 04af 6a3e 7e16 543e d935 5f3d
00000050: 4784 d4ba bdff 3b3e 6d1e 3f3e e8e7 303e
00000060: 5122 8b3d 25a3 353d 5849 2d3e 50fc 58bd
00000070: 4e40 ec3d a2b1 613d c997 6b3e 1051 8b3c
00000080: 0e06 2b3e b351 c33d 2a6d 43bd ef62 30bd
00000090: 1b0b 0ebd c817 4c3e 4159 af3d 44cf 94bd
000000a0: a065 083e 07aa 493e 4965 803d f981 413d
000000b0: 0e30 ac3d a05c 123d 216d 993d 7dd1 5bbd
000000c0: e389 013e b129 22bd 948d 2a3e f1c6 c33b
000000d0: e925 963d 5efb 053e dcc9 683d 0a39 203e
000000e0: 172b 183e 1302 003e 6375 4a3d 8a4c 813d
000000f0: 5371 09bd 2109 95bc 8544 5d3d 722c bd3d
00000100: 39c2 d33d 8973 343c b041 993d 620f 3b3d
00000110: 8d88 4abd c3ad c03d b925 b43d 0c53 a53d
00000120: 2c70 be3c ad22 31bd a6a9 12bd f099 c03c
00000130: 565a 1a3d 5242 133d 4f76 37bd c185 1a3e
00000140: 3a86 923d 6a3e 653d 167b d13d 9764 de3d
00000150: a52b 373e 45dd 17bc 888e 313d 35d4 1b3c
00000160: 9340 7abd fcbf 2d3e 8cc1 983d d611 8abc
00000170: 7ac4 883d bbee c5bb 7a60 c23c 4772 9fbb
00000180: 833a 943d 2018 b53d d57f e23d d874 acbd
00000190: 00f0 493d e4b0 483e 2130 e93d 61a1 5e3e
000001a0: 8792 533e 6643 94bc a5fb 153d 0d6f 353c
000001b0: 7516 be3d 9908 4d3e 47a9 de3d 8bbc c93d
000001c0: 896b 253e 6a63 ce3c 7336 08bd 8c05 2e3e
000001d0: 5dc1 54bd 5bdb cc3b 271b 5d3d 52ad e9bc
000001e0: 6a61 613e 041d ad3d 2450 b03d 1ce6 6b3d
000001f0: d45b c73d 145d 083d 1f4e c13d 2936 3f3c
0.06285952 0.038456857 0.06764046 0.12927568 -0.025863327 0.084718 0.05754203 -0.06287066
0.1128171 -0.050339125 0.14355534 0.13282688 0.106638595 0.15542123 0.13779835 0.033188205
0.12607346 0.22918326 0.20711705 0.054494713 -0.0016213738 0.18359275 0.1866395 0.17275965
0.06793655 0.04434504 0.1692251 -0.052975 0.11535703 0.055101044 0.2300712 0.017006427
0.16701528 0.09537067 -0.04771153 -0.0430631 -0.03467856 0.19930947 0.08561946 -0.07266095
0.13320017 0.19693767 0.062693186 0.047243092 0.08407603 0.035732865 0.07491518 -0.05366658
0.12650256 -0.03959054 0.1665557 0.0059746434 0.073314495 0.1308417 0.056833133 0.15646759
0.14860187 0.12500791 0.049428355 0.06313427 -0.03355534 -0.01819283 0.054020423 0.09236993
0.103397794 0.011013874 0.07483232 0.045668967 -0.04944663 0.094081424 0.087962575 0.080724806
0.023246847 -0.04324596 -0.03580632 0.023510903 0.037683807 0.03595192 -0.044790562 0.15090086
0.07154508 0.055967726 0.10228555 0.1085903 0.17887743 -0.009269063 0.04334882 0.009511043
-0.06109674 0.16967767 0.07458791 -0.016854208 0.066781 -0.006040422 0.023727644 -0.004865918
0.07237723 0.08842492 0.11059538 -0.08420724 0.049301147 0.19598728 0.11386133 0.21741249
0.20661364 -0.018098544 0.03661694 0.01107384 0.09281627 0.20022811 0.10872131 0.09850415
0.16154303 0.025193889 -0.03325505 0.16994303 -0.051942218 0.006251735 0.053980973 -0.028525028
0.22009817 0.084528 0.086090356 0.057592496 0.09734312 0.03329189 0.094387285 0.011670628

weight f4 [10, 128]
00000000: 14f6 5f3e bdef c3bd 3d4a 543e 404b c3bd
00000010: e3b4 813d 1f66 a63e dadb 7b3e f8c8 8cbe
00000020: c8ac 0dbd 6135 0f3e bb1f 8e3e 8fbb 483e
00000030: 2688 87be 822c 27be 8798 183e 6549 94be
00000040: 9da5 5e3e d5eb 513d 64ec 683e 66d3 c7bd
00000050: bf8e b7bd 1304 193e 9711 513d d2ca 543e
00000060: 1179 583e 4768 c4bd 2b1d 83be 80cc 083d
00000070: 1160 18be 81d4 823e 026d d6bc b4e0 95bd
00000080: 1cb6 4c3e bba0 3d3e 8239 af3d ab3a 183e
00000090: 9415 4ebe c0a0 19be ea38 ed3d 62c9 293e
000000a0: b5a5 833e 2c9c a23d 4962 8ebc 7b21 e6bd
000000b0: 5b35 523d 798c 97bd 7737 c9bd 4425 703d
000000c0: ad51 f5bc 6da4 afbd 7abf 9fbe 76e0 16be
000000d0: 29f8 30be 1cfa 433e e29b 18be 6397 8fb9
000000e0: 60a0 6fbd 8960 ffbd c419 2cbe f836 ebbd
000000f0: 278a 13be e276 1abe cd13 3c3d eb5f 3fbd
00000100: 6b41 383d be82 7f3d fdf2 29be 37c0 2c3d
00000110: 61e2 e1bd 790d 533e 3cc1 2e3e 9d27 41bc
00000120: d629 45be c188 acbd 1431 9ebc f658 5fbd
00000130: deb5 41be 2965 ac3e 9a82 d1bd 1bbc 273e
00000140: 37b5 9bbd ccdd 603e 9e96 66be 59b8 abbd
00000150: e322 283e 0778 613e 14e3 2fbd 9934 69bd
00000160: 97a4 a93d 7faf 8fbd 4d69 4a3e f502 47be
00000170: 8a51 88bc 30f9 bfbd 6722 12bd a9a8 c1bc
00000180: afa0 483d 7e14 943e f9ab 86bd 6dd4 c23d
00000190: 9566 bb3d c347 783e 546c 6e3e 09f7 3bbe
000001a0: cb89 4bbe a993 f13d c8f9 06bd 1407 03bd
000001b0: 15dc 433e 4a13 2c3e 0958 3f3e 0063 09be
000001c0: 5a2a 543e 4e32 553d 1474 b6bb c6b3 3c3e
000001d0: 3855 85bd 6560 713e 1915 bf3b 2aee 84bc
000001e0: e0fd 783e 845d d5bd 0de3 483e 9ac9 6abe
000001f0: f481 af3e 90cf 72be ac94 093c 1e86 91bd
00000200: a443 3d3e 1479 003e 3e4f 48be 9f74 6e3e
00000210: 782e f5bc 66a5 66bc b6e2 efbd 4a42 973e
00000220: 2db1 44be b4ff b0bd 5526 b23d d09e dcbb
00000230: 31f0 11be bbc3 2ebe 4508 393e 1147 6ebe
00000240: d423 803e b562 9abe ae5b 883d d628 7f3e
00000250: e744 0cbd f2c7 143e e589 33be 2ff4 eb3b
00000260: 926d 71be 129b aebd 3532 64be 242b c83d
00000270: d7d9 e6bd 7ed8 5fbe 5c7c 59bd 9424 a83d
00000280: 9a64 39be b4d1 9f3e 18bf 1bbe 3edf da38
00000290: 6fa8 2f3e 0385 803e 3806 cebd 4b33 f6bc
000002a0: 99f0 95be 5c27 ffbd aeac 913e b4c9 cb3d
000002b0: 7425 38bc 2127 6abc c880 823e e550 6d3e
000002c0: 362e a9bd 0a91 70bd 1eeb 893d 2651 bf3d
000002d0: ed26 83bd 4659 6b3e c310 babd e116 f5bd
000002e0: ff96 553e 65ca 3fbe 2166 023e 036e 813e
000002f0: e946 45be e7ca 973e 9650 88be e3a1 ac3d
00000300: 118a 3bbe ccfe ebbc dd6c 4fbe 8c8d 61bd
00000310: aa21 ac3e 1e45 613e 38fb 62be 5aa1 1dbe
00000320: f07f 673e 15ec 833e d2d9 843e 12c4 7fbe
00000330: 705e 67be d7f7 953e 64e0 1e3e 7440 9a3d
00000340: dd22 00be 2622 283e a84f 233e c07f 8b3b
00000350: 27bf fd3d 4496 2ebe 15bb 88bd cd73 02bd
00000360: c177 093e 77fc 52bc ff78 cebd dd01 24bb
00000370: 0b5c 0bbe f8fd d0bb 4d0b 07bd 8f44 d73d
00000380: f719 7b3d d60a 8fbe 6cbc 9cbd f636 433e
00000390: 3abb 3abe e9d8 2e3e 4020 923e 4c9a 01be
000003a0: c2e9 8dbd 9a6a b03e 0945 3f3e 57a8 5a3d
000003b0: 34ff 633e f780 50be fe88 853e 7c2b ddbd
000003c0: 9201 1fbe b732 8cbe 752d e8bd 056b 91bd
000003d0: 6839 963d a02a 66bd 7d64 953d 6ae6 66be
000003e0: ab49 87be fe46 84be 3210 043e 328e 833e
000003f0: 8bfe 6d3d 0b48 babd 26eb 0bbd e307 673c
0.21871215 -0.09567211 0.20731445 -0.09535837 0.063333295 0.32499787 0.24595585 -0.27497077
-0.034588605 0.13985206 0.27758583 0.19602798 -0.2647106 -0.16325572 0.14901935 -0.28962246
0.21742864 0.051250298 0.22746426 -0.09757118 -0.089627735 0.1494296 0.051042166 0.20780495
0.21139933 -0.09590202 -0.2560819 0.03339815 -0.14880396 0.25552753 -0.026175026 -0.07318249
0.19991344 0.18518345 0.085558906 0.1486613 -0.20125419 -0.15002728 0.11583121 0.16580728
0.25712362 0.07939944 -0.01738085 -0.11236855 0.051320415 -0.0739984 -0.09825032 0.05862929
-0.029946173 -0.085762836 -0.31200773 -0.14734063 -0.17282166 0.19138378 -0.14903215 -0.00027387877
-0.058502555 -0.124695845 -0.16806704 -0.11485094 -0.1440817 -0.15084413 0.04591732 -0.046722334
0.044984262 0.062380545 -0.16596599 0.042175498 -0.110295065 0.20610608 0.170659 -0.01178923
-0.1925424 -0.08424521 -0.019310512 -0.0545282 -0.18917033 0.3367093 -0.102299884 0.1638035
-0.07602923 0.21959609 -0.22518393 -0.08384771 0.16419558 0.22018443 -0.042941168 -0.056934927
0.08283346 -0.07015895 0.19766732 -0.19434722 -0.016640443 -0.093737006 -0.03567734 -0.023639994
0.048981365 0.28921884 -0.0657577 0.09513173 0.09150425 0.24246125 0.23283511 -0.18355955
-0.19876783 0.11795742 -0.032953054 -0.031989172 0.19126923 0.16804233 0.18685926 -0.13416672
0.20719281 0.052049927 -0.005568037 0.18427953 -0.06510395 0.23571928 0.0058313725 -0.016226847
0.24315596 -0.10418227 0.19617863 -0.22928467 0.34278834 -0.23711991 0.008397263 -0.07105659
0.18482834 0.12546188 -0.19561478 0.23286675 -0.029929385 -0.01407752 -0.117131636 0.29542762
-0.19208212 -0.086425215 0.086987175 -0.006732799 -0.14251782 -0.17066853 0.18069561 -0.23269297
0.25027335 -0.30153432 0.066581115 0.24917921 -0.034245398 0.14529398 -0.17533071 0.00720074
-0.23576954 -0.08525671 -0.22284777 0.097738534 -0.112720184 -0.21859929 -0.053097114 0.08210102
-0.18104783 0.31214678 -0.15209615 0.00010436632 0.17154096 0.2510148 -0.1005978 -0.030053755
-0.29285124 -0.12458679 0.28452057 0.09950581 -0.011239398 -0.014291556 0.25488877 0.2317539
-0.08260767 -0.05873207 0.06734298 0.0934165 -0.06403909 0.22983274 -0.09085228 -0.119672544
0.20858382 -0.18729551 0.12734272 0.25279245 -0.19265331 0.2964699 -0.26623982 0.08429315
-0.18314387 -0.02880802 -0.20256372 -0.05506663 0.33619434 0.21999022 -0.22166145 -0.15393582
0.22607398 0.25766054 0.25947434 -0.24977139 -0.22594619 0.2929065 0.15515286 0.07531825
-0.125133 0.16419277 0.15948355 0.0042571723 0.12389975 -0.1704951 -0.06676308 -0.031848717
0.13424589 -0.012877575 -0.10081672 -0.0025025525 -0.1360933 -0.0063779317 -0.03296976 0.105111234
0.06130406 -0.27937955 -0.07653126 0.19063935 -0.18235484 0.17074932 0.2854023 -0.12656516
-0.069293514 0.3445633 0.18678679 0.053383198 0.22265321 -0.20361696 0.2608108 -0.107993096
-0.15527943 -0.27382442 -0.11336795 -0.071004905 0.07335168 -0.056192994 0.07294557 -0.22548833
-0.26423392 -0.25835413 0.12896803 0.25694424 0.05810408 -0.09095772 -0.034159802 0.014101001

bias f4 [10]
00000000: cb7d bfbc 3526 50be 410d 333c 545b a13e
00000010: db12 ebbe 4adb 573f 5fb1 523e bef9 073e
00000020: 0bb5 93be 5158 0dbf
-0.023375412 -0.20327075 0.010928453 0.3151499 -0.45912823 0.84318984 0.20575474 0.13278863
-0.28849062 -0.55212885
