models/conf_5.pt (torch, 944510 bytes, 6 tensors)

weight f4 [256, 784]
0	0xbc198fa1	-0.009372623
1	0xbc411ee1	-0.011787147
2	0x3b6c53b2	0.0036060628
3	0xbce9778a	-0.028499383
4	0xbb52b4ac	-0.0032151146
5	0x3ce54b1e	0.02798992
6	0xbd076d66	-0.033063315
7	0xbcb7623c	-0.022385709
8	0x3aa13d40	0.0012301579
9	0xbc676e42	-0.014125409
10	0x3ad50c41	0.0016254262
11	0xbcd05f51	-0.025436075
12	0x3c8640f7	0.0163884
13	0xbca85ae5	-0.020551154
14	0x3d17cdbe	0.037061445
15	0x3d1d2613	0.03836639
16	0xbc79636d	-0.015221459
17	0x3c3b3caf	0.011428042
18	0x3cba3a46	0.022732865
19	0xbcdc8927	-0.026920868
20	0xbca94eaa	-0.020667393
21	0xbbaa1827	-0.0051908675
22	0xbcdd1a6f	-0.026990144
23	0x3c94ce05	0.018164644
24	0x3ceca4c1	0.028887155
25	0xbc830e4b	-0.015998026
26	0x3cde0225	0.027100632
27	0x3d096de1	0.033552054
28	0xbcc59d12	-0.024122749
29	0xba8e29d1	-0.0010846202
30	0xbc8c8466	-0.017152976
31	0x3c932b60	0.017965019
32	0x3b77a895	0.0037789692
33	0x3c9790ec	0.018501721
34	0xbca707d8	-0.020389482
35	0x3c85869e	0.016299542
36	0xbc988e66	-0.018622588
37	0xbc873781	-0.016505959
38	0xb9da7284	-0.0004166552
39	0xbbe5be34	-0.0070111994
40	0xbcaaf3d6	-0.020868223
41	0xbc21a48d	-0.009865892
42	0x3bef0875	0.0072947093
43	0xbcd86673	-0.02641604
44	0x3bcc11d1	0.00622771
45	0x3b7500ec	0.0037384583
46	0xbc35afa7	-0.011089242
47	0xbbcd4211	-0.0062639792
48	0xbd0bd11e	-0.034134977
49	0x3c1cf554	0.009579975
50	0x3cde9f3b	0.027175536
51	0x3c97e46c	0.018541537
52	0xbb2def9f	-0.002654053
53	0xba64a6dd	-0.00087223743
54	0x3bf807b7	0.007569279
55	0x3c534e7d	0.012897131
56	0xbc4fe871	-0.012689696
57	0x3ce341c5	0.027741322
58	0x3c640e91	0.0139194885
59	0x3bd2d842	0.0064344713
60	0xb9f4d502	-0.0004669801
61	0xbc784e27	-0.015155352
62	0xbb10810f	-0.0022049581
63	0x3c334411	0.010941521
64	0xbd0175c8	-0.031606466
65	0x3cd079eb	0.02544876
66	0x3c9b17b6	0.018932205
67	0xbc567e23	-0.013091597
68	0x3ba16143	0.0049249246
69	0xbcb73ef0	-0.022368878
70	0x3cc9db31	0.024640651
71	0x3ce71e2a	0.028212626
72	0xbc6a0a1d	-0.014284638
73	0xbd12cf97	-0.035842504
74	0x3c49533b	0.01228791
75	0xbcdf5705	-0.027263174
76	0xbd3a49eb	-0.04548065
77	0xbd33f2b1	-0.04393262
78	0xbcdd3f8b	-0.027007839
79	0x3ce38a79	0.02777599
80	0x3c716fc0	0.014736116
81	0x3cb9e3f5	0.022691706
82	0xbb8b69be	-0.004254549
83	0x3ca9ea72	0.020741675
84	0xbcd6e6c0	-0.026233077
85	0x3c945172	0.018105242
86	0xbce5e6dc	-0.028064184
87	0x3c9a6f5d	0.01885193
88	0x3cd828ce	0.026386645
89	0xbd2a7b0a	-0.041621245
90	0xbb640ff4	-0.0034799548
91	0x3c6c0072	0.014404403
92	0xbc9f86a2	-0.019473378
93	0x3cea6e27	0.028616978
94	0x3cb7e597	0.022448344
95	0xbc183d71	-0.0092919925
96	0x3d037cd2	0.03210146
97	0xbcb99b6f	-0.022657124
98	0xba993d30	-0.0011691209
99	0xbcf75594	-0.030192174
100	0xbcd5f2a3	-0.026116675
101	0xbc6c04a6	-0.014405405
102	0x3c52543e	0.012837468
103	0xbcb3be5e	-0.02194136
104	0x3c97ca63	0.018529123
105	0xbc9bfa77	-0.01904033
106	0xbc4f1cfe	-0.01264119
107	0x3cd294dd	0.02570575
108	0x3b4a7a98	0.0030895825
109	0x3be821f0	0.007084124
110	0x3c2a45ad	0.010392589
111	0x3cc4a805	0.0240059
112	0xbb1e5d0e	-0.0024164352
113	0xbd0840b9	-0.03326485
114	0xb9ac0d0e	-0.00032816123
115	0xbc70d176	-0.014698377
116	0x3c9c5e4e	0.019087937
117	0xbb2c54c5	-0.0026295644
118	0xbb057979	-0.0020366593
119	0xbc66d380	-0.0140885115
120	0x3c8e1c8d	0.017347598
121	0x3b8fcc43	0.0043883636
122	0xbc4ffc5e	-0.012694446
123	0xbcfffe9d	-0.031249339
124	0xbd00c32b	-0.031436127
125	0xbd03a410	-0.032138884
126	0xbadf1fd4	-0.0017023035
127	0x3c9e05b5	0.01928983
128	0xbb4ca973	-0.003122893
129	0xbc646c05	-0.0139417695
130	0xbbedd7e5	-0.0072584026
131	0x3c63ad36	0.013896277
132	0x3cf36312	0.029710326
133	0xbc3a4141	-0.011368097
134	0xbd118f6b	-0.035537165
135	0x3ce55227	0.027993275
136	0x3b00c9d9	0.001965156
137	0x3d06f757	0.032950725
138	0xbcfdde37	-0.03098975
139	0x3b1344f8	0.0022471529
140	0x3cfd3869	0.030910688
141	0x3d131450	0.035908043
142	0x3cc6ca61	0.024266424
143	0xbbe14a44	-0.006875308
144	0xbc6ab337	-0.014324955
145	0xbc71bf9c	-0.014755156
146	0xbc926d3d	-0.017874354
147	0x3c98c839	0.018650161
148	0x3cd11df1	0.025526972
149	0x3d0ffcf6	0.03515335
150	0x3b582fcb	0.0032987471
151	0x3c873475	0.016504506
152	0x3b43dd08	0.0029886384
153	0x3c8b498b	0.017002841
154	0x3c6454fc	0.0139362775
155	0xbcb2c9e9	-0.021824794
156	0x3ce74475	0.028230885
157	0xbce3dd7c	-0.027815573
158	0xbc2390f3	-0.009983289
159	0xbd05e40e	-0.032688193
160	0xbcb85e63	-0.022505945
161	0xbce0327e	-0.027367827
162	0x3b367d39	0.0027845635
163	0x3c5c6681	0.013452173
164	0xbc902c99	-0.01759939
165	0xbbc44a5f	-0.005990311
166	0x3cf14ad6	0.02945463
167	0xb9767c6a	-0.00023506736
168	0xbd01fe4b	-0.031736653
169	0xbccb6815	-0.024829904
170	0x3c1de525	0.009637152
171	0x3cbc4f65	0.022987077
172	0xbcb0f307	-0.02160026
173	0x3c572abd	0.013132748
174	0x3c9e9271	0.019356938
175	0x3cf6ae97	0.030112548
176	0x3cc0bca0	0.023527443
177	0xba9ef857	-0.0012128454
178	0xbb2b735b	-0.0026161287
179	0x3cf60808	0.030033126
180	0x3c0c7d54	0.008574802
181	0xbc0e0f51	-0.008670644
182	0xb8fb4f5e	-0.00011983396
183	0x3cc62a1f	0.024190007
184	0x3bded7e8	0.0068006404
185	0xbcc5c3ac	-0.024141155
186	0xbb0b6e3a	-0.0021275417
187	0x3c3bfd23	0.011473927
188	0xb70861cc	-8.129002e-06
189	0x3cb9a2a1	0.022660555
190	0xbd0fdefa	-0.035124756
191	0xbc8647e8	-0.01639171
192	0x3cec31d1	0.028832348
193	0x3ccd7a9f	0.025082884
194	0x3ce1ad50	0.027548462
195	0xbc85c7b4	-0.016330577
196	0x3d12c249	0.035829816
197	0x3c1ba0dd	0.009498802
198	0xbc208cb6	-0.009799173
199	0x3d195b3c	0.037440524
200	0xbbe18613	-0.006882438
201	0xba97a99b	-0.0011570932
202	0xbc1768b0	-0.009241268
203	0xbb76f3ba	-0.0037681893
204	0xbd036ff8	-0.032089204
205	0x3c202007	0.009773261
206	0xbc85af43	-0.016318923
207	0xbc05ba8d	-0.008162153
208	0x3ca313c9	0.019906895
209	0xbaca2268	-0.0015421631
210	0x3cd38daa	0.025824387
211	0x3c01f16b	0.007931094
212	0xbd130967	-0.03589764
213	0xbd1cbb9e	-0.038264863
214	0xbc8dc657	-0.01730649
215	0xbcb60662	-0.02221984
216	0x3cbe0ab7	0.023198469
217	0xbd1f126c	-0.038835928
218	0xbd162c7b	-0.036663514
219	0x3bc85f15	0.0061148503
220	0xbc904dce	-0.017615225
221	0xbc2483a8	-0.010041155
222	0x3bb98ac9	0.0056622964
223	0x3c19e30b	0.00939251
224	0x3bd7be91	0.0065839966
225	0x3d20fa2c	0.039301082
226	0x3cfd1f23	0.030898636
227	0x3c0de625	0.008660828
228	0x3d1733fa	0.036914803
229	0x3d02bb84	0.03191711
230	0x3b9a495a	0.004708451
231	0xbc47c21f	-0.012192278
232	0x3b63a58c	0.0034736125
233	0x3af80e32	0.0018925129
234	0xbc26f832	-0.01019101
235	0x3d371392	0.044696398
236	0x3c5e3d36	0.0135643985
237	0x3b7eb6a4	0.0038866187
238	0xbca944bd	-0.02066266
239	0xba205c0d	-0.0006117232
240	0xbd2ef05d	-0.042709697
241	0xbd036dd0	-0.032087147
242	0xbcdc3c2c	-0.026884161
243	0xbcaa8157	-0.020813627
244	0x3c6fa6c7	0.014627165
245	0xbd21d47e	-0.03950929
246	0xbc6533bf	-0.013989388
247	0xbc7ce669	-0.015435793
248	0xbca8c058	-0.02059953
249	0xbd065b04	-0.032801643
250	0x3ce08928	0.027409151
251	0x3ca03652	0.019557152
252	0xbc59714d	-0.013271642
253	0x3cbe25f2	0.023211453
254	0x3d25c17b	0.04046772
255	0x3d02a2ac	0.031893417

bias f4 [256]
0	0x3cceb28f	0.025231628
1	0x3d0e0dba	0.03468106
2	0x3c0bb542	0.008527102
3	0x3d032418	0.032016844
4	0x3d9b9b10	0.07597935
5	0x3d6a879f	0.057258245
6	0x3d710f68	0.058852583
7	0xbc732f4c	-0.014842819
8	0xbbf41875	-0.0074492046
9	0xbc59a7e9	-0.013284662
10	0x3d89c29d	0.06726573
11	0xbb6b7fc0	-0.00359343
12	0x3d46ed17	0.04856595
13	0x3baf5172	0.005350285
14	0xbcc3e5c9	-0.023913281
15	0x3d2363a4	0.039889947
16	0x3b934169	0.0044938815
17	0x3cb55554	0.022135414
18	0xbadb39eb	-0.0016725635
19	0x3caa0b85	0.020757446
20	0x3d46e19c	0.048555
21	0x3c5a62fa	0.013329262
22	0x3d3784b4	0.04480429
23	0x3d0ea5f5	0.034826238
24	0xbd897d1b	-0.06713315
25	0x3d0af586	0.033925556
26	0x3a2e003c	0.0006637608
27	0xbcbbe33c	-0.022935502
28	0x3d0c544c	0.03426008
29	0x3b976575	0.004620249
30	0x3c62cd01	0.013842822
31	0x3d368dcc	0.04456882
32	0xbd21e4df	-0.03952491
33	0x3d0c33e7	0.034229185
34	0xbc025584	-0.007954959
35	0x3ca28ff1	0.019844027
36	0x3d10504c	0.035232827
37	0xbcf9947f	-0.030466316
38	0x3c0d8b2e	0.00863914
39	0x3d8e2cf0	0.06942165
40	0x3b6a85fa	0.0035785423
41	0x3d8d27a3	0.06892326
42	0xbcb24f82	-0.021766428
43	0x3c3e9863	0.0116330115
44	0x3d6eef67	0.05833378
45	0x3cd8f90f	0.026485948
46	0x3cb121b5	0.021622518
47	0xbca6ee41	-0.02037728
48	0x3da959e6	0.082691
49	0x3c687067	0.014186955
50	0xbb6715e2	-0.0035260846
51	0x3ca0a2c7	0.019608868
52	0xbc5f67b0	-0.013635561
53	0xbd394bec	-0.04523842
54	0xbceb331f	-0.0287109
55	0x3cb2da51	0.021832617
56	0xbc23c6cd	-0.009996128
57	0x3ce57ab2	0.028012607
58	0x3d09377a	0.033500172
59	0x3b5fd82a	0.0034155943
60	0x3d1a7264	0.037706748
61	0xbd0c2e33	-0.034223747
62	0x3ce54e5d	0.027991468
63	0x3d6dbf78	0.058043927
64	0x3cd0f15d	0.025505716
65	0x3ccd0785	0.025028
66	0x3d5fbeda	0.05462537
67	0x3c96c2bb	0.018403402
68	0x3b938f88	0.0045031942
69	0x3d881b5b	0.06645843
70	0x3ced71e6	0.028984975
71	0xbcc408f5	-0.023930052
72	0xbb10168a	-0.002198609
73	0xbc3f82f9	-0.011688941
74	0x3d43ab50	0.0477708
75	0xbbf71116	-0.0075398786
76	0x3b234bdb	0.002491704
77	0x3c407a1c	0.011747863
78	0xbd202e52	-0.039106674
79	0x3c93d062	0.0180437
80	0x3b1bc335	0.0023767476
81	0xbce7c3ce	-0.02829161
82	0xbb7ace8f	-0.0038270091
83	0xbd30350c	-0.04301934
84	0xbc2863d7	-0.01027771
85	0xbd73d22a	-0.0595266
86	0x3be19515	0.006884227
87	0x3d249d27	0.040188935
88	0x3d1126a1	0.03543723
89	0x3ce06bbf	0.027395127
90	0xbce96c16	-0.028493922
91	0x3d2a7690	0.041616976
92	0x3c97a6be	0.018512126
93	0xbc279888	-0.010229237
94	0xbd0f1cec	-0.03493969
95	0x3c0ac720	0.008470327
96	0xbce8ea7d	-0.028432125
97	0x3c23a39b	0.009987737
98	0x3b858c91	0.0040755947
99	0x3c2304b6	0.009949854
100	0xbcad4872	-0.021152709
101	0xba90b702	-0.0011040869
102	0x3d2864b4	0.041111663
103	0xbcdbcea7	-0.026831938
104	0xbd1293b2	-0.035785384
105	0x3d008024	0.031372204
106	0xba816b6d	-0.0009873934
107	0x3b66b53f	0.0035203246
108	0x3c04dd3c	0.008109387
109	0x3d7c4cac	0.061596557
110	0xbc99e27e	-0.018784758
111	0x3ccbff54	0.024902023
112	0xbc0d1694	-0.00861134
113	0xbc8afbf7	-0.01696585
114	0x3a91a038	0.0011110371
115	0x3d081f8d	0.033233214
116	0x3d7d2c56	0.06180986
117	0x3be8bd31	0.0071026315
118	0xbcdeab27	-0.027181221
119	0xbcc8bb77	-0.024503453
120	0xbc8bf3a1	-0.017083945
121	0xbb585879	-0.0033011718
122	0x3cfb760b	0.030695936
123	0x3d610b8c	0.054942653
124	0xbc4d641b	-0.012536074
125	0xbc53aa97	-0.01291909
126	0x3cfddd84	0.030989416
127	0x3d111ce9	0.03542796
128	0x3ccad46a	0.02475949
129	0x3d282ac6	0.041056417
130	0x3c66d26a	0.014088253
131	0x3d47ae4e	0.048750214
132	0x3cb1046d	0.021608556
133	0x3c1dc021	0.009628327
134	0xbca1ce99	-0.019751834
135	0x3bdb3782	0.0066899667
136	0xbcfe624e	-0.031052735
137	0xbc978573	-0.01849625
138	0x3c928436	0.017885309
139	0x3ca543b3	0.020173883
140	0xbce7f0c1	-0.028313043
141	0x3ca9ab24	0.020711489
142	0x3cda9184	0.026680715
143	0x3d3cc962	0.04609049
144	0xbc48f57c	-0.012265559
145	0x3c534075	0.012893786
146	0x3c335b48	0.010947056
147	0x3ca178c3	0.019710904
148	0x3ceae942	0.02867568
149	0xbc585c89	-0.013205656
150	0xbcdc4f24	-0.026893206
151	0xbbced1d4	-0.0063116346
152	0x3a90a36c	0.0011035032
153	0x3d3c17c7	0.045921113
154	0x3c924d72	0.017859194
155	0x3c0e5fd4	0.008689839
156	0xbbc9273e	-0.0061387112
157	0xbd020877	-0.031746354
158	0x3d064a55	0.032785732
159	0xbd0348fd	-0.03205203
160	0x3d15297e	0.036416523
161	0x3dc761d4	0.09735456
162	0x3cdc1a37	0.026867969
163	0x3d7a1f64	0.061065093
164	0xbccde92f	-0.025135605
165	0xbb4e3026	-0.0031461804
166	0xbd7a2bc9	-0.061076913
167	0x3d5ce110	0.053925574
168	0xbcc215bf	-0.02369201
169	0x3cad6be4	0.02116961
170	0x382d26fe	4.128273e-05
171	0x3c0ab839	0.008466774
172	0xbd0a2d29	-0.033734474
173	0x3c103094	0.008800644
174	0xbb83e7c6	-0.0040254323
175	0x3ca8d5ef	0.020609824
176	0x3d33fcf9	0.043942425
177	0x3c417c5f	0.011809438
178	0xbcfaa809	-0.030597704
179	0x3cf86655	0.030322233
180	0x3d0b639c	0.03403054
181	0x3ccbacb1	0.02486262
182	0x3c4ad672	0.012380229
183	0xbc89a484	-0.01680208
184	0x3bfccde1	0.0077149724
185	0x3cd55e76	0.026046019
186	0xbc8c6170	-0.017136306
187	0x3d846633	0.064648055
188	0x3db01bc7	0.08599048
189	0x3ceec5da	0.029147077
190	0x3d151ed2	0.036406346
191	0x3d18b0f8	0.037278146
192	0x3cccd5f4	0.025004365
193	0x3b8421da	0.0040323557
194	0xbd110822	-0.035408147
195	0xbb7034ca	-0.0036652558
196	0x3ba079cd	0.0048973323
197	0x3b4a9ffa	0.0030918107
198	0x3d1340d8	0.03595051
199	0x3d8a1d5d	0.06743882
200	0xbc5e2c0c	-0.013560306
201	0x3dacf74e	0.08445607
202	0x3d8e467e	0.06947039
203	0xbcd63a69	-0.026150899
204	0xbcc03fc7	-0.023467911
205	0xbadd55eb	-0.0016886567
206	0x3d47afd2	0.04875166
207	0xbcce3692	-0.025172506
208	0x3cfe58c9	0.031048195
209	0x3c7fb152	0.015606241
210	0xbcf4c6bf	-0.029879926
211	0x3badf925	0.0053092414
212	0x3cb0dd03	0.021589762
213	0xbc7caeea	-0.015422562
214	0xbc6fd013	-0.014637011
215	0xbbf9c399	-0.007622194
216	0xbcd47570	-0.025934905
217	0x3c10b4fb	0.008832212
218	0xbd162e96	-0.03666552
219	0xbcaea172	-0.021317217
220	0x3c4db1df	0.012554615
221	0xbd1bfd23	-0.038083207
222	0xbbafbac0	-0.0053628385
223	0x3d16ac68	0.036785513
224	0x3d25a8ce	0.040444188
225	0x3d39b7a8	0.045341164
226	0x3c675edd	0.014121738
227	0xbb322ac2	-0.002718613
228	0x3d89fb83	0.06737425
229	0xbcc25c49	-0.023725646
230	0x3c08e661	0.008355708
231	0x3d59247f	0.05301332
232	0x3ce2079b	0.027591517
233	0x3c85432a	0.016267378
234	0xbd0eda32	-0.034876056
235	0x3d5c4c8b	0.053783935
236	0xbcd4b2e0	-0.0259642
237	0x3d12cd41	0.035840277
238	0xbd041283	-0.032244217
239	0xbc11f608	-0.008908756
240	0xbcf8a7d2	-0.03035346
241	0xbc849eb9	-0.016188966
242	0x3c3e55ab	0.0116171045
243	0x3ce868be	0.028370257
244	0x3d1f4ee4	0.038893595
245	0xbd072c15	-0.033001024
246	0xbad8cb3b	-0.001654006
247	0xbb67dd32	-0.0035379645
248	0x3cd5fbd0	0.02612105
249	0xbc86d3ec	-0.016458474
250	0xbcd6268e	-0.026141431
251	0xbc8eabf8	-0.017415985
252	0xbcd5e100	-0.026108265
253	0xbc2956c1	-0.010335625
254	0x3b82bcd9	0.0039897976
255	0x3d385d06	0.04501059

weight f4 [128, 256]
0	0x3d248c71	0.040172998
1	0xbd474a68	-0.048654944
2	0x3c620baa	0.013796726
3	0xbb797c8e	-0.0038068625
4	0xbd019916	-0.031640135
5	0xbd86ab1a	-0.06575604
6	0xbc6ca94b	-0.014444659
7	0x3d49154d	0.04909258
8	0xbd569ae7	-0.05239382
9	0xbc9cde03	-0.019148832
10	0x3d2b275d	0.041785587
11	0xbd64d3c8	-0.055866033
12	0xbc76d055	-0.015064319
13	0x3d089db7	0.033353534
14	0x3d56bebc	0.052427992
15	0xbc9e992d	-0.01936015
16	0xbd69896b	-0.057015818
17	0x3d8016bb	0.062543355
18	0x3d473bfd	0.048641194
19	0x3d417061	0.047226314
20	0xbc64bdb1	-0.013961242
21	0xbd136c32	-0.035991855
22	0x3d0c81ea	0.034303583
23	0x3c18a631	0.009316967
24	0xba1f0e68	-0.00060675154
25	0xbd0bcb17	-0.03412923
26	0x3d31bdd1	0.043393914
27	0x3d28cfd6	0.041213833
28	0x3c1cec8f	0.009577884
29	0x3c17a9a1	0.009256751
30	0xbb9a1b83	-0.0047029867
31	0xbd254f32	-0.04035873
32	0xbccdc5f5	-0.025118807
33	0x3d24c406	0.040226005
34	0x3c8cef8e	0.017204072
35	0xbd8344a5	-0.06409577
36	0x3d9ce227	0.07660323
37	0x3d4e0241	0.05029512
38	0x3d6fa346	0.05850532
39	0xbd4c77df	-0.049919005
40	0x3cc25513	0.023722207
41	0xbd65b9c3	-0.05608536
42	0xbd745236	-0.059648715
43	0xbd35d878	-0.044395894
44	0xbd583287	-0.05278256
45	0xbd6a68cd	-0.057228852
46	0x3d05a497	0.03262767
47	0x3d4d30b2	0.050095268
48	0x3d54f9d4	0.051996067
49	0xbc8d931a	-0.017282058
50	0x3cd37adb	0.025815418
51	0xbd5fdb6d	-0.05465262
52	0x3d865ed6	0.06561057
53	0xbad501f7	-0.0016251196
54	0xbc4b725c	-0.012417402
55	0x3b3d4dd2	0.0028885496
56	0x3d4f4da8	0.05061117
57	0xbd77407f	-0.060364243
58	0xbc9c5e2b	-0.019087872
59	0x3ccbbe1f	0.02487093
60	0x3d55fa73	0.0522408
61	0xbd5d80b3	-0.054077815
62	0xbc23f30e	-0.010006679
63	0xbc8514b9	-0.016245233
64	0xbd25f014	-0.04051216
65	0x3cc8ba95	0.024503032
66	0xb90def8f	-0.0001353605
67	0x3d17ea27	0.03708854
68	0x3cc586a9	0.024112063
69	0x3cf99f97	0.030471606
70	0x3cf41df0	0.029799432
71	0x3d21fdbe	0.039548628
72	0xbca5eaf9	-0.020253645
73	0xbb33a841	-0.002741352
74	0xbd805940	-0.06267023
75	0x3d81e802	0.0634308
76	0xbcb46124	-0.022018977
77	0xbd25f079	-0.040512536
78	0xbc89d4c5	-0.01682509
79	0x3d478008	0.048706084
80	0xbba29b05	-0.0049623274
81	0x3cbee46e	0.023302283
82	0xbd68d706	-0.056845687
83	0xbd12143f	-0.03566384
84	0xbd191e91	-0.037382666
85	0x3d900595	0.07032315
86	0xbd248451	-0.04016525
87	0xbc31a572	-0.010842668
88	0xbd2b2602	-0.041784294
89	0xbc22f86d	-0.009946925
90	0xbd4d2195	-0.050080854
91	0xbc928dd3	-0.017889893
92	0x3cd80cb7	0.02637325
93	0xbba26575	-0.0049559423
94	0x3d860f2a	0.06545861
95	0xbc8df87d	-0.017330403
96	0x3c01b9a7	0.007917798
97	0xbd77e6c1	-0.0605228
98	0x3c2b4711	0.010453955
99	0xbd5f6392	-0.054538317
100	0xbc09eb75	-0.008417954
101	0xbc4a01b9	-0.012329512
102	0xbca8ff11	-0.020629438
103	0xbcb7ae32	-0.02242193
104	0xbb539a01	-0.0032287838
105	0xbc2d0384	-0.01055992
106	0xbd2e330e	-0.04252916
107	0x3d5ff8d8	0.054680675
108	0xbbd62710	-0.0065354183
109	0x3d65d62b	0.05611245
110	0x3c2aa4b2	0.010415243
111	0x3d78db45	0.060755987
112	0x3d195a39	0.03743956
113	0xbd04dcd3	-0.032437157
114	0xbc788ba3	-0.015170011
115	0x3d307298	0.043078035
116	0xbce6885f	-0.028141199
117	0x3c87ee41	0.0165931
118	0xbd4968fc	-0.049172387
119	0x3d04b020	0.03239453
120	0x3cec4946	0.028843533
121	0xbd6ab388	-0.05730012
122	0xbd5f0359	-0.054446552
123	0x3d807e31	0.06274069
124	0x3caaf3f2	0.020868275
125	0x3d04c77d	0.03241681
126	0xbd278804	-0.0409012
127	0xbd97891d	-0.07399199
128	0x3d6e3832	0.05815906
129	0x3c8bbe2a	0.01705845
130	0x3d543a1b	0.051813226
131	0x3d3e88a5	0.046517033
132	0x3d12c51d	0.035832513
133	0x3d584d2d	0.052807976
134	0x3cfe8f40	0.031074166
135	0x3c556a37	0.013025812
136	0x3c28174b	0.01025946
137	0x3d046ea2	0.03233207
138	0x3be4abe5	0.0069784992
139	0xbcfcaeb4	-0.030845024
140	0x3b7613d1	0.0037548433
141	0xbd8ef272	-0.069798365
142	0xbb08fae8	-0.0020901505
143	0xba848a2e	-0.0010111982
144	0x3ca70641	0.020388724
145	0x3d636bb8	0.05552265
146	0xbd4b2abd	-0.049601305
147	0x3bbe2c06	0.005803588
148	0x3d32ba1a	0.04363451
149	0x3c3422bb	0.0109946085
150	0x3cbd43ea	0.023103673
151	0x3cb3a3b9	0.021928655
152	0xbcf5cef3	-0.030005908
153	0x3d58a488	0.052891284
154	0x3cb1e070	0.021713465
155	0xbb95ae02	-0.0045678625
156	0x3d141dbe	0.036161177
157	0x3ceea442	0.029131059
158	0x3c95bfd6	0.018279951
159	0x3c37d7ec	0.011220913
160	0x3d79789d	0.06090604
161	0x3da6be5a	0.081417754
162	0x3d55a605	0.05216028
163	0xbc8ea7fa	-0.017414082
164	0x3d2a3097	0.041550245
165	0xbad7779b	-0.0016438843
166	0x3d53b406	0.051685356
167	0xbd049c9b	-0.032375913
168	0x3d3f00d3	0.046631645
169	0xbcbc5c67	-0.02299328
170	0xbc21180b	-0.009832392
171	0x3c931e91	0.017958911
172	0x3cdc16fd	0.02686643
173	0x3b98abd3	0.004659155
174	0x3d452ab6	0.048136435
175	0x3c274603	0.010209563
176	0x3d673510	0.05644709
177	0xbc5aa4f4	-0.013344992
178	0xbd39eb1d	-0.045390237
179	0xbd365d12	-0.044522353
180	0xbd95ba21	-0.07310892
181	0x3d649b46	0.055812143
182	0xbc4c46e5	-0.012468074
183	0x3c9b460c	0.0189543
184	0x3cc579ea	0.024105985
185	0x3d6ef340	0.05833745
186	0x3c1d90b5	0.00961702
187	0xbc8099a1	-0.015698256
188	0x3c02ba52	0.007978993
189	0x3d422a07	0.04740336
190	0x3cde44ef	0.02713248
191	0x3d66d34c	0.056353852
192	0x3cbf8b30	0.0233818
193	0xbd598ef2	-0.05311484
194	0xbd4973f9	-0.049182866
195	0x3d440b10	0.047862113
196	0xbd7c1a6a	-0.061548628
197	0xbd3e917a	-0.046525456
198	0x3d747044	0.059677377
199	0xbcfb091b	-0.03064399
200	0x3d318543	0.04333998
201	0x3cad40e0	0.021149099
202	0x3c1c0287	0.009522087
203	0xbc84ad8c	-0.016196035
204	0x3d920b4e	0.071310624
205	0x3d821b60	0.063528776
206	0x3cac5b3e	0.021039601
207	0x3cd857eb	0.02640911
208	0xbcd5d4b9	-0.02610241
209	0xbc28209d	-0.010261682
210	0x3c80094b	0.015629431
211	0xbd222881	-0.03958941
212	0x3c90a7bc	0.017658107
213	0x3d745743	0.05965353
214	0xbcc7d7ee	-0.024394955
215	0x3c89887a	0.01678871
216	0xbcea70f1	-0.028618308
217	0xbd8fe95d	-0.070269324
218	0x3d1842fb	0.037173253
219	0x3d6ea8e0	0.05826652
220	0xbd354141	-0.044251684
221	0x3d47ba2d	0.048761535
222	0xbccd2aee	-0.025044885
223	0xbd33ee6c	-0.04392855
224	0xbd4ce926	-0.050027035
225	0xbb697a10	-0.0035625733
226	0x3b5ed0a4	0.0033998871
227	0xbce76125	-0.028244564
228	0x3ceec4f8	0.029146656
229	0xbd3e1625	-0.046407837
230	0xbd48c779	-0.049018357
231	0x3d8be314	0.06830421
232	0xbc944a40	-0.018101811
233	0x3cb94c90	0.022619516
234	0x3ce7de7d	0.028304333
235	0x3d0d24f3	0.034459066
236	0x3d2aaac3	0.041666757
237	0xbcb9e73e	-0.022693273
238	0xbd28e83a	-0.041237094
239	0x3c1b2328	0.009468831
240	0xbcd94d01	-0.026525976
241	0xbd4fda21	-0.050745133
242	0xbbeedcda	-0.007289511
243	0xbc0bc67b	-0.008531208
244	0x3db54a85	0.08852104
245	0xbd44bea0	-0.048033357
246	0xbd7712b4	-0.06032057
247	0xbb8a5133	-0.0042211055
248	0xbd65b7a7	-0.056083348
249	0xbd7e56d7	-0.062094536
250	0x3c637294	0.013882298
251	0x3d40fb61	0.047114734
252	0xbd1e7d40	-0.038693666
253	0xbd333822	-0.043754704
254	0x3d581dbb	0.05276273
255	0x3d56235e	0.052279823

bias f4 [128]
0	0xbd0cb0e2	-0.034348376
1	0xbce3dcc0	-0.027815223
2	0xbbdbfede	-0.006713732
3	0x3c9f1426	0.019418787
4	0xbb9c1d2c	-0.0047642197
5	0x3da6fae0	0.08153319
6	0xbd09cbaa	-0.033641495
7	0x3dc112f0	0.0942744
8	0x3e11cf80	0.14239311
9	0x3c9540dc	0.018219404
10	0x3d8fe328	0.070257485
11	0x3c3aa0ed	0.011390907
12	0x3c31196e	0.010809286
13	0xbd2e42da	-0.042544223
14	0xbcf14d39	-0.029455768
15	0xbcadfe9a	-0.021239568
16	0x3d666529	0.056248818
17	0xbd86aca4	-0.06575897
18	0x3e0d15cb	0.13777845
19	0x3db2cef6	0.08730881
20	0xbd8cbdaf	-0.06872117
21	0x3a4dfd97	0.0007857917
22	0xbd7f1f0f	-0.06228548
23	0xbd152d1d	-0.036419977
24	0x3dc77f3b	0.09741064
25	0x3c3e993f	0.011633216
26	0xbd472b5d	-0.04862534
27	0xbcb1385e	-0.021633323
28	0x3d8a0e25	0.06740979
29	0x3cdccca9	0.026953058
30	0x3df73278	0.12070173
31	0x3c6b4394	0.014359374
32	0xbd3d410b	-0.046204608
33	0xbce619bf	-0.028088449
34	0x3ddc6fd5	0.10763518
35	0xbda6aeca	-0.08138807
36	0xbca35522	-0.019938055
37	0x3d27ceef	0.04096883
38	0xbd616eab	-0.05503718
39	0xbd0c3b7f	-0.034236427
40	0x3c479cdb	0.012183393
41	0x3daefb28	0.08543998
42	0x3d173fb8	0.036926
43	0xbceaecf3	-0.02867744
44	0x3cb7c18c	0.022431158
45	0x3b2d0167	0.002639854
46	0x3c86f3f0	0.01647374
47	0x3d87176f	0.065962665
48	0x3cd677e6	0.026180219
49	0xbd0c0240	-0.034181833
50	0x3d5b484e	0.053535752
51	0x3d3a93a4	0.045550957
52	0xbdae5860	-0.0851295
53	0xbc1e49b1	-0.009661124
54	0x3e2550ee	0.16144153
55	0xbd60197c	-0.054711804
56	0xbc82d954	-0.01597277
57	0x3d038eab	0.03211848
58	0xbd08afb2	-0.03337068
59	0x3e1aee22	0.15129903
60	0x3d01d97b	0.031701546
61	0x3d820c06	0.063499495
62	0x3d3c722d	0.046007324
63	0x3d90f0bc	0.070771664
64	0xbd6c372d	-0.057669807
65	0xbc5b075f	-0.013368457
66	0x3ca9beb7	0.020720823
67	0xbbbc6825	-0.0057497197
68	0x3db08fc6	0.086211726
69	0x3d11b011	0.0355683
70	0xbce7509a	-0.028236676
71	0x3c7839a6	0.015150463
72	0xbccd34b4	-0.025049545
73	0x3e2d734b	0.16938512
74	0xbce248e8	-0.027622655
75	0x3d3d47ae	0.046210937
76	0xbd030208	-0.03198436
77	0x3c08deec	0.00835393
78	0x3d875862	0.066086546
79	0x3c9b99e1	0.018994274
80	0xbd812c27	-0.063072495
81	0x3ce42e5c	0.027854137
82	0x3e025868	0.12729037
83	0x3d68b097	0.056809034
84	0x3c3602d5	0.011109074
85	0x3c9936d6	0.018702906
86	0x3d66c2aa	0.05633799
87	0x3c684f5c	0.014179077
88	0x3ca3aea5	0.019980738
89	0x3cf1ac84	0.029501207
90	0xbd6d984f	-0.05800658
91	0xbd416e83	-0.047224533
92	0xbd4517e6	-0.048118494
93	0x38c8176c	9.541106e-05
94	0xbd308113	-0.043091845
95	0x3d329dbd	0.043607462
96	0x3dfecaf3	0.12441053
97	0x3d4a9142	0.049454935
98	0x3e128f01	0.14312364
99	0xbd88ec74	-0.06685725
100	0x3ca59fed	0.02021786
101	0x3dfb8dad	0.12282882
102	0xbd36d1ad	-0.044633556
103	0x3d7836ca	0.060599126
104	0xbc6009be	-0.013674198
105	0xbcd7baae	-0.026334133
106	0x3ce87af6	0.028378945
107	0x3ddc8356	0.10767238
108	0xbb9104fc	-0.004425643
109	0x3c158dae	0.009128017
110	0xbbaac3ff	-0.005211353
111	0xbdcebe54	-0.10094896
112	0x3dd3d922	0.10344149
113	0xbd9d74c2	-0.076882854
114	0x3dd268a0	0.10273862
115	0x3d972dcc	0.07381782
116	0x3dc99d75	0.09844486
117	0xbcff1f8b	-0.03114297
118	0x3d3b8046	0.045776628
119	0xbd75c179	-0.059998963
120	0xbda2890e	-0.07936297
121	0x3d0641e2	0.032777674
122	0xbd19d7be	-0.037559263
123	0x3d66425b	0.056215625
124	0x3d914ca4	0.07094696
125	0xbcce2922	-0.025166098
126	0xbd07d1e8	-0.033159167
127	0x3db7019e	0.08935855

weight f4 [10, 128]
0	0xbdf69a9b	-0.120412074
1	0xbe3611b9	-0.17780198
2	0xbd08f52a	-0.03343693
3	0xbd1b2314	-0.03787525
4	0xbd646f61	-0.05577028
5	0x3e4b7233	0.19867782
6	0x3cf4c96a	0.029881198
7	0xbe39ae6d	-0.18132944
8	0x3daf8719	0.0857069
9	0xbdb406b2	-0.087903395
10	0x3c150e8d	0.009097707
11	0xbdc383c3	-0.09546616
12	0xbdacccd9	-0.08437509
13	0x3d0bafc6	0.034103177
14	0xbc6ac0c9	-0.01432819
15	0xbd6f7e5e	-0.058470123
16	0x3d1a9aaf	0.037745174
17	0xbdcd7108	-0.100313246
18	0xbcb5aba7	-0.022176577
19	0x3abf7851	0.0014608001
20	0xbd6971dc	-0.05699335
21	0xbd9c226c	-0.07623753
22	0xbdaf24bd	-0.08551929
23	0xbd98d30e	-0.074621305
24	0xbb2ef668	-0.0026697163
25	0x3d44546c	0.047932073
26	0x3cd009d6	0.025395315
27	0x3d18c960	0.03730142
28	0x3dc6d4e2	0.09708573
29	0xbd3003f4	-0.04297252
30	0x3d301c59	0.042995784
31	0xbdb21b0a	-0.086965635
32	0xbc33ff83	-0.010986212
33	0xbd737d44	-0.059445634
34	0xbc8b7246	-0.017022263
35	0xbe458f74	-0.19293004
36	0xbcb15357	-0.021646185
37	0x3e110d26	0.14165172
38	0xbe6ae45f	-0.22938679
39	0x3e3b6d4a	0.18303409
40	0xbcf2b8a8	-0.029629067
41	0x3e6d644e	0.23182794
42	0xbdf37286	-0.11887078
43	0x3c9d6c1c	0.01921659
44	0x3d22833f	0.039675947
45	0xbe00d501	-0.12581255
46	0x3c25a99a	0.010111237
47	0x3e2d1787	0.16903506
48	0x3d088b31	0.03333587
49	0xbdcb09ab	-0.099139534
50	0xbdd3bbfc	-0.103385895
51	0xbd071393	-0.03297765
52	0xbc4ba8e8	-0.012430407
53	0x3c772c06	0.01508618
54	0xbe4d7dbe	-0.20067498
55	0x3d84e610	0.064891934
56	0x3e00b90e	0.12570593
57	0xbdf55822	-0.119797006
58	0x3d2ee7a8	0.042701393
59	0xbdf857bd	-0.1212611
60	0xbd583052	-0.052780457
61	0x3df913a2	0.12161948
62	0x3d90c629	0.07069046
63	0x3dac08bc	0.084001034
64	0x3bee672f	0.007275484
65	0xbd89a381	-0.06720639
66	0xbcf56f1f	-0.029960213
67	0x3dcabe37	0.09899562
68	0xbe055352	-0.13020065
69	0x3d16b319	0.036791895
70	0x3d70a31d	0.058749307
71	0xbdffc423	-0.12488582
72	0x3dfe6575	0.12421695
73	0xbe2c3c1f	-0.1681981
74	0x3db76c25	0.08956174
75	0x3de453df	0.1114881
76	0xbc6cfb6a	-0.014464239
77	0x3de9aeef	0.11410319
78	0x3d1baae1	0.03800476
79	0x3d44e704	0.048071876
80	0xbd9f0c3f	-0.07766008
81	0x3d0f67e6	0.035011195
82	0x3c98d44b	0.018655917
83	0x3d5eaa5a	0.05436168
84	0xbcadf522	-0.021235052
85	0xbe344a7f	-0.17606543
86	0xbdcbc97e	-0.09950541
87	0xbe1e2e97	-0.1544746
88	0x3e0b2019	0.13586463
89	0x3db954d3	0.09049382
90	0xbd9c43fe	-0.07630156
91	0x3db979ff	0.09056472
92	0xbd09c3f5	-0.033634145
93	0xbccf6ff9	-0.025321947
94	0xbdadc2f5	-0.08484451
95	0xbd2556f5	-0.04036613
96	0x3d87aa4a	0.06624277
97	0x3dcc02b0	0.0996145
98	0xbe0dce6b	-0.13848273
99	0x3de56d55	0.11202494
100	0x3e662bd7	0.22477661
101	0x3e2680ab	0.1626002
102	0x3cf010df	0.02930492
103	0xbd16399a	-0.036676027
104	0x3c867fcc	0.01641836
105	0xbda6095d	-0.08107255
106	0x3cdec007	0.027191175
107	0xbcd9784c	-0.02654662
108	0x3da95783	0.08268645
109	0x3dbe82a6	0.09302263
110	0x3e167b0b	0.14695375
111	0xbcaec563	-0.021334356
112	0x3e1e070f	0.1543238
113	0xbdf099c5	-0.11748079
114	0x3db2c08e	0.08728133
115	0xbe1acbf5	-0.15116866
116	0x3df5241d	0.11969779
117	0x3c2cb7f9	0.010541909
118	0xbdb431b3	-0.08798542
119	0x3daefb5d	0.085440375
120	0xbdbea543	-0.09308865
121	0x3df759f8	0.12077707
122	0xbbc147f5	-0.0058984705
123	0x3db9ad3e	0.090662464
124	0x3e2f1918	0.17099416
125	0xbcddba59	-0.027066397
126	0xbdd459d6	-0.10368697
127	0xbbcf1d4e	-0.006320632
128	0xbb9deaf8	-0.00481927
129	0x3e6c6338	0.23084724
130	0x3d6b33d4	0.057422474
131	0x3e8bc402	0.2729798
132	0xbd69180a	-0.05690769
133	0xbe4005cc	-0.18752211
134	0x3d213960	0.039361358
135	0xbe027146	-0.12738523
136	0x3c94fead	0.018187845
137	0xbd585be3	-0.052822005
138	0xbc9b7451	-0.018976362
139	0xbe6e0493	-0.23243932
140	0xbdcf1500	-0.10111427
141	0x3b041b18	0.002015775
142	0x3c7e1355	0.015507539
143	0x3cc174ff	0.023615358
144	0x3d4b6f27	0.04966655
145	0xbe662b45	-0.22477444
146	0xbda543af	-0.0806955
147	0xbe09914a	-0.1343433
148	0x3cfd2051	0.030899199
149	0x3e7f9c49	0.24961962
150	0x3db4382a	0.08799775
151	0xbd99669d	-0.07490275
152	0xbccbd774	-0.02488301
153	0xbd50990c	-0.050927207
154	0xbad77091	-0.0016436746
155	0xbc1d4aa6	-0.009600317
156	0x3e418cbf	0.18901347
157	0xbd06e9fa	-0.03293798
158	0xbde628e0	-0.11238265
159	0x3db72aff	0.08943748
160	0xbdf71700	-0.12064934
161	0xbde0e581	-0.109812744
162	0xbd8aec73	-0.0678338
163	0xbdb951a9	-0.090487786
164	0xbdf6071a	-0.12013073
165	0x3e93b8b1	0.28851846
166	0x3cdd8a5a	0.02704351
167	0xbe5f19fc	-0.21787256
168	0x3d9c23da	0.07624026
169	0x3daabc1a	0.08336659
170	0xbe23f2cd	-0.1601059
171	0xbe0d9e52	-0.13829926
172	0xbd6e846c	-0.058231756
173	0x3bd02796	0.0063523753
174	0xbd1c6b10	-0.03818804
175	0x3cb5b898	0.022182748
176	0xbdef519d	-0.116854884
177	0xbc8639df	-0.016385017
178	0x3b037dfa	0.0020064102
179	0xbdeba6d5	-0.1150643
180	0xbe21dec6	-0.15807638
181	0x3e647785	0.22311218
182	0x3e2293be	0.15876672
183	0x3cb43fd3	0.02200309
184	0xbddcfca6	-0.10790376
185	0x3e42cd9e	0.19023749
186	0xbd90407b	-0.07043549
187	0xbd96ae36	-0.07357447
188	0x3de12c3f	0.109947674
189	0xbe3282b3	-0.1743267
190	0x3da5fdb2	0.08105029
191	0x3d062fbb	0.032760363
192	0xbe59a56b	-0.21254508
193	0x3d10ce11	0.03535277
194	0x3e0b1fc8	0.13586342
195	0xbde666ee	-0.11250101
196	0xbe06c8d2	-0.13162544
197	0x3e850ecb	0.2598785
198	0x3acbf199	0.0015559673
199	0x3e71b026	0.23602352
200	0x3e362fde	0.17791697
201	0xbe185b30	-0.14878535
202	0xbd9cd96a	-0.07658656
203	0x3db641f2	0.08899297
204	0xbc6f053b	-0.014588649
205	0x3de55cdf	0.111993544
206	0x3e3483a3	0.1762834
207	0xbc47f2e5	-0.012203907
208	0xbd6cb0ca	-0.057785787
209	0xbd9f2333	-0.077703856
210	0xbbda848e	-0.006668634
211	0x3e4960f3	0.1966589
212	0x3de5fa5e	0.112293944
213	0xbd9fa1d2	-0.07794537
214	0x3e62bb2d	0.22141714
215	0xbdf3514b	-0.1188074
216	0xbe1e1154	-0.15436298
217	0x3da80bfc	0.08205411
218	0xbd9e0b54	-0.077170044
219	0x3d25af15	0.040450174
220	0xbde81142	-0.11331417
221	0xbe0a311a	-0.13495293
222	0xbcc4e90f	-0.024036912
223	0xbdb21959	-0.08696241
224	0xbe00e531	-0.1258743
225	0xbcd000d3	-0.025391018
226	0x3e316d25	0.17326792
227	0xbe993d1c	-0.29929435
228	0x3e2ab3fe	0.16670224
229	0xbe747abf	-0.23874949
230	0xbd5d48a1	-0.054024342
231	0xbb8dec2b	-0.004331132
232	0xbdd37839	-0.10325665
233	0x3c87f1a4	0.016594715
234	0x3d453598	0.048146814
235	0x3e3ca315	0.18421586
236	0xb98000ad	-0.00024414566
237	0xbc0c9865	-0.008581256
238	0xbe0a3fc4	-0.13500887
239	0xbcac079f	-0.020999728
240	0xbe84b76f	-0.259212
241	0xbd944cbf	-0.07241201
242	0x3e173fd6	0.14770445
243	0xbd887107	-0.06662183
244	0x3e1de645	0.15419872
245	0x3a5dbd8f	0.00084587274
246	0xbe16901c	-0.14703411
247	0xbd073d6b	-0.033017557
248	0xbb841a61	-0.004031465
249	0x3dc5ea56	0.09663837
250	0x3d81c949	0.0633722
251	0xbe21d3a4	-0.1580339
252	0x3dc7993a	0.097460225
253	0x3e42f6c2	0.19039443
254	0xbcf07d4a	-0.029356617
255	0xbdb0623d	-0.086124875

bias f4 [10]
0	0x3d8c43de	0.06848882
1	0xbcded8a5	-0.027202914
2	0x3c319cc5	0.010840599
3	0xbd50f3ed	-0.051013876
4	0xbe5017de	-0.20321605
5	0x3f20e337	0.628467
6	0x3cddb16f	0.027062146
7	0xbc493a02	-0.012281897
8	0xbe34c934	-0.17654878
9	0xbe804d0c	-0.25058782
