models/conf_4.pt (torch, 944510 bytes, 6 tensors)

weight f4 [256, 784]
0	0x3d016db5	0.031598765
1	0x3c52e3dd	0.01287171
2	0x3cdcc525	0.026949475
3	0xbc9957ff	-0.018718718
4	0xbcac3b9c	-0.021024518
5	0x3c27f78e	0.010251893
6	0x3be7e4a6	0.0070768176
7	0x3c6cd50a	0.014455089
8	0x3cbf7ef4	0.023375966
9	0xbc0eb465	-0.008710002
10	0x3c8c8ae6	0.017156076
11	0xbcbc1226	-0.022957873
12	0x3be217a1	0.0068997894
13	0xbd2c0930	-0.04200095
14	0xbd040046	-0.032226823
15	0xbd2434de	-0.04008948
16	0xbcb7b770	-0.022426337
17	0x3cda66e2	0.026660386
18	0xbcc9c6f6	-0.024631005
19	0xbb9af6de	-0.004729136
20	0xbc806135	-0.015671352
21	0x3c8d09f2	0.017216656
22	0x3d13c54e	0.036076836
23	0xbcdf877e	-0.027286287
24	0xbc49cae0	-0.012316436
25	0xbc5160d5	-0.012779434
26	0xbc2f5805	-0.010702138
27	0x3c8ca9cc	0.01717081
28	0x3ca77c7c	0.020445101
29	0x3c06276e	0.008188112
30	0xbc2bc820	-0.010484725
31	0x3cd14b52	0.02554861
32	0xbc952801	-0.018207552
33	0xbca6f96c	-0.020382605
34	0x3cda5c08	0.026655212
35	0xbd13350c	-0.03593926
36	0x3c96c1a6	0.018402886
37	0x3bc8c165	0.00612657
38	0xbcab50d5	-0.020912567
39	0xbbb99139	-0.005663064
40	0x3c1b6171	0.009483681
41	0xbcbe1cb8	-0.023207054
42	0x3c26c614	0.010179061
43	0xbd24764a	-0.04015187
44	0x3c268fee	0.010166151
45	0x3c8e000d	0.017334009
46	0x3c64531e	0.013935832
47	0xbc842921	-0.016132893
48	0x3ce1699d	0.02751618
49	0x3c5b5e58	0.0133891925
50	0x3ca42e38	0.02004157
51	0xbad66349	-0.0016356494
52	0xb8b2eac0	-8.531427e-05
53	0xbc81b94c	-0.015835427
54	0x3ca4b464	0.020105548
55	0x3b8c7599	0.0042864797
56	0xbc412c6f	-0.011790379
57	0xba9b4797	-0.0011846897
58	0x3cc7b560	0.024378479
59	0x3cfa663b	0.030566325
60	0xbcc0b2d7	-0.023522777
61	0x3d00d94f	0.03145724
62	0x3c433b09	0.011915931
63	0xbb2256f8	-0.0024771076
64	0x3cb2c1ef	0.02182099
65	0xbbd872f1	-0.006605499
66	0x3c3c2408	0.0114832
67	0xbc8f095c	-0.017460518
68	0x3cabbd6d	0.020964349
69	0x3c460980	0.012087226
70	0x3cbfdc28	0.023420408
71	0x3c9ee04c	0.019394062
72	0x3c45b282	0.012066485
73	0xbd006a0c	-0.031351134
74	0x398da7ad	0.00027018544
75	0x3ca8f55e	0.020624813
76	0xbc963243	-0.018334514
77	0xbcbea80d	-0.023273492
78	0x3ce1393e	0.027493116
79	0x3c281108	0.010257967
80	0x3cf9e148	0.03050293
81	0xbd063692	-0.032766886
82	0x3c8c649c	0.017137818
83	0xbce9fefd	-0.02856397
84	0x3cb914dd	0.022592956
85	0xb9675e71	-0.00022065059
86	0xba9045c9	-0.0011007126
87	0x3cde8243	0.027161723
88	0xbc2d3a17	-0.010572932
89	0xbceea6a1	-0.02913219
90	0xbb5357ce	-0.003224838
91	0x3cd849b7	0.026402337
92	0xbcba6bac	-0.02275642
93	0x3bcc8999	0.006241989
94	0xbc649a18	-0.013952754
95	0x3cc49b80	0.02399993
96	0xbd068445	-0.032840986
97	0xbb8c7855	-0.0042868056
98	0x3ca4876c	0.020084105
99	0x3c38e9e4	0.011286233
100	0xbcbdf6df	-0.023189006
101	0x3c3183eb	0.010834674
102	0x3bc04382	0.0058674226
103	0xbc34d952	-0.011038141
104	0x3d0f1acd	0.03493767
105	0xbc3b2192	-0.011421578
106	0xbb55e346	-0.0032636686
107	0x3a4b6f1e	0.0007760393
108	0x3c5c0fb5	0.013431479
109	0x3bc63456	0.0060487194
110	0xbcbd5d9f	-0.023115931
111	0x3cef3fbb	0.029205194
112	0xbbc8444f	-0.0061116586
113	0xbc6711c8	-0.0141033605
114	0xbd08c5d7	-0.0333918
115	0x3ce5fa20	0.02807337
116	0x3cafaa84	0.021443613
117	0x3ca8c535	0.020601848
118	0xbcebb13d	-0.028771037
119	0xbd14dfb0	-0.036346138
120	0x3bc03e00	0.005866766
121	0xbcd0e1c5	-0.02549828
122	0x3c922eb5	0.017844537
123	0x3a3a6768	0.00071107456
124	0x389d4edf	7.501034e-05
125	0xba52c837	-0.00080406986
126	0x3be468b3	0.006970489
127	0x3cf4bd97	0.02987556
128	0xbc6570f3	-0.01400398
129	0x3c9a32a6	0.01882298
130	0xbd03a0ee	-0.032135896
131	0xbcb42edf	-0.021995006
132	0xbcd38088	-0.025818124
133	0xbb8ab213	-0.004232654
134	0xbcb08e10	-0.021552116
135	0x3b97a99d	0.004628374
136	0xbcd5f534	-0.026117899
137	0xbc22c3a4	-0.00993434
138	0xbccc5d96	-0.024946969
139	0xbb819345	-0.0039543235
140	0xbcff60e9	-0.03117414
141	0xbc83c3b8	-0.016084537
142	0x3bd8fddd	0.0066220597
143	0x3b9a3e26	0.0047071157
144	0xbc2f8705	-0.0107133435
145	0xbc9e1401	-0.019296648
146	0x3cd671ac	0.02617725
147	0xbd0bfb90	-0.034175456
148	0x3ca419c7	0.020031823
149	0x3bec0b77	0.007203515
150	0x3b71140d	0.0036785633
151	0xbbea01df	-0.0071413363
152	0xbc9395c7	-0.018015755
153	0xbd05c52c	-0.03265874
154	0xbc90e62b	-0.017687878
155	0xbc885161	-0.016640367
156	0x3b854ec5	0.004068228
157	0xbc99ee1f	-0.018790303
158	0xbc597b36	-0.013274005
159	0x3d074354	0.033023193
160	0x3b3ae98c	0.0028520552
161	0xbbf174c7	-0.0073686573
162	0x3cc22b8a	0.023702402
163	0x3c8d6356	0.017259281
164	0x3b443bf6	0.0029942966
165	0x3c9d71fe	0.019219395
166	0x3bfa3e46	0.007636818
167	0xbc086e5c	-0.008327093
168	0x3d058dfa	0.032606103
169	0xbca8a739	-0.02058755
170	0x3c9cb2d7	0.019128246
171	0x3b888f22	0.0041674534
172	0xbccdbeac	-0.025115333
173	0xbba5dfa0	-0.0050620586
174	0xbcda2369	-0.026628213
175	0xbcf21132	-0.029549215
176	0x3ca22f1c	0.019797854
177	0x3c2ada80	0.010428071
178	0xbcf206c4	-0.029544242
179	0xbd20413b	-0.03912471
180	0xbd1921d2	-0.03738577
181	0xbc8cfbe6	-0.017209958
182	0xbd13bb64	-0.03606738
183	0xbca7895f	-0.020451246
184	0x3cf0e433	0.029405689
185	0x3c1b0a5f	0.009462922
186	0xbcfaf972	-0.030636523
187	0x3cf40f19	0.029792355
188	0x3c92108f	0.017830161
189	0xbc970f0e	-0.018439796
190	0x3b8547e7	0.0040674093
191	0xbb8f1d62	-0.0043675164
192	0xbcf9f6b2	-0.030513141
193	0x3cb6064e	0.022219803
194	0x3c35f5ed	0.011105997
195	0x3cc81f40	0.024428964
196	0x3d02936e	0.03187888
197	0xbd0fd90e	-0.03511911
198	0x3cc0786b	0.02349492
199	0x3ce26e31	0.027640434
200	0xbd1ee32d	-0.03879087
201	0xbcbff045	-0.02343
202	0x3a8a9c49	0.0010575141
203	0xbc65f022	-0.014034303
204	0xbd0d7863	-0.034538638
205	0xbd01699d	-0.03159486
206	0xbd1ad41b	-0.037799936
207	0xbc804b83	-0.015661007
208	0xbd40ab8e	-0.047038607
209	0x3cb79101	0.02240801
210	0xbc9b6b61	-0.0189721
211	0x3b6264b9	0.0034544899
212	0xbcb48363	-0.022035306
213	0x3aee35de	0.0018174013
214	0xbb5f9f6b	-0.003412212
215	0x3d0936fb	0.0334997
216	0xbcd730a7	-0.026268316
217	0x3ca1cc52	0.019750748
218	0xbd0ef28c	-0.03489928
219	0x3cbac1c3	0.02279747
220	0x3cd525c2	0.02601898
221	0x3d017c91	0.031612936
222	0x3bb75934	0.0055953506
223	0xbd030f1f	-0.031996842
224	0xbcd74f5f	-0.026282964
225	0xbd16a6f5	-0.036780316
226	0x3b9f3aef	0.0048593204
227	0xbc15f342	-0.009152235
228	0xbca07dff	-0.01959133
229	0xbce7ddc7	-0.028303994
230	0x3c2fbc2a	0.010726014
231	0xbce4140f	-0.027841596
232	0xbd607190	-0.0547958
233	0xbd7801aa	-0.060548462
234	0xbd46df58	-0.04855284
235	0xbcb6ee56	-0.022330444
236	0xbd217cc9	-0.039425645
237	0x3ca421b7	0.020035608
238	0xbd106804	-0.035255447
239	0x3cd701e4	0.026246019
240	0xbba6f7eb	-0.005095472
241	0x3c97dc97	0.018537803
242	0xbcd45ab9	-0.025922166
243	0xbcf14ba1	-0.029455008
244	0xbc69444c	-0.014237475
245	0x3cd58d72	0.026068423
246	0xbc5253ba	-0.012837345
247	0x3a28e1dc	0.0006442347
248	0xbc2d8ccb	-0.01059265
249	0x3c816ccb	0.015798947
250	0x3cceed0c	0.025259517
251	0x3a077d9e	0.000516856
252	0xbcc287a9	-0.023746328
253	0xbb8d8363	-0.004318641
254	0xb8ad2044	-8.255293e-05
255	0x3c266aaf	0.010157271

bias f4 [256]
0	0x3d328b16	0.043589674
1	0x3b070b50	0.0020606108
2	0xbc9e483b	-0.019321552
3	0xbc16cc4a	-0.00920398
4	0x3d10e89e	0.03537809
5	0xbce11067	-0.027473642
6	0x3c5adf2b	0.013358871
7	0x3d17cc1f	0.0370599
8	0x3d8022fe	0.06256674
9	0xbc4a9206	-0.012363916
10	0xbd5e0172	-0.054200597
11	0x3ca2724c	0.019829892
12	0xbc50f9ec	-0.0127548985
13	0xbc989f43	-0.01863063
14	0x3b1ff378	0.0024406593
15	0x3cd79a51	0.026318701
16	0xbcd18584	-0.02557636
17	0x3d55c35e	0.05218827
18	0x3cc9821d	0.024598176
19	0x3d81a7a1	0.06330801
20	0xbc83c027	-0.016082836
21	0x3c4c5fa6	0.012473976
22	0xbaa97961	-0.001292985
23	0xbc5131ca	-0.012768218
24	0x3c85f62e	0.01635274
25	0xbcc8efb2	-0.024528358
26	0xbd490f45	-0.049086828
27	0xbc71aa77	-0.014750115
28	0x3cae47e4	0.021274514
29	0xbc8767c6	-0.016528975
30	0x3cc5d200	0.024147987
31	0xb8dd6c8d	-0.0001055832
32	0x3cef1890	0.029186517
33	0x3b8eec93	0.004361698
34	0x3d2f67db	0.042823654
35	0xbcd12ddb	-0.02553456
36	0x3d25f65b	0.040518146
37	0x3c2a7f0e	0.010406269
38	0xbbcecdb7	-0.006311144
39	0x3c11bead	0.008895558
40	0xbc06c77e	-0.008226274
41	0xbcf4f0b3	-0.02989993
42	0x3cc5d918	0.02415137
43	0x3c60a3bd	0.013710913
44	0x3d3f96f7	0.04677483
45	0x3d2e902a	0.042617954
46	0xbccf46c9	-0.025302308
47	0x3c8268ab	0.01591905
48	0x3c551d06	0.013007408
49	0xbccd0b76	-0.025029879
50	0x3c93e7f0	0.018054932
51	0x3d773222	0.060350545
52	0x3d441c0c	0.04787831
53	0x3c28d99d	0.010305789
54	0xbca36df2	-0.019949887
55	0x3d167c16	0.03673943
56	0x3cd95d54	0.02653376
57	0xbc2e8f90	-0.010654345
58	0x3cb8516d	0.022499764
59	0x3d4e04bd	0.050297488
60	0x3c835720	0.016032755
61	0x3d358180	0.044312954
62	0xbbf5b6dd	-0.0074986056
63	0x3d4068ca	0.046974935
64	0x3d042851	0.03226501
65	0x3d4b16b8	0.049582213
66	0xbbf917de	-0.007601722
67	0xbd24fb07	-0.04027846
68	0x3ce04c7d	0.027380222
69	0xbb9afa39	-0.004729536
70	0xbb8425e1	-0.004032836
71	0x3b236dd2	0.0024937284
72	0x3b3a8ed3	0.0028466478
73	0x3b88df82	0.004177035
74	0xbcfc0da4	-0.030768223
75	0x3ce61e3b	0.028090587
76	0x3cba0c44	0.022710927
77	0x3d66fe2e	0.05639475
78	0x3d1484f8	0.03625962
79	0x3d1c658f	0.03818279
80	0x3ca5e744	0.020251878
81	0x3d3e0bd8	0.046398014
82	0x3c981203	0.018563276
83	0xbac0c66d	-0.0014707573
84	0x3c19afea	0.00938032
85	0x3bc44edf	0.0059908475
86	0xbcdc9ea5	-0.026931116
87	0xbc460a5e	-0.012087433
88	0xbc0437e0	-0.008069962
89	0xbd092492	-0.03348214
90	0x3c251993	0.010076898
91	0xbcfd1525	-0.030893872
92	0xbc2c6d3c	-0.01052409
93	0xbb49a946	-0.003077106
94	0x3c05fea1	0.008178384
95	0x3c8cd0ec	0.017189465
96	0x3c8085f0	0.015688866
97	0xbbb8a522	-0.0056349197
98	0x3c28d050	0.010303572
99	0x3ba3107b	0.00497633
100	0x3bd0e00b	0.0063743643
101	0xbce7c411	-0.028291734
102	0x3d0841ae	0.033265762
103	0xbccbf28b	-0.024895927
104	0xbd0c73c3	-0.034290086
105	0x3c8bf2cb	0.017083546
106	0x3c8dfe12	0.017333064
107	0x3c78ee6f	0.015193566
108	0xbcccc23c	-0.024994962
109	0xbcd8e75a	-0.026477505
110	0xbbb7d118	-0.0056096427
111	0xbc56e8a9	-0.013116994
112	0x3bc871c1	0.006117076
113	0x3bd4ee50	0.0064981356
114	0xbcc1d7ea	-0.023662526
115	0xbcf50947	-0.02991165
116	0xbc59734d	-0.013272119
117	0xbcc66a16	-0.024220508
118	0xbcb59ad5	-0.022168556
119	0x3ca3b32f	0.019982902
120	0x3d0c9c98	0.034329027
121	0x3c006e0c	0.007838737
122	0x3d01ac7e	0.031658642
123	0xbcc6b3b8	-0.024255618
124	0xbc81e300	-0.015855312
125	0x3c36fc7b	0.0111685945
126	0x3c458b70	0.01205717
127	0x3d2450df	0.040116187
128	0x3bf2dc7e	0.0074115386
129	0xbc800f57	-0.015632315
130	0xbd194818	-0.03742227
131	0x3c0fe903	0.008783582
132	0xbcb05716	-0.0215259
133	0x3c0dc1b6	0.008652141
134	0xbca9127a	-0.020638693
135	0x3d824842	0.06361438
136	0x3a920c12	0.0011142513
137	0xbc83cc8f	-0.016088752
138	0xba9b4514	-0.0011846148
139	0x3ceb0d05	0.028692732
140	0x3b90c2a9	0.0044177365
141	0x3cd1e94b	0.025623938
142	0xba980862	-0.0011599178
143	0xbc98645a	-0.018602539
144	0xbd6058b5	-0.054772098
145	0xbb86403e	-0.0040970137
146	0xb900404c	-0.00012230984
147	0x3d06ec65	0.032940287
148	0x3bf8f1cc	0.007597184
149	0xbd21c79b	-0.039497
150	0x3cc52780	0.024066687
151	0x3d2bf6ad	0.041983295
152	0x3c0ffe74	0.008788694
153	0x3bec4432	0.007210278
154	0x3bc1476e	0.0058984077
155	0xb96bc854	-0.00022485974
156	0x3cfcf94a	0.030880589
157	0xbccde323	-0.025132721
158	0xbca30e94	-0.019904412
159	0xbcc64afe	-0.024205681
160	0x3c43c5cf	0.011949017
161	0x3d5e2b73	0.054240655
162	0xbc37a308	-0.011208303
163	0xbc97b8da	-0.018520761
164	0xbcc1b7c1	-0.023647191
165	0xbc8cc485	-0.017183552
166	0x3c46009f	0.012085109
167	0x3d2e3f69	0.04254094
168	0x3c13ae2c	0.009013694
169	0xb8ad4b12	-8.263266e-05
170	0xbcbddf0f	-0.023177652
171	0xbb83874f	-0.004013933
172	0xbc813357	-0.015771551
173	0xbb8a08a7	-0.004212457
174	0xbcc069ae	-0.023487892
175	0xbce9daa6	-0.028546643
176	0xbcb51f7b	-0.022109738
177	0x3d4442be	0.047915213
178	0x3d7845de	0.060613506
179	0xbd278e9f	-0.0409075
180	0x3b8f53d7	0.004374008
181	0x3cde1bc7	0.027112855
182	0x3bec49e7	0.0072109583
183	0x3d221417	0.03956994
184	0xbc150a3f	-0.009096681
185	0xbc353a19	-0.011061215
186	0x3caaeaa7	0.020863844
187	0x3cc1faa3	0.023679083
188	0xbc78b26f	-0.015179261
189	0xbb8a0409	-0.004211907
190	0xbcf0ce72	-0.029395316
191	0x3bcd675b	0.0062684244
192	0x3b1c87a4	0.002388456
193	0xbcf5e823	-0.030017918
194	0x3cacc02e	0.021087732
195	0xbc7253d8	-0.014790498
196	0x3caa3987	0.020779384
197	0x3d0d729f	0.03453314
198	0x3d4d23c0	0.050082922
199	0xbcc749cc	-0.024327181
200	0x3cd8b056	0.026451271
201	0xbc3521d0	-0.011055425
202	0xbc443390	-0.011975184
203	0x3d9adf89	0.07562167
204	0x3c8fae69	0.01753922
205	0xbcd97f11	-0.026549848
206	0xbcf5ee79	-0.03002094
207	0x3c5f6716	0.013635417
208	0xbc994dc2	-0.018713836
209	0x3d503bf4	0.050838426
210	0x3cf3f40e	0.02977946
211	0x3d070039	0.032959197
212	0xbc01ae11	-0.007915036
213	0x3caa3994	0.020779409
214	0xbd1dd7e3	-0.038535964
215	0x3d0aa1e0	0.033845782
216	0x3d196507	0.037449863
217	0xba230a4b	-0.00062194903
218	0x3c9f1d61	0.019423189
219	0xbd0f095b	-0.03492103
220	0x3d326233	0.04355068
221	0x3cb0777d	0.021541351
222	0x3ca86677	0.020556672
223	0xbd0003a3	-0.03125347
224	0xbafc8794	-0.001926648
225	0xbcbc5b7a	-0.022992838
226	0x3abd5720	0.0014445521
227	0x3d0830eb	0.033249777
228	0x3a4b4f9e	0.00077556993
229	0xbbcb1b95	-0.0061983564
230	0x3b9743e5	0.004616248
231	0xbcc2b7ce	-0.023769286
232	0x3ca5a57c	0.02022051
233	0xbcfbe4b0	-0.030748695
234	0x3c865dc5	0.016402135
235	0x3c290845	0.010316913
236	0xbbc9337a	-0.0061401697
237	0xbd69997f	-0.05703115
238	0x3c9edf38	0.019393548
239	0x3c58e6a8	0.0132385865
240	0x3d15b839	0.03655264
241	0x3bf680d1	0.0075226803
242	0xbcc654ff	-0.024210451
243	0xbcc2793c	-0.02373945
244	0xbc4da5fe	-0.012551783
245	0x3d4b96c8	0.049704343
246	0xbb4dab6c	-0.0031382693
247	0x3c95b5fb	0.018275252
248	0x3ca11687	0.019664062
249	0x3d3e8715	0.046515543
250	0xbccad126	-0.024757933
251	0xbc8dc025	-0.017303536
252	0x3d5d378b	0.054008048
253	0xbcf0e0c4	-0.029404052
254	0x3cd4b9d6	0.02596752
255	0xbc9a8bc0	-0.018865466

weight f4 [128, 256]
0	0x3c9c3dc0	0.019072413
1	0xbc96c799	-0.018405722
2	0xbc86065d	-0.016360456
3	0x3d443cd0	0.047909558
4	0x3d87ddf6	0.066341326
5	0xbd0245d1	-0.031804863
6	0x3d8cfefc	0.06884572
7	0x3b2e353f	0.002658203
8	0xbc9117c6	-0.017711531
9	0x3d7a0c70	0.061047018
10	0xbd667407	-0.056262996
11	0x3c0d591a	0.0086272005
12	0x3bfe1d7c	0.0077549797
13	0x3d12fcfe	0.035885803
14	0xbca378a3	-0.019954985
15	0xbd29a491	-0.04141671
16	0x3c10bc6f	0.008833989
17	0x3cdee1ba	0.027207244
18	0xbd05e50f	-0.03268915
19	0x3ccacac6	0.024754893
20	0x3d64494e	0.05573397
21	0x3d3f0da2	0.04664386
22	0xbccd563e	-0.025065538
23	0xbc489174	-0.01224171
24	0xbcdb7068	-0.026786998
25	0x3b47bb3f	0.0030476598
26	0xbd09ea1e	-0.033670537
27	0x3c66f51d	0.0140965255
28	0x3c58c9fc	0.013231751
29	0xbd5bd724	-0.05367197
30	0xbbae8eda	-0.005327088
31	0x3b64cfd2	0.003491391
32	0xbd3d802a	-0.046264805
33	0x3d1aca08	0.03779033
34	0xbd1cade1	-0.03825176
35	0xbb018e6c	-0.0019768728
36	0x3baafc58	0.00521807
37	0xbbd303d7	-0.0064396667
38	0x3d810ac2	0.0630088
39	0x3c848310	0.016175777
40	0x3ca254ec	0.019815885
41	0x3d2555fd	0.040365208
42	0x3d1c4911	0.03815562
43	0x3d2cc593	0.04218061
44	0x3d2eeff0	0.04270929
45	0x3d8852c3	0.066564105
46	0xbd75b230	-0.059984386
47	0x3bcfe61f	0.0063445712
48	0x3d550a5d	0.052011836
49	0xbbe19714	-0.006884465
50	0x3cf55c85	0.029951343
51	0xbd5286ee	-0.05139821
52	0xbbc7bdda	-0.00609563
53	0x3c0df3be	0.00866407
54	0xbc74f291	-0.01495041
55	0xbcd14588	-0.02554585
56	0xbd19564f	-0.037435826
57	0xbd435ed8	-0.047697872
58	0xbd257dd1	-0.04040319
59	0xbbe524ba	-0.0069929035
60	0x3d448d2b	0.04798619
61	0x3cd15b3f	0.025556205
62	0xbcacfc24	-0.021116324
63	0xbd21b004	-0.039474502
64	0xbd432405	-0.047641773
65	0xbd33b92d	-0.04387777
66	0x3d05c61f	0.032659646
67	0xbd82657e	-0.06367014
68	0x3d6c12c5	0.057635088
69	0x3d7d6d96	0.061872087
70	0x3ccf6c69	0.025320249
71	0x3d028db7	0.03187343
72	0xbbf95075	-0.007608468
73	0xbca81405	-0.020517359
74	0xbc495c03	-0.012290004
75	0x3d23199a	0.039819337
76	0xbc9bc9b1	-0.019017072
77	0x3beef998	0.0072929375
78	0xbb0f103c	-0.0021829745
79	0x3d75f2ac	0.060045883
80	0xbd811ab8	-0.06303924
81	0x3cda6145	0.02665771
82	0xbd47ab7c	-0.048747525
83	0x3d4cd0fd	0.050003994
84	0xbce3baed	-0.027799094
85	0xbd22c122	-0.039734967
86	0xbaa00fb6	-0.0012211713
87	0xbd5d3665	-0.054006953
88	0x3d3b94a9	0.04579607
89	0x3c7f96b3	0.015599894
90	0x3cac6037	0.021041973
91	0xbd08f7b0	-0.03343934
92	0xbbe7cb00	-0.00707376
93	0xbc704479	-0.014664763
94	0x3be51d86	0.006992045
95	0xbd801967	-0.06254845
96	0x3cc1276b	0.023578366
97	0xbd53347a	-0.051563717
98	0x3d36475a	0.04450164
99	0x3c065247	0.008198327
100	0xbd614d02	-0.05500508
101	0xbd4d8ef1	-0.050185148
102	0xbc1cf8ce	-0.009580804
103	0x3bfa955e	0.0076472005
104	0x3c0f371f	0.008741169
105	0x3c108592	0.008820908
106	0xbc6c2913	-0.01441409
107	0xbbf54097	-0.0074845064
108	0x3d1c3125	0.038132805
109	0xbd6857b8	-0.05672428
110	0xbc8f671b	-0.01750522
111	0xbd71ebb2	-0.059062667
112	0x3d855a84	0.06511405
113	0x3c06abf2	0.008219706
114	0xbd8685f3	-0.065685175
115	0xbc9b13bf	-0.018930314
116	0xbd498bb3	-0.049205493
117	0xbd5ac025	-0.0534059
118	0xbbf7689d	-0.0075503127
119	0xbd695d89	-0.056973968
120	0xbd470700	-0.04859066
121	0xbce6247f	-0.028093575
122	0x3d158c1c	0.03651057
123	0xbbf3ed50	-0.0074440613
124	0xbd6fa603	-0.05850793
125	0x3cd6dfe6	0.02622981
126	0x3cdf50e9	0.02726026
127	0xbc3895c8	-0.011266179
128	0xbd51f004	-0.051254287
129	0xbcd8e22d	-0.026475037
130	0xbd4a1546	-0.049336694
131	0xbd5b1f4a	-0.053496636
132	0xbd63f68a	-0.05565504
133	0xbd5e79fa	-0.054315545
134	0x3d4c3a85	0.049860496
135	0x3d2ada9c	0.04171239
136	0x3d4dadd9	0.050214622
137	0xbbca6708	-0.006176833
138	0x3cda3d4f	0.026640562
139	0xbbd4a23e	-0.0064890673
140	0xbd09c265	-0.033632655
141	0x3d3ce4a2	0.04611648
142	0xbcf7b4f8	-0.03023766
143	0xbc8f7ae8	-0.017514661
144	0x3cc7c68b	0.024386665
145	0x3d027511	0.031849924
146	0xbd6d8c87	-0.057995345
147	0x3ab03142	0.0013442414
148	0x3cf636dc	0.030055456
149	0xbd293997	-0.041314688
150	0x3cc4d96d	0.024029458
151	0x3d0b6d41	0.03403974
152	0xbd5b16ea	-0.05348865
153	0xbc1b7352	-0.009487944
154	0xbd28262e	-0.041052036
155	0x3d80401a	0.062622264
156	0x3d5699e1	0.052392844
157	0xbcc131ce	-0.023583319
158	0xbcf77664	-0.03020782
159	0x3d198f3b	0.03749011
160	0x3c866809	0.01640703
161	0xbb1259bd	-0.002233132
162	0xbd158536	-0.036503993
163	0xbc17287a	-0.009225959
164	0x3ca36fda	0.019950796
165	0xbd01eea0	-0.03172171
166	0x3d1b10e7	0.037857916
167	0xbd1e8f4d	-0.03871088
168	0xbcfb5a02	-0.030682568
169	0x3cef838f	0.029237537
170	0x3a5d8546	0.000845034
171	0x3d01fc05	0.031734485
172	0x3d67d7bf	0.056602236
173	0x3d37a026	0.044830464
174	0x3d87fc21	0.06639887
175	0x3d6bde8b	0.05758528
176	0x3d3e2ddc	0.046430454
177	0x3d1b4f8d	0.037917662
178	0x3d2211c6	0.03956773
179	0x3d06db7c	0.03292416
180	0xbd47b14e	-0.048753075
181	0x3cca580d	0.024700189
182	0xbd00e58d	-0.031468917
183	0x3d01726a	0.031603254
184	0xbc2bc923	-0.010484966
185	0x3d56bfec	0.052429125
186	0x3cd60eec	0.026130162
187	0xba20408a	-0.00061131327
188	0xbd3d32a4	-0.046190873
189	0x3d676513	0.056492876
190	0x3d489df8	0.048978776
191	0x3d5e571f	0.054282304
192	0x3ce86cb1	0.02837214
193	0x3c085084	0.008319978
194	0x3d384d03	0.04499532
195	0xbd531d10	-0.051541388
196	0xbca8d232	-0.020608041
197	0xbc80db45	-0.015729556
198	0x3d5055d3	0.0508631
199	0xbd3e25c0	-0.04642272
200	0xbab10050	-0.0013504121
201	0xbcedac7c	-0.029012911
202	0xbc551b92	-0.013007062
203	0x3d7ab437	0.061207023
204	0x3d77a06f	0.060455736
205	0x3bfe8941	0.007767827
206	0x3d1f3e8d	0.038878012
207	0xbc6de717	-0.014520428
208	0x3d2679f9	0.040643666
209	0xbd2dd7d8	-0.042442173
210	0x3cdfb7cd	0.027309323
211	0x3d48c3cc	0.04901485
212	0xbb8a07da	-0.0042123618
213	0xbd17d34b	-0.03706674
214	0x3d16bd5a	0.036801673
215	0x3d2beebb	0.041975718
216	0x3d41404b	0.047180455
217	0x3d05aa41	0.03263307
218	0xbd6aa5ae	-0.05728691
219	0x3b8310c5	0.003999802
220	0x3b6bdac2	0.0035988544
221	0x3cbec15a	0.023285557
222	0x3d748eed	0.059706617
223	0x3bc7be8d	0.0060957135
224	0xbd4abd7f	-0.049497124
225	0xbc80772a	-0.015681822
226	0x3d70d7c8	0.058799535
227	0xbd01e107	-0.031708743
228	0xbcd6e9a0	-0.026234448
229	0xbd46f168	-0.048570067
230	0xbd2bb594	-0.041921213
231	0xbc7ce087	-0.015434391
232	0xbd00e709	-0.031470332
233	0x3c9db3d4	0.019250788
234	0x3d2b8356	0.0418733
235	0xbd4ba1bd	-0.049714793
236	0x3d3a746b	0.04552118
237	0xbd680580	-0.05664587
238	0x3d63af63	0.055587184
239	0x3c0f4097	0.008743427
240	0xbd4e7800	-0.05040741
241	0xbc8f7d36	-0.01751576
242	0x3d2035db	0.03911386
243	0x3ccfc65f	0.025363145
244	0x3c53fcbe	0.012938676
245	0xbc9ce1f4	-0.019150712
246	0x3d4745f8	0.04865071
247	0xbd2918db	-0.04128347
248	0x3d4edec7	0.050505426
249	0xbd13fa64	-0.036127463
250	0xbd2244d4	-0.03961642
251	0x3d06967a	0.03285835
252	0x3d0ebf4d	0.034850407
253	0x3cf96b55	0.030446688
254	0x3cc094e5	0.023508498
255	0x3d31d06e	0.043411665

bias f4 [128]
0	0xbd15b789	-0.036551986
1	0xbb7b56aa	-0.0038351216
2	0x3ca058bf	0.019573567
3	0x3df86b35	0.12129823
4	0x3da8551e	0.0821936
5	0x3e13a788	0.14419377
6	0x3d9157ed	0.07096849
7	0xbcc3fb7b	-0.023923626
8	0x3b4209df	0.0029607934
9	0x3d4a5f67	0.04940739
10	0x3d6c5025	0.05769362
11	0x3c0f8def	0.008761867
12	0x3c883d72	0.016630862
13	0x3d99dcdd	0.075128295
14	0xbd1eb77c	-0.038749203
15	0x3c031e76	0.008002868
16	0xbd884c4c	-0.066551775
17	0x3d4104c3	0.04712368
18	0x3d88372c	0.06651148
19	0x3b7641e7	0.0037575902
20	0x3b624082	0.0034523313
21	0xbcfbb970	-0.030728072
22	0x3dc1c462	0.09461285
23	0xbde75f4d	-0.11297474
24	0x3d5aa98b	0.053384345
25	0xbba1837b	-0.004929004
26	0x3d93f420	0.072242975
27	0x3d6c70d8	0.057724804
28	0xbd0d1358	-0.034442276
29	0x3d688338	0.056765765
30	0xbd5905ae	-0.052983932
31	0x3cc50b73	0.024053311
32	0x3db7c816	0.0897371
33	0x3c72b9c0	0.014814794
34	0xbcc78123	-0.02435357
35	0x3dadda37	0.08488887
36	0x3d4434de	0.04790198
37	0xbd43e087	-0.047821548
38	0xbc419316	-0.011814853
39	0x3d9e9b7d	0.07744501
40	0x3d468484	0.04846622
41	0x3c118170	0.008880958
42	0x3db7f58c	0.08982381
43	0x3d13bb3b	0.03606723
44	0xbca5fb80	-0.020261526
45	0x3d8b2147	0.067934565
46	0x3dba4eea	0.09097083
47	0x3ad637ab	0.0016343495
48	0x3c8ccccb	0.017187497
49	0x3cfa0187	0.030518306
50	0x3df4ee4b	0.11959513
51	0x3daa9381	0.083289154
52	0x3d49fe7a	0.049314953
53	0x3e0aeac5	0.1356612
54	0x3d356df9	0.04429433
55	0xbd3597df	-0.04433429
56	0xbe06ed0f	-0.13176368
57	0xbc1c2694	-0.009530682
58	0xbcef471a	-0.029208709
59	0x3b0fe8c4	0.0021958807
60	0x3d22a649	0.039709363
61	0xbbecb1a8	-0.0072233267
62	0x3d59c629	0.053167496
63	0xbc6279c1	-0.013822974
64	0x3b143bf6	0.0022618747
65	0x3bd4cebf	0.0064943726
66	0x3abbc448	0.0014325464
67	0x3da8c8f2	0.08241452
68	0x3d66cf51	0.056350056
69	0xbd662b17	-0.056193437
70	0xbd750119	-0.0598155
71	0x3cbff145	0.023430476
72	0xbc05877f	-0.008149981
73	0x3c2193f7	0.009861938
74	0xbc531257	-0.0128827905
75	0xbd598b37	-0.05311128
76	0x3d00dde7	0.031461623
77	0xbd41c9fc	-0.047311768
78	0x3d25e528	0.040501744
79	0xbcdef7a7	-0.0272177
80	0xbc4177e9	-0.011808374
81	0x3d804fba	0.06265207
82	0x3deff66b	0.117169224
83	0x3d2a580e	0.04158788
84	0xbbd8bb45	-0.006614121
85	0x3c3ca9fb	0.011515136
86	0x3d3762d7	0.044771995
87	0xbc26d960	-0.010183662
88	0x3daed1b8	0.085360944
89	0x3d78ca01	0.06073952
90	0x3e0c701d	0.13714643
91	0x3d2edd17	0.042691316
92	0x3e0d2160	0.13782263
93	0x3cb35e67	0.0218956
94	0xbd1bda51	-0.03805
95	0x3cb809f5	0.022465685
96	0x3cf24aea	0.029576737
97	0x3b777094	0.003775631
98	0xbb0e5594	-0.002171849
99	0x3d66ce76	0.05634924
100	0x3c3811cf	0.011234715
101	0x3da02621	0.078197725
102	0x3cc3a6a4	0.023883171
103	0x3c00aa51	0.007853107
104	0x3d13e6fa	0.03610895
105	0xbd497c6f	-0.049190935
106	0x3d23bbeb	0.039974134
107	0x3af4afbc	0.0018668096
108	0xbd1fdee5	-0.03903093
109	0xbe0c02a9	-0.1367289
110	0x3d96fa18	0.0737192
111	0x3e11eb68	0.14249957
112	0x3d568077	0.052368607
113	0x3d47c375	0.048770387
114	0x3cbe0833	0.023197269
115	0x3d80eb23	0.06294849
116	0x3d3d3a9f	0.046198484
117	0x3c619803	0.013769153
118	0xbd2b7c11	-0.041866366
119	0xbcab03f1	-0.020875903
120	0xbcb203f9	-0.02173041
121	0x3dc95ed1	0.09832538
122	0xbd8d24dc	-0.06891796
123	0xbc99410b	-0.018707773
124	0x3d1de3c3	0.03854729
125	0x3d10a34b	0.03531198
126	0x3cf47288	0.029839769
127	0x3dba6e7b	0.09103104

weight f4 [10, 128]
0	0xbdc3777d	-0.09544275
1	0xbc9c54be	-0.019083377
2	0xbd35df43	-0.044402372
3	0xbb0a9de3	-0.0021151237
4	0x3cfa2df2	0.030539487
5	0x3c444370	0.011978969
6	0xbdde9f60	-0.10870242
7	0xbe383e95	-0.17992623
8	0xbd81cf60	-0.06338382
9	0x3e1e2bb2	0.15446356
10	0x3ce180ab	0.027527174
11	0x3e525519	0.20540275
12	0x3e2e2335	0.17005618
13	0x3c97dd2e	0.018538084
14	0xbdc36c52	-0.09542145
15	0x3e0847a5	0.1330858
16	0xbd2a43be	-0.04156851
17	0xbd23ce17	-0.039991464
18	0xbda353af	-0.07974946
19	0xba60f384	-0.00085812085
20	0x3ca4831f	0.020082055
21	0x3d7deb79	0.061992142
22	0xbdb5eb1f	-0.088827364
23	0xbce7e10c	-0.028305553
24	0x3d2884dc	0.04114233
25	0x3d9d338a	0.07675846
26	0x3e00b0e8	0.12567484
27	0xbe16c9ac	-0.14725369
28	0x3e1db11c	0.15399593
29	0xbd2c04b8	-0.041996688
30	0x3d25b93f	0.040459868
31	0xbdd0c602	-0.10194017
32	0xbd90f723	-0.070783876
33	0xbce819cd	-0.028332615
34	0x3cf04509	0.029329794
35	0x3da23942	0.07921077
36	0xbdee7422	-0.11643244
37	0x3c5612f7	0.013066045
38	0x3d228281	0.03967524
39	0xbde4e417	-0.11176317
40	0x3ca0dd0d	0.019636655
41	0xbe0d8caf	-0.13823198
42	0xbe09972a	-0.13436571
43	0x3e0b6966	0.13614425
44	0xbe6df86a	-0.23239294
45	0x3ca99abb	0.020703664
46	0xbe0cd352	-0.13752487
47	0xbdd9399c	-0.10606691
48	0xbd3c0d07	-0.04591086
49	0x3d9a69d9	0.0753972
50	0xbc193c14	-0.009352703
51	0x3e4a61f2	0.19763926
52	0x3d904b66	0.07045631
53	0xbd12b22e	-0.035814457
54	0x3df6a5e0	0.12043357
55	0x3c307d39	0.010772043
56	0x3d972fdc	0.07382175
57	0x3ddcceba	0.107816175
58	0x3d621933	0.055199813
59	0x3e0f5572	0.13997439
60	0x3dbe87f1	0.093032725
61	0xbdf526cb	-0.1197029
62	0xbd830420	-0.06397271
63	0xbccc126a	-0.024911124
64	0x3b6af96d	0.0035854236
65	0x3dd4492b	0.10365518
66	0x3cf21775	0.0295522
67	0xbdabfa3c	-0.08397338
68	0xbe13c53a	-0.14430705
69	0xbd234028	-0.039856106
70	0xbe03cf9c	-0.12872165
71	0xbd045b33	-0.032313537
72	0x3d9e7eb6	0.07739012
73	0x3d700e73	0.05860753
74	0xbdee78f0	-0.11644161
75	0xbdc527bf	-0.096267216
76	0x3d5dfe25	0.05419745
77	0xbdb182ab	-0.08667501
78	0x3ccd3846	0.025051247
79	0xbe0f9b61	-0.14024116
80	0xbd53cbcf	-0.05170804
81	0x3d93539f	0.07193684
82	0xbd7f95ba	-0.06239865
83	0x3d02ad93	0.031903815
84	0xbdf3942a	-0.118934944
85	0x3e05d78c	0.13070506
86	0xbc46fd1f	-0.01214531
87	0x3d049556	0.03236898
88	0xbd46ff39	-0.048583243
89	0x3e066d0a	0.13127533
90	0xbdb7b7a2	-0.08970572
91	0x3e5229a5	0.20523699
92	0xbd9fd27d	-0.07803819
93	0xbe2077b2	-0.1567066
94	0x39a72125	0.00031877417
95	0x3da40317	0.08008402
96	0xbc59fced	-0.013304931
97	0xbe0c832e	-0.13721916
98	0xbd6ace66	-0.057325743
99	0x3e18b516	0.14912829
100	0x3e251a6b	0.16123359
101	0x3e0c0809	0.1367494
102	0xbc14040f	-0.009034171
103	0xbd2400e2	-0.040039904
104	0xbe1f0558	-0.15529382
105	0x3c97e5a3	0.018542117
106	0x3d1b6ad2	0.03794367
107	0xbdf637a4	-0.12022331
108	0x3d3df41e	0.046375386
109	0x3d39070c	0.045172736
110	0xbd9219f0	-0.071338534
111	0xbe01ddc3	-0.12682252
112	0x3e24b343	0.16084008
113	0xbacda86d	-0.0015690454
114	0x3e0e9331	0.13923337
115	0xbc97e0ec	-0.018539868
116	0x3dd3f884	0.10350135
117	0x3e06931b	0.13142054
118	0xbd8be674	-0.06831065
119	0xbd5fe8d3	-0.054665398
120	0x3d414dbb	0.04719327
121	0xbdf4a3bb	-0.119452916
122	0xbe0ec571	-0.13942505
123	0xbd97d872	-0.074143305
124	0x3d3a7e27	0.045530465
125	0xbe3e37d5	-0.18575986
126	0x3e230570	0.15920043
127	0x3e3ad6aa	0.1824595
128	0x3c64ba30	0.013960406
129	0x3dc2a2ca	0.09503706
130	0xbd417a38	-0.047235698
131	0x3c9fe2c9	0.01951732
132	0xbdb8e77d	-0.09028528
133	0xbdb63b6c	-0.088980526
134	0xbd4730da	-0.048630573
135	0xbdefc668	-0.11707765
136	0xbd453611	-0.048147265
137	0x3e657ac3	0.22410111
138	0x3dd0bd02	0.101923004
139	0x3dfe4757	0.12415951
140	0x3cf08a74	0.029362895
141	0xbdbbb9e3	-0.091663145
142	0xbdc1dd92	-0.09466089
143	0xbe66cda4	-0.22539383
144	0xbe19af6f	-0.15008329
145	0xbdac3cf6	-0.08410065
146	0xbd643346	-0.05571296
147	0xbd60ec44	-0.05491282
148	0x3bcce77b	0.0062531806
149	0x3d9e74e3	0.07737138
150	0x3d266c31	0.040630523
151	0x3d98a5b7	0.074534826
152	0x3e4976e0	0.19674253
153	0x3e5ebb34	0.217511
154	0xbe0dcfa8	-0.13848746
155	0xbdb3e787	-0.08784395
156	0x3d1ed67f	0.03877878
157	0xbd8db1ec	-0.069187015
158	0x3da85d67	0.0822094
159	0xbca7a719	-0.02046542
160	0x3dc68128	0.09692603
161	0x3da3f72d	0.080061294
162	0x3e31fc9f	0.17381524
163	0x3e1de434	0.15419084
164	0xbe0227cb	-0.12710492
165	0xbdeb0a16	-0.11476533
166	0x3d8e2c7b	0.06942078
167	0x3da6a849	0.081375666
168	0x3c35a547	0.0110867685
169	0xbe5e9b1f	-0.21738862
170	0xbe386255	-0.1800626
171	0x3e245426	0.16047725
172	0xbd6a02cd	-0.057131577
173	0xbdc3d0c4	-0.09561303
174	0xbdb0be2a	-0.08630021
175	0xbde65e51	-0.11248458
176	0xbd8455c8	-0.06461674
177	0x3e213318	0.15742147
178	0xbdcd8a3b	-0.10036131
179	0x3dceb72e	0.100935325
180	0x3dad05dc	0.08448383
181	0x3ddee26b	0.108830296
182	0x3e01f42e	0.12690803
183	0xbd75bd85	-0.059995193
184	0xbc96798e	-0.018368509
185	0xbd1bd187	-0.038041618
186	0xbd911de5	-0.0708578
187	0xbdcfe47e	-0.10151003
188	0xbdd35f2d	-0.10320888
189	0xbe6a56c2	-0.22884658
190	0x3d325824	0.04354109
191	0x3e240c65	0.16020353
192	0xbd99a1f8	-0.07501596
193	0xbda809c9	-0.08204991
194	0x3cad53a7	0.021158053
195	0xbdc842f7	-0.097783975
196	0x3e3dfa2f	0.18552469
197	0xbd4784b5	-0.048710544
198	0x3e3fff1a	0.18749657
199	0xbcd62e8d	-0.026145244
200	0x3e75563a	0.23958674
201	0x3d03fbfe	0.03222274
202	0xbc367c3b	-0.011138017
203	0x3c66e779	0.014093273
204	0xbb816cb5	-0.0039497265
205	0x3e196313	0.149792
206	0xbced83e2	-0.02899355
207	0x3c2c51ff	0.010517596
208	0xbe03349c	-0.12813038
209	0x3db51d22	0.08843447
210	0xbe180e7f	-0.1484928
211	0xbc7714cf	-0.015080645
212	0x3dd358b0	0.1031965
213	0xbe63f346	-0.2226077
214	0x3cc16107	0.023605837
215	0x3d51821b	0.05114947
216	0xbd4cb46f	-0.049976762
217	0xbd543890	-0.051811755
218	0xbcf84fe4	-0.030311532
219	0xbd7e6fb4	-0.062118247
220	0x3e170954	0.14749652
221	0x3d7f43e0	0.06232059
222	0x3d87c69d	0.06629679
223	0xbe0cf0a2	-0.13763669
224	0xbcfdb85e	-0.030971702
225	0x3e769b1c	0.24082607
226	0x3dec4246	0.11536078
227	0xbd302985	-0.043008346
228	0xbde7cc69	-0.11318285
229	0xbe87e0c9	-0.26538685
230	0x3ce9195e	0.028454479
231	0xbd2989ac	-0.04139106
232	0x3e8d6c76	0.27621812
233	0xbe308ff4	-0.17242414
234	0xbc97b808	-0.01852037
235	0x3e5af3b5	0.2138203
236	0x3e1af6ae	0.15133163
237	0xbe504f18	-0.20342672
238	0x3d163d72	0.036679693
239	0x3ded35a9	0.115825005
240	0xbc9a0c6f	-0.018804757
241	0x3e5452d5	0.20734723
242	0xbe577946	-0.21042356
243	0xbe572d99	-0.21013488
244	0x3e3396cc	0.17537993
245	0xbde51e57	-0.111874275
246	0xbda54757	-0.080702476
247	0xbd7c9c85	-0.061672706
248	0xbdb50672	-0.0883912
249	0x3dcb1054	0.09915224
250	0xbd953ae8	-0.07286626
251	0xbcd5b601	-0.026087763
252	0xbd72ad64	-0.05924739
253	0xbe6a6e8c	-0.22893733
254	0x3d103c25	0.03521361
255	0x3cf27329	0.029595928

bias f4 [10]
0	0xbd2f2e51	-0.04276878
1	0xbad4391a	-0.0016191334
2	0xbe0c5f98	-0.13708341
3	0x3bf00f0b	0.007326012
4	0xbe82fe5f	-0.25584695
5	0x3f21fb65	0.6327422
6	0x3d1d5197	0.03840789
7	0xbd9caff0	-0.07650745
8	0xbdc6f2f0	-0.097143054
9	0xbe98869f	-0.29790208
