models/conf_3.pt (torch, 441470 bytes, 6 tensors)

weight f4 [128, 784]
0	0x3c9a66a2	0.018847767
1	0x3c4ea4aa	0.012612501
2	0x3c3bd04b	0.011463235
3	0xbcd8c8f8	-0.026463017
4	0x3b1a1a17	0.0023514086
5	0x3cb24816	0.021762889
6	0x3cbce373	0.023057675
7	0xbcb52afe	-0.022115227
8	0x3ae1e556	0.0017234485
9	0xbc135f16	-0.008994838
10	0x3a87dba4	0.0010365141
11	0xbc61aace	-0.013773633
12	0xbd16531f	-0.036700364
13	0xbc87c94c	-0.016575478
14	0x3d1f088c	0.03882651
15	0xbcc9403c	-0.024566762
16	0xbcc34835	-0.023838142
17	0xbc45c08b	-0.012069832
18	0xbc85cca1	-0.016332926
19	0x3c36a671	0.011148081
20	0xbc30ce5f	-0.01079139
21	0x3c4dc176	0.012558332
22	0xbcbffe4a	-0.023436684
23	0x3ccb870e	0.024844673
24	0xbcd198a8	-0.025585487
25	0x3c281831	0.010259674
26	0xbb959552	-0.0045649195
27	0xbcf947cd	-0.030429745
28	0x3bf48371	0.007461958
29	0x3d06c29e	0.032900445
30	0xbc3803b6	-0.0112313535
31	0xbcb1dbbd	-0.021711225
32	0xbc833fef	-0.016021697
33	0xbbc1b7a7	-0.0059117856
34	0xbd0056b0	-0.03133267
35	0xbc9341bb	-0.017975679
36	0xbb940d3e	-0.00451818
37	0xbd3c2e04	-0.04594232
38	0xbd1b7dd7	-0.037961807
39	0x3cb07e15	0.021544496
40	0x3cc091cb	0.02350702
41	0x3c85db7a	0.016340006
42	0x3cd9f26f	0.02660486
43	0xbce8e3fc	-0.028429024
44	0x3c51b8d0	0.01280041
45	0xbd17fd1b	-0.037106615
46	0xbc599eba	-0.013282472
47	0xbb3ccea3	-0.0028809689
48	0xbd26cc50	-0.04072219
49	0xbbd4855a	-0.0064856233
50	0xbcaf9d72	-0.02143738
51	0x3cb875ab	0.022517046
52	0x3d14a5ad	0.036290813
53	0x3c2cccc8	0.0105468705
54	0x3c252eac	0.010081928
55	0xbcaee60a	-0.021349926
56	0x3cb28a9a	0.021794606
57	0x3c4d8e15	0.012546082
58	0x3caffddb	0.021483352
59	0x3c1a2e3b	0.009410436
60	0x3c64391d	0.0139296325
61	0xbccad159	-0.024758028
62	0xbc18879b	-0.009309675
63	0xbc3db0cf	-0.011577799
64	0x3c417861	0.011808486
65	0x3c6bd5eb	0.014394264
66	0xbb2dde40	-0.0026530176
67	0xbcf93222	-0.030419413
68	0x3cb19729	0.021678524
69	0x3bd6a7fc	0.006550787
70	0xbd374775	-0.04474588
71	0xbca0100d	-0.019538904
72	0x3b73c492	0.0037196022
73	0xbd24cea9	-0.04023615
74	0x3c0dcced	0.008654815
75	0xbce0052c	-0.027346216
76	0xbd26fd83	-0.04076911
77	0xbc292234	-0.010323096
78	0xbcedb43c	-0.029016607
79	0x3c4c3318	0.012463354
80	0xbbc77dca	-0.0060879933
81	0x3c940eec	0.018073522
82	0x3d0abc22	0.033870824
83	0xbbc57bd7	-0.0060267258
84	0xbc1b316e	-0.009472234
85	0xbcabf481	-0.020990612
86	0x3cf4d525	0.029886791
87	0xbc937dba	-0.018004287
88	0xbd027be8	-0.031856447
89	0x3c9bdb77	0.019025547
90	0xbcb20c2a	-0.021734316
91	0xbc2146fd	-0.009843585
92	0x3c8dc265	0.017304609
93	0x3c50ac98	0.012736462
94	0x3c3e6cac	0.011622589
95	0xbc718d87	-0.014743215
96	0x3cdef08d	0.027214313
97	0xbc05f315	-0.008175631
98	0xbc3cee33	-0.0115314005
99	0xbcd93815	-0.026516
100	0xbc6f2cd3	-0.014598089
101	0xbc22a1bc	-0.009926256
102	0xba78dd40	-0.0009493418
103	0xbc1bbf42	-0.009506049
104	0x3c1ff3d8	0.009762727
105	0x3c15abda	0.009135211
106	0xbccca978	-0.024983153
107	0xbcc2aef1	-0.02376506
108	0xbb4c4bde	-0.003117315
109	0x3c94e408	0.01817514
110	0x3ce52bff	0.02797508
111	0xb9a97671	-0.00032322438
112	0xbcf1b602	-0.029505733
113	0xba45ccd2	-0.0007545474
114	0x3c7a7e8a	0.015288958
115	0xbc20f79a	-0.009824658
116	0xbc281e7e	-0.010261176
117	0xbc5a26c3	-0.013314906
118	0xbbe30667	-0.0069282535
119	0xbce80a51	-0.028325232
120	0xbc833196	-0.016014855
121	0xbcd4ad39	-0.025961505
122	0xbc979fe8	-0.018508866
123	0xbc3e8597	-0.01162853
124	0xbbce7a2c	-0.006301185
125	0xbbd897f3	-0.0066099106
126	0xbd3b90ed	-0.04579251
127	0xbb9584a3	-0.0045629307
128	0xbd1b57cc	-0.037925526
129	0xbc35dbc0	-0.011099756
130	0x3c844909	0.016148107
131	0xbb2bb4ac	-0.0026200218
132	0xbccd102a	-0.025032122
133	0x3bdbffb6	0.0067138327
134	0xbd00d62d	-0.031454254
135	0xbb0dfc51	-0.0021665285
136	0x3c7e850b	0.01553465
137	0x3c955a3b	0.018231502
138	0x3cd3cbb0	0.025853962
139	0x3cd1058f	0.025515346
140	0x3cc94e34	0.024573423
141	0xbcc8dd37	-0.024519546
142	0x3cfaab8b	0.030599376
143	0xbc9b0853	-0.018924868
144	0xbc7d822c	-0.01547293
145	0x3bafc20e	0.0053637093
146	0xbcba1b1c	-0.022718005
147	0x3c388a93	0.011263507
148	0xbad1d5c4	-0.0016009142
149	0x3cd27ca6	0.025694203
150	0xbc8a405a	-0.016876388
151	0xbd15a643	-0.036535513
152	0x3ce705d8	0.028201029
153	0xbcce66b5	-0.025195459
154	0xbd29f4ad	-0.041493107
155	0xbc032ceb	-0.008006315
156	0xbcf0c07b	-0.029388657
157	0xbd2232bf	-0.039599176
158	0xbc8d679d	-0.01726132
159	0xbcf51fe1	-0.029922428
160	0xbcd2e5ff	-0.025744436
161	0x3cc27158	0.023735687
162	0xbd067b93	-0.032832693
163	0xbc3d219c	-0.011543658
164	0xbca31556	-0.019907635
165	0x3ca843e0	0.020540178
166	0xbb25d493	-0.0025303706
167	0x3ad2be4c	0.0016078441
168	0x3b55bac9	0.0032612553
169	0x3c976653	0.01848141
170	0xbcdafcd1	-0.02673188
171	0x3cf39146	0.029732358
172	0x3d067d6d	0.03283446
173	0xbc850d2b	-0.01624163
174	0xbbf8f9b7	-0.0075981277
175	0xbce5c349	-0.02804722
176	0xbc64d41f	-0.013966589
177	0xbc449ebb	-0.012000735
178	0x3c87248e	0.016496923
179	0xbc408c1d	-0.011752156
180	0x3cb1d8b9	0.021709787
181	0xbd0ad4f0	-0.03389448
182	0xbcfd5293	-0.030923164
183	0x3aa60e0d	0.0012668982
184	0xbcda3e0d	-0.026640916
185	0xbd25bea9	-0.04046503
186	0x3c0b7386	0.00851143
187	0xbd43f3da	-0.047839977
188	0x3ca8a6cb	0.020587346
189	0x3b8dfd57	0.004333179
190	0x3cbce1e4	0.023056932
191	0xbcf32090	-0.029678613
192	0x3ca20ff3	0.019782996
193	0xbc9a1b9b	-0.018811991
194	0xbc8c9ccc	-0.01716461
195	0xbc99881f	-0.018741665
196	0xbbb1821e	-0.0054171225
197	0xbd007cdb	-0.03136907
198	0x3ceeaa1e	0.029133853
199	0xbcb61770	-0.022227973
200	0xbc9ee62a	-0.01939686
201	0x3c373707	0.011182553
202	0xbd052d6c	-0.03251402
203	0x3c6a5b8b	0.014304052
204	0x39889b29	0.00026055545
205	0xbc1e2e49	-0.00965459
206	0xbc4bd51b	-0.012440945
207	0xbc2d370e	-0.010572208
208	0xbc7d502b	-0.015461008
209	0xbcb374ab	-0.021906218
210	0xbd2c315a	-0.042039253
211	0xbc7a6eac	-0.015285175
212	0xbd4d776e	-0.050162725
213	0xbc5b72f8	-0.01339411
214	0xbcb48ade	-0.022038873
215	0xbd226c06	-0.0396538
216	0xbd327e2a	-0.04357735
217	0xbd3c86d8	-0.046027035
218	0xbc509a6e	-0.012732131
219	0x3a19822d	0.00058558845
220	0x3cf2f8e9	0.029659705
221	0x3c8da5a0	0.01729089
222	0x3d0b0392	0.03393895
223	0x3ce23a65	0.027615735
224	0xbc8d4103	-0.017242914
225	0xbc5596d2	-0.013036447
226	0xbc9b165c	-0.01893156
227	0x3cd99009	0.02655794
228	0x3c7debd0	0.015498117
229	0xbcc8d6ef	-0.02451655
230	0x3cc3a0c8	0.023880377
231	0xbba54991	-0.00504417
232	0xbc1ff138	-0.009762101
233	0xbc8939d3	-0.016751206
234	0xbcd14279	-0.025544392
235	0xbba5eca9	-0.0050636125
236	0xbc346407	-0.0110101765
237	0x3c81d477	0.015848381
238	0xbd1d67d4	-0.038429096
239	0xbd41c41b	-0.04730616
240	0xb9ef866b	-0.00045685782
241	0xbcc615f3	-0.024180388
242	0xbb06e8ed	-0.0020585612
243	0xbcd2e87a	-0.02574562
244	0xbd037065	-0.03208961
245	0xbd04b6a5	-0.032400746
246	0xbd064950	-0.03278476
247	0xbb2cdcc3	-0.0026376701
248	0xbd0bff13	-0.034178805
249	0xbd217fcb	-0.039428513
250	0x3cb25cbd	0.021772737
251	0x3c84e5e8	0.01622291
252	0x3ce1f664	0.027583309
253	0x3b472397	0.0030386203
254	0x3cdf25d6	0.027239721
255	0x3a2b5dee	0.0006537129

bias f4 [128]
0	0x3d3d22bc	0.046175703
1	0xbc4df90c	-0.012571584
2	0x3bf12349	0.0073589426
3	0x3bd6f412	0.006559857
4	0xbaa48619	-0.0012552171
5	0x3d507421	0.050892
6	0x3cade304	0.021226414
7	0xbca39a5e	-0.019971069
8	0xbcca1b7c	-0.024671309
9	0x3cb921b3	0.022599077
10	0x3c962be1	0.01833147
11	0x3ce299c6	0.027661216
12	0xbc24604a	-0.010032723
13	0xba59b6f2	-0.0008305154
14	0x3d0598be	0.03261637
15	0x3cc1e394	0.023668088
16	0x3cbcc2f0	0.023042172
17	0xbb08f544	-0.0020898143
18	0x3cf0e53a	0.029406179
19	0xbcd772bf	-0.026299832
20	0xbcf7dd3a	-0.030256856
21	0x3cb246d8	0.021762297
22	0x3a326fd9	0.0006806828
23	0x3cc8c572	0.024508212
24	0x3c579258	0.01315745
25	0xbbf40f51	-0.007448115
26	0x3d6b735d	0.057483066
27	0x3c8a5e89	0.016890781
28	0x3bb4cf5a	0.0055178823
29	0xbc8cc6d4	-0.017184652
30	0x3bf9512e	0.0076085543
31	0x3b14aec6	0.002268718
32	0x3ce7762b	0.028254589
33	0x3d54df9c	0.051971063
34	0x3b9cf284	0.0047896523
35	0x3cbe2a1b	0.023213437
36	0x3c80377c	0.015651457
37	0x3b20acfd	0.0024517172
38	0xbd29611e	-0.041352384
39	0x3dbc407a	0.091919854
40	0x3c755873	0.014974701
41	0x3d1e7a28	0.038690716
42	0x3ccf4a9e	0.025304135
43	0xbcbd7b5f	-0.023130117
44	0x3c50800c	0.012725841
45	0xbbb732df	-0.005590781
46	0x3b5c5e44	0.0033625523
47	0xbc46fcf4	-0.01214527
48	0xb814f0c3	-3.5510177e-05
49	0xbbc2fa09	-0.0059502167
50	0xbc1b25f1	-0.009469495
51	0x3c890a74	0.016728617
52	0xbc429828	-0.011877097
53	0x3aa98330	0.0012932774
54	0xbbf9db15	-0.0076249936
55	0xb9a7a90f	-0.0003197868
56	0x3b103339	0.0022003187
57	0xbc72c927	-0.014818466
58	0x3c633792	0.013868229
59	0xbc2e3e0d	-0.010634911
60	0x3d479130	0.048722446
61	0xbc667df6	-0.014068117
62	0x39552672	0.00020327585
63	0x3cdc53fc	0.026895516
64	0x3cad5e2a	0.021163065
65	0xbc95351b	-0.0182138
66	0x3be0c7f6	0.0068597747
67	0x3d2d4d22	0.042309888
68	0x3bf82ff1	0.0075740744
69	0x3cf31e14	0.029677428
70	0x3d4ad186	0.049516223
71	0x3d57970d	0.052634288
72	0xbbc1fa43	-0.005919726
73	0xb9476d68	-0.00019018876
74	0xbd446057	-0.04794344
75	0x3d847b5f	0.06468844
76	0x3cf3a41c	0.02974134
77	0x3bd57211	0.006513842
78	0xbce7a46e	-0.028276648
79	0xb9fc1910	-0.0004808386
80	0xbb80afec	-0.0039272215
81	0xbd1e17d2	-0.038596936
82	0xbc3c1243	-0.011478963
83	0x3cb8f128	0.02257593
84	0xbbc920b6	-0.0061379327
85	0xbc8bf249	-0.017083304
86	0x3cb79532	0.022410009
87	0x3caf705e	0.021415886
88	0xbcc96e06	-0.024588596
89	0xbcad45b5	-0.021151403
90	0xbc041f30	-0.008064076
91	0x3d5f4c75	0.054516274
92	0x3d1019c9	0.03518084
93	0x3d669dfa	0.056303002
94	0xbcd0d987	-0.02549435
95	0x3cb0e0fe	0.02159166
96	0x395ed8e1	0.00021252364
97	0x3bf6bd34	0.007529879
98	0xbcf8f7ad	-0.030391539
99	0x3c9c5631	0.019084068
100	0x3cb62872	0.022236083
101	0xbc1e719d	-0.009670642
102	0xbc7e3c94	-0.015517373
103	0xbcae7cb8	-0.021299705
104	0x3d613e33	0.05499096
105	0x3c54ec14	0.012995739
106	0x3c937c0f	0.018003492
107	0x3ceeac4e	0.029134896
108	0xbccd45c9	-0.02505769
109	0x3c5ab6fd	0.013349292
110	0xbc138a6b	-0.009005169
111	0x3ce3d7f3	0.027812934
112	0xbd6df5ba	-0.05809567
113	0x3c44bc01	0.012007714
114	0x3c6fc514	0.014634389
115	0x3cbedc79	0.023298489
116	0xbc386d1f	-0.011256485
117	0x3ce0333e	0.027368184
118	0xbcb8bb84	-0.022550352
119	0xbcef4be2	-0.029210988
120	0x3c2f8214	0.010712165
121	0x3d7295d2	0.05922491
122	0x3cc5baf8	0.024137005
123	0x3d9255af	0.07145249
124	0x3d8a2a92	0.06746401
125	0x3d1fd896	0.03902491
126	0xbcbb86bf	-0.0228914
127	0x3c70e853	0.014703828

weight f4 [64, 128]
0	0xbd9b839a	-0.075934604
1	0x3d205080	0.03913927
2	0x3d94a0b8	0.07257217
3	0x3c6fbfcb	0.014633129
4	0xbce547ae	-0.027988281
5	0xbb19394f	-0.0023380106
6	0x3dbe3bb0	0.09288728
7	0x3c2d32d4	0.0105712
8	0x3d78b9ec	0.060724184
9	0xba8b98c2	-0.0010650384
10	0x3dbbe816	0.09175126
11	0xbd0e2e5b	-0.034712177
12	0xbc9290bc	-0.01789128
13	0x3dd7022b	0.104984604
14	0xbd145236	-0.036211215
15	0xbd98f9ac	-0.07469496
16	0xbd9e8401	-0.077400215
17	0xbca16fc4	-0.019706614
18	0x3c344e4c	0.011004996
19	0xbd823ea0	-0.06359601
20	0xbd6d497c	-0.05793141
21	0xbb958904	-0.0045634527
22	0xbd5b0121	-0.053467873
23	0xbd67c9ed	-0.056589056
24	0xbd53c2d8	-0.05169949
25	0xbda4c08d	-0.08044539
26	0xbdbd544a	-0.092445925
27	0x3d3a8ab2	0.045542426
28	0x3ca48f3a	0.020087827
29	0x3d6c2a10	0.0576573
30	0x3dd05c05	0.10173801
31	0x3d53ddd5	0.051725227
32	0x3d8a0e03	0.06740954
33	0xbd2b4c7b	-0.041820984
34	0xbccbaadd	-0.024861747
35	0x3dc98487	0.09839731
36	0x3d72d597	0.059285726
37	0xbd1af105	-0.03782751
38	0xbb4d20f4	-0.003130016
39	0x3cae177b	0.02125143
40	0x39e9d56a	0.0004460023
41	0x3d890d0f	0.06691944
42	0x3c9bee39	0.019034492
43	0x3d9f3d0f	0.07775318
44	0xbc81db01	-0.0158515
45	0xbd25d0c6	-0.040482305
46	0x3d2f9888	0.042870075
47	0xbd842fe1	-0.06454445
48	0x3d665491	0.056232993
49	0xbda07423	-0.07834651
50	0xbda4fd46	-0.080561206
51	0x3d68b874	0.056816533
52	0xbd99ca9d	-0.075093485
53	0xbd229889	-0.03969625
54	0x3c57fa06	0.013182169
55	0xbc22066c	-0.009889226
56	0x3d0b6375	0.034030396
57	0x3d1f9c33	0.038967323
58	0x3d95faf3	0.073232554
59	0xbcf0ee8a	-0.02941062
60	0xbbab9e5d	-0.0052373842
61	0xbd353843	-0.04424311
62	0x3d334716	0.043768965
63	0x3da58f7c	0.08084008
64	0xbd68e875	-0.056862313
65	0x3d709cf1	0.05874342
66	0x3df73ac8	0.120717585
67	0xbd63b28d	-0.0555902
68	0xbd5cd36c	-0.053912565
69	0xbc0bfe4a	-0.008544514
70	0x3d1b68d5	0.037941772
71	0x3d7c9258	0.061663
72	0x3c9f5e9c	0.019454293
73	0x3d9cbb63	0.07652929
74	0xbd99a3b2	-0.075019255
75	0x39c1320b	0.00036849114
76	0xbbe1523e	-0.006876259
77	0xbd3488b5	-0.044075686
78	0xbd7e091d	-0.06202041
79	0x3d72497e	0.05915212
80	0xbd9a4b18	-0.07533854
81	0xbd874d53	-0.06606545
82	0x3d3b09d8	0.045663685
83	0xbcc4f82e	-0.024044123
84	0x3d96dbdf	0.07366156
85	0xbd0bfc6b	-0.03417627
86	0x3d33bba2	0.043880112
87	0x3b0c64ca	0.002142238
88	0xbcff97d0	-0.03120032
89	0x3d08a779	0.03336284
90	0xbd3a0ee2	-0.04542435
91	0xbd7546bd	-0.059881914
92	0x3a94ec42	0.0011361914
93	0xbd49bcb8	-0.04925224
94	0xbcb2c9bd	-0.021824712
95	0xbcfee46e	-0.031114783
96	0xbda5a06d	-0.080872394
97	0xbdb6ee1b	-0.08932134
98	0xbce48a1d	-0.027897889
99	0x3d78586e	0.060631208
100	0x3db3c8c0	0.087785244
101	0xbb969d27	-0.0045963707
102	0xbcb3a427	-0.02192886
103	0x3da3f948	0.08006531
104	0x3d535b68	0.051600844
105	0xbbe6a94e	-0.0070392257
106	0x3d3ed9c3	0.046594393
107	0xbc4f3d26	-0.012648856
108	0x3c9389ab	0.018009981
109	0x3d6046aa	0.05475489
110	0xbdb706b9	-0.08936829
111	0x3d8f31d1	0.069919236
112	0xbb81ecb1	-0.0039649834
113	0xbd876424	-0.06610897
114	0xbbad7e24	-0.005294578
115	0xbd1755d2	-0.03694708
116	0xbd4a2fdb	-0.049362045
117	0x3d41221d	0.047151674
118	0x3d27bafa	0.0409498
119	0xbd5b6604	-0.053564087
120	0xbd8e036e	-0.06934248
121	0xbd456e23	-0.048200738
122	0xbd9d004a	-0.07666071
123	0x3d138959	0.036019657
124	0x3cb1ddf2	0.021712277
125	0xbd655fd6	-0.0559996
126	0x3c315cec	0.010825377
127	0xbcee3f7c	-0.029083006
128	0xbd931f04	-0.0718365
129	0x3d41927d	0.047258843
130	0xbd29c80a	-0.041450538
131	0xbd8ed2f8	-0.06973833
132	0xbd2b8899	-0.041878317
133	0x3cc4bc61	0.024015607
134	0xbd622028	-0.055206448
135	0xbcdccede	-0.02695411
136	0x3d4ed6b4	0.050497726
137	0x3d1fd656	0.039022766
138	0x3abc6525	0.0014373405
139	0xbcb24a9c	-0.021764092
140	0x3d08fa38	0.033441752
141	0xbdc55eff	-0.0963726
142	0x3cec6ccc	0.028860472
143	0x3ca4b3af	0.020105211
144	0xbc3ea877	-0.011636845
145	0x3cc0097b	0.02344202
146	0x3c05eec3	0.008174601
147	0x3dc4a864	0.096024305
148	0x3da1cebd	0.0790076
149	0xbd0350fd	-0.03205966
150	0xbd02d285	-0.03193905
151	0xbcc6c9e3	-0.024266189
152	0xbc3bb6c2	-0.011457147
153	0xbd8547fc	-0.065078706
154	0xbd5a4c2a	-0.053295292
155	0xbda998e4	-0.08281115
156	0x3dbf276b	0.0933369
157	0xbd217f79	-0.039428208
158	0x3dc72a5a	0.09724875
159	0x3caec89c	0.021335892
160	0xbbb58747	-0.005539808
161	0x3d6107f3	0.05493922
162	0x3d210d38	0.039319247
163	0x3d49547d	0.04915284
164	0xbd94b60c	-0.07261285
165	0x3d12d84f	0.03585082
166	0x3b2f5250	0.0026751943
167	0xbd1d7531	-0.03844184
168	0x3d9b93bb	0.07596537
169	0x3db21985	0.08696274
170	0x3d7c66fc	0.06162165
171	0x3d640b7b	0.05567501
172	0xbce076a5	-0.027400324
173	0x3dbc82bb	0.09204622
174	0x3c8f8dd3	0.017523682
175	0x3d1eb573	0.038747262
176	0x3db36834	0.087601095
177	0x3d9ad86e	0.07560812
178	0x3ca8b219	0.020592736
179	0xbd78cabb	-0.060740214
180	0x3d851618	0.06498355
181	0x3dcdb486	0.10044198
182	0x3d8009bd	0.062518574
183	0x3d2f1fd1	0.042754952
184	0x3d9fe0c2	0.07806541
185	0xbcd3e87e	-0.025867697
186	0x3d1cfb60	0.038325667
187	0x3d865acc	0.06560287
188	0xbd093527	-0.033497956
189	0x3d5f588b	0.0545278
190	0x3cf9f7c9	0.030513661
191	0xbd12813e	-0.035767786
192	0x3d90900d	0.070587255
193	0x3d1d6b51	0.038432423
194	0x3d5195ef	0.05116838
195	0x3c905336	0.017617803
196	0x3c9de7bc	0.019275539
197	0x3d87d457	0.066322975
198	0x3beda2b3	0.0072520613
199	0xbd9c1a30	-0.07622182
200	0xbd3f2eb8	-0.046675414
201	0x3dc6d6c3	0.09708931
202	0x3ddb8b5a	0.107199386
203	0xbd838232	-0.06421317
204	0xbd2e85ad	-0.042607952
205	0xbd7b4bd5	-0.061351616
206	0x3d9641f7	0.073368005
207	0xbd7c1314	-0.06154163
208	0xbd7b3c2f	-0.061336692
209	0x3d258487	0.04040959
210	0xbc8ac249	-0.016938346
211	0xbd75274c	-0.05985193
212	0xbc21a234	-0.009865332
213	0xbd6bc2ac	-0.0575587
214	0xbd6fd94f	-0.05855685
215	0xbd1bf8e9	-0.038079176
216	0xbbd1489a	-0.0063868286
217	0xbd29f0e7	-0.041489508
218	0x3d6ec123	0.05828966
219	0x3d62334e	0.05522471
220	0x3c9a41a9	0.018830137
221	0xbda3460c	-0.07972345
222	0xbd1ccf9c	-0.03828393
223	0x3dad5e92	0.084653035
224	0x3dab7188	0.08371264
225	0x3dea2a0a	0.114337996
226	0x3d9d15c9	0.07670171
227	0xbccc3b8d	-0.02493074
228	0x3d0ea5b2	0.034825988
229	0xbd093898	-0.033501238
230	0xbcec90af	-0.028877584
231	0xbcb9ac6e	-0.022665229
232	0xbd9ad92d	-0.07560954
233	0xbb6a98e0	-0.0035796687
234	0x3d7f0c9c	0.062267885
235	0xbcb5d0b2	-0.02219424
236	0xbc511919	-0.012762331
237	0x3b80fc2d	0.0039363117
238	0x3da15847	0.07878166
239	0xbd12c339	-0.03583071
240	0x3de91a8f	0.11382019
241	0xbc88857e	-0.016665217
242	0xbd490f59	-0.049086902
243	0xbd7d8af5	-0.061900098
244	0xbbbe308e	-0.005804128
245	0x3d6ccd66	0.05781307
246	0x3d401768	0.046897322
247	0xbd569cd5	-0.05239566
248	0xbd731aa4	-0.05935158
249	0xbd9347a9	-0.071914025
250	0xbd4f2430	-0.05057162
251	0xbd0f7ba1	-0.03503001
252	0x3d0b24cd	0.033970643
253	0xbd060230	-0.03271693
254	0xbca02137	-0.019547088
255	0x3d5f8059	0.05456576

bias f4 [64]
0	0xbd5cecd0	-0.05393678
1	0xbe0ecaff	-0.13944624
2	0x3b8cc17b	0.0042955256
3	0x3e12e210	0.14344049
4	0xbd7a04cc	-0.06103973
5	0x3dcbf309	0.09958465
6	0xbc343249	-0.010998317
7	0xbdf01808	-0.117233336
8	0xbd544bd0	-0.051830113
9	0x3c475b87	0.012167818
10	0x3e1884fb	0.14894478
11	0x3d810b98	0.063010395
12	0x3ddb22d8	0.10700005
13	0x3e1a076c	0.15041894
14	0x3db2f973	0.08738985
15	0x3e03aca3	0.12858824
16	0xbd4c7a90	-0.049921572
17	0x3dd5f468	0.104470074
18	0x3d80d279	0.062901445
19	0x3d53e9e1	0.051736716
20	0xbd0407a7	-0.03223386
21	0xbbcefd8b	-0.006316846
22	0xbd8e4e14	-0.06948486
23	0xbd177a6f	-0.036981996
24	0x3d247956	0.040154777
25	0xbdb7510b	-0.089510046
26	0x3c8d55a4	0.01725275
27	0x3c811c53	0.015760576
28	0x3e133e6a	0.14379278
29	0x3cafa05c	0.02143877
30	0x3e146160	0.1449027
31	0xbda08c57	-0.07839268
32	0xbdfd94af	-0.12381875
33	0x3e50da57	0.2039579
34	0x3e081e90	0.13292909
35	0x3d84ec53	0.06490388
36	0x3db0d59e	0.08634494
37	0xbd1c61e1	-0.038179282
38	0xbd214b80	-0.039378643
39	0xbca22365	-0.019792268
40	0x3e12490b	0.14285676
41	0x3d9d1465	0.076699056
42	0xbd3e18f2	-0.04641051
43	0x3d9e581a	0.07731648
44	0x3cb35a8a	0.021893758
45	0xbbac822e	-0.005264542
46	0xbd3cb7cb	-0.046073716
47	0x3dad39f0	0.08458316
48	0x3d8c6b62	0.06856419
49	0xbd20ec68	-0.039287955
50	0x3cd424b4	0.025896408
51	0x3da5b353	0.08090844
52	0x3e427d29	0.18993057
53	0xbcc1b613	-0.02364639
54	0x3e279547	0.16365539
55	0x3dfda9f4	0.123859316
56	0x3d2a2c4b	0.041546147
57	0x3cd23f03	0.025664812
58	0xbca3caad	-0.019994104
59	0x3c0435f7	0.008069507
60	0xbd57b22c	-0.052660152
61	0x3e3a1795	0.18173058
62	0xbd0f68bf	-0.035012003
63	0x3c82fb21	0.015988888

weight f4 [10, 64]
0	0x3e346eec	0.17620438
1	0x3c2555ed	0.010091287
2	0x3e495cb4	0.1966427
3	0xbe1398f3	-0.14413814
4	0x3de299dd	0.11064503
5	0x3e246a48	0.16056168
6	0x3e0c55f1	0.13704659
7	0xbd6af263	-0.057360064
8	0xbdc520b4	-0.09625378
9	0xbe40004a	-0.1875011
10	0xbe13338b	-0.14375131
11	0xbe90aba9	-0.28255966
12	0x3e419b97	0.18907009
13	0x3e14dcbb	0.14537327
14	0x3d9c0268	0.076176465
15	0xbd8646cd	-0.06556473
16	0xbda27c46	-0.079338595
17	0xbe4c79a8	-0.19968283
18	0x3da3b94d	0.07994328
19	0x3daeed50	0.085413575
20	0xbdc56388	-0.09638125
21	0xbd6f1eff	-0.05837917
22	0xbdf33539	-0.11875386
23	0xbe6890ca	-0.22711483
24	0xbe06b27e	-0.13154027
25	0xbde39629	-0.11112625
26	0x3d0af6f2	0.03392691
27	0x3dd88513	0.10572257
28	0x3e293241	0.16523077
29	0x3db7a195	0.08966366
30	0x3dd4353f	0.103617184
31	0xbddc95fe	-0.10770796
32	0xbe8674c3	-0.26260957
33	0x3d282ff2	0.04106135
34	0xbe16d702	-0.14730456
35	0x3ea080fa	0.313484
36	0x3e97ada1	0.29624656
37	0xbe07da72	-0.13266924
38	0x3d86a304	0.065740615
39	0xbdbf54b9	-0.093423314
40	0x3e4976f3	0.19674282
41	0xbd83f060	-0.06442332
42	0x3c916e66	0.017752837
43	0x3e345fdf	0.17614697
44	0x3e37dcb0	0.1795528
45	0xbcc9458b	-0.024569293
46	0x3d509c2d	0.05093019
47	0xbe1ccc5e	-0.15312335
48	0x3e04ae0e	0.12957022
49	0xbe2c79f4	-0.16843396
50	0xbe3b8497	-0.18312298
51	0xbe33632a	-0.17518297
52	0xbe148401	-0.1450348
53	0xbdc45858	-0.09587163
54	0xbd23a2c6	-0.039950155
55	0xbdd03b09	-0.1016751
56	0xbe909b93	-0.28243694
57	0x3e106c07	0.14103709
58	0x3e2287f0	0.15872169
59	0x3d29dfe5	0.041473288
60	0xbc8f075b	-0.017459562
61	0xbd2a4c17	-0.04157647
62	0xbdcf6929	-0.101274796
63	0x3e4d299b	0.20035402
64	0xbbc0d3db	-0.00588463
65	0x3bc080d5	0.005874733
66	0xbe378c94	-0.1792472
67	0xbdf1ed96	-0.11812894
68	0xbd25f8bf	-0.040520426
69	0x3e4b196f	0.19833921
70	0xbe76b1a3	-0.240912
71	0xbe4ecdbd	-0.2019567
72	0xbe4d2c1b	-0.20036356
73	0x3dd0529a	0.10172005
74	0xbbe69ded	-0.007037869
75	0xbe83ce35	-0.2574326
76	0xbde8d3f2	-0.1136855
77	0xbe586c27	-0.21135007
78	0xbd4c0df0	-0.04981798
79	0xbcf3a690	-0.02974251
80	0xbd5c1ac3	-0.05373646
81	0xbe440b83	-0.19145016
82	0x3dd109b2	0.10206927
83	0xbe291eaf	-0.16515611
84	0x3ea4f71b	0.32219777
85	0x3dcba812	0.09944166
86	0x3ebc8cdf	0.36826226
87	0x3e254c3b	0.16142361
88	0xbe442064	-0.19152981
89	0x3d9a3064	0.07528761
90	0x3dd7149a	0.10501976
91	0x3e3b817a	0.1831111
92	0x3e47a345	0.19495876
93	0x3e6b1fbf	0.22961329
94	0x3e208396	0.15675196
95	0xbdb95f8f	-0.090514295
96	0x3c96174c	0.018321656
97	0xbd7dc7fd	-0.0619583
98	0x3d923864	0.07139662
99	0x3e443c4d	0.19163628
100	0xbded5b96	-0.11589734
101	0xbe45f67a	-0.19332305
102	0xbddac008	-0.10681158
103	0xbc004b8f	-0.007830515
104	0x3e42b032	0.19012526
105	0x3d90a935	0.07063524
106	0xbccf2b64	-0.025289245
107	0x3e2ac01a	0.16674843
108	0xbe3f0d81	-0.18657495
109	0x3e634da5	0.22197588
110	0x3e4d667d	0.20058627
111	0x3e408504	0.18800741
112	0xbe2b7ea2	-0.16747525
113	0xbe2ed021	-0.17071582
114	0xbd7e29b5	-0.062051494
115	0x3ea75025	0.32678333
116	0x3d997ae8	0.07494146
117	0xbde65dff	-0.11248397
118	0xbe21e072	-0.15808275
119	0xbe54b0c3	-0.20770554
120	0xbe97a4a7	-0.29617807
121	0xbdc63c80	-0.09679508
122	0x3d909d68	0.07061273
123	0xbd3ccc5a	-0.046093322
124	0xbdf7e5ca	-0.12104376
125	0x3e10df6a	0.14147726
126	0x3e5cc027	0.21557675
127	0x3e5c3e24	0.2150808
128	0x3dd76f8e	0.10519324
129	0x3c693aaa	0.014235178
130	0x3e4bb3f5	0.19892867
131	0xbe9228da	-0.28546792
132	0xbdc95475	-0.09830562
133	0x3e24a027	0.16076718
134	0x3e1d4379	0.1535777
135	0xbe30e43d	-0.17274566
136	0x3e249b4c	0.16074866
137	0xbe5f365d	-0.21798082
138	0xbd43857a	-0.047734715
139	0x3d1e4c1d	0.038646806
140	0x3d8d5f46	0.069029376
141	0x3e2dfeda	0.1699175
142	0xbd57592d	-0.05257528
143	0x3d35d4f5	0.044392545
144	0x3da4c1f3	0.080448054
145	0xbe5f6504	-0.21815878
146	0x3dc2ecae	0.09517799
147	0x3e1ccbd9	0.15312137
148	0xbddc9649	-0.10770852
149	0x3c5647d7	0.013078651
150	0x3c772617	0.015084765
151	0x3db48f5e	0.088164076
152	0x3e23bb75	0.15989478
153	0x3e12daab	0.14341228
154	0x3dfed8fb	0.124437295
155	0xbe018706	-0.12649164
156	0x3de2b069	0.11068804
157	0xbe4a8791	-0.19778277
158	0x3d99af6b	0.075041614
159	0xbe3cd927	-0.18442212
160	0x3dcc3672	0.09971322
161	0xbe3e3042	-0.18573096
162	0xbd5f4ca0	-0.054516435
163	0xbe13bc4c	-0.14427298
164	0xbdd3faee	-0.103505954
165	0x3d016a73	0.03159566
166	0xbe1034d7	-0.14082657
167	0xbdd00de5	-0.101589
168	0x3da21d67	0.07915764
169	0x3cba8f13	0.022773301
170	0xbe303fb4	-0.17211801
171	0xbe8efb79	-0.27926233
172	0x3e29a1a8	0.16565573
173	0x3e303fdf	0.17211865
174	0xbd0bbbe9	-0.034114752
175	0xbe3d26cb	-0.1847183
176	0x3daf00ea	0.08545096
177	0xbe111f28	-0.14172041
178	0xba33ba55	-0.0006856074
179	0x3df61ea9	0.12017567
180	0xbd953e20	-0.0728724
181	0xbe50169b	-0.20321123
182	0xbe3dcf96	-0.18536219
183	0xbda7ef73	-0.08199968
184	0x3bd4f202	0.006498576
185	0x3e0e247d	0.13881107
186	0x3e1aefd9	0.15130557
187	0x3d115a3d	0.03548645
188	0xbc2f1529	-0.010686197
189	0x3d8ab268	0.067723095
190	0x3d8919dd	0.06694386
191	0xbe4afb0b	-0.19822328
192	0xbdd4219b	-0.10357972
193	0xbdbf3c3d	-0.093376614
194	0xbcbef465	-0.023309896
195	0xbca1c665	-0.019747922
196	0x3dcc0520	0.09961915
197	0x3e2f9462	0.17146447
198	0x3d3f664e	0.046728425
199	0x3ddf4aef	0.10902964
200	0xbe081908	-0.13290799
201	0x3e38f4b5	0.18062098
202	0xbe37fd2c	-0.17967671
203	0xbe5da48d	-0.21644802
204	0x3e247ea3	0.16063933
205	0x3cd61f02	0.026137833
206	0x3e61fd23	0.2206922
207	0xbdb972d9	-0.090551086
208	0x3e07ec1e	0.13273665
209	0x3de9dba5	0.11418847
210	0xbd9112d7	-0.070836715
211	0xbe1ab484	-0.15107924
212	0xbd9253af	-0.07144868
213	0xbd511ac7	-0.051050927
214	0x3d524c26	0.051342152
215	0x3dd144a7	0.102181725
216	0xbe4a0b63	-0.19730906
217	0xbe328bf3	-0.17436199
218	0x3d14ae8b	0.03629927
219	0x3e1123e9	0.14173855
220	0x3e1d41bd	0.15357108
221	0x3e324226	0.17408046
222	0x3df4c218	0.11951083
223	0x3df650d1	0.12027133
224	0xbdab8570	-0.083750606
225	0x3cc20e86	0.023688566
226	0xbe231ef5	-0.15929778
227	0xbc2f2fd7	-0.010692558
228	0xbd75dc8e	-0.06002479
229	0xbe6fc592	-0.23415211
230	0xbdcdf275	-0.10056011
231	0x3d8030e0	0.06259322
232	0x3d4bbac8	0.049738675
233	0x3c5cbdbd	0.0134729715
234	0x3d963c39	0.07335705
235	0x3e350f50	0.17681623
236	0x3e20de39	0.15709771
237	0xbe478cc0	-0.19487286
238	0xbdc9cbe3	-0.098533414
239	0x3dfb906c	0.12283406
240	0x3de1a296	0.11017339
241	0x3dfe1c57	0.12407749
242	0xbe2ffa58	-0.17185342
243	0xbddfba94	-0.10924259
244	0x3e352d6c	0.17693108
245	0x3e1a670b	0.1507837
246	0xb9e7a60e	-0.00044183474
247	0xbe3e894b	-0.1860706
248	0xbe2b8fca	-0.1675407
249	0x3df654c1	0.12027884
250	0x3e0bb5ef	0.13643621
251	0xbe150e05	-0.1455613
252	0xbd720f7d	-0.059096802
253	0x3e03cc5f	0.1287093
254	0xbd4b9e5d	-0.049711574
255	0x3e458f33	0.19292907

bias f4 [10]
0	0xbcc7075b	-0.0242955
1	0xbbfafb8e	-0.007659382
2	0xbd0fdc46	-0.03512218
3	0x3d083630	0.033254802
4	0xbe94c140	-0.29053688
5	0x3f1c1d53	0.60982245
6	0x3d875f0c	0.06609926
7	0x3d9698aa	0.07353337
8	0xbd600310	-0.05469042
9	0xbeac441a	-0.33645707
