models/conf_1.pt (torch, 441470 bytes, 6 tensors)

weight f4 [128, 784]
000000 93 99 66 3b d1 c5 db bc 73 0c 20 bc 77 da 09 3c
       0.0035186752 -0.026827725 -0.009768593 0.0084139025
000010 af 8e 9f bc 74 d7 9b bb c1 ad 1d 3c 09 24 e0 3b
       -0.019477217 -0.0047559086 0.009623946 0.006840233
000020 47 4e b2 3c ba 81 cd bb c8 69 92 bc d3 95 b7 bc
       0.021765841 -0.006271568 -0.017872706 -0.022410309
000030 44 6a 8c bc 60 ee 12 bc 8e cd 7d bc f1 28 11 3d
       -0.017140515 -0.008967966 -0.015490903 0.035439435
000040 8b 59 89 3c 70 d7 ee 3c e5 f5 15 3a 5e 85 87 3b
       0.01676633 0.029155463 0.000572054 0.0041357717
000050 08 76 07 bd b3 60 54 bc 60 42 b2 bb b6 15 09 3d
       -0.033071548 -0.012962508 -0.0054400414 0.03346797
000060 76 89 54 3c a9 0b d4 bc d8 0b b2 3c 81 70 5b bb
       0.012972226 -0.025884466 0.021734163 -0.0033483806
000070 0e 13 fd bc b7 2b aa 3b 12 d3 00 3d 14 d8 e0 3c
       -0.030892875 0.0051931995 0.031451292 0.027446784
000080 a5 30 44 3c 5e 97 c6 3c cd 38 c5 3b e9 46 c1 bc
       0.011974488 0.0242421 0.006018734 -0.023593383
000090 61 f1 fb bb 42 63 db bb 22 02 0e bd 0a 0c 51 bc
       -0.0076886867 -0.006695182 -0.034670003 -0.012759218
0000a0 70 ba 0c bd 87 93 33 3c c7 53 ef bc ba a1 c3 3c
       -0.03435749 0.010960466 -0.029214753 0.023880828
0000b0 49 c8 b6 3c ec d2 02 bc 9a 97 d7 bb 0b 90 34 3c
       0.0223123 -0.007984858 -0.0065793516 0.011020671
0000c0 fe ef 73 3c 22 63 bc 3c d6 46 08 bd f4 25 f3 bb
       0.014888762 0.022996489 -0.03327068 -0.007420296
0000d0 29 6d 07 bc 27 2c 25 bc ab da 5b 3c db 80 0e bd
       -0.008265772 -0.0100813275 0.013418834 -0.034790855
0000e0 63 46 ae 3c ec 6a a1 3c ac ad 24 3c b7 e8 47 3c
       0.021273797 0.019704305 0.010051172 0.01220148
0000f0 ff 1a c8 bc c7 24 09 bd e4 01 0b 3d 5a ac b2 3b
       -0.024426935 -0.03348234 0.03393735 0.005452675
000100 a7 38 b3 3c f9 50 55 3c 38 4d c7 bc 5c 2a 89 3b
       0.0218776 0.013019794 -0.024328813 0.004185958
000110 e6 6d b7 bb e3 15 7d 3a d6 7b 08 3d c6 c7 51 bc
       -0.0055978177 0.00096544455 0.033321224 -0.012803977
000120 57 bf 41 3c 74 23 97 bc a0 a7 91 bc 52 f1 17 38
       0.011825404 -0.018449523 -0.017780125 3.6225952e-05
000130 b2 c4 e6 bc 7c fa d8 3c 05 3d bf 3b 1f 2b 6a bc
       -0.028169964 0.026486628 0.0058361315 -0.014292507
000140 67 20 d1 3b b3 b7 52 bc 85 8e bb 3c fb b2 d8 3b
       0.0063820365 -0.01286118 0.022895107 0.006613133
000150 97 e4 40 3c a0 98 f2 3c 30 e3 03 bd b1 8d 93 3c
       0.01177325 0.029613793 -0.032199085 0.0180119
000160 27 29 09 3d e8 e2 00 3c d0 f6 d2 3c 75 55 98 3c
       0.03348651 0.007866599 0.025752455 0.018595437
000170 06 ab 01 3b da a4 44 bc cd 8d 0f bc 4a 0e 18 3c
       0.0019785776 -0.012002194 -0.008761835 0.0092807505
000180 af 3a 35 3c b7 76 58 bc 65 c2 0e bd 0a 22 49 3c
       0.011061355 -0.013211898 -0.034853358 0.012276182
000190 10 64 0f bc c5 da 1a bc db fc 91 bc 7c 41 4f bb
       -0.008751884 -0.009451573 -0.017820766 -0.0031624725
0001a0 e3 6f f6 3c bc 3e 0a bd 2e cc 7b 3c 6e 80 de 3c
       0.030082649 -0.033751234 0.015368504 0.02716085
0001b0 d3 2e 8d 3c 04 b2 1f bc 15 eb e3 3c f6 81 ff 3c
       0.017234242 -0.009747032 0.027822057 0.0311899
0001c0 11 18 5d bc c1 db f7 3b 15 97 f1 bc 2c 30 09 bd
       -0.013494507 0.0075640385 -0.029490987 -0.033493206
0001d0 0c c3 57 bc ee e3 10 3c 27 e2 f1 bb c4 5c 68 3c
       -0.013169061 0.008843405 -0.007381696 0.014182273
0001e0 84 26 e0 3c ef d5 e0 bc 1e d1 b7 3c e2 cb b3 bb
       0.027362116 -0.027445761 0.022438582 -0.005486951
0001f0 fc 96 43 3c 59 7c 01 3d e6 13 3d bc dd ef 07 bd
       0.011937853 0.031612728 -0.011540389 -0.033187736
000200 3c 9e 48 bb 68 a8 f7 bb 19 bc b0 3c 0c 8e 0e bd
       -0.0030611893 -0.0075579174 0.021574067 -0.034803435
000210 12 c0 e8 3b 95 ed f0 bc a2 4c 03 3d 1d a2 1d 3b
       0.0071029747 -0.029410163 0.032055505 0.0024052926
000220 54 ca f7 3c 27 72 14 3b 1e 01 00 3d f1 69 4b 3c
       0.030247845 0.0022651048 0.031251065 0.012415395
000230 ce 96 38 3c 88 e0 2d 3c 58 3f e6 bc 0b ca 84 3b
       0.011266423 0.010612614 -0.028106377 0.0040524057
000240 9c 9c a8 bb 02 07 af 3c 7b 5e 91 3c dd c9 0d 3c
       -0.0051456224 0.021365646 0.017745247 0.008654085
000250 c1 27 6d 3c 96 91 76 3c b0 91 ba 3a 63 39 90 bc
       0.01447481 0.015049359 0.0014234092 -0.01760549
000260 87 8f f1 bc 14 83 dd bc c6 53 ee 39 c9 ac b1 bc
       -0.029487384 -0.027040042 0.00045457314 -0.021688836
000270 32 b0 f1 3b 1d a7 77 3c d6 6c d2 bc 22 20 52 bb
       0.0073757404 0.0151155265 -0.025686663 -0.003206261
000280 96 6f e0 bc 8c da a1 bb 84 11 ff 3c 90 9f 50 bb
       -0.027396958 -0.004939383 0.031136282 -0.0031833388
000290 97 12 23 3c 45 51 b6 3c 3b b5 d4 3b 1d 39 fd 3c
       0.009953163 0.02225555 0.006491331 0.030911023
0002a0 25 a6 6e bb 52 dc 87 bb a4 de 86 3c 88 1d 15 bc
       -0.0036414948 -0.0041461373 0.016463585 -0.009101279
0002b0 7e 5e c3 3b ea 0f 0d 3d 80 27 84 bc 85 d2 ca 3c
       0.005962192 0.034439005 -0.016132116 0.024758587
0002c0 fc 64 5e bc 25 92 ce 3c b6 2e 8a 3c 41 f0 03 bd
       -0.013573881 0.025216172 0.016867977 -0.032211546
0002d0 1a 75 03 bd 5d 9a c7 3b b5 ef b9 bc df 1e a9 3c
       -0.0320941 0.0060913996 -0.022697309 0.020644603
0002e0 8d ee d0 3c 58 d7 c4 bb dc c3 22 bc d4 77 0d 3d
       0.025504375 -0.0060071163 -0.009934392 0.034538105
0002f0 60 34 2e bc b5 85 b5 3b 55 d6 dc bc b6 8b 79 bc
       -0.010632604 0.0055396208 -0.02695767 -0.015231064
000300 d7 3f a9 bc ed 75 02 3d eb 26 ba 3b b8 2f df 3c
       -0.020660324 0.031850744 0.005680909 0.027244434
000310 10 d3 8a bc 69 32 9e 3a f6 70 61 bc 1c 39 fa bc
       -0.016946346 0.0012069467 -0.013759842 -0.03054481
000320 5f ab ea bc 61 98 94 bb 6e 17 eb bc c9 93 cd bc
       -0.02864617 -0.0045347665 -0.028697696 -0.025094884
000330 93 27 54 bc 03 be 86 3c ef 68 fb 3c 49 80 cf bc
       -0.012948888 0.016448027 0.030689685 -0.025329726
000340 db 4a a3 bc 3f ad ca bc cc 61 56 3c 39 f3 5c bc
       -0.019933155 -0.024740813 0.01308484 -0.013485723
000350 58 e8 0b 3c c5 32 e7 bc cf 7f 06 3d e7 e7 bf 3c
       0.008539282 -0.028222451 0.03283673 0.02342601
000360 a6 37 b5 bc be a2 ca 3c 77 69 e3 bc 7b 57 e7 3c
       -0.022121262 0.024735805 -0.02776025 0.028239956
000370 00 81 fb 3c 6a 7e 95 3c 24 8d 02 3d ee 19 79 bc
       0.03070116 0.018248755 0.031872883 -0.015203936
000380 3c b0 e6 bc 16 04 1a 3c f5 29 96 3c 5b e7 94 bb
       -0.028160207 0.009400388 0.018330554 -0.0045441813
000390 16 0a ef bc e4 a0 a4 b8 b6 0f da bc 04 42 de bc
       -0.029179614 -7.8500976e-05 -0.02661882 -0.027131088
0003a0 d9 de 88 bb 19 25 09 3d 98 f5 07 bd 3e 2d 93 3b
       -0.004176956 0.033482645 -0.0331932 0.0044914773
0003b0 b1 8a 5c bc db 54 f5 b8 6b f3 4b 3c 05 0b f8 3c
       -0.013460801 -0.00011698316 0.012448172 0.030278692
0003c0 2b b9 28 bb 8d b0 00 bd c1 99 ff bc 1d 45 9c 3c
       -0.0025745134 -0.031418372 -0.031201245 0.019075925
0003d0 59 c4 01 3d 92 4b 5e bb e2 62 f4 bc 3e 5a d8 3c
       0.031681392 -0.0033919555 -0.029832307 0.026410218
0003e0 1f 80 de bc 3e 2d d3 3c 8c 0a 85 3c 97 18 c4 bc
       -0.027160702 0.02577841 0.01624038 -0.023937507
0003f0 60 d3 91 bc 54 41 e7 3c cb 82 e7 ba 17 2e 13 bb
       -0.017800987 0.028229393 -0.0017662881 -0.0022457892

bias f4 [128]
000000 20 c3 91 3c 9f 8b 8a 3c bc 9b 21 3d 04 a5 9e bc
       0.017793238 0.01691228 0.03945516 -0.019365795
000010 38 1e 3d 3c 4f c7 59 3d 5f 09 57 3c 7c fd c8 3c
       0.011542849 0.05316859 0.013124793 0.024534933
000020 9d 99 be bc 0e 65 bc bc 33 b6 15 3c 88 f1 a3 bc
       -0.023266608 -0.022997405 0.009137678 -0.020012632
000030 1d d2 07 bb 38 e0 d9 bc 66 5c 5e 3b 40 d2 d3 3c
       -0.0020724603 -0.026596174 0.0033929585 0.025857091
000040 2b 19 82 bc 15 45 a4 3b e3 6e c8 3c 01 1f ef 3b
       -0.015881142 0.005013118 0.024466937 0.007297397
000050 83 ae 94 3c 6b a3 24 bc 4a 56 fc 3c 63 74 27 3d
       0.01814962 -0.0100487275 0.030802865 0.04088248
000060 e3 5b e6 ba e3 f2 ad bb 1a c5 12 3d 49 d4 19 bc
       -0.0017574992 -0.0053084954 0.035832502 -0.009388992
000070 f5 dd fb bc a9 66 53 bc 42 a5 30 3d 21 3c 90 bd
       -0.030745486 -0.012902894 0.043126352 -0.07042719
000080 90 9c 5b 3b bd f9 00 3d 38 d3 44 3d 30 7a 07 bc
       0.0033510067 0.03148817 0.048052996 -0.008268878
000090 b8 b3 81 bc 96 bd af bc 0f 12 d0 3c 96 c1 c7 3b
       -0.015832767 -0.021452706 0.025399236 0.0060960753
0000a0 53 bb ad 3c a8 7e 1d 3d 93 f3 95 bc a0 15 35 bc
       0.021207487 0.038450867 -0.018304622 -0.011052519
0000b0 b3 a3 b3 3c 05 5c e8 3b 77 34 d9 3c 46 5e 14 3d
       0.021928644 0.0070910477 0.026514275 0.03622272
0000c0 77 86 a2 3c 92 a8 1e 3d 23 eb af 3c 2c 2f 10 bd
       0.019839508 0.03873498 0.021474427 -0.035201237
0000d0 46 ef bc 3b e9 26 05 3c 8d 1d 53 3d 30 54 30 bb
       0.0057658283 0.008126953 0.051541854 -0.0026905648
0000e0 ce 60 a9 3c fb 63 07 3d 51 5e 7d 3b 41 4a b8 3c
       0.020676043 0.033054333 0.0038660953 0.022496345
0000f0 59 d1 28 3d 3c 72 a3 bb ff e1 86 3c d6 1b 2c bd
       0.041215274 -0.004987983 0.016465185 -0.042018734
000100 71 f2 03 3b db 49 ef 3c 7a 62 87 3c 50 c7 91 3b
       0.002013352 0.029210022 0.01652645 0.0044488087
000110 3e a6 11 3d a8 d3 ac 3c 9d b5 b2 3c 5a d7 95 bc
       0.03555893 0.02109702 0.021815116 -0.018291164
000120 06 82 f4 b9 ea c8 20 bc a8 03 48 bc 1c 97 9d bc
       -0.00046636182 -0.009813527 -0.012207903 -0.019237094
000130 87 6b 5a 3d a3 6d 38 bd 20 96 9a 3d 03 e7 dc bc
       0.053325202 -0.045026433 0.07548165 -0.026965624
000140 1b de 1f 3c ff e1 09 3d e5 56 11 bd b7 7a 8a 3c
       0.009757544 0.033662792 -0.03548326 0.016904218
000150 d4 c1 ab 3c 6f eb 96 3c 9c a8 f2 bc ea 63 85 3c
       0.020966448 0.01842281 -0.029621415 0.016282994
000160 8f 9f a7 bc 7c 49 23 3d 9b 3a 00 3d 7b b3 d9 bb
       -0.020461826 0.039865002 0.03130589 -0.00664371
000170 fd 71 01 3d 27 b1 aa 3c 08 12 49 bb 63 c4 aa 3c
       0.03160285 0.020836426 -0.0030680913 0.020845598
000180 5c 5c 97 bb e4 b2 5b 3c 5e d4 4f bc 23 03 4b bb
       -0.0046191644 0.01340935 -0.01268491 -0.0030977211
000190 fb f9 b5 3c 00 79 bd bc e3 a4 05 bd c7 74 97 bc
       0.022213927 -0.023128986 -0.03262795 -0.018488301
0001a0 59 b8 0b bd 61 c5 c2 bc b4 a4 d0 b9 08 a0 ab ba
       -0.034111355 -0.023775758 -0.00039795565 -0.0013093958
0001b0 b4 9b 00 3d 7f eb 01 bd 49 46 b1 bb ad 5c 01 bd
       0.03139849 -0.031718727 -0.00540999 -0.031582523
0001c0 24 b3 81 bb 6f 18 d4 bc d5 ad ea bc 9f 02 80 38
       -0.003958123 -0.025890557 -0.028647343 6.104004e-05
0001d0 c1 20 d5 bc f4 f4 a7 3c ad 6f 80 bc b9 88 5a 3c
       -0.026016595 0.020502545 -0.015678251 0.013338261
0001e0 4b 68 4b 3d b2 dd f9 ba ae d3 71 3c 02 8a 8e bc
       0.04966001 -0.0019063263 0.014759941 -0.017399792
0001f0 95 7c ac bb c1 08 41 3d ab 44 63 3d 4a 6b 27 3d
       -0.005263875 0.04712749 0.05548541 0.040873803

weight f4 [64, 128]
000000 dc 02 7a bd f3 1c db bd 28 95 52 bc ae e8 bb bd
       -0.061037883 -0.10698881 -0.012852944 -0.091752395
000010 f7 d7 3e bd 61 b4 8e bd 04 55 ed ba ae a3 0c 3d
       -0.04659268 -0.06967998 -0.0018107002 0.034335785
000020 9a 58 ef bb dc 5c 8b 3d 66 e3 4c bc c5 6b 2f 3d
       -0.0073042633 0.06804821 -0.012505388 0.042827386
000030 63 46 92 3d 67 39 a8 bc 33 92 af bd b0 c3 ad 3d
       0.071423315 -0.020535184 -0.08572807 0.0848459
000040 67 11 96 bd 50 5a 1f bd 3c b3 a5 bd a5 f6 b2 bd
       -0.07327538 -0.038904488 -0.08090827 -0.0873845
000050 fb f1 6b 3d 48 fb dd bd f3 89 9e 3b 0b f3 d4 bc
       0.057603817 -0.10838944 0.004838222 -0.025994798
000060 b7 f9 86 3d 8e 51 70 bd 93 55 dd 3b b5 4e a1 bd
       0.06590598 -0.058671527 0.006754586 -0.0787634
000070 f6 fe 53 3c 49 cd 37 3d eb 59 ba 3d 22 6b 5a 3d
       0.012939205 0.04487351 0.09099182 0.053324826
000080 94 8f 11 bd 10 1d 91 bd ef 92 ed bd 0f f6 89 bd
       -0.035537317 -0.07085621 -0.11600291 -0.06736385
000090 bd cf 8a 3d c5 96 67 3c da 08 fe 3c 03 de 24 3d
       0.06777904 0.014135067 0.03101008 0.04025079
0000a0 a4 e9 29 3d 90 97 5c bb ca 49 a3 bd 00 cd 93 3c
       0.041482583 -0.0033659674 -0.079730585 0.018042088
0000b0 d9 e8 7d bd 66 14 88 3d fe c6 b1 bb 3a 89 62 3d
       -0.06198964 0.06644516 -0.005425333 0.05530665
0000c0 70 31 11 3d 40 70 2c bc a7 b2 30 3d 8a e4 c2 bd
       0.035447538 -0.010524809 0.043139126 -0.095162466
0000d0 85 fb ee 3c 7d 4f 62 3d 7f 55 8e bd 88 17 7e 3d
       0.029172668 0.055251587 -0.06949901 0.06203416
0000e0 56 0c d5 3d 63 9f 7c bc 78 ad 44 bc 53 ee 54 3c
       0.104027435 -0.01541886 -0.012004249 0.012996274
0000f0 80 27 5d 3d 0b 6a a5 3d a4 69 fe bd 3b 8b b5 bd
       0.05399275 0.08076867 -0.12422493 -0.08864447
000100 85 d3 8b bc b4 21 b0 bd 44 49 52 3d 56 94 82 bd
       -0.017068634 -0.08600178 0.051339403 -0.06375949
000110 0d 13 70 bd 3d cf ba 3d 72 da ab 3d 02 53 3a bb
       -0.05861192 0.09121559 0.083912745 -0.0028430824
000120 d7 d9 e5 3c 98 8c a4 3d e1 06 87 bd 00 61 8b bc
       0.028057976 0.08034629 -0.06593109 -0.017014027
000130 70 20 21 bd 27 aa da 3d 23 05 b3 bd ca 04 87 bd
       -0.039337575 0.10676985 -0.08741214 -0.0659271
000140 16 c1 76 3c 29 9d 00 3e d8 da 29 bd ed 11 33 3d
       0.015060684 0.12559952 -0.04146847 0.043718267
000150 00 8f 44 bc 32 68 b1 3d c7 49 21 3c 61 f8 ce 3c
       -0.0119969845 0.08662452 0.00984425 0.02526492
000160 92 0d 12 3d d9 62 83 bd 21 52 5f 3d 3f e7 0d 3d
       0.035657473 -0.06415338 0.054521684 0.03464436
000170 d0 2a 0a bc b5 ae 0d 3d 90 c4 80 3d 40 f8 b7 3c
       -0.008433059 0.03459044 0.06287491 0.022457242
000180 db d9 22 bd a5 e1 c8 3d 92 fd 9c bd b1 2e 2c 3d
       -0.039758544 0.09808663 -0.07665552 0.042036716
000190 85 c0 e9 3c 4d 7e 4f 3c 77 43 c5 3c 94 5f ea 3b
       0.028534183 0.01266439 0.024080021 0.007152507
0001a0 63 51 89 3d 0d 26 39 3b 5f 7a 93 bd ab e1 c3 3d
       0.067049764 0.002825144 -0.07201075 0.09564527
0001b0 ac dc 8c bd 16 60 49 bd 00 58 aa bd 9e 97 98 3d
       -0.06878027 -0.0491639 -0.08317566 0.07450794
0001c0 25 a9 54 bd f7 83 14 bd 3c 70 5a bc 6b 66 1a bd
       -0.05191912 -0.036258664 -0.013332423 -0.03769533
0001d0 62 41 72 bd fb a8 ed bb a7 d9 0e 3e 80 dc 4b 3c
       -0.059144385 -0.00725281 0.13950215 0.012442708
0001e0 d1 c8 ec bc 86 2a 9f bd 20 6f 12 3b 99 89 85 bc
       -0.02890435 -0.077717826 0.0022344068 -0.016300963
0001f0 48 88 e7 3d cf 44 83 3d 6e 7f bb 3d 1b 4a b9 bd
       0.113052905 0.064096086 0.09155165 -0.090473376
000200 1e f2 da bb 02 40 e3 3d d6 4a 2c bc dc 31 51 3c
       -0.0066816946 0.11096193 -0.010515889 0.012768235
000210 35 e7 35 3d 0b 1b 90 bd 93 e0 71 bd 2a da d2 3d
       0.04440995 -0.07036408 -0.05905206 0.10295518
000220 8b d6 e1 3d 0d f7 e2 bb dc bf 2e 3c 66 cb 08 bd
       0.11027249 -0.0069264234 0.01066586 -0.0333971
000230 25 ad 0a 3c b3 4e 80 3d 6b ce 60 3d d3 1d 9a bd
       0.008464132 0.06265011 0.054884356 -0.0752522
000240 f8 12 aa bc 72 64 06 3d 5b 1d 15 3c f2 a2 88 3d
       -0.020760998 0.032810636 0.009101237 0.06671704
000250 ba 59 91 3d 6a fd 53 bd 5c a1 5f bc 30 1a c7 bd
       0.07097192 -0.051755346 -0.013649311 -0.09721792
000260 cc 3f 79 bd 5a a7 a5 bd 9f 12 19 3c 6b 31 a5 3d
       -0.060851857 -0.080885604 0.0093428185 0.08066066
000270 07 2c 56 3d 67 76 bc bc 1b 8b 7e bd 97 81 29 3d
       0.05228808 -0.023005677 -0.06214438 0.041383352
000280 0c 44 18 3d 81 b5 c2 bb a2 e2 ca bc f7 d0 cc bb
       0.03717427 -0.005942047 -0.02476627 -0.0062504965
000290 2d 0c 08 3d 15 1a f6 3b c0 3e 7d bc 31 53 c8 bc
       0.033214737 0.0075104334 -0.015456855 -0.024453731
0002a0 75 14 53 bd 33 2b 42 3c 3b 4a 9c bd 79 d7 67 bc
       -0.05153318 0.01185112 -0.07631346 -0.014150494
0002b0 a3 39 1c 3d 00 1d dc 3b 17 b2 0a bd 9f 9e 1f bd
       0.038140904 0.0067173243 -0.033861246 -0.038969632
0002c0 9d 31 a8 bd d7 32 82 3d fd 50 53 bd a5 3a b4 3d
       -0.08212588 0.06357353 -0.05159091 0.08800248
0002d0 79 84 0c 3e 6e 30 b6 bd 41 34 06 3d 41 60 4c bd
       0.1372241 -0.08895956 0.032764677 -0.049896482
0002e0 76 0d bc bd ce a8 33 bc a6 58 e9 3d 27 30 0e 3c
       -0.09182255 -0.010965539 0.113938615 0.008678473
0002f0 f2 bf c4 bd a4 c9 4f 3d 48 52 c5 3d b4 0e ef 3d
       -0.09606923 0.05072941 0.096348345 0.11672726
000300 b3 cb 88 3d 6d fe 7e 3d 9f fe e9 bc b0 e6 8d bd
       0.066794775 0.062254358 -0.028563796 -0.06928766
000310 82 c6 02 bd 30 54 cc bb 01 58 91 bd 55 93 e3 3d
       -0.031927593 -0.006235622 -0.070968635 0.11112086
000320 6a 25 e0 bc f2 82 a7 bd 8b 03 8b 3b a2 00 62 bd
       -0.02736159 -0.08179273 0.0042423657 -0.055176385
000330 e0 75 ed 3c 98 ac aa 3d 74 e7 da 3c a6 31 14 3d
       0.028986871 0.08333701 0.026721694 0.03618016
000340 bf fe a5 bd d8 2c 85 bb d6 c6 b0 3c b0 4c 81 3d
       -0.081052296 -0.0040641837 0.021579187 0.06313455
000350 4e 62 c8 3d 94 58 11 3d fc 6b ae 3d 1c f7 97 3d
       0.09784375 0.035484865 0.0851669 0.07420179
000360 f2 9a e5 3b 3a 8e 54 3c 8c 69 8e bd 00 59 c1 bc
       0.0070069963 0.012973363 -0.06953725 -0.023602009
000370 5e 5d 8f bc b0 33 91 bc 05 c5 63 bd bd b3 a1 3c
       -0.017500576 -0.017724842 -0.055607814 0.019739026
000380 fe d9 05 3d 60 ab 1e 3d c4 cf 81 3d d3 6d 21 3c
       0.032678597 0.038737655 0.06338456 0.009852844
000390 09 f2 14 bd f9 f0 ee 3d 21 64 8f 3d fc 29 84 bc
       -0.036363635 0.11667056 0.0700152 -0.016133301
0003a0 47 f7 49 3d 9b 7f ee bc 08 6a a6 3d 1f 62 db 3d
       0.049308088 -0.029113581 0.081256926 0.107120745
0003b0 48 d2 67 3c 24 8a a9 bb 7a db 73 3c df 1a 94 bd
       0.014149256 -0.0051739383 0.01488387 -0.07231688
0003c0 73 92 92 3d c3 f5 b0 bd d5 01 38 3d 64 0e 42 bd
       0.07156839 -0.08640625 0.044923622 -0.047377005
0003d0 1c f0 a3 bb d6 65 49 3d 89 9c 99 bb c9 71 e9 3c
       -0.0050029885 0.049169384 -0.00468785 0.02849664
0003e0 70 28 ac bd cd 11 03 3d ef 6d ea 3b d4 e9 1a 3a
       -0.0840615 0.031999398 0.0071542184 0.0005909477
0003f0 62 5d 83 bc d5 e7 12 bd 60 be ac 3c ff 01 c1 3d
       -0.01603574 -0.035865624 0.021086872 0.09424209

bias f4 [64]
000000 f5 41 90 3c f9 05 2e bc 12 b8 e7 3d 14 c3 19 3d
       0.017609576 -0.010621541 0.113144055 0.037539557
000010 e6 9f 76 ba 66 4f b6 bb 0b 14 26 3e b1 33 8c ba
       -0.0009407982 -0.0055636643 0.16218583 -0.0010696558
000020 2d e0 ea 3c 1b 16 70 bd 74 75 0d 3e 30 47 73 3c
       0.028671348 -0.05861483 0.13814336 0.014848515
000030 03 88 8c bc 2c f7 3b 3d 45 63 3d bc 2d bb af bc
       -0.0171547 0.04589002 -0.011559312 -0.021451557
000040 34 02 05 3e 40 54 25 bd 18 d9 74 3c b8 f4 c4 3d
       0.12989122 -0.04036355 0.014944337 0.09616989
000050 26 2b a0 bd 75 34 93 3c c8 71 fa 3d b9 02 04 bc
       -0.0782073 0.01796935 0.12228733 -0.00805729
000060 19 83 ae 3c 22 3d fe ba e8 ed 3e bc 30 3b bd bc
       0.021302747 -0.0019396881 -0.011653401 -0.023099512
000070 72 68 25 bb cd 3d b9 3d b2 5d 9b bd 1c 0c bf bd
       -0.0025239256 0.09044991 -0.0758623 -0.093284816
000080 ad 67 95 bd ad 53 db 3c 33 01 c5 bc 85 48 9b 3c
       -0.07295165 0.026773298 -0.024048423 0.018955478
000090 80 d9 88 3d f8 34 cb b9 25 d7 08 3d 70 ea 3f 3d
       0.0668211 -0.00038758642 0.033408303 0.046854436
0000a0 4f e5 1b ba 4c a3 c0 3d 1f 04 8f 3d 5d 06 bf 3d
       -0.00059469504 0.094061464 0.06983208 0.093273856
0000b0 c7 0b 81 3d 1c 52 26 bd ec 7a 36 3d a8 f4 9d bd
       0.063010745 -0.04060565 0.04455082 -0.0771268
0000c0 25 02 b1 3b 03 fd 6b 3d 25 3e 78 bc 6d 03 64 bd
       0.005401867 0.057614338 -0.015151535 -0.05566733
0000d0 c1 50 30 bd f3 f4 0c 3e e9 4b 79 bc bf 41 ab bd
       -0.043045763 0.13765316 -0.015215852 -0.083621494
0000e0 c9 61 ed 3d c9 9e eb 3c a6 14 6e bd 7d 67 dc bc
       0.11590917 0.028762238 -0.05812516 -0.026904816
0000f0 35 04 49 3e 22 75 88 3c 9d 5e dd bc b1 37 6c 3d
       0.19630511 0.016657416 -0.027022654 0.0576703

weight f4 [10, 64]
000000 ba 23 dd bd 37 a6 30 3d 19 41 a3 3c 4c 54 ac be
       -0.1079783 0.043127265 0.019928502 -0.33658063
000010 70 d5 c8 3d 18 e8 39 be 37 f6 12 be d2 95 be bd
       0.09806335 -0.18154943 -0.14351736 -0.0930592
000020 fe e2 63 bd 84 6a a5 bc 02 90 5a bb 05 3a b1 3d
       -0.0556364 -0.020192392 -0.0033349996 0.086536445
000030 81 d4 ef bd c1 d9 11 3e f4 5b 8a 3e 65 6a 5a bd
       -0.11710454 0.14243223 0.2702328 -0.053324122
000040 b5 c8 6c bd 42 5e ae bd b4 7b 13 3e 6a e2 06 be
       -0.057808597 -0.08514072 0.14402658 -0.13172308
000050 8b 25 59 be 2b c6 65 3e 29 40 12 bd f6 09 3e 3e
       -0.21205728 0.22438876 -0.03570572 0.18558487
000060 e4 1f 9e bd bf 45 ab bd 85 d4 08 3c 41 4d 63 3e
       -0.077209264 -0.083629124 0.00835145 0.22197439
000070 dd b6 87 bd c6 64 17 3c 33 dd 08 bc eb 0a 7c be
       -0.06626675 0.009240335 -0.008353519 -0.2461354
000080 50 37 95 bd 79 eb 8a bd 57 a1 7e 3d 6d d9 38 3e
       -0.07285941 -0.06783194 0.062165584 0.18051691
000090 ed 63 b1 bd 02 79 60 3e 13 bb be bd fc 52 28 3e
       -0.086616375 0.21921161 -0.09313025 0.16437906
0000a0 f4 30 b3 3d 78 3e 5a bb c1 d4 4d 3e 01 2a 85 3d
       0.087495714 -0.0033301394 0.2010069 0.06502152
0000b0 90 74 40 3e 3e 64 20 3d 31 ca 06 3e e0 65 76 bd
       0.18794465 0.0391581 0.13163067 -0.06015575
0000c0 3d 60 64 3d 2b 04 57 bd 47 bb 86 3d bb 56 83 3c
       0.055755842 -0.05249421 0.06578689 0.016032567
0000d0 0b 8a 4f 3c 29 c6 14 be 09 9b 8e be 98 8c 25 3e
       0.012667189 -0.14528717 -0.27852657 0.16166914
0000e0 43 56 16 3e c2 23 e9 39 11 e6 fd bd c6 43 e8 3b
       0.14681344 0.00044467865 -0.12397397 0.0070881573
0000f0 a9 f4 5c be b3 a1 7e 3d 97 3d 86 bb 44 70 32 be
       -0.21577705 0.062165927 -0.0040966976 -0.17425638
000100 bb eb d3 bd 8f 70 04 3e 7e d6 84 3e da 91 aa 3d
       -0.103476964 0.12933563 0.25944895 0.083286
000110 cc b8 4d 3d 70 85 59 be 60 3f 9b 3e ac 7a 33 3e
       0.050225064 -0.21242309 0.3032179 0.17527264
000120 50 af fe 3d 81 c9 2a bd 79 ea c8 bb 04 0e 8b 3c
       0.12435782 -0.041696075 -0.006131467 0.016974457
000130 ba b1 8f bd bd 34 1d be ee f2 1e 3e a4 7a d7 bc
       -0.070163205 -0.1535215 0.15522358 -0.026303597
000140 ab 89 80 bd a4 e2 30 bc b7 c0 ca 3d 91 f8 f5 3d
       -0.06276258 -0.010796223 0.09900039 0.12010301
000150 7d 90 a7 be 76 d5 6d 3e a9 97 0b 3c 48 1c 49 3d
       -0.32727423 0.2322596 0.008520045 0.049099237
000160 12 54 ad 3d 47 7a 87 3b 68 47 2a bd f6 82 96 be
       0.08463301 0.0041344496 -0.041572005 -0.2939679
000170 b0 f1 76 3b 38 d9 86 bb d0 14 50 be 0a 3f 7c bd
       0.0037680678 -0.00411525 -0.2032044 -0.061583556
000180 7e 9b 1c 3d c1 ab 8e be 31 46 84 3e 80 4d 8d 3d
       0.038234226 -0.27865413 0.25834802 0.068995476
000190 ea 06 b6 bd 88 55 99 bd 48 77 39 bd b6 f0 a9 3c
       -0.088880375 -0.07487017 -0.04527977 0.020744663
0001a0 ff d2 7b 3e 2d b3 9c 3e f5 e9 06 be 9e a7 1c 3e
       0.24592207 0.3060545 -0.13175185 0.15298316
0001b0 80 fd 24 3e 0d a0 57 3d 53 75 3b 3e ae 30 9d 3d
       0.16112328 0.05264287 0.18306474 0.076753005
0001c0 2c ef 78 3e a7 10 75 3d a6 30 64 3d 8d 78 73 be
       0.24309987 0.059830334 0.055710457 -0.23776455
0001d0 4b 0b a9 bc f0 ad 91 bb 7c 9c 98 be c6 b8 84 be
       -0.020635268 -0.004445784 -0.29806888 -0.2592222
0001e0 c3 ea 84 bd cd d5 50 3c 61 10 08 bd 16 12 c1 bd
       -0.0649009 0.012746287 -0.033218745 -0.09427278
0001f0 29 c8 8a be 02 d7 02 3e 9b f3 ce bd 95 77 43 bd
       -0.27105835 0.12777331 -0.10105058 -0.047721464
000200 80 fd 2e 3d 2b 62 71 3d 29 82 cd bd 39 35 58 3d
       0.042722225 0.05893151 -0.10034592 0.052785132
000210 4b 44 1c 3e bb 93 67 3e c8 0b 83 be 83 81 d9 bd
       0.15260427 0.22614948 -0.25594926 -0.106204055
000220 fe 65 39 3e 27 fd 09 bd ce 9a f0 3d 24 44 ae bd
       0.18105313 -0.03368869 0.11748277 -0.085090905
000230 fa b2 c4 3d 4a e3 38 3e 27 f3 01 be a7 15 c0 3b
       0.096044496 0.18055454 -0.12690412 0.005861956
000240 38 73 ae 3c 39 11 e3 bd 98 c8 90 bc a9 3e 29 be
       0.021295175 -0.11087269 -0.017673776 -0.16527809
000250 63 75 8b be 37 5a c0 3d 3d 8b c6 3d 38 f2 55 be
       -0.27237996 0.09392207 0.09694526 -0.2089318
000260 a7 94 61 bd 35 92 f4 3d a5 e0 f2 3c c0 ef a7 3d
       -0.055073407 0.11941949 0.029648134 0.082000256
000270 5f 95 00 be 93 a8 35 bd 18 3e d7 3d 84 43 2c 3e
       -0.1255698 -0.044350218 0.1050989 0.1682263
000280 2e 80 4d 3d 8f 1c b6 bd 54 4e 05 be b2 19 1e 3e
       0.05017107 -0.08892166 -0.13018161 0.1543949
000290 b3 e6 0a be 7a 60 a2 bd 3f b8 b9 bd 85 09 81 3d
       -0.13564567 -0.07928558 -0.09068345 0.06300644
0002a0 c4 51 e4 3d 3e 1e 9d bc e1 1b 2b 3e b5 59 e4 3d
       0.11148408 -0.01917946 0.16709854 0.11149923
0002b0 a0 90 dc 3c 6d 9d 88 3d 04 91 95 bd b2 7d c3 bd
       0.026924431 0.066706516 -0.0730305 -0.09545459
0002c0 7d 94 0f be a6 cd b6 3d e0 38 dc 3d 35 61 af 3d
       -0.14021488 0.08925943 0.107530355 0.08563463
0002d0 4d 6e f4 ba a3 68 a0 bd a8 1b 35 be 3e 87 62 3e
       -0.0018648595 -0.07832458 -0.17686331 0.22121903
0002e0 fa bf cf bc 75 93 9d 3c 29 25 f0 3d 71 c7 c6 3d
       -0.025360096 0.019235352 0.11725838 0.09706009
0002f0 b4 4d 07 be af 4f 86 be b2 e8 cf bd 92 59 ff bd
       -0.13213235 -0.2623267 -0.10151805 -0.12468256
000300 87 2a 2c be db ab dd 3d f8 40 6f 3e 2d bb 5f be
       -0.16813098 0.108237945 0.23364627 -0.21848746
000310 b9 64 73 3d 5a 49 b8 bd fa 6b 48 3e 3e f8 39 be
       0.05942223 -0.08998366 0.1957244 -0.18161103
000320 60 1f 9b 3d ec b6 46 bc ad 35 7f 3e c5 b7 31 bd
       0.07574344 -0.012128573 0.2492282 -0.043388147
000330 24 fc 31 3d 6b 72 9c bd d1 ed 5a be 5a 3e ad 3d
       0.04345335 -0.07639011 -0.21379782 0.08459158
000340 3d f5 99 bd 00 4f 3e 3d a9 6a 33 3d 08 65 31 be
       -0.075174786 0.04646206 0.04380289 -0.17323697
000350 2b 76 4d 3e 13 ae 34 3e 19 bd e8 3d fb ed 42 3e
       0.20064609 0.17644529 0.113641925 0.19036095
000360 55 98 e3 3d 90 32 cc bd 96 7b 36 bb a7 ba 5a bd
       0.111130394 -0.099705815 -0.002784466 -0.05340066
000370 b8 0f 87 3d f1 1a 08 be d2 c6 cb bd f7 0d d6 3d
       0.06594795 -0.13291527 -0.09950031 0.10451882
000380 d9 7d a1 3d e6 07 45 be e2 b2 73 bd 00 47 dd ba
       0.07885332 -0.19241294 -0.059496768 -0.0016882122
000390 cc 15 05 be ce 07 22 3e 84 ec d4 3d 8c e1 6a bd
       -0.12996596 0.1582329 0.10396674 -0.057344005
0003a0 4b d1 3a 3e 08 60 32 3e 70 28 3e 3e 95 9e b4 bd
       0.18243901 0.17419446 0.18570113 -0.088193096
0003b0 b4 10 3e 3e d0 5b 09 3c eb 35 c1 bb 96 1f 93 bd
       0.18561059 0.008383706 -0.00589632 -0.07183759
0003c0 5a f8 56 3d c8 5b d5 3c fd 39 91 3d dc 21 9c bb
       0.05248294 0.026044741 0.070911385 -0.0047647785
0003d0 62 02 56 3d e8 12 7f bc d8 66 d0 bd 81 61 04 3e
       0.052248366 -0.015568472 -0.10175866 0.1292782
0003e0 da 83 58 3d 39 47 95 bd dc 9c 94 3d 75 be e0 bc
       0.05286012 -0.07288975 0.07256481 -0.027434567
0003f0 36 17 8b be f8 03 27 3e e4 ee 51 bd ec 1d 6e 3d
       -0.27166146 0.16310108 -0.051253214 0.058134004

bias f4 [10]
000000 52 f5 e0 bd 01 98 3d bd 42 00 b6 bd 87 30 90 bd
       -0.10984291 -0.04628754 -0.08886768 -0.07040506
000010 3a c3 48 be e5 4e ff 3e b1 eb 5f 3c 13 c0 b1 bc
       -0.19605723 0.4986488 0.013667033 -0.021698033
000020 81 64 bb bd d4 e0 48 be
       -0.09150029 -0.19617015
