models/conf_6.pt (torch, 441470 bytes, 6 tensors)

weight f4 [128, 784]
0	0x3c0e87a3	0.0086993305
1	0xbc0f26a0	-0.008737236
2	0xbc33438f	-0.0109414
3	0xbcf7bbae	-0.03024086
4	0x3cf88387	0.030336155
5	0xbad155cd	-0.0015971005
6	0x3d32eca8	0.043682724
7	0x3b7d2e69	0.00386324
8	0xbcb1c2c5	-0.021699319
9	0xbc13e572	-0.009026872
10	0x3c84f5af	0.016230432
11	0x3ca49eae	0.020095196
12	0x3cda81e6	0.026673269
13	0x3d91ad53	0.07113137
14	0x3d5505b0	0.052007377
15	0x3d44c721	0.048041467
16	0x3dbf78af	0.093491904
17	0x3cad59b0	0.02116093
18	0xbc99e00c	-0.018783592
19	0xbc03f168	-0.008053161
20	0x3d3a8d70	0.04554504
21	0x3d90644e	0.070503816
22	0x3c883174	0.016625144
23	0x3b63696e	0.0034700292
24	0xbbe56318	-0.0070003383
25	0x3c985000	0.018592834
26	0xbd064688	-0.032782108
27	0xbc9e3b4d	-0.019315386
28	0xbcc9fc98	-0.024656579
29	0xbb96f0d3	-0.004606345
30	0x3c806729	0.01567419
31	0xbce601be	-0.028077003
32	0x3ca94ad1	0.020665558
33	0xbcade286	-0.021226179
34	0x3c836f94	0.016044416
35	0xba03018c	-0.0004997484
36	0x3d5a319c	0.053269967
37	0x3db8693e	0.09004448
38	0x3d915e86	0.07098107
39	0x3d04426c	0.032289907
40	0xbbd7cafd	-0.0065854774
41	0x3d059069	0.032608423
42	0x3d1a4045	0.03765895
43	0xbcf5973b	-0.029979339
44	0xba29ef2d	-0.00064824783
45	0x3d0ecece	0.034865193
46	0x3dc47cef	0.09594142
47	0x3daf1e49	0.08550698
48	0x3ca51d07	0.020155443
49	0x3cffb35c	0.031213455
50	0x3cf27cd9	0.029600548
51	0x3cf37367	0.029718114
52	0xbcc0ff4a	-0.023559231
53	0x3d0024a2	0.031284936
54	0xbb96a1e2	-0.0045969347
55	0xbc802b56	-0.015645664
56	0xbcefa482	-0.029253248
57	0x3cc2bbba	0.023771156
58	0x3b824dfa	0.0039765807
59	0xbcffe973	-0.031239247
60	0x3c84d458	0.016214535
61	0x3ca70248	0.02038683
62	0x3c049512	0.008092182
63	0xbc00f009	-0.007869729
64	0x3c326071	0.010887251
65	0x3c81b835	0.015834907
66	0xbdf67991	-0.12034906
67	0xbda5254d	-0.08063755
68	0xbd7d21d6	-0.061799847
69	0xbcb365f8	-0.021899208
70	0xbca51702	-0.020152573
71	0xbdc2dd52	-0.0951487
72	0xbd7a7d32	-0.06115455
73	0xbc1310e5	-0.008976196
74	0x3c283d94	0.010268588
75	0x3d6444b6	0.05572959
76	0xbcc47ce5	-0.023985336
77	0xbd027ed4	-0.031859234
78	0xbd2351a4	-0.03987278
79	0x3ca0daf1	0.01963565
80	0xbd074c5e	-0.033031814
81	0xbd01eb3f	-0.03171849
82	0x3c8d9de7	0.017287208
83	0x3c1db9c9	0.009626814
84	0x3cd1e413	0.02562145
85	0xbc4a5f0b	-0.012351762
86	0xbc951d33	-0.0182024
87	0x3b6ca6a7	0.0036110075
88	0xbc98c093	-0.018646514
89	0xbd4229de	-0.04740321
90	0xbd623b08	-0.055232078
91	0x3ca2fa91	0.01989487
92	0x3c8862ad	0.016648615
93	0x3ca239bb	0.019802919
94	0x3c032741	0.008004964
95	0xbc1206cb	-0.008912752
96	0xbd0d8571	-0.034551088
97	0x3c2f4269	0.010696986
98	0xbd3973b5	-0.045276362
99	0x3d53a648	0.05167225
100	0x3cce88d8	0.025211737
101	0xbc7554c3	-0.014973822
102	0x3d07a704	0.033118263
103	0xbc9d0c23	-0.019170826
104	0xbcd13ee9	-0.025542693
105	0xbd03ffb4	-0.03222628
106	0xbd1570f0	-0.03648466
107	0xbcce5171	-0.025185319
108	0xbcba504c	-0.022743367
109	0xbce8b1cc	-0.028405093
110	0xbd1d4e22	-0.03840459
111	0x3c0abdff	0.00846815
112	0xbd0bd2b2	-0.03413648
113	0x3c5bb5ba	0.013410026
114	0xbbc5701c	-0.0060253274
115	0x3cdcabba	0.026937354
116	0xbb64ca6f	-0.00349107
117	0xbd1e7b1d	-0.03869163
118	0xbd012a15	-0.031534273
119	0xbd15148f	-0.03639656
120	0x3cfef87e	0.03112435
121	0xbb8547b7	-0.004067387
122	0x3d010e93	0.03150804
123	0x3d3ee5e1	0.04660595
124	0x3cd09271	0.025460454
125	0xbc6eb60b	-0.01456977
126	0xbd8eaac8	-0.06966168
127	0xbd0af2ee	-0.033923082
128	0x3c146419	0.009057068
129	0xbb669d66	-0.0035189032
130	0xbd06ae81	-0.032881264
131	0xbca999c2	-0.0207032
132	0x3b7bf2bc	0.0038444242
133	0x3bcf2e2f	0.006322644
134	0xbd178886	-0.036995433
135	0xba92a299	-0.0011187374
136	0xbc2c4519	-0.010514521
137	0xbd01d26e	-0.031694822
138	0xba514b65	-0.0007983952
139	0x3d077225	0.03306784
140	0xbc0fa270	-0.008766755
141	0x3cb87c07	0.022520078
142	0x3b8e8a66	0.0043499945
143	0xbcd3d039	-0.025856124
144	0xbc9b9e62	-0.018996421
145	0xbcabc32d	-0.02096709
146	0x3c7d404f	0.015457227
147	0xbc114156	-0.008865675
148	0x3b77c78d	0.003780815
149	0x3ce091f1	0.02741334
150	0x3c444214	0.011978645
151	0x3cae59ce	0.021283057
152	0xba1fd8d1	-0.0006097677
153	0x3a84c240	0.0010128692
154	0xbd648f6a	-0.055800833
155	0x3c8eaf31	0.017417522
156	0xbccf5745	-0.025310168
157	0xbc8069df	-0.015675483
158	0xbcb6a816	-0.022296946
159	0xbcd77cce	-0.026304629
160	0xbd84384d	-0.06456051
161	0xba98fdf7	-0.0011672367
162	0xbc9d23ce	-0.019182112
163	0xbcbb06e5	-0.022830436
164	0xbd29a8e8	-0.041420847
165	0x3bdb5c8d	0.0066943825
166	0xbca42d32	-0.020041082
167	0x3cc8f30c	0.024529956
168	0xbbc4894e	-0.0059978133
169	0x3c91a029	0.017776566
170	0x3b944f2f	0.004526041
171	0x3b35beec	0.0027732207
172	0xba818326	-0.0009881004
173	0xbbcdb710	-0.0062779263
174	0x3c8453e1	0.016153278
175	0xbc58cf98	-0.013233088
176	0x3bf0af1c	0.0073450934
177	0x3cfa5a48	0.030560628
178	0x3d4dcb0e	0.050242476
179	0x3c7eb749	0.015546628
180	0xbbb67702	-0.005568386
181	0xbcd7d1d1	-0.026345165
182	0xbca4ca6d	-0.020116055
183	0xbbe4d222	-0.0069830576
184	0x3bddda0c	0.006770378
185	0xbd19bbdb	-0.03753267
186	0xbd869757	-0.065718345
187	0xbcb06852	-0.021534119
188	0x3d0e5282	0.034746654
189	0x3cc6421d	0.024201447
190	0xbc1d3c25	-0.009596859
191	0xbb661688	-0.0035108645
192	0x3c8a7bd5	0.01690475
193	0xbcd06f15	-0.025443593
194	0x39f1f8c3	0.00046152444
195	0x3ce164a7	0.027513815
196	0x3b05debf	0.0020426956
197	0xbcfdf96f	-0.031002728
198	0x3cc5e2de	0.02415603
199	0x3c572d50	0.013133362
200	0xbd4589ec	-0.048227236
201	0xbcba3ab3	-0.022733068
202	0x3d8181ef	0.06323611
203	0x3d5632e7	0.052294638
204	0xbd9ed6bf	-0.07755803
205	0x3d6fc6e4	0.058539286
206	0x3d164ec7	0.03669622
207	0x3cd41d14	0.025892772
208	0x3caf8da9	0.021429854
209	0x3d626004	0.05526735
210	0x3b86072e	0.0040902114
211	0x3d2bce13	0.041944575
212	0xbd47eb3c	-0.04880832
213	0xbd1aeea1	-0.03782523
214	0xbd5df244	-0.05418612
215	0xbcefcfaa	-0.029273827
216	0xbd1a8f5b	-0.03773437
217	0x3c86ef8c	0.016471647
218	0xbc897b21	-0.016782345
219	0xbcb95b0c	-0.022626422
220	0xbd2a6602	-0.04160119
221	0x3becbc5c	0.0072246026
222	0xbc382473	-0.011239159
223	0x3b935e9f	0.0044973637
224	0x3cfaae58	0.030600712
225	0xbc11f9d2	-0.008909659
226	0xbcf7bb4e	-0.030240681
227	0xbd08dbe7	-0.03341284
228	0xbcfc1a46	-0.030774247
229	0x3cd68a57	0.026189012
230	0x3d11712b	0.035508316
231	0x3c33e3d4	0.010979611
232	0xbccc5622	-0.024943415
233	0x3c13ed4c	0.009028744
234	0x3c18ec94	0.009333748
235	0x3d77e6e6	0.060522936
236	0x3d2cd9ee	0.04220002
237	0x3d138d5d	0.036023486
238	0xba80adbb	-0.0009817401
239	0x3bf4bc2d	0.0074687214
240	0xbd1b5fa5	-0.03793301
241	0xbd1618cd	-0.036644746
242	0xbc3911d1	-0.011295752
243	0xbd282bfe	-0.04105758
244	0xbd6416d6	-0.05568584
245	0x3d54cc94	0.051952913
246	0x3c8f7aa3	0.017514532
247	0xbd9d0579	-0.076670595
248	0x3c62c759	0.0138414735
249	0xbb3cd35c	-0.0028812503
250	0xbd25c548	-0.040471345
251	0xbc7bc52f	-0.015366836
252	0x3c38c6d4	0.011277873
253	0xbba633f6	-0.005072112
254	0x3cccfe77	0.025023682
255	0xbc9dc3ad	-0.019258345

bias f4 [128]
0	0xbbbe8de5	-0.005815255
1	0x3e7f2e85	0.2492009
2	0xbd2c0555	-0.041997273
3	0xbc8b1b3f	-0.016980765
4	0x3e7ee24d	0.24891014
5	0x3e26af2f	0.16277765
6	0x3df29206	0.11844258
7	0xbdb5b92e	-0.08873211
8	0x3dae22eb	0.08502754
9	0x3ed74adb	0.42049298
10	0x3e14eb90	0.14542985
11	0xbd272459	-0.04080615
12	0x3e201de3	0.15636401
13	0x3cbdc074	0.023163058
14	0x3d6d0edf	0.05787551
15	0xbd9186bd	-0.071057774
16	0x3e0bab4a	0.1363956
17	0x3d7ccf76	0.061721288
18	0x3e2036bd	0.15645881
19	0x3b70f641	0.0036767873
20	0x3e87c376	0.26516312
21	0x3d886434	0.06659737
22	0xbd52ad16	-0.0514346
23	0xbdd89887	-0.10575967
24	0x3c825e7d	0.015914196
25	0x3dcb2da1	0.099208124
26	0xbdb5a2c5	-0.088689364
27	0xbc4438ee	-0.011976464
28	0xbe2ded0b	-0.16984956
29	0xbddadca0	-0.10686612
30	0xbe18ff51	-0.14941145
31	0xbe054580	-0.13014793
32	0x3cab3471	0.02089903
33	0x3c579dd7	0.013160191
34	0x3d8eb172	0.06967439
35	0x3e62edec	0.22161072
36	0x3ce756c4	0.028239615
37	0x3e18e9ad	0.1493289
38	0xbca07b0b	-0.019589921
39	0xbd9a657d	-0.075388886
40	0xbc713ed5	-0.014724453
41	0x3ddb7a41	0.107166775
42	0xbd8ae3a4	-0.067817
43	0x3e534734	0.2063263
44	0xbc8f9bfa	-0.01753043
45	0x3d5792d0	0.052630246
46	0xbd3a43a6	-0.04547467
47	0x3caac64b	0.020846507
48	0xbd05bf80	-0.03265333
49	0xbe65352f	-0.22383569
50	0xbe7050b2	-0.23468283
51	0x3e3183e4	0.17335469
52	0x3c60dc48	0.013724394
53	0xbc169f0e	-0.009193195
54	0x3e62f40a	0.22163406
55	0x3acbbac6	0.0015543334
56	0x3d92acca	0.07161863
57	0x3dc18677	0.09449475
58	0xbc36dede	-0.011161534
59	0xbc53f1d9	-0.012936079
60	0x3c6698a0	0.014074475
61	0x3db94001	0.09045411
62	0x3dc42900	0.09578133
63	0x3d224401	0.039615635
64	0xbe0c29be	-0.13687798
65	0xbdd0afeb	-0.10189804
66	0x3ea19192	0.31556374
67	0x3e13b188	0.14423192
68	0xbe78eb73	-0.24308567
69	0x3c86cb23	0.016454285
70	0x3e288ba6	0.16459522
71	0x3dd79efc	0.10528371
72	0x3d3eaea1	0.046553258
73	0xbda4b2f0	-0.08041942
74	0x3d2dd69c	0.042440996
75	0x3e674f94	0.2258895
76	0x3ddd162c	0.107952446
77	0x3c491dff	0.012275218
78	0x3e28ffae	0.16503784
79	0x3ca99650	0.020701557
80	0x3e926ad8	0.2859714
81	0x3db0bed2	0.08630146
82	0x3b571300	0.0032817721
83	0x3cd08349	0.025453227
84	0x3bd65533	0.0065409183
85	0xbd957a09	-0.07298667
86	0x3ea8cde8	0.32969594
87	0x3e413e6e	0.18871471
88	0xbd9ca735	-0.0764908
89	0x3d859e68	0.06524354
90	0x3d8d0de4	0.06887415
91	0x3e65a97d	0.22427936
92	0xbe1f7646	-0.15572461
93	0xbe10d19c	-0.1414246
94	0x3e32862f	0.17434
95	0xbe459505	-0.19295128
96	0x3da90e9e	0.08254741
97	0x3e17ff08	0.1484338
98	0xbbb0edfa	-0.0053994628
99	0x3e117482	0.142046
100	0x3b90a09b	0.004413677
101	0x3e876047	0.2644064
102	0x3d12782a	0.03575913
103	0x3e012733	0.1261261
104	0xbcbf415d	-0.023346597
105	0xbeaed85f	-0.34149453
106	0x3b8e488d	0.004342145
107	0x3ccc1056	0.024910133
108	0x3e1b9066	0.15191802
109	0x3d59f08f	0.05320793
110	0xbb4c16ef	-0.00311416
111	0xbd324dba	-0.043531157
112	0x3c4f166a	0.012639621
113	0x3e7fbd51	0.24974562
114	0x3d8eba45	0.06969122
115	0x3e52aa30	0.20572734
116	0x3e4f4d2d	0.20244284
117	0x3e040690	0.12893128
118	0xb7d0a129	-2.4870578e-05
119	0xbcc6bb18	-0.024259135
120	0xbd8bedc1	-0.06832457
121	0x3e2800a3	0.16406493
122	0x3c85e132	0.016342733
123	0xbc2b40b2	-0.010452436
124	0x3d284bcd	0.041087914
125	0xbd80d869	-0.06291277
126	0x3e092a3d	0.13395019
127	0x3e80bdc5	0.25144783

weight f4 [64, 128]
0	0x3d8ece20	0.06972909
1	0xbe0ff1af	-0.14057039
2	0xbe4e0d6b	-0.20122306
3	0x3e831137	0.2559907
4	0x3d7d3d73	0.06182618
5	0x3d1980f6	0.037476502
6	0xbc06f1a3	-0.008236322
7	0x3df6c65d	0.120495535
8	0xbd15bfb5	-0.03655978
9	0x3d63bc95	0.055599768
10	0x3e6d32fa	0.23163977
11	0x3d0de3f0	0.034641206
12	0xbc93b8f8	-0.018032536
13	0xbdf9f408	-0.122047484
14	0x3dbc7f53	0.09203973
15	0xbe4666a9	-0.19375099
16	0xbe088c0a	-0.1333467
17	0xbd403bcb	-0.046932023
18	0xbd484fc5	-0.0489042
19	0xbc6a6585	-0.014306431
20	0x3d07bb09	0.033137355
21	0xbe2bc0c2	-0.1677275
22	0x3e0d5c5a	0.1380476
23	0xbd74d13d	-0.059769858
24	0xbe4d3b48	-0.20042145
25	0xbd167e91	-0.036741797
26	0xbcfc02d2	-0.030763064
27	0xbdb6e4fc	-0.08930394
28	0xba2932ab	-0.00064543885
29	0xbdcf2a76	-0.10115521
30	0x3cd48330	0.025941461
31	0x3e2648ea	0.16238752
32	0x3d9e4ff2	0.07730092
33	0xbdbf7f8e	-0.09350501
34	0xbda1d806	-0.07902531
35	0x3dc136b5	0.09434263
36	0x3cc9558e	0.024576928
37	0x3d9b393e	0.075792775
38	0x3cedaf90	0.029014379
39	0x3d0886ba	0.03333161
40	0xbcab6fa9	-0.020927267
41	0xbdd9f503	-0.106424354
42	0xbe447a8a	-0.1918737
43	0xbddf810a	-0.10913284
44	0x3c682583	0.0141691
45	0x3caab98f	0.020840434
46	0xbd3f681c	-0.046730146
47	0xbe337033	-0.1752327
48	0x3e414672	0.18874529
49	0x3e46824a	0.19385639
50	0x3c9e5514	0.019327678
51	0xbdfaa7b2	-0.122390166
52	0xbdd1fe1f	-0.10253548
53	0x3dbea701	0.09309197
54	0x3eb92f72	0.3616901
55	0x3d8d76be	0.06907414
56	0xbe6cfe9d	-0.23144002
57	0x3cb625c3	0.022234803
58	0xbdb34780	-0.08753872
59	0x3e6901df	0.2275462
60	0xbda27c89	-0.079339094
61	0x3e0294af	0.12752031
62	0x3d42ca71	0.047556344
63	0xbcce4ae1	-0.02518219
64	0x3e41f1f9	0.18939961
65	0xbd4666b4	-0.04843779
66	0x3d9d1fd6	0.07672088
67	0x3e1ad513	0.15120344
68	0xbca62df5	-0.020285586
69	0x3d77cd92	0.06049878
70	0x3df376dd	0.11887906
71	0x3bf2bcdd	0.007407768
72	0x3d2be44b	0.041965764
73	0x3a495772	0.0007680572
74	0xbdad15c7	-0.08451419
75	0x3d8dfcac	0.06932959
76	0xbe3ef283	-0.18647198
77	0xbdcd4d04	-0.10024455
78	0xbb0a604d	-0.0021114529
79	0x39ae95ec	0.00033299567
80	0x3de280f5	0.11059753
81	0xbcfb7b16	-0.03069834
82	0x3d6e3ba3	0.058162343
83	0x3cd0a347	0.025468482
84	0xbe114fec	-0.14190644
85	0x3e1890a1	0.14898922
86	0xbe1442cb	-0.14478604
87	0xbcb5ddc4	-0.022200473
88	0xbdae7b99	-0.08519668
89	0x3e3319e2	0.17490342
90	0xbdc1bb4d	-0.09459553
91	0xbd78f438	-0.06077978
92	0x3d57c8cc	0.05268173
93	0xbe1e9f66	-0.15490493
94	0x3ad273f9	0.0016056291
95	0x3dd24c7c	0.102684945
96	0x3863f357	5.4347645e-05
97	0x3d18d1c7	0.037309434
98	0x3d2b99e3	0.041894805
99	0x3d96a54b	0.07355746
100	0x3d61951f	0.055073854
101	0xbc9adb16	-0.018903296
102	0xbe588326	-0.21143779
103	0xbe4439bf	-0.19162653
104	0xbc52ba11	-0.0128617445
105	0xbdc120d0	-0.094300866
106	0xbd2d375b	-0.04228912
107	0x3da25b9f	0.079276316
108	0x3cea134a	0.02857365
109	0xbc8e0908	-0.01733829
110	0xbd7f4ec6	-0.062330984
111	0xbc9af1ba	-0.018914092
112	0xbd669081	-0.056290153
113	0x3d8711ce	0.06595193
114	0xbe1058a6	-0.14096317
115	0xbc2788d8	-0.010225497
116	0xbdc1ec03	-0.09468844
117	0xbe2883c5	-0.16456516
118	0x3dff079d	0.12452624
119	0x3d0c08ec	0.034188196
120	0x3dd5f244	0.10446599
121	0x3d400e12	0.04688842
122	0x3dde991d	0.10869048
123	0x3d844d5a	0.06460066
124	0xbe4af43e	-0.19819734
125	0xbd48d136	-0.049027644
126	0xbda7fba3	-0.08202293
127	0xbe016080	-0.12634468
128	0xbdbd29a0	-0.09236455
129	0xbd8643fa	-0.06555934
130	0xbd8f101c	-0.069854945
131	0x3e3120aa	0.17297617
132	0x3d0facae	0.03507679
133	0x3e11cdb1	0.14238621
134	0x3cc6df64	0.024276443
135	0x3c66cd1a	0.014086986
136	0xbe1822af	-0.1485698
137	0xbbea1be6	-0.007144439
138	0xbc9692a2	-0.018380467
139	0x3dc4a07c	0.096009225
140	0x3c60100d	0.013675702
141	0xbd9dc266	-0.07703094
142	0xbe29c28f	-0.16578124
143	0xbd85ace3	-0.06527116
144	0x3d243fad	0.04009979
145	0xbe4d6df3	-0.20061474
146	0x3e03ea62	0.12882379
147	0x3c954623	0.01822192
148	0xbde1db54	-0.11028162
149	0x3d0c42b6	0.034243308
150	0x3d0fb66b	0.035086077
151	0xbdad5dea	-0.08465178
152	0xbd1440ee	-0.036194734
153	0x3d6c1328	0.057635456
154	0xbcec3033	-0.028831577
155	0xbd97c3c6	-0.07410388
156	0xbc514136	-0.012771895
157	0xbdf76f5c	-0.12081787
158	0xbbcb85e2	-0.0062110284
159	0xbd9ceffd	-0.07662962
160	0x3dc9608f	0.0983287
161	0xbe15028b	-0.14551751
162	0xbd1874e9	-0.03722087
163	0x3c8dc7b8	0.017307147
164	0x3eb32561	0.34989455
165	0xbd8bb6c3	-0.068219684
166	0xbde531be	-0.11191128
167	0x3e18c274	0.14917928
168	0xbd9aaba3	-0.07552268
169	0x3db7e5de	0.089793906
170	0xbda0f537	-0.07859271
171	0x3e83c7c3	0.25738344
172	0x3d92ceb3	0.07168331
173	0x3db889ff	0.09010696
174	0x3dda73c0	0.10666609
175	0xbda219fb	-0.07915112
176	0x3e1fa9eb	0.15592162
177	0x3cba2a2a	0.022725184
178	0xbde67fe9	-0.11254866
179	0x3e93cc9d	0.28867045
180	0x3e2af17e	0.16693684
181	0x3e2d05a8	0.16896689
182	0x3e233055	0.15936406
183	0x3da87353	0.08225121
184	0x3d3787ea	0.044807352
185	0x3dae3525	0.0850623
186	0x3d22d14d	0.039750386
187	0x3d093f59	0.03350768
188	0x3d862668	0.06550294
189	0x3e58487a	0.21121398
190	0x3e282487	0.16420184
191	0x3e224697	0.1584724
192	0x3e866e44	0.26256
193	0xbcd3b514	-0.02584318
194	0x3e73304b	0.23748891
195	0xbdb0a556	-0.08625285
196	0x3cb5affb	0.02217864
197	0x3d65c838	0.056099147
198	0xbe3d47ca	-0.18484417
199	0xbd16828e	-0.0367456
200	0xbc018011	-0.007904069
201	0x3e057d60	0.13036108
202	0xbd3dd6e6	-0.04634752
203	0x3e72042d	0.23634405
204	0xbd68524a	-0.056719102
205	0x3d090836	0.033455096
206	0x3e168b9f	0.14701699
207	0xbd98b19b	-0.074557506
208	0x3eb8260b	0.35966524
209	0xbdf732fa	-0.1207027
210	0xbdc00b0c	-0.09377107
211	0x3c1b6734	0.009485055
212	0x3d88161c	0.06644842
213	0x3e1f62e9	0.15565075
214	0xbddd5482	-0.10807134
215	0x3d435dc7	0.047696855
216	0xbcdca0c1	-0.026932122
217	0x3e585175	0.21124823
218	0x3d4f2615	0.050573427
219	0x3d996f72	0.0749196
220	0xbbb0bad2	-0.0053933645
221	0xbe073461	-0.13203575
222	0x3d89e32e	0.06732784
223	0xbd818bd9	-0.06325502
224	0x3cb86089	0.022506969
225	0xbdba7fb8	-0.09106392
226	0x3d5476d0	0.05187112
227	0xbbc40faa	-0.0059833126
228	0x3d8f1956	0.06987254
229	0x3d4a5022	0.049392827
230	0x3d95ae08	0.073085845
231	0xbda10a7b	-0.07863327
232	0x3d37221b	0.04471026
233	0x3c8078e4	0.015682645
234	0xbde2ea63	-0.11079862
235	0x3e48940d	0.19587727
236	0x3e19664a	0.14980426
237	0xbd50a779	-0.050940964
238	0xbd0ed48a	-0.03487066
239	0xbe2028b8	-0.15640533
240	0xbc08a15f	-0.008339255
241	0xbb8dc9f5	-0.0043270537
242	0x3d80771d	0.06272719
243	0x3d652ae6	0.055949114
244	0x3ccd7528	0.025080279
245	0x3d2b3ef5	0.041808087
246	0x3e603559	0.2189535
247	0x3c049800	0.00809288
248	0x3dbf3863	0.09336927
249	0x3dda0a47	0.106464915
250	0x3e029032	0.12750319
251	0x3c7a9042	0.015293183
252	0xbd2637ae	-0.040580444
253	0x3e0ec624	0.13942772
254	0xbde946dd	-0.11390469
255	0x3d74b99c	0.059747323

bias f4 [64]
0	0x3dfd267a	0.123608544
1	0x3e027942	0.12741569
2	0x3edb7409	0.42861965
3	0x3dd5ecb2	0.10445537
4	0xbb84999a	-0.004046631
5	0xbc690582	-0.014222505
6	0x3ddfa1fd	0.10919569
7	0x3eae070f	0.3398976
8	0x3cb18aa1	0.021672549
9	0x3d43c89b	0.047798734
10	0x3d9b18a2	0.07573058
11	0x3de233f0	0.110450625
12	0xbe09644b	-0.13417165
13	0x3cdf9103	0.027290827
14	0x3df70e0e	0.120632276
15	0x3d647167	0.05577221
16	0x3e409417	0.18806492
17	0x3de30b29	0.11086113
18	0x3e5a5d2d	0.21324606
19	0x3e3d0f37	0.18462835
20	0x3ef67a74	0.481403
21	0xbd43b97c	-0.047784314
22	0x3e5341e0	0.20630598
23	0x3e3172ea	0.17328992
24	0xba95d609	-0.0011431585
25	0x3e424999	0.18973388
26	0xbc70f4ed	-0.014706832
27	0x3e7c7bdb	0.24656622
28	0xbd43e7e5	-0.047828574
29	0x3e69f5e0	0.228477
30	0x3da9752c	0.08274302
31	0xbb33d99d	-0.002744294
32	0xbc2cc4c0	-0.010544956
33	0x3e6fa56b	0.23402946
34	0x3de87ed4	0.113523155
35	0x3e23a811	0.15982081
36	0x3e0c1cd6	0.13682875
37	0xbd388dc2	-0.045057066
38	0x3da14710	0.07874882
39	0x3c706c7e	0.014674304
40	0x3dbe03b4	0.0927805
41	0x3ea1cf93	0.3160368
42	0xbd47c904	-0.048775688
43	0x3e0ecfcc	0.13946456
44	0x3e78a375	0.24281104
45	0x3ca5de94	0.020247735
46	0x3e5ef1ac	0.21771878
47	0x3d32cd9f	0.043653127
48	0x3e5a70dd	0.21332116
49	0x3e22578c	0.15853709
50	0x3e26d2bc	0.16291326
51	0x3e6d8610	0.23195672
52	0x3e81f1d3	0.2537981
53	0x3e19c5ef	0.15016912
54	0x3d9e24f8	0.07721895
55	0x3e4c9b10	0.19981027
56	0x3e296ec2	0.16546157
57	0x3dc74267	0.09729462
58	0x3dad6aee	0.08467661
59	0x3e54fc77	0.20799433
60	0x3d890354	0.06690088
61	0xbc6bb8b1	-0.014387296
62	0x3db2f905	0.08738903
63	0x3df3f3e7	0.11911755

weight f4 [10, 64]
0	0xbe3107ea	-0.17288175
1	0x3e24e8ab	0.16104381
2	0x3e235fad	0.15954466
3	0x3e8e6dcf	0.27818152
4	0x3e88e8d9	0.2674015
5	0xbd6bdb80	-0.05758238
6	0x3c5cc7c6	0.013475364
7	0xbf0003cb	-0.5000579
8	0xbecaf6df	-0.39641473
9	0x3cd177f4	0.025569893
10	0xbec287a7	-0.3799412
11	0x3e5eb9b9	0.21750535
12	0x3e70de20	0.23522234
13	0xbe5dd176	-0.21661934
14	0xbebc1a25	-0.36738697
15	0x3ddc55ce	0.107585534
16	0xbf19b8cf	-0.6004762
17	0xbf0a2970	-0.5396948
18	0x3f0e8f7b	0.55687684
19	0xbda751bd	-0.08169887
20	0x3e9ff85f	0.3124418
21	0x3c3aac97	0.011393688
22	0xbea7168f	-0.32634398
23	0x3e9d82ff	0.30764005
24	0x3eac400a	0.33642608
25	0x3ebe41c8	0.37159562
26	0x3e28a24c	0.16468161
27	0xbeb8df2f	-0.36107776
28	0xbdb67dac	-0.08910689
29	0xbeda1959	-0.42597464
30	0x3f0827d3	0.53185767
31	0xbd9722dd	-0.073796965
32	0x3e213b90	0.15745378
33	0xbea8f4aa	-0.32999164
34	0xbd3c4a4a	-0.045969285
35	0x3e89b46a	0.26895458
36	0xbe49c249	-0.1970302
37	0x3e1f04d1	0.15529181
38	0x3e25d58d	0.16194744
39	0x3d90df08	0.0707379
40	0x3df6af3b	0.12045141
41	0x3ed0f4da	0.40811807
42	0xbe689587	-0.2271329
43	0x3e9f6828	0.31134152
44	0xbe609ad7	-0.21934067
45	0x3dff2c70	0.12459648
46	0xbeaa0516	-0.33207005
47	0xbec6e90f	-0.38849685
48	0x3eb92a9d	0.36165324
49	0x3eb24341	0.34816936
50	0x3e9137f4	0.28363
51	0x3ea944b3	0.33060226
52	0xbe79cff6	-0.24395737
53	0x3f05549d	0.52082235
54	0xbe096d88	-0.13420689
55	0xbce67c87	-0.028135551
56	0x3ee43bbf	0.44576833
57	0xbe3df15c	-0.18549103
58	0xbe61de3d	-0.22057433
59	0xbe139c36	-0.14415058
60	0xbde89505	-0.11356548
61	0xbe3ce48b	-0.18446557
62	0xbe39a7eb	-0.18130462
63	0x3ec1910e	0.3780598
64	0xbe19844f	-0.14991878
65	0xbe65269f	-0.22378014
66	0x3eabb6ca	0.33537894
67	0x3eb7d274	0.3590275
68	0x3efb4e5d	0.49083224
69	0x3e27b67b	0.16378205
70	0x3dd42a7d	0.103596665
71	0x3e806fb9	0.25085238
72	0x3e0f616d	0.14002009
73	0xbeab356f	-0.33439204
74	0xbe818e21	-0.25303748
75	0xbe00306f	-0.12518476
76	0xbe7a41d1	-0.2443917
77	0x3f3ac48c	0.72956157
78	0xbe422209	-0.18958296
79	0xbc61c553	-0.013779956
80	0xbef16c68	-0.4715302
81	0xbe6fa0f3	-0.23401241
82	0xbedc05b5	-0.42973104
83	0xbd8f5fbb	-0.07000681
84	0xbe682d95	-0.22673638
85	0x3e349459	0.17634715
86	0x3f0c0198	0.5468993
87	0xbed6a444	-0.419222
88	0x3eaabb8f	0.3334622
89	0x3e5cceb3	0.21563224
90	0xb9d64a66	-0.00040872692
91	0xbe97442e	-0.29544204
92	0x3d7fbe53	0.062437367
93	0xbe6de031	-0.23230053
94	0xbd67fadf	-0.056635734
95	0x3eeedf9f	0.46654984
96	0xbdd10234	-0.10205498
97	0x3d64fc1e	0.0559045
98	0x3ef58233	0.47950897
99	0x3ea7f436	0.32803506
100	0x3eb132ec	0.34609163
101	0xbe10cf2b	-0.14141528
102	0xbd82b04a	-0.06381281
103	0x3e00f108	0.12591946
104	0xbe6e89c4	-0.23294741
105	0xbeebe6ef	-0.46074626
106	0x3ed80f1d	0.4219903
107	0x3d7b480e	0.061348014
108	0xbe1a821a	-0.15088692
109	0x3dcff9d7	0.10155075
110	0x3e45280e	0.19253561
111	0x3da82c8a	0.0821162
112	0xbe963d31	-0.2934356
113	0x3edcd955	0.4313456
114	0xbeb2bba2	-0.34908777
115	0xbee0f71a	-0.43938524
116	0x3d8ad829	0.067795105
117	0x3dcade06	0.09905629
118	0x3d50095c	0.050790176
119	0xbdc79083	-0.0974436
120	0x3f0071ac	0.5017345
121	0xbee1d381	-0.44106677
122	0xbe91e30c	-0.28493536
123	0x3efcc2fc	0.4936751
124	0x3db7a5e2	0.089671865
125	0x3dbb0f92	0.09133829
126	0xbe38cb83	-0.18046384
127	0xbec9a626	-0.39384574
128	0xbe9e1e83	-0.30882654
129	0x3e37f091	0.17962863
130	0x3ed3ee4a	0.41392738
131	0x3f0b2782	0.5435716
132	0xbd3d4091	-0.046204153
133	0xbe040aa9	-0.12894692
134	0xbd5c0d49	-0.053723607
135	0xbee90474	-0.4551121
136	0x3ea40d37	0.32041332
137	0xbdad13c4	-0.084510356
138	0xbe8e25b4	-0.2776314
139	0x3e955cb9	0.29172304
140	0x3e1188b8	0.1421231
141	0xbeae8522	-0.34085947
142	0x3e848da7	0.25889322
143	0x3e322e18	0.17400396
144	0x3df1f0f9	0.1181354
145	0x3e422b73	0.18961887
146	0x3ea42372	0.32058293
147	0x3f32a445	0.69781905
148	0x3eaf988f	0.3429608
149	0x3b5cdf03	0.0033702261
150	0xbe922e7d	-0.28551093
151	0x3e95c6a2	0.29253107
152	0x3ead8ed7	0.3389804
153	0x3ea3310b	0.31873354
154	0xbdc0bf93	-0.0941154
155	0xbeea3c8f	-0.45749328
156	0x3d23d21b	0.039995294
157	0x3eacc5a9	0.33744553
158	0xbee0a4b9	-0.43875673
159	0x3e9225c7	0.28544447
160	0xbcce59ce	-0.025189307
161	0x3e85f4e9	0.26163414
162	0x3e41b5b7	0.18916975
163	0x3e825e33	0.25462493
164	0xbec84835	-0.3911759
165	0xbec021df	-0.37525842
166	0x3e7230fb	0.23651497
167	0x3eb94262	0.3618346
168	0xbedf46c3	-0.43608674
169	0x3e953d65	0.29148403
170	0x3e8731aa	0.26405078
171	0xbec98e90	-0.3936658
172	0xbe8e71b5	-0.27821127
173	0xbccf74d3	-0.02532426
174	0xbecc1141	-0.39856914
175	0x3d410e65	0.04713287
176	0x3e63062a	0.2217032
177	0xbf0d5c73	-0.5521919
178	0x3e8a7127	0.27039453
179	0xbf236ddc	-0.6383951
180	0xbe88cd11	-0.26718953
181	0xbe698d6a	-0.22807851
182	0xbe66d7ef	-0.2254331
183	0xbedcc288	-0.43117166
184	0xbf0522bd	-0.5200613
185	0x3eab365e	0.33439916
186	0x3ee094f7	0.4386365
187	0x3edfe90d	0.4373249
188	0xbe661b67	-0.2247139
189	0xbee60621	-0.4492655
190	0xbd4730fb	-0.048630696
191	0xbe0fca99	-0.14042129
192	0xbeab4206	-0.3344881
193	0xbf265647	-0.649754
194	0x3e88704c	0.26648176
195	0xbefa3124	-0.48865616
196	0x3e8648b7	0.26227352
197	0xbdd733da	-0.10507937
198	0x3c3c5978	0.01149594
199	0x3edaa94d	0.4270729
200	0xbe9845f9	-0.29740885
201	0x3ec91170	0.39271116
202	0x3e8b4329	0.27199677
203	0x3e601a3d	0.21885009
204	0xbe155b9e	-0.1458573
205	0x3e68222c	0.22669286
206	0xbf150fbe	-0.58227146
207	0xbe4f442d	-0.20240851
208	0xbd9c6a3f	-0.07637452
209	0x3ea79658	0.3273189
210	0x3ebc93ed	0.36831608
211	0xbe855eba	-0.26048833
212	0xbe2058a7	-0.15658818
213	0xbdddf8fd	-0.10838506
214	0xbe8b89eb	-0.2725366
215	0x3e46ad64	0.19402081
216	0x3ea01b1f	0.31270692
217	0x3ea9074b	0.33013377
218	0xbe6120ce	-0.2198517
219	0x3d9a479e	0.07533191
220	0x3add82bf	0.0016899927
221	0x3cffac41	0.031210067
222	0xbeaa2368	-0.33230138
223	0xbeb1f998	-0.34760737
224	0xbd1fc8f1	-0.039009992
225	0x3e88767a	0.2665289
226	0x3e1be035	0.15222247
227	0x3e9fbda1	0.31199363
228	0x3ed5373a	0.41643697
229	0xbe69dc98	-0.22838056
230	0xbee18d23	-0.4405299
231	0x3e7cfd4e	0.24706003
232	0xbe6cec1f	-0.23136948
233	0x3e8f8c25	0.2803661
234	0xbec33d23	-0.3813258
235	0x3ea45352	0.32094818
236	0x3f282214	0.65677
237	0xbceb3a38	-0.028714284
238	0x3ee94e58	0.45567584
239	0x3ce2ee8e	0.027701642
240	0xbea80e20	-0.32823277
241	0x3ec43afc	0.38326252
242	0x3e7012d2	0.2344468
243	0x3eb36c44	0.35043538
244	0x3e6246d7	0.22097336
245	0xbed4f998	-0.41596675
246	0xbd1a9aaa	-0.037745155
247	0xbed67ac2	-0.41890532
248	0x3ee221a1	0.44166282
249	0x3eb83117	0.35974953
250	0x3eceaca8	0.403661
251	0xbef4a0c4	-0.47778904
252	0xbd50cdf0	-0.050977647
253	0x3cb0477a	0.021518458
254	0xbe1ceab0	-0.15323901
255	0xbec619a3	-0.38691434

bias f4 [10]
0	0xbd6ba23d	-0.05752777
1	0xbe5865a7	-0.21132527
2	0xbd9de634	-0.077099234
3	0x3ca65ad6	0.020306986
4	0xbec1d327	-0.3785641
5	0x3f6bc312	0.9209453
6	0x3e101c79	0.14073361
7	0x3e69991c	0.22812313
8	0xbe859fcb	-0.26098475
9	0xbf0b65d8	-0.54452276
