models/conf_4.pt (torch, 441470 bytes, 6 tensors)

weight f4 [128, 784]
00000000: 9c30 f73c 37c2 533c 7760 e3bc 4eaa 0cbc
00000010: 29a6 013c 5192 46bc f831 efbb 5598 8b3d
00000020: 48e8 063c 8877 cabd c7c4 ea3b 9c9b 153d
00000030: 2bc6 f2bd 37fe 4ebe 4457 2abe b46b edbd
00000040: 04b8 183e 147a 723d 83a3 ffbb 82a7 6a3d
00000050: c3b4 ac3d 5a92 1e3c cb7d 1fbd c39a bbbc
00000060: e6bf 1f3c 322e c33c 942f 003d 2625 da3b
00000070: bcef febc 3b83 ae3c c9a9 cebc 252a 0dbd
00000080: 90a8 73bd bfff 21bd 2c23 34be bf9a 143e
00000090: d6f3 073e a91f 163d b328 34be 848d 43be
000000a0: 2d0a 89bc cd94 813e c40d ccbc aca0 d13d
000000b0: e0ef 1e3c 9d6b d3bd 9bd2 dfbd 4035 0e3e
000000c0: 54f9 5f3e 06cd 523e 8ef2 7ebd ef1b bfbd
000000d0: 0019 373d fc11 b13b 0176 243c 3a48 0d3d
000000e0: 7970 553c 4f4c 91bc a9f3 5e3c 5808 383c
000000f0: a523 a9bc a2d9 37be 979b 82bd 1d2e 433e
00000100: 26bc 8b3d 64f2 983c d060 51be 51d4 c9bd
00000110: 37f6 19be c579 48bd a56d e4bd 73bd 57be
00000120: 5851 82bc 6cfa abbc 6093 90be 155b 6c3c
00000130: ffe8 4f3e 5bf0 fe3d e65b cc3d 9b54 903d
00000140: c1c9 263d 7173 55bc d240 493c ca2a b53c
00000150: 4a39 fdbc a522 e4b9 ad22 fabc d405 36bd
00000160: 1f21 c9bd b17b 82be 9beb 4a3e c204 07bd
00000170: 5592 f13c b908 e03b e752 40bd e432 05be
00000180: b179 acbd 81d3 c8bd 83be 0cbe f1aa 0cbe
00000190: b095 54bd fbdf 11be 594d d7bc 58b1 02be
000001a0: 221d 4bbd 9c4d 963c c655 053e 0690 953d
000001b0: a8b2 b33d 6cad 4c3c b721 913c 9a57 003c
000001c0: 68f9 bdbc 5f7f b5ba f57c 4dbd ea64 9cbd
000001d0: f4ec 40bd 756c 81bd 1f4e 5d3e 4c56 c9bd
000001e0: 2a63 9dbd 9d08 1b3e d23a 473c 7d5e e33d
000001f0: f490 3f3d 365d 11be 32e0 3dbe ea5c f4bd
00000200: 5d09 b2bd 296b 283d 9175 f83d d194 d4bc
00000210: d6d7 0bbe 788f 093c a98f 9d3d ae48 773e
00000220: 72dd 32bd e4dc c93b 78a6 d3bc a746 57bd
00000230: a2c9 38bc f04d 3dbd d7cb 3bbd 3a5f 57bd
00000240: 71e9 cdbd 67bf 1dbb d917 3e3c e552 30be
00000250: 4836 c7bd 7811 e1bd 3479 033c 1422 f13d
00000260: ab15 073e 466e c03d f23f a43d e85a 0a3d
00000270: 5d7a 02be 8bd4 9abc 46dc 42bd 804f 16be
00000280: 69e2 edbd 972f 173e 424c a33d 99be 9b3e
00000290: f66a 00bc e085 fe3c 1d97 a2bd 7c5a bdbd
000002a0: 52c3 b5bc 186b 99bd 930e 85bd 9020 98bd
000002b0: 8a6c a1bc deb2 523e cf2f 76bd 6f03 94bd
000002c0: 5a18 ccbd 1970 8cbd 5b81 03be 8be9 813d
000002d0: a9a7 bcbd 327e 703d a925 3d3e 750f 283e
000002e0: 992e 623d 6028 d23b 1393 f83d 79c7 6bbe
000002f0: fff8 dabd 6bdd 9abd 2998 1b3d c8fc 9c3e
00000300: 8a40 61bd a4c2 683d 94ce 93bd 8ca8 e8bc
00000310: f8d7 20bd 709b 51bd cd40 623c 1d68 fcbc
00000320: ad18 b03c 832c 073e ec80 02be 7726 91bd
00000330: b1d0 8f3c c00f d63c 9d95 0e3d 9919 77bc
00000340: b52a f3ba 7315 36bd 0c42 ef3d 920f e03d
00000350: 74fa 2abd 5dfe d23d 3a47 033d 0ca2 a2bd
00000360: 4791 bdbc 0a06 69bb eeef e0bd ac6e bd3d
00000370: 778e 1cbe 80f0 8cbd 7701 29bd ca0e ddbc
00000380: 9f7e 7bbc 0f1f 1bbd ab3a 5cbd 9d3d d9bd
00000390: 3f05 7e3d b34f ae3c 4749 67be 1d9d 3c3d
000003a0: 6a31 4f3d 9eb7 bf3d 2c30 51bd c3aa 213e
000003b0: f4c6 ef3d c410 a03d 7fff 5c3e 3e49 4d3c
000003c0: fbc3 fdbd dbbd 043e f7d1 acbc 2791 fcbc
000003d0: b390 6fbd bb87 1cbd 9d29 9f3d ab78 453e
000003e0: 1062 793d a18f abbc 5339 56bc 7c53 32bd
000003f0: a843 4ebd ae0b 48bd b9ec 4dbd dd2c cbbd
0.030174546 0.012924722 -0.027755959 -0.008585526 0.007913151 -0.0121198455 -0.007299658 0.068161644
0.008234091 -0.0988608 0.007164571 0.036525354 -0.11854204 -0.20214163 -0.16634852 -0.11592808
0.14913946 0.059198454 -0.0078014745 0.057288654 0.08432915 0.009678448 -0.038938325 -0.022900945
0.009750342 0.023825739 0.031295374 0.0066572605 -0.031120174 0.02130281 -0.025227444 -0.03446402
-0.059486926 -0.03955054 -0.17591542 0.14512156 0.1327661 0.036651287 -0.1759365 -0.19096953
-0.016728485 0.25308838 -0.024908908 0.10235724 0.009700745 -0.1032326 -0.10928842 0.13887501
0.21872455 0.20586023 -0.062243037 -0.093315 0.044701576 0.005403755 0.0100379 0.03449271
0.013027304 -0.017736582 0.013607898 0.011232458 -0.02064688 -0.17954114 -0.06377333 0.1906056
0.06822996 0.018670268 -0.20447087 -0.09854949 -0.1503533 -0.048944253 -0.111537255 -0.21068363
-0.015907928 -0.020993434 -0.28237438 0.0144260125 0.20303725 0.12448188 0.09978466 0.07047387
0.04071975 -0.013028012 0.012283521 0.02211513 -0.030911107 -0.0004351336 -0.030534113 -0.044439152
-0.098207705 -0.25484994 0.19816439 -0.03296352 0.029488722 0.0068369773 -0.04695406 -0.13007694
-0.08421648 -0.09805966 -0.1374455 -0.13737084 -0.051900566 -0.14245598 -0.026282 -0.12762964
-0.04958833 0.018347554 0.13021001 0.07302861 0.0877431 0.012492519 0.017716272 0.007833386
-0.023190215 -0.0013847164 -0.050167996 -0.07636435 -0.047100976 -0.06319515 0.21611832 -0.09830913
-0.0768493 0.15140004 0.01216002 0.111020066 0.046769097 -0.14195713 -0.18542555 -0.119317845
-0.08693192 0.04111782 0.12131799 -0.025949867 -0.13656554 0.008396022 0.076934166 0.24148819
-0.043668218 0.0061603654 -0.025836214 -0.052557614 -0.011278542 -0.046216905 -0.045848694 -0.05258105
-0.10054291 -0.0024070384 0.011602365 -0.17219122 -0.0972715 -0.1098966 0.008024503 0.11774078
0.1319186 0.09396033 0.08020009 0.0337781 -0.1274199 -0.018900177 -0.04757335 -0.14678764
-0.1161545 0.14764248 0.079735294 0.30418852 -0.0078380015 0.031069696 -0.07938979 -0.09245774
-0.022187863 -0.0749113 -0.064969204 -0.07428086 -0.019705076 0.20576045 -0.060104188 -0.072272174
-0.09965582 -0.068573184 -0.12842314 0.06343373 -0.09211666 0.0587141 0.18471397 0.16412146
0.05522022 0.0064135045 0.12137427 -0.23025312 -0.106920235 -0.075617634 0.037986908 0.30661607
-0.05499319 0.05682625 -0.07217136 -0.028400682 -0.039268464 -0.051173627 0.013809395 -0.030811364
0.021496141 0.13200574 -0.12744492 -0.07087415 0.017555567 0.026130557 0.03481065 -0.015081787
-0.0018552156 -0.04445405 0.11682519 0.1094047 -0.041742757 0.10302422 0.03205035 -0.07941064
-0.023140563 -0.0035556578 -0.10983263 0.092496246 -0.15288721 -0.06881809 -0.041261163 -0.026984591
-0.015350013 -0.037871417 -0.053766888 -0.10607455 0.06201672 0.021278238 -0.22586547 0.046048272
0.050584234 0.09361194 -0.05107133 0.15787797 0.11707869 0.07815698 0.21581839 0.012529669
-0.12390896 0.12963049 -0.021096213 -0.030830933 -0.058487605 -0.03821538 0.07771609 0.19284312
0.060884535 -0.020942511 -0.013075191 -0.04353665 -0.05035749 -0.048839264 -0.050274584 -0.09920666

bias f4 [128]
00000000: 17e0 c53e 845e b13e 5732 afbd 51cc 153d
00000010: ce43 f9be 1883 bbbd 552b 65be 85d3 a5bc
00000020: d717 883b 99f5 a4be e2f0 c43e dfb5 3b3e
00000030: 4225 35bf 9590 f7be 8fe5 0dbf c5f7 783e
00000040: 1a31 6f3d cf3a bd3e bb06 13bf fe4a 203e
00000050: b52a 45be 1cff f23e b45e eb3c 1acc 823d
00000060: 985d 073f e61a 9c3e ad92 2e3e 8840 85be
00000070: 1671 cbbc aed7 493e 0936 b53d 5913 b7be
00000080: 8972 b1be 5de6 2f3e 5487 3b3e 6bc7 91bf
00000090: 9768 2dbd 3e02 84bd 065a 89be d535 15bf
000000a0: fe5b 3fbe 85b2 e8be b085 d33c 8c6c 08bd
000000b0: 45d2 6fbe 1d34 a53e 183d 3cbe 3ad6 0b3f
000000c0: 792b fabe 06cd 5abf 2d85 61bf 3ee3 20be
000000d0: 9815 163f 172f 7fbd db17 2bbe 3c85 f63d
000000e0: 27fe 81be ef9d 8d3e 0247 0d3f 1479 1d3e
000000f0: bf91 e4bd 769f 033f 029c 2cbf 4a66 9a3e
00000100: 1290 43bf fcc5 a53e c37a d43d 4126 3fbf
00000110: fd6a 50bf 0a45 32be a9bb b53b 1f71 d13e
00000120: a5ce 90bf 30ef c0be e538 1bbe d4a4 08bf
00000130: d052 cd3d cacf cbbe 20a8 bcbe 47e4 783e
00000140: 9f24 363e 2faa 4abe 5929 163d ea90 22be
00000150: 8206 803d 3623 61bf 3daa c23e e358 cbbd
00000160: 5985 5abf 3294 cebe 3944 2b3b 3ca9 5c3e
00000170: 293c 64bf 40c9 aabd 4e60 fbbc ff2f 573e
00000180: 88a0 ffbc 6c15 febd 2785 82be cece 80bc
00000190: 2f22 74bd 1b0b 6a3e 8aa9 1f3e 1c69 5a3e
000001a0: 1405 12bf ca3b 1c3f b75e 24be 5c31 d4bc
000001b0: 641b c9be 50b8 fcbd d9f7 883e 06e6 9f3e
000001c0: a25c db3e 640c 49be 61ef 26bf 5885 c93e
000001d0: ae36 b2bd b8b7 bd3b 8b44 f0bd 00f9 cd3e
000001e0: b07d e33e 6677 7a3e 1b5e 8d3e af43 66be
000001f0: 65e6 4e3e cf5d ed3e bbf7 533e e31e f6bd
0.3864753 0.34642422 -0.085545234 0.036571804 -0.48684543 -0.091558635 -0.22379811 -0.020242462
0.0041532326 -0.32218626 0.3846503 0.18331097 -0.70759976 -0.48352495 -0.55428404 0.24313267
0.058396436 0.3695893 -0.57432145 0.15653607 -0.19254573 0.47460258 0.028731681 0.063865855
0.5287719 0.30489272 0.1704814 -0.26025796 -0.024834197 0.19711182 0.08848197 -0.3575695
-0.34657696 0.1717772 0.18313342 -1.1388983 -0.042336073 -0.0644574 -0.26826495 -0.58285266
-0.18687436 -0.454487 0.025820583 -0.033306643 -0.23420055 0.32266322 -0.1838268 0.5462376
-0.48861292 -0.8546909 -0.88093835 -0.15711686 0.586267 -0.062300768 -0.16708319 0.12037131
-0.25389215 0.27659556 0.55186474 0.15378219 -0.11160611 0.51415193 -0.6742555 0.30156165
-0.7639171 0.32377613 0.103749774 -0.74667746 -0.8141325 -0.17409149 0.0055460525 0.40906617
-1.1313063 -0.37682486 -0.15158422 -0.5337651 0.10025561 -0.39806968 -0.3684702 0.24305831
0.17787407 -0.19791482 0.036660526 -0.15875593 0.06251241 -0.8794435 0.38020507 -0.09929063
-0.8535972 -0.4034744 0.0026133193 0.21548933 -0.891543 -0.08339167 -0.03068557 0.21014403
-0.031204477 -0.1240643 -0.25492212 -0.015723612 -0.059602913 0.22855799 0.15592018 0.21329159
-0.57039 0.6102873 -0.16051756 -0.025902443 -0.3927871 -0.12339842 0.26751593 0.3123018
0.4284411 -0.19633633 -0.65209013 0.39359546 -0.087018356 0.0057897232 -0.117318235 0.40229034
0.4443183 0.2445961 0.2761086 -0.22486757 0.20205076 0.46360633 0.2069997 -0.1201761

weight f4 [64, 128]
00000000: 7750 2fbe 71af d4be 3e7f 9ebc 5867 b7be
00000010: 68a9 76be a526 39be f44f 6bbe 1142 cebe
00000020: 30a6 0ebe 373d 14be 992d c03d 0ba5 873d
00000030: bfdd 08be f750 a73e 33da 0cbe 7f41 a3bd
00000040: 9fb9 2cbe 6111 42bd ef28 143d de42 b1be
00000050: 78f0 03be e0f5 67bc bb3a 3e3e a92b e13c
00000060: a902 74bb 4bf3 71be 23d6 b1be 8716 c03e
00000070: eb95 aebe b684 aebc 1c3c 0dbd 0e73 c1bc
00000080: 983e d33b 1d65 8d3d d9cd 0d3e 556d fd3d
00000090: 292e 9ebd 4c2b 91bd 105d 503e c452 c53d
000000a0: 3ac6 72bd a117 c63c 05c8 a73d 22e5 6f3e
000000b0: 9976 babd cfde ad3d af86 01be 6840 41bd
000000c0: 9952 51be f9ac 5c3b 7533 c23d 4538 f33d
000000d0: 631a 30bd d9a7 d2bd 65bd f1bd 5b3f 103e
000000e0: dd12 d3bc 9dcc 223e 49dd 89be 553b 263e
000000f0: e474 c9bd ab63 e9bc 7ca5 853e 76d1 03be
00000100: bbfc 0abe cb1d 963d 1ba3 bd3b e247 563d
00000110: b593 89bd efd8 2b3c c8d9 9ebc 082c 9d3e
00000120: 709d 133d 53e2 933c 811a 12be f465 b63e
00000130: 950f a4be e411 663d 0773 6b3e 3428 533e
00000140: 2790 55bc 022c b1bc 95b9 51bc fdd5 d9be
00000150: b844 bbbe 437c 543e 1159 153d 80de 98be
00000160: b130 363e fb10 62be 3225 7c3c fbc8 8abe
00000170: 31bf a0bd 8505 a33c 80eb 7bbe 88a5 353e
00000180: 9106 083c a0c1 bd3c f4dd d33c c3a1 cb3d
00000190: dd0e bbbd b316 10bc 34fa 873d 66e6 aebe
000001a0: 7960 0bbd d26f 0dbd 8719 f13c 004a 9dbe
000001b0: 62fc aabc 6962 39be 2565 f23d d2a0 163d
000001c0: 23ed fb3a 5bbe 7c3d 504e 61bc bbda 53be
000001d0: 4bf3 baba 1919 00be a129 39be a2d3 d7be
000001e0: 1b4e 0d3e 1eca 703c 9bcd 29be f8bf 673c
000001f0: 9858 cdbe 797c 90be d752 8dbd d75a 953c
00000200: d7bd 8c3e 3aab 52bd 4a15 a2be 12cd 21be
00000210: 5aca aebd dcee 063e 66c2 c5bd d57c 01be
00000220: 6b7e 7c3d c700 dcbd 7ab3 bbbe e14c 79be
00000230: 0ba4 053e 4cb7 cb3d 3dde 633d dc4f 52bd
00000240: 3954 59be 299b c5bb e4b4 fa3d 3326 89bd
00000250: 20fb 44be d79a 5a3e e2d1 0abe 3968 943e
00000260: c82c 6cbc d7dd 863e e84e 753d 88e5 b4bd
00000270: eb14 c93d c3bc 9bbc 9fa8 bebc ef23 9b3d
00000280: bfa2 043e 2d0d 833d ebbf 93be f9d8 9dbb
00000290: b380 ffbd 758b a7be 1212 1abe fd1d 82be
000002a0: d809 49bd 4302 bc3d 7c8c 283d 945b f53e
000002b0: 5902 6abe a07c 233d eefc bebb caed 183d
000002c0: 7145 a5bd a74f 08be b981 b7bc a695 aabc
000002d0: 7ee8 3cbd 0e81 29be 06f5 613c 4d64 eabc
000002e0: 1039 96be 2871 2fbe ba43 81bd 7de6 c73d
000002f0: 7ea8 0bbe 8999 b53c 2136 1a3e 50bb 53be
00000300: ed70 143e be3d 1fbd 0f76 80bd b7b2 903d
00000310: 2e20 5fbd 39f0 973e 4ea6 a4bd 0d0c 5f3e
00000320: 4499 7b3d f3e7 953e af75 83bd 0b1a 38be
00000330: 6bd8 1cbe 3864 1c3d b9e6 d9bc 9c2a da3e
00000340: 78fd cebe 4bc1 aabd 640d bc3e f2e7 653d
00000350: 1192 3d3e cb40 5dbe e1d2 b93e 0a09 d8bd
00000360: 4767 9bbd d6e8 053e 1aef 4e3d 3c42 0b3d
00000370: ed7a 20bd 4497 dcbd 4e4c 003e bd8d 70be
00000380: 22b4 613d 23bd 3ebe da66 f93a ae87 8b3e
00000390: f580 453e 4bac cdbe b466 083e ccfc 983d
000003a0: 05b5 da3c d67e 37bd 2ff4 dcbd b0a7 b2bd
000003b0: 28d4 bb3d e2ee 0c3a e1c6 3a3e a591 4fbd
000003c0: bc8c 603e df15 1ebd a430 dabd 1c2c cebe
000003d0: 3310 1dbd 6319 23bd bafd 923c a109 53be
000003e0: f34d d83c ce62 873e 478d 8cbc 9bbb e7bd
000003f0: de6e 03be b63b d6bd 16ed 203b 7c9d e93d
-0.17120539 -0.415401 -0.019347783 -0.35821033 -0.24088061 -0.18081148 -0.22979718 -0.4028478
-0.13930583 -0.14476477 0.09383697 0.06623276 -0.1336584 0.3267896 -0.13755111 -0.07971477
-0.16867684 -0.047379855 0.03617185 -0.34621328 -0.128847 -0.014157742 0.18577091 0.02748664
-0.003723303 -0.23627965 -0.34733686 0.37517187 -0.34098753 -0.021303516 -0.034481153 -0.023614433
0.0064466707 0.069040515 0.13848056 0.12374369 -0.07723648 -0.07088336 0.20348 0.09634927
-0.059271075 0.024181189 0.081924476 0.23427251 -0.09104652 0.08489763 -0.12649034 -0.047180563
-0.20441665 0.0033672436 0.09482471 0.11875967 -0.042993914 -0.10285921 -0.11803702 0.14086668
-0.02576583 0.15898366 -0.2692664 0.16233571 -0.09836748 -0.028489908 0.26102817 -0.12872872
-0.13572972 0.07329901 0.005787266 0.052314647 -0.06717626 0.010488733 -0.019390956 0.30697656
0.036038816 0.018052256 -0.14267923 0.3562466 -0.32043138 0.056169406 0.22993098 0.20620805
-0.013034857 -0.02162743 -0.012800594 -0.42546073 -0.36575866 0.20750527 0.036461893 -0.29857254
0.17792012 -0.2207679 0.015389727 -0.2710646 -0.07848967 0.019900093 -0.24601555 0.17738926
0.008302347 0.023163617 0.025862671 0.09942963 -0.09133694 -0.008794474 0.06639519 -0.34160155
-0.03402755 -0.03453047 0.029431118 -0.3072052 -0.020872299 -0.18103947 0.11835698 0.036774464
0.0019220453 0.061704975 -0.013751581 -0.20688908 -0.0014263181 -0.12509574 -0.18082286 -0.4215365
0.13799326 0.014696626 -0.16582339 0.01414489 -0.40106654 -0.28219965 -0.06900566 0.018231792
0.27488586 -0.051432826 -0.31656867 -0.15800884 -0.08534689 0.13177055 -0.09656219 -0.12645276
0.061644 -0.10742336 -0.36660367 -0.24345733 0.13050859 0.099470705 0.055631865 -0.05134569
-0.21223535 -0.0060304594 0.122415334 -0.06696739 -0.19236422 0.21348129 -0.13556626 0.28985766
-0.014414974 0.26341125 0.059889704 -0.08832842 0.09818443 -0.019010907 -0.023273764 0.07575213
0.12952708 0.063989975 -0.2885736 -0.004817125 -0.12475719 -0.32723585 -0.15045956 -0.25413504
-0.049081653 0.09180119 0.0411496 0.4792143 -0.22852458 0.039913774 -0.0058284914 0.03733615
-0.080698855 -0.13311635 -0.022400724 -0.020823311 -0.04612016 -0.16553137 0.013791328 -0.02861228
-0.2934041 -0.1713301 -0.06311746 0.09760759 -0.13638493 0.022167938 0.15059711 -0.20676923
0.14496203 -0.03887724 -0.06272518 0.07065337 -0.05447405 0.29675463 -0.080395326 0.21781941
0.061425462 0.29278526 -0.06418931 -0.17978685 -0.15316932 0.038181514 -0.026599275 0.42610633
-0.40427756 -0.08337649 0.36728966 0.056129403 0.18512751 -0.21606748 0.362937 -0.10548599
-0.07588058 0.13077101 0.050520994 0.033998713 -0.03917973 -0.10771039 0.12529108 -0.23491569
0.05510343 -0.18626837 0.0019027845 0.27251953 0.19287474 -0.40170512 0.13320428 0.07470092
0.026697645 -0.044798695 -0.10788762 -0.0872339 0.09171325 0.00053761725 0.18239929 -0.050676007
0.21928686 -0.038595077 -0.10653809 -0.40268028 -0.038345527 -0.039819133 0.017943252 -0.20609142
0.026404357 0.2644257 -0.01715721 -0.1131508 -0.12835261 -0.10460608 0.0024555377 0.11406991

bias f4 [64]
00000000: 6e8b b53e c464 3f3e bca4 f63e ad81 b33e
00000010: 3b4a ef3e 99a7 453e 6dc8 80bd 8701 58bd
00000020: 1ff2 953d 8df0 b03e e29f e53e 82d2 783e
00000030: a584 9f3e 9465 eb3e bc62 0a3f 32d2 be3e
00000040: cb97 a73e 7629 ad3e d0ac b43e 0959 d73d
00000050: fffe c33e 7616 723e 2d86 843e c79e cf3e
00000060: f514 cd3e 39dd a93e 9a4a 653e 78e3 ba3e
00000070: 6129 983e 4640 7b3e 26cb 003f 238b e93e
00000080: 0acd 0b3f 48bd a03e bc47 c43e e556 bc3e
00000090: a8d1 263e 249e 893e 1fcc 3e3e 2240 20be
000000a0: b987 453e 11a9 033f 6d64 0d3f d534 503e
000000b0: f91f 603e 84cf bf3e a155 8b3d c1a5 f93e
000000c0: 04ac b43e 77e4 e93e 728d c63e 0251 b73e
000000d0: aec2 293e 883f a33d 5d0f 2e3e cfea 963c
000000e0: 0b5c 973e d96b 8e3e abf6 143e 4889 853d
000000f0: d6ca 973e fadf ad3c f46f 833e ee44 bd3e
0.3545794 0.18690783 0.48172557 0.35059872 0.4673632 0.19302215 -0.06288228 -0.05273583
0.073215716 0.34558526 0.44848543 0.24299052 0.31155887 0.45975935 0.54056907 0.3726974
0.32732996 0.33820695 0.35288095 0.10515029 0.38280484 0.2364138 0.25883618 0.40550825
0.4005505 0.33176592 0.2239174 0.3650167 0.2971907 0.24536237 0.5030998 0.45613965
0.5460974 0.3139441 0.3833598 0.36785045 0.16290915 0.26878464 0.18632554 -0.15649465
0.19290055 0.5142985 0.5523136 0.20332654 0.21887197 0.3746301 0.06803442 0.48759273
0.35287488 0.45682117 0.3877979 0.35803992 0.1657817 0.07971102 0.16998048 0.018422512
0.2956241 0.27816656 0.14547221 0.06520325 0.2964694 0.021224964 0.2567135 0.36966652

weight f4 [10, 64]
00000000: 53b7 e73e ac9c 66bd 0359 fa3e 76bf 84bf
00000010: dc6b 09bf 9cc7 733e eaec f43e 8690 9d3e
00000020: 2ff3 7dbc 603d 9ebc c137 d43e 937e f33e
00000030: 6400 eabe 0b8e 72be 9f76 9dbe 6d54 73be
00000040: 778a 2a3f 707d 56bf bce6 51bf e145 993e
00000050: 9f17 34bf 7ed1 bf3e bacb 97be 9bac 223f
00000060: 9164 053f 6a5e dbbe d9a5 583e f458 0b3f
00000070: 0a38 4dbf 5570 a63e 6a55 e83e ebc2 2d3f
00000080: e629 ed3e cf31 f2bc 955d ecbe e109 023f
00000090: c777 3c3f d099 7dbc a303 99be 04b2 fc3e
000000a0: 00bf 503e 041d 10bf 2c3b 553e f2d8 e7be
000000b0: f4f9 173f afac b7be 3b4c d93e a81c 853e
000000c0: a0e1 73bf f08b 403f 63b4 f83b f9e0 05bb
000000d0: 8a5f f0be a9f8 a2be d3e7 8dbe 08f4 0a3e
000000e0: caa2 b33e ff35 22bf d2af 05bf ee0b 4a3f
000000f0: ecd3 153f 4267 e7bd 0fae cb3e ba3c 0b3f
00000100: fd66 6abe 38a4 ecbe 927d d43e f947 1b3f
00000110: 6511 a9be 419f 953d 75cf 13be 55ef dd3e
00000120: 7594 073f b33c 253d 13e9 d03e 2f14 45be
00000130: 0f18 c1be 62ef 643e c749 5a3d e584 bebe
00000140: 109a dbbe f011 183f 5cd2 4abf 95cf 463e
00000150: d38c b63e d4af 853d 93d8 b3bd 6afd 2abf
00000160: 03ed 90bf 3745 2dbd 00ab 17be 37b6 4a3e
00000170: 9b4d ffbe 2556 f43e 49d8 bc3e 75a8 d6bd
00000180: 3ebd 03bf 04b3 42bd 4f72 69be c0e7 04bf
00000190: 711b 5f3f 22c8 c1be 5876 0abe 45aa d8bc
000001a0: 3655 df3e 825d 3fbf 8bd1 e13e 311c 3c3d
000001b0: 5a51 98be 9e66 143e 03fa e63e 6e56 b7bd
000001c0: 8a6c f03e 9241 8ebf 48a7 ab3e 60de 73be
000001d0: 325c a9be 1005 043f b501 bcbe 1e66 5ebe
000001e0: 8ded b4be 927f 383f eecb 7a3f 1688 c83e
000001f0: 982d 373f 8e0a 2a3f 6297 c63e d742 203f
00000200: 113b 8ebe dd91 0c3f 2b17 b93e 9725 883e
00000210: f611 2dbc 14c9 bf3e 26c0 51be a297 0dbf
00000220: 4fb4 b3be 29a2 62be 8e63 e63e 502d 283e
00000230: d5ea 30be 0219 063d 277e 1d3f 9165 a1bd
00000240: 4ba7 d6be 9eef c43e a814 06bf 5b01 5f3e
00000250: fb2b 82be 1f8b a83e fc0f 1c3d 8ed1 603d
00000260: 7b82 0e3f 634b 3a3f d9e1 46bf 17f2 083f
00000270: 53c7 1f3f a55f 34bf 91f0 c53e 1ae1 1b3f
00000280: d595 b33e cef6 0a3f 5c51 8abe fed2 083f
00000290: f9f8 c0be b339 22bf 545e 1cbf 2cc5 75bc
000002a0: f33a 1cbf 36db 1a3f f5e4 773e d15b 2e3f
000002b0: 26e0 68be 5b71 26bf d7ef 0fbf f9aa 1f3f
000002c0: 0b7e ccbc 8051 433f a53a d73e 6cce 00bf
000002d0: 8e16 c6be ca11 7ebf 7204 6bbe bbc0 ee3e
000002e0: 1ae7 933e c379 093f 4d64 babd 4101 e6be
000002f0: 9434 e6be 5a45 7c3e 8d6d cc3e 14ea 1cbf
00000300: 431b 53bf 76b9 37bf 5095 ec3e 8727 173f
00000310: 038d 0bbf a8d5 8d3e af99 5ebd c1c9 af3e
00000320: cee5 263d f2b4 2a3d af09 03bf 66eb 9dbe
00000330: 4d71 f33e e5ec 0fbd e67b 45bf f21e 553f
00000340: bcb7 3d3f 1610 fb3e 5b22 943e 4d74 27bf
00000350: fd27 af3e 8a82 803d e483 683d 453b 1a3f
00000360: 0f7a 023f 4b57 39bf a156 f6bd 795c c73e
00000370: fe4e 323f dd98 e53e 8856 f33e b7a2 1a3f
00000380: f5bf 10bf a0b7 f83d 1c21 1f3f c990 11bf
00000390: 2f96 2cbf d8de d1be 40b8 ae3d 3cf6 06bf
000003a0: d14b c83e 52e0 a83d df75 60bf d041 ebbe
000003b0: 4b45 61bf 598c 713e da47 fb3e b3c9 e6be
000003c0: ea35 c53e ef03 2a3f f770 b33e a6c4 733e
000003d0: 21e8 a9be 207f 2dbf 1cd1 193e 684f f9be
000003e0: 9e70 c4be c419 ccbe 5ee9 15bf 6ec7 c8be
000003f0: 5032 293f 6e5c f8bd f915 cd3e 783f 0d3f
0.45257053 -0.056301758 0.48896036 -1.0370929 -0.53680205 0.23806614 0.47837 0.30774325
-0.015499874 -0.019316375 0.41448787 0.47557506 -0.45703423 -0.23686998 -0.30754563 -0.23762675
0.6661753 -0.8378515 -0.819927 0.29936126 -0.7034854 0.37464517 -0.2964762 0.63544625
0.5210658 -0.4284547 0.21157016 0.54432607 -0.80163634 0.32507578 0.45377666 0.67875546
0.46321028 -0.029564766 -0.46165147 0.50796324 0.73620266 -0.015478566 -0.29885587 0.49354565
0.2038536 -0.56294274 0.20823354 -0.45282704 0.59365773 -0.35873935 0.42440972 0.25998425
-0.9526615 0.7521353 0.007589863 -0.0020428284 -0.4694789 -0.31830338 -0.2771593 0.13569653
0.35085136 -0.6336364 -0.52221406 0.78924453 0.5852649 -0.11298992 0.39781234 0.54389536
-0.2289085 -0.4621904 0.41502053 0.60656697 -0.33021083 0.07305766 -0.14434607 0.43346658
0.529609 0.04034109 0.40802822 -0.1924598 -0.37713668 0.22356942 0.053293016 -0.37210765
-0.42890978 0.5940237 -0.7922723 0.19415124 0.35654315 0.06527677 -0.08781543 -0.6679293
-1.132233 -0.042302337 -0.14811325 0.19796072 -0.49863896 0.47721973 0.36883762 -0.104813494
-0.51460636 -0.047534004 -0.22797512 -0.5191612 0.8715125 -0.37848002 -0.13521707 -0.026448378
0.43619698 -0.74752057 0.4410518 0.045925323 -0.29749566 0.1449227 0.4511262 -0.08952032
0.4695781 -1.111376 0.33526063 -0.23815298 -0.33078152 0.51570225 -0.36720052 -0.21718642
-0.35337487 0.72069657 0.9796742 0.39166325 0.71553946 0.66422355 0.3878737 0.6260199
-0.2777944 0.5491007 0.36150488 0.2659118 -0.010563364 0.37458098 -0.20483455 -0.553095
-0.35098502 -0.22132172 0.4499783 0.16423535 -0.17277081 0.032738693 0.6152062 -0.078807004
-0.4192451 0.38464063 -0.5237527 0.21777861 -0.2542418 0.3291864 0.03810118 0.054887347
0.5566785 0.7277128 -0.77688366 0.534944 0.6241352 -0.7045844 0.386601 0.6089035
0.3507525 0.54282844 -0.27015197 0.5344695 -0.3768995 -0.6336929 -0.61081433 -0.015000623
-0.6102745 0.6049074 0.24208434 0.6810885 -0.22741756 -0.65016717 -0.5622534 0.6237026
-0.024962446 0.76296234 0.4203693 -0.50314975 -0.38689083 -0.99245894 -0.22950915 0.46631417
0.28887254 0.5370142 -0.09101162 -0.44922832 -0.4496199 0.2463583 0.3992733 -0.61294675
-0.82463473 -0.71767366 0.46207666 0.5904469 -0.5451204 0.2770207 -0.054345783 0.34333614
0.040746503 0.04167647 -0.5118665 -0.30843657 0.4754738 -0.03513803 -0.7714218 0.83250344
0.7410848 0.4903571 0.2893246 -0.65411836 0.34210196 0.06274898 0.056766406 0.6024669
0.50967497 -0.72398823 -0.12028242 0.3893774 0.6965178 0.44843188 0.47526956 0.60404533
-0.56542903 0.12144399 0.62159896 -0.5686155 -0.6741666 -0.4099033 0.08531237 -0.52719474
0.39120343 0.08245911 -0.87679857 -0.45948648 -0.8799636 0.23588695 0.49078256 -0.4507576
0.38517696 0.6641225 0.35047123 0.23805484 -0.33184913 -0.677721 0.15021175 -0.48693395
-0.3836717 -0.39863408 -0.58559215 -0.39214653 0.66092396 -0.121270046 0.40055826 0.5517497

bias f4 [10]
00000000: 62d0 a83c 8061 1cbf bcdc da3e 7fe8 ac3e
00000010: 8826 9b3e 7706 153e fe2e d73e a47d 2ebe
00000020: 67c4 dc3c 5b10 02bf
0.020607177 -0.61086273 0.42746532 0.3377113 0.30302835 0.14553247 0.4202804 -0.17040116
0.02694912 -0.50806206
