models/conf_5.pt (torch, 441470 bytes, 6 tensors)

weight f4 [128, 784]
0	0x3bfef293	0.007780382
1	0xbf16a48d	-0.58844835
2	0xbf84025f	-1.0313224
3	0x3db363e1	0.08759285
4	0x3e821907	0.2540972
5	0xbe8933c3	-0.26797304
6	0x3e88a180	0.26685715
7	0x3f571cf2	0.8402854
8	0x3ea40df3	0.32041892
9	0xbe59871f	-0.21242951
10	0x3eeb1f3c	0.45922267
11	0x3f3d015b	0.73830193
12	0x3ebfd081	0.37463763
13	0x3e33556e	0.17513058
14	0x3dbab825	0.09117154
15	0x3e0aabd3	0.13542108
16	0x3ecd4eff	0.40099332
17	0x3f482d6f	0.78194326
18	0x3ed8e2be	0.4236049
19	0x3ddca540	0.107737064
20	0xbe2d7438	-0.16938865
21	0xbde0cb1c	-0.1097624
22	0xbdf04356	-0.11731593
23	0xbef12b55	-0.47103372
24	0xbf23938d	-0.6389702
25	0x3ebeb7af	0.37249514
26	0x3efc9874	0.49335063
27	0xbd08735c	-0.03331314
28	0x3c0f22e0	0.008736342
29	0x3f092ae3	0.53581065
30	0x3d5d0ed4	0.05396922
31	0x3f05ea63	0.5231077
32	0x3d96e13c	0.07367179
33	0x3f19037d	0.5977095
34	0xbd7d83b7	-0.06189319
35	0x3e5cb131	0.21551968
36	0x3d5bbbc1	0.053645853
37	0x3dc2d449	0.095131464
38	0xbe877198	-0.26453853
39	0x3ecc1f2e	0.39867538
40	0x3e46ab1b	0.19401209
41	0x3e2c1a08	0.16806805
42	0x3e6bf69b	0.23043291
43	0xbce4830e	-0.027894523
44	0xbc35b991	-0.011091606
45	0xbd0307c7	-0.03198984
46	0x3e22150c	0.15828341
47	0x3ed2d5cd	0.41178742
48	0x3e8961e6	0.26832503
49	0xbe227f8d	-0.1586897
50	0xbe22bc41	-0.15892126
51	0xbe492daa	-0.19646326
52	0xbec7ef03	-0.3904954
53	0xbe1ce1b2	-0.15320471
54	0x3dca41f1	0.098758586
55	0x3cdd1a4c	0.026990078
56	0x3ea8fff2	0.3300777
57	0x3ed1785a	0.40912133
58	0x3ec0d094	0.37659132
59	0x3e91d7b4	0.2848488
60	0x3edc91a0	0.43079853
61	0xbe6e81f1	-0.23291756
62	0x3eaf4009	0.34228542
63	0xbd874418	-0.06604785
64	0xbd202ef7	-0.03910729
65	0x3e06d9b8	0.1316899
66	0xbec309c7	-0.38093397
67	0xbef024e4	-0.46903145
68	0xbdcf777d	-0.101302125
69	0xbea041e4	-0.3130027
70	0xbeab67f0	-0.33477736
71	0xbe6cad0a	-0.23112884
72	0xbea937da	-0.33050424
73	0xbef29494	-0.4737898
74	0x3cd4ba4b	0.025967738
75	0x3e41e003	0.1893311
76	0xbd2adfff	-0.041717526
77	0xb9074a80	-0.00012902357
78	0xbd597b23	-0.053095948
79	0xbdd5dbb2	-0.10442294
80	0xbe517111	-0.20453288
81	0xbd5f379a	-0.054496385
82	0xbe40c7b0	-0.18826175
83	0xbf358292	-0.7090236
84	0xbd8a4cd0	-0.06752932
85	0xbf07ea7c	-0.5309217
86	0x3e29a282	0.16565898
87	0x3f21fc60	0.6327572
88	0x3f1e318c	0.6179435
89	0x3d72ec9b	0.059307676
90	0x3e4510eb	0.19244735
91	0x3e115bfd	0.14195247
92	0x3e3ce63c	0.18447202
93	0xb9bc0d40	-0.00035868026
94	0xbd35a046	-0.0443423
95	0xbc9fe35b	-0.019517591
96	0xbeea6bc8	-0.45785356
97	0xbf1cff88	-0.6132741
98	0xbebb3113	-0.36560878
99	0xbec7dd64	-0.39036095
100	0xbe5197ac	-0.20468014
101	0xbe0d8072	-0.13818529
102	0xbd60ce11	-0.05488402
103	0x3e20a37c	0.15687364
104	0xbe32ccbe	-0.17460915
105	0xbd9176d6	-0.07102744
106	0xbd88e26d	-0.06683812
107	0xbb98354f	-0.0046450268
108	0x3e27ceee	0.16387531
109	0x3ea1e7e0	0.3162222
110	0x3d1681f3	0.036745023
111	0x3dc2c08f	0.09509384
112	0x3e18c5ce	0.14919207
113	0x3e2aecfa	0.16691962
114	0x3e09c94b	0.13455693
115	0x3f18ad6a	0.5963961
116	0x3eb5cf96	0.35509938
117	0x3ebd5b6b	0.3698381
118	0x3e96fdea	0.29490596
119	0xbd3fab43	-0.046794187
120	0x3a18c419	0.00058275607
121	0xbe90bced	-0.2826914
122	0xbe4039c6	-0.18772039
123	0xbdf098df	-0.11747908
124	0xbe1f5034	-0.15557939
125	0xbe848988	-0.25886178
126	0xbf054dd0	-0.5207186
127	0xbe24e8a0	-0.16104364
128	0x3dcafdcb	0.099116884
129	0x3d3b79cc	0.04577045
130	0xbdd54ae1	-0.10414673
131	0xbea19f7a	-0.31566983
132	0xbeb1be0b	-0.34715304
133	0x3e12f23f	0.14350222
134	0xbeaa21ee	-0.3322901
135	0xbd01afaf	-0.031661686
136	0xbd144c81	-0.036205772
137	0x3ec5687f	0.38556287
138	0xbebb1661	-0.3654051
139	0xbdd2855d	-0.10279343
140	0x3df4d359	0.11954374
141	0x3eb37b30	0.35054922
142	0x3d3257ec	0.04354088
143	0x3ecff64b	0.40617594
144	0xbe5cd42a	-0.21565309
145	0x3e305f4d	0.17223854
146	0xbe885474	-0.26626933
147	0xbd9389f6	-0.07204048
148	0x3dd846e0	0.10560393
149	0x3d894454	0.06702486
150	0x3dc4b5fe	0.09605025
151	0x3e46a412	0.19398525
152	0x3e70cdf9	0.23516072
153	0xbd8369fd	-0.064167
154	0x3dd029e7	0.10164242
155	0x3d092322	0.03348077
156	0x3e822d14	0.25425017
157	0x3e178f04	0.1480065
158	0x3e1e9b7f	0.15489005
159	0x3ddc67ac	0.10761961
160	0xbe9fa4af	-0.3118033
161	0xbe000485	-0.12501724
162	0xbebab943	-0.36469468
163	0xbe217a28	-0.15769255
164	0xbe5e12ac	-0.2168681
165	0x3c8964ac	0.016771637
166	0xbe7cbcb0	-0.24681354
167	0xbe429385	-0.19001587
168	0x3ed00465	0.40628353
169	0xbf8dfd57	-1.1092938
170	0x3ef46cbd	0.4773921
171	0x3e1d7646	0.15377149
172	0x3e3b73c3	0.18305878
173	0x3edcc436	0.43118447
174	0xbeacf9fb	-0.3378447
175	0x3ea97388	0.33095956
176	0x3ea93390	0.33047152
177	0xbd90fece	-0.0707985
178	0x3e5ab2e5	0.21357305
179	0x3eaeec18	0.341645
180	0x3ef7aa72	0.48372227
181	0xbd9cfe13	-0.07665648
182	0x3d176a8f	0.036966857
183	0x3e4bf8a3	0.19919066
184	0x3d2a4f13	0.041579317
185	0xbe241dc8	-0.16026986
186	0x3db0f479	0.086403795
187	0xbdabe8fb	-0.08394047
188	0xbeafc945	-0.34333244
189	0xbe9ade74	-0.30247843
190	0xbc53185b	-0.012884225
191	0x3d7bb375	0.06145044
192	0xbde891ab	-0.11355909
193	0x3e980552	0.2969156
194	0xbea04bd5	-0.31307855
195	0xbeb1bdf4	-0.34715235
196	0xbed24deb	-0.41075072
197	0xbe9c7643	-0.30558977
198	0x3eb2a814	0.34893858
199	0x3ebf57c4	0.37371647
200	0x3e540e81	0.20708658
201	0x3ec8555c	0.39127624
202	0xbedf199d	-0.4357423
203	0x3d42a13b	0.047517043
204	0x3e7173a0	0.23579264
205	0xbce4fea9	-0.027953463
206	0xbdf322b4	-0.118718535
207	0x3e27fc4b	0.16404836
208	0x3ed859ac	0.42255914
209	0x3ececdd3	0.40391406
210	0x3e816239	0.2527025
211	0x3e692079	0.22766294
212	0xbea7db82	-0.3278466
213	0xbf3b9517	-0.7327437
214	0xbf19b290	-0.6003809
215	0xbed94c4e	-0.42441028
216	0xbed2bf33	-0.41161498
217	0xbe86af69	-0.26305702
218	0xbe40249c	-0.18763965
219	0x3e0c6b14	0.13712722
220	0xbcf127c9	-0.029437916
221	0xbe37de78	-0.17955959
222	0x3e7910dd	0.24322839
223	0xbeb1b322	-0.3470698
224	0xbe2bed61	-0.16789772
225	0xbf8f5dc2	-1.1200488
226	0xbe686414	-0.22694427
227	0x3ddfc65c	0.10926506
228	0x3e0d236a	0.1378304
229	0x3d05df3d	0.0326836
230	0xbe66a4d5	-0.22523816
231	0x3e264554	0.16237384
232	0x3da3ed3a	0.08004232
233	0x3d45db5a	0.048304893
234	0x3ded3c9d	0.11583827
235	0xbcd37b8e	-0.025815751
236	0x3ecdcf64	0.4019729
237	0x3ec06303	0.3757554
238	0xbcf13c33	-0.02944765
239	0xbd8d6f09	-0.06905944
240	0xbe7f8227	-0.24951993
241	0xbf5ebbf0	-0.8700552
242	0xbf29e906	-0.6637119
243	0xbf086aee	-0.5328816
244	0xbecada36	-0.39619607
245	0xbc83bcd6	-0.016081255
246	0x3e22174a	0.15829197
247	0x3e3982f6	0.18116364
248	0x3e075771	0.1321695
249	0xbe784a9a	-0.24247208
250	0x3e7447d9	0.23855533
251	0x3e929ad8	0.2863376
252	0xbe943154	-0.28943884
253	0xbf9e6992	-1.2375968
254	0xbf09fbd8	-0.5389991
255	0xbe5f7695	-0.21822579

bias f4 [128]
0	0x3e89438f	0.26809356
1	0x3b7c2d75	0.0038479243
2	0x3e5ad0ed	0.21368761
3	0xbf8e6a83	-1.1126255
4	0xbe8dc11b	-0.2768639
5	0xbe08cf05	-0.13360222
6	0x3e26ecfa	0.16301337
7	0x3dc50999	0.09620971
8	0x3e1dbbe5	0.15403707
9	0xbcdf8899	-0.027286815
10	0x3ebdcbcf	0.37069556
11	0xbe1fec10	-0.15617394
12	0xbf01f0e2	-0.50758183
13	0xbd2fed97	-0.042951193
14	0x3eb58e00	0.354599
15	0xbf259d15	-0.64692813
16	0xbcc1637d	-0.02360701
17	0xbdb03a38	-0.08604854
18	0xbe0076f5	-0.12545379
19	0xbf160a9d	-0.58609945
20	0x3d13b333	0.03605957
21	0xbea247e6	-0.3169548
22	0xbe9a133b	-0.30092797
23	0xb9e5aaa3	-0.00043805418
24	0x3ed7579d	0.4205903
25	0xbf0d96b4	-0.5530808
26	0xbe9f9002	-0.31164557
27	0xbed31027	-0.4122326
28	0xbe7531ae	-0.23944733
29	0xbcea3e18	-0.028594062
30	0x3ece8fc7	0.40344068
31	0x3ebae82e	0.36505264
32	0x3d66ea4b	0.056375783
33	0x3f54a3b5	0.830623
34	0x3e18b540	0.14912891
35	0x3f004674	0.501075
36	0xbf2dd145	-0.67897445
37	0xbd8e8864	-0.06959608
38	0xbd9c41bc	-0.07629725
39	0x3e71b731	0.23605038
40	0xbef231dc	-0.47303665
41	0xbce55d14	-0.027998485
42	0x3e22aeb2	0.15886953
43	0xbc7895b6	-0.015172413
44	0x3add2aee	0.0016873756
45	0x3ee6e20e	0.4509434
46	0xbf3ea79f	-0.7447452
47	0x3e4c9086	0.19977006
48	0x3f07e618	0.5308547
49	0x3e9db445	0.30801597
50	0x3f55c0d0	0.83497334
51	0x3ed1c56f	0.40970942
52	0x3e9160ce	0.2839417
53	0xbae14387	-0.0017186262
54	0x3ea4e822	0.32208353
55	0x3f28e17e	0.65969074
56	0xbe49bdde	-0.19701335
57	0xbca54e27	-0.020178868
58	0x3ed09e1a	0.40745622
59	0xbe89281b	-0.2678841
60	0x3de5ea01	0.11226273
61	0x3d3e2967	0.046426203
62	0xbce6b585	-0.028162727
63	0x3f480638	0.7813449
64	0xbe6e7605	-0.23287208
65	0x3ecf44fd	0.4048232
66	0xbeb65c10	-0.35617113
67	0xbf380aff	-0.7189178
68	0x3f1e58ab	0.61854047
69	0xbc87382b	-0.016506275
70	0x3f33b67d	0.7020033
71	0xbc5ff4ac	-0.013669174
72	0xbed0793c	-0.40717494
73	0xbe0a3494	-0.1349662
74	0x3d8dd254	0.069248825
75	0xbd2eabcf	-0.04264432
76	0x3da89251	0.08231033
77	0xbef30e36	-0.4747178
78	0x3e184eb5	0.14873774
79	0x3d8adb5b	0.0678012
80	0x3c952780	0.018207312
81	0x3f0d3307	0.55155987
82	0x3e312a6b	0.17301337
83	0xbb5c89e2	-0.003365152
84	0x3e7cea93	0.24698858
85	0xbcb0fa8f	-0.02160385
86	0xbceb25cc	-0.028704546
87	0xbec676e7	-0.3876259
88	0xbcc82b33	-0.024434661
89	0x3e65d010	0.22442651
90	0x3f581a5e	0.84415233
91	0x3ea4164d	0.32048264
92	0xbd4abc4f	-0.04949599
93	0x3cae06fb	0.021243563
94	0x3ed894c9	0.42301014
95	0x3f252b21	0.64518934
96	0x3c1b1b01	0.009466887
97	0xbf8a04f1	-1.0782758
98	0xbf6e2ab5	-0.93033916
99	0x3e9834ff	0.29727933
100	0x3e9dcd35	0.30820623
101	0xbedb2af3	-0.42806205
102	0xbf263c6c	-0.64935946
103	0x3f1db01c	0.61596847
104	0x3f2ffdd7	0.68746704
105	0xbf198003	-0.59960955
106	0x3e5d025c	0.21582931
107	0x3ea3b9ca	0.31977683
108	0xbfa3b89b	-1.2790712
109	0x3d492bd9	0.049114082
110	0x3ec9f9d4	0.39448416
111	0xbd01f17f	-0.03172445
112	0x3d190a17	0.037363138
113	0xbf17717c	-0.5915754
114	0x3ee66706	0.45000476
115	0xbf648e6f	-0.89279836
116	0xbd0ab4bb	-0.033863764
117	0x3dd7eb3c	0.10542914
118	0xbd74dbc9	-0.059779916
119	0x3f39742d	0.72442895
120	0xbf1dc421	-0.61627394
121	0x3eef55a4	0.46745026
122	0x3d53802d	0.05163591
123	0x3c15248e	0.009102954
124	0x3ed14a5c	0.40877044
125	0xbf47d4dd	-0.7805918
126	0xbf8a3bc0	-1.0799484
127	0x3ec9814f	0.39356467

weight f4 [64, 128]
0	0xbdc15961	-0.09440876
1	0x3bf61de8	0.0075108893
2	0xbd5633cb	-0.052295487
3	0x3e8c328f	0.27382323
4	0x3c8c2c86	0.017111074
5	0x3e1a3698	0.15059888
6	0x3f4f1e26	0.8090538
7	0x3e71ce94	0.2361396
8	0x3eab78b0	0.33490515
9	0x3d950f46	0.07278304
10	0x3ba7f2da	0.0051253857
11	0xbe03257c	-0.12807268
12	0xbe5154ed	-0.20442553
13	0xbd186f51	-0.037215535
14	0x3d0783e8	0.03308478
15	0xbf524cb9	-0.8214832
16	0xbd2f4624	-0.0427915
17	0xbdb3d947	-0.08781677
18	0xbdbdd1d9	-0.09268541
19	0x3ed3703d	0.4129657
20	0xbe18ccfc	-0.14921945
21	0x3e9a3cb4	0.30124438
22	0x3e8014bf	0.25015828
23	0x3d7d794b	0.061883252
24	0x3dbbfe1a	0.091793254
25	0xbef41d5c	-0.4767865
26	0x3b42c075	0.0029716764
27	0x3e242d9e	0.16033027
28	0x3cf203d6	0.029542845
29	0xbae2ef54	-0.0017313757
30	0xbee7f0f9	-0.45301035
31	0xbe380b84	-0.17973143
32	0xbd4a40ed	-0.049378324
33	0xbe220b0d	-0.15824528
34	0xbe857b0b	-0.26070437
35	0x3e8faa90	0.28059816
36	0x3e0ee6a2	0.13955167
37	0xbf1b0894	-0.60559964
38	0xbed8bd17	-0.42331764
39	0xbd985aae	-0.07439171
40	0xbd2118fd	-0.03933047
41	0x3db1f5a2	0.08689429
42	0x3e9fbc2e	0.31198257
43	0x3c262270	0.0101400465
44	0x3d3ca253	0.046053242
45	0x3ee4e387	0.4470484
46	0x3eb8a960	0.36066723
47	0x3f13b3fd	0.57696515
48	0x3d572ea0	0.0525347
49	0x3ded4c40	0.11586809
50	0xbf4b189f	-0.79334444
51	0xbedf7d9c	-0.4365052
52	0x3cab8542	0.020937566
53	0xbdb4eb69	-0.088339634
54	0x3b300cf7	0.0026863196
55	0x3c9cb6d7	0.019130154
56	0xbea01304	-0.31264508
57	0x3c1a13d6	0.009404143
58	0x3de9b23d	0.114109494
59	0x3d873e09	0.06603629
60	0xbdeeafd6	-0.11654632
61	0xbd61fb9c	-0.055171594
62	0xbd701f20	-0.058623433
63	0xbdaf0dbe	-0.08547543
64	0xbc9cb889	-0.019130962
65	0x3d75eae4	0.060038462
66	0x3d27a090	0.04092461
67	0x3d2460d3	0.0401314
68	0xbf5ec88a	-0.8702475
69	0x3d353486	0.044239543
70	0xbebdd83d	-0.3707904
71	0x3d9788c6	0.07399134
72	0x3e839f1c	0.25707328
73	0xbcf2d7c9	-0.02964391
74	0x3e3eb7c1	0.18624784
75	0x3d9cb72f	0.07652127
76	0x3e519424	0.20466667
77	0x3e32e2a4	0.17469269
78	0xbe1a89d0	-0.15091634
79	0xbdc51b1e	-0.09624313
80	0x3e74b278	0.23896205
81	0x3d9b9de3	0.07598474
82	0x3e379b9b	0.17930453
83	0x3cc69e5d	0.024245435
84	0x3ea17e6e	0.3154177
85	0x3d091451	0.03346664
86	0xbd371fd9	-0.044708107
87	0x3e9f5604	0.31120312
88	0xbd2d9865	-0.042381663
89	0xbd7ce7cb	-0.061744493
90	0xbf4a155f	-0.7893886
91	0xbdb13d83	-0.086543106
92	0xbdec017d	-0.11523721
93	0x3da8aff0	0.082366824
94	0xbd3b896f	-0.045785364
95	0xbd04e259	-0.032442424
96	0x3cca305a	0.024681259
97	0xbe175449	-0.14778246
98	0x3e0ed23d	0.13947387
99	0xbbc0a505	-0.005879047
100	0xbe232426	-0.15931758
101	0x3da23a59	0.07921285
102	0x3d1d2c32	0.038372226
103	0x3c989fcd	0.018630886
104	0xbc9a3966	-0.018826198
105	0xbe8cb268	-0.27479863
106	0x3dab32b6	0.08359282
107	0x3e361c6c	0.1778428
108	0x3e13bf4e	0.14428446
109	0xbec469ff	-0.3836212
110	0x3d45836f	0.048221048
111	0xbda4bd81	-0.080439575
112	0xbd760c75	-0.060070474
113	0x3df789a9	0.120868035
114	0xbee96462	-0.45584399
115	0x3d2c74e5	0.042103667
116	0x3d849098	0.064728916
117	0xbf61bab2	-0.881755
118	0xbdc3b4e9	-0.0955599
119	0xbdaf978c	-0.08573827
120	0x3ad23f74	0.0016040639
121	0xbda93b35	-0.08263246
122	0xbef3f284	-0.47645962
123	0xbd77e880	-0.060524464
124	0xbd8ab0c4	-0.067719966
125	0xbde0c729	-0.10975487
126	0x3b5cc2cc	0.0033685444
127	0xbe3cb9e3	-0.18430285
128	0x3f26eaba	0.65201914
129	0x3d4c9470	0.04994625
130	0x3dc14986	0.094378516
131	0xbce4cf50	-0.027930886
132	0xbeb122b2	-0.34596783
133	0xbed716b2	-0.42009503
134	0x3e6822aa	0.22669473
135	0xbeb917f5	-0.3615109
136	0xbe1c74fa	-0.15278998
137	0x3c2c29f8	0.010508053
138	0x3d9d38f0	0.076768756
139	0x3e23b263	0.15986018
140	0x3d74c4a6	0.05975785
141	0xbc62e3ea	-0.013848284
142	0x3cfacf53	0.030616438
143	0xbd381659	-0.044943187
144	0x3d57c101	0.052674297
145	0x3d9a99a1	0.07548834
146	0x3e037c58	0.12840402
147	0xbe5e3a80	-0.21702003
148	0x3b08c2ef	0.0020868143
149	0x3cbfb9ea	0.02340408
150	0x3d7c2123	0.06155504
151	0x3d961a8b	0.073292814
152	0x3d89eafe	0.06734274
153	0x3c09f2c9	0.008419701
154	0x3d52ba5e	0.051447265
155	0x3e823dc8	0.2543776
156	0x3e6f9b3e	0.23399064
157	0xbd3b35c1	-0.04570556
158	0xbddcd127	-0.1078208
159	0x3e57bff9	0.21069326
160	0x3e01bae4	0.1266895
161	0x3e066663	0.13124995
162	0x3e0c7ef5	0.13720305
163	0x3c0bc068	0.00852976
164	0xbe2a4e5a	-0.16631451
165	0x3e21973c	0.15780348
166	0x3e7b58d3	0.24545603
167	0xbe6eb5c7	-0.2331153
168	0xbdc9665a	-0.09833975
169	0x3bc22a13	0.005925426
170	0xbe116b98	-0.142012
171	0x3d35659d	0.04428636
172	0x3ce78e2d	0.028266037
173	0xbe8e4028	-0.27783322
174	0xbda5ddbf	-0.08098935
175	0x3d367bc3	0.044551622
176	0x3db9de2d	0.0907558
177	0xbed0dbf0	-0.407928
178	0x3dd1eb17	0.10249918
179	0x3eafc370	0.34328794
180	0xbe8348e8	-0.2564156
181	0xbc75b490	-0.014996663
182	0xbdbfaa68	-0.09358674
183	0xbd9c2ca5	-0.07625703
184	0xbecf6b88	-0.40511727
185	0xbdc60168	-0.09668237
186	0x3dd96a59	0.10615987
187	0xbd10437f	-0.03522062
188	0xbf1877e1	-0.5955792
189	0x3d5fd516	0.054646574
190	0x3dae4204	0.08508685
191	0xbcbda133	-0.023148155
192	0xbda7ebc7	-0.08199268
193	0x3e58d40e	0.21174642
194	0xbe8490b2	-0.25891644
195	0x3e3a94fd	0.18220897
196	0xbd0b1394	-0.033954218
197	0x3d121e2e	0.035673313
198	0x3e235457	0.15950142
199	0xbd99f272	-0.07516946
200	0xbd7d367d	-0.061819542
201	0x3e3c8c3f	0.18412875
202	0xbee9ed62	-0.4568892
203	0xbd97cd90	-0.07412255
204	0x3c166fcc	0.009181928
205	0xbdbe7a1f	-0.093006365
206	0xbba801e3	-0.005127178
207	0xbcf28bc4	-0.029607661
208	0xbeda2639	-0.42607287
209	0xbe81ad1c	-0.25327384
210	0xbd9c032b	-0.07617792
211	0x3d2c3a4e	0.04204779
212	0xbe3d8cc7	-0.18510734
213	0x3d2f6ad5	0.042826492
214	0x3d8537f9	0.065048166
215	0xbda31c4a	-0.0796438
216	0xbd3f58d7	-0.046715584
217	0x3e1a2319	0.15052451
218	0xbed22b48	-0.41048646
219	0x3cfc3a7e	0.03078961
220	0xbd5d90ae	-0.054093055
221	0x3e6b5943	0.2298327
222	0xbd7f942a	-0.06239716
223	0xbca8fc83	-0.02062822
224	0x3cd767e5	0.026294658
225	0xbe524880	-0.20535469
226	0xbe5c463d	-0.21511169
227	0x3d87b810	0.06626904
228	0x3d83da63	0.06438138
229	0x3d505f71	0.05087227
230	0xbe9d87ef	-0.30767772
231	0xbeae7898	-0.3407638
232	0xbe07716f	-0.13226865
233	0x3d7374de	0.059437625
234	0xbedbb2a1	-0.4290972
235	0xbf0d2958	-0.5514121
236	0x3d956fb7	0.072966985
237	0x3e881afb	0.26583084
238	0x3e3054a5	0.1721979
239	0x3c811b9c	0.015760235
240	0xbe01c6d6	-0.12673506
241	0xbe87ae1d	-0.26500025
242	0x3d1f2134	0.038850024
243	0x3d1db742	0.038504846
244	0x3d92a08e	0.071595296
245	0x3f37ee86	0.7184833
246	0x3d1da6dc	0.038489208
247	0xbe6e294b	-0.2325794
248	0x3d4322ef	0.047640737
249	0x3eb591aa	0.35462695
250	0x3db87a5d	0.09007714
251	0xbd88aef5	-0.066739954
252	0xbe78639f	-0.24256752
253	0x3e83df62	0.25756365
254	0xbebfd9c8	-0.3747084
255	0xbbdf9eef	-0.0068243663

bias f4 [64]
0	0x3e404a55	0.18778355
1	0x3eda3e51	0.4262567
2	0x3e930baa	0.28719836
3	0x3eacd926	0.3375942
4	0x3ef9aeae	0.48766083
5	0x3f640291	0.89066416
6	0x3e7fc468	0.24977267
7	0x3f002036	0.5004915
8	0x3ee6b76b	0.45061812
9	0x3e2602aa	0.16211954
10	0x3f19f061	0.60132414
11	0x3f203987	0.6258778
12	0x3f40c1f2	0.7529594
13	0x3e357499	0.1772026
14	0x3ec156be	0.37761492
15	0x3ec88621	0.39164832
16	0x3ee54194	0.44776595
17	0x3ecd7641	0.40129283
18	0x3eed0527	0.46292993
19	0x3e8d9976	0.27656144
20	0x3d8b725e	0.06808923
21	0x3f20d64a	0.6282698
22	0x3ecf5994	0.4049803
23	0x3f0b4e11	0.54415995
24	0x3ef2e4e1	0.47440246
25	0x3dff5e63	0.12469175
26	0x3f118828	0.5684838
27	0x3e97cf7c	0.29650486
28	0x3ebda473	0.37039527
29	0x3ec743d4	0.38918936
30	0x3ea6420e	0.3247227
31	0x3e628c4a	0.22123829
32	0x3ddedf2a	0.10882409
33	0x3ea173e7	0.3153374
34	0x3ec7bda0	0.3901186
35	0x3da11031	0.078644164
36	0x3e20cb14	0.15702468
37	0x3ec30d61	0.38096145
38	0x3e5b85c8	0.21437752
39	0x3e5a3b6e	0.21311733
40	0x3e6101ba	0.21973315
41	0x3f1d68e5	0.6148818
42	0x3c1acd06	0.009448295
43	0x3e1b9ae4	0.15195805
44	0x3ef18296	0.47169942
45	0x3ec2d0db	0.3804997
46	0x3ed89c49	0.42306736
47	0x3e83c437	0.25735638
48	0x3e6f41d2	0.23364952
49	0x3ec276c7	0.37981245
50	0x3f525950	0.8216753
51	0x3ea38e51	0.31944516
52	0x3ea53911	0.322701
53	0x3f0d492c	0.55189776
54	0x3ee27c0f	0.44235274
55	0x3e37efe5	0.17962606
56	0x3e8bfa00	0.27339172
57	0x3ebed759	0.37273672
58	0x3f0a917e	0.54128253
59	0x3eaaa4a7	0.33328745
60	0x3ed92582	0.4241143
61	0x3ec395b5	0.38200155
62	0x3ee5714e	0.44813007
63	0x3e3c9c03	0.18418889

weight f4 [10, 64]
0	0x3d9f5ad3	0.07780995
1	0xbea6fad8	-0.32613254
2	0x3e296e79	0.16546048
3	0x3e521ee4	0.20519596
4	0x3dc5f42f	0.09665715
5	0x3cde1726	0.027110647
6	0xbf1852ce	-0.5950135
7	0xbf0cd1bb	-0.55007523
8	0x3c1c2dd0	0.009532407
9	0x3e066dbf	0.13127802
10	0x3db655f4	0.08903113
11	0x3e36f319	0.17866172
12	0xbe9400a1	-0.2890673
13	0x3da98e65	0.08279113
14	0xbe71b561	-0.23604347
15	0x3d7b3b91	0.061336104
16	0xbed51d0e	-0.4162373
17	0x3d26b34b	0.04069833
18	0xbe1bfdba	-0.15233508
19	0xbec4c5e0	-0.38432217
20	0xbdcacf08	-0.09902769
21	0xbec15499	-0.37759855
22	0x3cb8d3c6	0.022561919
23	0xbe400b7b	-0.1875438
24	0xbf0481ec	-0.51760745
25	0xbea4f3b8	-0.32217193
26	0x3e05fbdf	0.13084362
27	0xbe936b70	-0.28792906
28	0xbdb8f3aa	-0.0903085
29	0x3e4a2e51	0.19744231
30	0x3e1624bc	0.1466245
31	0xbcb061ec	-0.021531068
32	0x3e041d55	0.12901814
33	0x3e1ef308	0.15522397
34	0x3cbc465b	0.022982767
35	0x3e0a8e9b	0.13530962
36	0x3dd212f8	0.10257524
37	0xbee8834c	-0.45412672
38	0x3e1ebf12	0.15502575
39	0xbe69e049	-0.22839464
40	0x3e03e609	0.1288072
41	0xbef7e97c	-0.48420322
42	0xbe8b4d70	-0.27207518
43	0x3e124a16	0.14286074
44	0xbea959a9	-0.33076218
45	0x3d857441	0.06516314
46	0xbe630645	-0.2217036
47	0xbec992b4	-0.39369738
48	0x3cd49782	0.02595115
49	0xbece3d3c	-0.40281093
50	0xbec3e6df	-0.38262078
51	0x3ba65bc0	0.0050768554
52	0xbe115d0d	-0.14195652
53	0x3de95223	0.113926195
54	0x3de776d7	0.11301964
55	0xbd0d8272	-0.03454823
56	0xbe17cb90	-0.14823747
57	0xbd11f523	-0.03563417
58	0xbe2a05bc	-0.1660375
59	0x3e30e536	0.17274937
60	0xbe4b0389	-0.19825567
61	0xbd7d0956	-0.06177648
62	0xbecf9757	-0.4054515
63	0xbee89aef	-0.45430705
64	0xbef3ed56	-0.4764201
65	0xbe58fad0	-0.21189427
66	0x3d812be6	0.06307201
67	0x3ea41c43	0.32052812
68	0xbeffb37d	-0.49941626
69	0xbf254fb4	-0.6457474
70	0x3ddacd40	0.106836796
71	0xbea888de	-0.3291692
72	0x3de56f63	0.11202886
73	0xbf270610	-0.65243626
74	0xbe9ce94b	-0.30646738
75	0xbf391f1f	-0.7231311
76	0x3d988722	0.074476495
77	0x3dce0a2a	0.100605324
78	0x3e2aa938	0.16666114
79	0xbea36da0	-0.31919575
80	0x3ea63d54	0.32468665
81	0xbf6355cf	-0.8880281
82	0xbf23d896	-0.6400236
83	0xbe522102	-0.20520404
84	0xbf28bf15	-0.6591657
85	0x3dae4281	0.08508778
86	0x3d90cf1b	0.07070752
87	0xbf025562	-0.50911534
88	0xbe41d5aa	-0.18929163
89	0x3ecbf70a	0.39836913
90	0x3b8e26a6	0.0043381033
91	0x3ebaeeab	0.36510214
92	0x3ea00153	0.3125101
93	0xbd0f9854	-0.03505738
94	0x3e84aea0	0.25914478
95	0xbe14b7a1	-0.14523174
96	0xbf2ffe2a	-0.687472
97	0xbe48b9a3	-0.19602065
98	0xbebec067	-0.37256166
99	0x3e0294fc	0.12752146
100	0x3da5285a	0.08064337
101	0x3e4a3afb	0.19749062
102	0xbe929859	-0.28631857
103	0x3d807738	0.06272739
104	0xbe737a7e	-0.23777196
105	0xbea0b79a	-0.31390077
106	0x3e780f9e	0.24224707
107	0xbeddc128	-0.4331143
108	0xbe58c171	-0.21167542
109	0x3dc46bf8	0.09590906
110	0xbedc4468	-0.4302094
111	0x3eabf943	0.3358861
112	0x3df477ea	0.11936934
113	0xbef0a217	-0.46998665
114	0xbf2f08c9	-0.6837278
115	0xbf8ac198	-1.084033
116	0xbf37210c	-0.715348
117	0xbec9ab86	-0.39388674
118	0x3e163387	0.14668094
119	0x3aa80ba6	0.0012820854
120	0xbebd72ed	-0.37001744
121	0x3dca9869	0.09892351
122	0xbedaf35a	-0.42763788
123	0xbe141be7	-0.14463769
124	0x3e35ed7d	0.17766376
125	0xbedfe47c	-0.43729007
126	0x3e0d6e90	0.13811707
127	0xbe6b6b14	-0.22990066
128	0x3db315dc	0.08744404
129	0x3e2fe414	0.17176849
130	0xbe8d868f	-0.27641723
131	0x3e393c60	0.18089437
132	0x3dc3c3ff	0.09558868
133	0x3de5f1db	0.11227771
134	0xbe9ae3e8	-0.30252004
135	0xbf39d589	-0.72591454
136	0xbec392f6	-0.3819806
137	0x3dff2cc5	0.12459711
138	0x3d971517	0.073770694
139	0x3e22d198	0.15900266
140	0xbe520d83	-0.20512967
141	0x3d8b5837	0.06803935
142	0x3d25e611	0.04050261
143	0xbebb920e	-0.36634868
144	0x3d2ea46f	0.042637285
145	0x3db066e3	0.08613374
146	0x3d3eaf12	0.04655368
147	0x3db748f7	0.08949464
148	0x3d8e0bfa	0.06935878
149	0x3cda74c9	0.026667016
150	0xbf1016b5	-0.5628465
151	0x3e0593d8	0.13044679
152	0xbeb86088	-0.36011147
153	0xbeb389f7	-0.35066196
154	0xbf01e128	-0.50734186
155	0x3e11b9da	0.14231053
156	0xbe9663e0	-0.29373074
157	0xbe9952d6	-0.2994601
158	0x3e261616	0.16219363
159	0xbe30a6e4	-0.17251164
160	0x3d4d4320	0.050112844
161	0xbeb9dde9	-0.36302117
162	0xbcbb5a61	-0.022870244
163	0xbe42cca0	-0.1902337
164	0xbe99564a	-0.29948646
165	0x3e32991d	0.1744122
166	0xbe18ded7	-0.14928757
167	0xbf39c69d	-0.72568685
168	0x3e03b882	0.12863353
169	0x3d3e3961	0.04644144
170	0x3e05b412	0.13056973
171	0x3e0048f6	0.12527832
172	0x3daa4c02	0.083152786
173	0x3e08c267	0.13355409
174	0xbf29e830	-0.66369915
175	0xbe418af0	-0.18900657
176	0xbdb812a9	-0.08987934
177	0xbf0877f5	-0.5330804
178	0x3e7266d2	0.23672035
179	0x3d9d5de2	0.07683922
180	0xbe1078f2	-0.14108637
181	0x3df00680	0.1171999
182	0x3d8fd582	0.07023145
183	0xbf22fdd1	-0.63668543
184	0xbe164ac8	-0.14676964
185	0xbab32b1b	-0.0013669463
186	0xbb075381	-0.0020649137
187	0x3d80c3c3	0.062873386
188	0xbe6b1d09	-0.22960295
189	0xbf021a46	-0.5082134
190	0x3d5eea5d	0.054422725
191	0x3d856f7b	0.06515404
192	0xbf007ced	-0.5019062
193	0x3df14c84	0.11782172
194	0x3e298b9f	0.16557167
195	0xbe7b99af	-0.24570344
196	0xbe561876	-0.20907769
197	0x3d58e2b1	0.052950565
198	0x3dc779e9	0.097400494
199	0xbed2caf4	-0.41170466
200	0x3e234df6	0.15947708
201	0xbf28ebac	-0.65984607
202	0x3dcbb342	0.099463
203	0x3e170f46	0.1475192
204	0x3db7ede5	0.08980922
205	0x3d6b71fc	0.05748175
206	0x3d19a53a	0.037511088
207	0xbe967006	-0.29382342
208	0xbf32a41a	-0.6978165
209	0x3de722b0	0.11285913
210	0x3e267f11	0.1625941
211	0xbd43d7e3	-0.047813307
212	0xbeaed701	-0.3414841
213	0xbf2243d3	-0.6338474
214	0x3d7e74b3	0.06212301
215	0x3e4dcd28	0.20097792
216	0x3df536ce	0.11973344
217	0xbf19d37e	-0.60088336
218	0x3dbc80c1	0.09204245
219	0xbe12cd2b	-0.14336078
220	0xbdfaab21	-0.122396715
221	0xbf2abcb5	-0.66694194
222	0xbee7c688	-0.45268655
223	0xbf4c2cac	-0.79755664
224	0x3e21619f	0.15759896
225	0x3de6120e	0.112339124
226	0x3d9c8cda	0.07644053
227	0x3de0bd1f	0.10973572
228	0x3dda62ae	0.10663353
229	0xbe542425	-0.20716913
230	0x3deaa448	0.114571154
231	0x3c6d6553	0.01448949
232	0xbed9dad5	-0.42549768
233	0x3d847fdd	0.064697005
234	0xbf1c217c	-0.60988593
235	0x3e0f0569	0.13966908
236	0xbe8eae37	-0.2786729
237	0x3dc7ecb9	0.09761948
238	0xbf8accc9	-1.0843745
239	0x3e69d786	0.22836122
240	0x3e11fdb1	0.14256932
241	0xbecaeabc	-0.39632213
242	0xbf0f30c6	-0.559338
243	0xbe567651	-0.20943572
244	0x3bac42e5	0.005256998
245	0xbef73524	-0.4828273
246	0x3e0f7808	0.14010632
247	0xbdb64a9b	-0.089009486
248	0xbda01388	-0.07816225
249	0x3d3a301c	0.045456037
250	0x3e562674	0.20913106
251	0xbf186f3d	-0.59544736
252	0x3e0f949e	0.14021537
253	0xbe24b626	-0.16085109
254	0xbbcbecb7	-0.006223287
255	0xbe31159d	-0.17293401

bias f4 [10]
0	0xbe1e90d9	-0.15484942
1	0xbf0a6a66	-0.540686
2	0x3c347da9	0.011016288
3	0x3ec36af3	0.38167533
4	0xbe405d9b	-0.18785708
5	0xbe9f83bc	-0.31155193
6	0x3d30f44c	0.04320173
7	0x3f2194a5	0.6311744
8	0xbd5e434d	-0.0542634
9	0xbe302ee9	-0.17205395
