models/conf_1.pt (torch, 441470 bytes, 6 tensors)

weight f4 [128, 784]
-0.021115672 0.008292968 0.0015578119 -0.012495251 -0.0037891036 -0.01785585 0.0008756537 0.011589598
-0.020553807 0.021203412 -0.031989764 0.008226673 -0.025324533 -0.01622518 0.021818547 -0.018052157
-0.01966543 -0.034788642 0.004896465 -0.028703673 0.010914285 -0.0030547255 0.021246767 0.015059134
0.021117937 0.02966981 0.031988103 -0.035570685 0.02881629 -0.01598875 -0.024571966 0.014033082
-7.200844e-05 -0.025092768 0.01807533 -0.023081234 -0.019676557 0.0045692762 -0.012919151 -0.02008332
0.026918601 -0.017209783 0.009330478 0.018371092 0.0052856053 0.0034423517 -0.00784279 -0.013500861
0.028448451 0.010313063 0.0047857366 -0.0053928723 -0.010769924 0.024851985 0.0343648 0.02840426
0.018050062 0.0026085498 0.0058549666 -0.020599537 -0.018989356 0.027597468 -0.016449973 -0.031911418
0.017118629 -0.015312697 0.0068221223 0.0331604 0.00049668195 9.1521775e-05 0.008326433 -0.015050846
-0.033892486 -0.0038794505 -0.012278331 -0.0012151583 0.02197018 0.020728357 -0.030890713 -0.0014107926
-0.012002624 0.014066017 -0.03163962 -0.034118205 -0.009477401 -0.016041528 0.01377146 0.0031738782
0.0147574 0.0008316624 -0.022265866 0.013436841 0.01973002 0.0063467114 0.0263945 -0.017377757
-0.021348761 -0.00682172 -0.004172656 0.027890246 -0.018252393 0.020382898 0.011191726 -0.018205965
-0.022358986 -0.02777923 0.025567446 -0.035067037 0.006878732 0.029336581 0.028048335 0.008931073
0.03356817 0.014182973 -0.008530247 0.0051786467 0.029392153 -0.031322755 0.017907504 -0.020826703
0.014309239 -0.010288161 -0.024812257 0.03476699 -0.016028736 -0.026067939 0.0041384655 -0.013576213
-0.02724987 0.022404294 -0.010212398 0.023896033 -0.026948081 -0.021222955 -0.025797134 -0.022082554
0.03386186 -0.008071273 0.027953928 0.004771913 0.03520733 -0.035459246 -0.015006973 0.0019305218
-0.012399787 -0.002745646 0.014185911 0.006338183 -0.011094745 0.00040880262 0.021148589 -0.03225419
-0.023468876 -0.016104013 -0.017413186 0.028172664 0.017183406 -0.0010873262 -0.012410746 0.007503027
0.025046 -0.026185313 -0.0014969866 0.034006577 0.033967707 0.021998892 0.02530531 0.009308638
0.019214131 0.008931426 0.014707287 0.022269605 0.004619366 -0.009728585 -0.024742486 -0.0057710093
0.008143945 0.024421448 -0.027162125 0.022583889 -0.015933936 0.0048698 -0.030146131 0.025219455
0.0131139625 -0.0028437357 -0.026502062 -0.02705391 0.0059829266 -0.0068429257 0.030821282 -0.02640561
0.008780034 -0.0043795994 0.030939914 -0.0032870825 -0.019910984 0.0077726454 -0.019697651 -0.02461021
0.005505248 -0.015377984 -0.0046944823 0.03156354 0.033567466 0.0013071039 0.03340656 0.016077464
0.030876337 0.01875456 -0.0153592415 -0.013823029 -0.0010988716 0.014637657 -0.024739565 -0.004056557
-0.024333008 -0.01432496 -0.01909855 0.023671782 0.018015895 0.024583455 -0.024293322 -0.0138941165
0.032997444 0.020962438 0.019562913 0.016330877 0.0023121103 -0.02385903 -0.014252631 -0.024438484
0.01561989 -0.022054415 0.032456033 0.017484153 0.011500523 -0.032870475 -0.009106636 -0.031006075
-0.030950228 -0.00786156 -0.011704587 0.02550522 0.034382388 0.018219989 0.005474191 -0.028426256
-0.011768365 -0.010070876 -0.0052006315 0.014241318 0.027625231 -0.015700284 -0.0025141786 -0.02439139
00000000: c6fa acbc 3bdf 073c 7e2f cc3a e2b8 4cbc
00000010: 9c52 78bb 6e46 92bc 208c 653a 4ce2 3d3c
00000020: 7560 a8bc c7b2 ad3c b307 03bd 2bc9 063c
00000030: 6575 cfbc abea 84bc cfbc b23c 1ee2 93bc
00000040: 6519 a1bc 897e 0ebd 8772 a03b f723 ebbc
00000050: d4d1 323c ca31 48bb b30d ae3c 96ba 763c
00000060: 86ff ac3c 1a0e f33c f505 033d 91b2 11bd
00000070: 2410 ec3c d7fa 82bc 264b c9bc 03eb 653c
00000080: 3d03 97b8 598f cdbc b712 943c db14 bdbc
00000090: bb30 a1bc deb9 953b d9aa 53bc c685 a4bc
000000a0: 6684 dc3c 88fb 8cbc dcde 183c f97e 963c
000000b0: df32 ad3b 1499 613b 0c7f 00bc b732 5dbc
000000c0: ba0c e93c 1ff8 283c abd1 9c3b b1b6 b0bb
000000d0: 5674 30bc 6496 cb3c 1bc2 0c3d 0db0 e83c
000000e0: b9dd 933c 34f4 2a3b 05db bf3b 5cc0 a8bc
000000f0: 918f 9bbc 1614 e23c 18c2 86bc 8cb5 02bd
00000100: 5e3c 8c3c 1be2 7abc 1c8c df3b 33d3 073d
00000110: c333 023a 61ef bf38 976b 083c d397 76bc
00000120: d9d2 0abd 613e 7ebb 0e2b 49bc f245 9fba
00000130: cffa b33c 84ce a93c 850e fdbc 58ea b8ba
00000140: a7a6 44bc 2775 663c 8c98 01bd 88bf 0bbd
00000150: 1a47 1bbc 8669 83bc b1a1 613c d700 503b
00000160: 06c9 713c eb03 5a3a e866 b6bc 3226 5c3c
00000170: daa0 a13c 13f8 cf3b 4739 d83c cc5b 8ebc
00000180: 99e3 aebc bc88 dfbb c7ba 88bb 167a e43c
00000190: 0b86 95bc 09fa a63c 805d 373c ad24 95bc
000001a0: 312a b7bc 4591 e3bc d272 d13c 74a2 0fbd
000001b0: fc66 e13b 4553 f03c 9fc5 e53c a353 123c
000001c0: c77e 093d b35f 683c 73c2 0bbc a3b1 a93b
000001d0: d0c7 f03c 4a4c 00bd c2b2 923c c39c aabc
000001e0: 4c71 6a3c ad8f 28bc 1343 cbbc d567 0e3d
000001f0: b24e 83bc 6e8c d5bc f79b 873b c46e 5ebc
00000200: 1f3b dfbc 3689 b73c e751 27bc 9dc1 c33c
00000210: 39c2 dcbc c3db adbc 8354 d3bc 79e6 b4bc
00000220: bcb2 0a3d 5f3d 04bc a3ff e43c b55d 9c3b
00000230: 9035 103d b73d 11bd cfdf 75bc 9009 fd3a
00000240: 7a28 4bbc 4cf0 33bb 066c 683c 88b0 cf3b
00000250: bcc6 35bc 8f54 d639 ce3f ad3c f81c 04bd
00000260: cd41 c0bc 90ec 83bc 19a6 8ebc 5cca e63c
00000270: 37c4 8c3c 9d84 8eba 7156 4bbc f4db f53b
00000280: 452d cd3c 9582 d6bc 8936 c4ba 7b4a 0b3d
00000290: b921 0b3d 0537 b43c 154d cf3c 4283 183c
000002a0: f466 9d3c 1e55 123c d5f6 703c bf6e b63c
000002b0: 0d5e 973b a564 1fbc c1b0 cabc bc1a bdbb
000002c0: 2e6e 053c 7d0f c83c 1b83 debc d901 b93c
000002d0: e387 82bc d892 9f3b 05f5 f6bc 0899 ce3c
000002e0: f2db 563c f85d 3abb da1a d9bc 29a0 ddbc
000002f0: 6d0c c43b 9f3a e0bb ea7c fc3c 9450 d8bc
00000300: 22da 0f3c be82 8fbb b475 fd3c 186c 57bb
00000310: 5c1c a3bc adb1 fe3b f85c a1bc 5a9b c9bc
00000320: 5e65 b43b f1f3 7bbc 2cd4 99bb c548 013d
00000330: 0a7e 093d 2153 ab3a 51d5 083d e3b4 833c
00000340: 5ff0 fc3c 2aa3 993c 54a5 7bbc fc79 62bc
00000350: 0308 90ba c9d2 6f3c a1aa cabc deec 84bb
00000360: 0456 c7bc 3db3 6abc 9074 9cbc 53eb c13c
00000370: 1296 933c 3e63 c93c ca02 c7bc 26a4 63bc
00000380: 5428 073d 6bb9 ab3c 6742 a03c 55c8 853c
00000390: c686 173b 0374 c3bc de83 69bc 3733 c8bc
000003a0: 91ea 7f3c 76ab b4bc 9ef0 043d ed3a 8f3c
000003b0: b16c 3c3c 31a3 06bd 0034 15bc 7400 febc
000003c0: 558b fdbc c6cd 00bc 99c4 3fbc 53f0 d03c
000003d0: 8cd4 0c3d 1642 953c d860 b33b 2ede e8bc
000003e0: 1ad0 40bc 5100 25bc 0f6a aabb 6b54 693c
000003f0: 4f4e e23c e29d 80bc ebc4 24bb 74d0 c7bc

bias f4 [128]
-0.028352913 -0.028722879 -0.0013965804 -0.016564041 0.024945932 -0.0012013158 0.00061583804 0.046153385
-0.015525286 0.0087579405 0.019120835 -0.02042018 0.054193422 0.031579725 -0.003431502 -0.011704313
0.016699804 0.02986088 0.03682708 -0.009218215 0.02437935 0.031737406 0.044221442 -0.002471986
0.0028503127 0.026162833 -0.018780382 0.004359354 0.041515563 -0.008184057 -0.035951264 -0.022960205
0.021856606 -0.033583105 0.009438568 0.08454806 0.02395347 -0.0024261852 0.011109396 0.0015848625
-0.009542662 -0.025456013 -0.0016065026 -0.016946586 -0.0019417468 0.022694793 -0.03482162 -0.0153186815
-0.021701803 -0.015715143 -0.003796693 0.07360139 -0.01106413 0.03141656 -0.018597126 0.023479624
0.03653766 0.027207162 -0.013445746 0.018468855 0.03637978 0.04912491 0.010941751 0.056378867
-0.030529682 0.012742865 0.028766595 0.020589234 0.009732522 0.025365543 0.005702105 -0.0011228705
-0.03390646 0.0041853148 -0.008791545 -0.02541742 0.0056508835 -0.011573353 -0.028627235 -0.021957139
0.022056231 -0.009254766 -0.026636828 0.0184259 0.027204527 0.09784009 0.027741134 0.028697759
-0.006441217 0.036850978 -0.01538577 0.028648593 -0.0457399 -0.0012094552 -0.015723098 0.011500087
0.0382476 0.04988443 0.03369463 0.008284492 0.040282447 0.045047805 0.016092876 -0.013079835
-0.034509208 -0.0010619321 0.059922967 0.033556495 0.024363078 0.03055613 -0.02755656 0.010335312
0.038516533 0.055051714 0.034414038 0.017357046 0.029774277 0.011326843 0.040587224 0.025244895
-0.023805263 0.018691236 -0.0038289512 -0.028945152 -0.029616827 -0.021789925 0.030977782 -0.013885199
00000000: 5e44 e8bc 3e4c ebbc 760d b7ba 50b1 87bc
00000010: 695b cc3c 7875 9dba 3170 213a 550b 3d3d
00000020: c55d 7ebc 777d 0f3c 4ca3 9c3c 3948 a7bc
00000030: ecf9 5d3d be59 013d 0de3 60bb 72c3 3fbc
00000040: 07ce 883c ce9e f43c fed7 163d ff07 17bc
00000050: 34b7 c73c 15ff 013d 8b21 353d 0b01 22bb
00000060: 50cc 3a3b 7053 d63c 51d9 99bc e9d8 8e3b
00000070: 390c 2a3d 6c16 06bc a241 13bd 0a17 bcbc
00000080: a00c b33c 708e 09bd 39a4 1a3c 8927 ad3d
00000090: 113a c43c a200 1fbb 2f04 363c 29bb cf3a
000000a0: d358 1cbc 2189 d0bc 4891 d2ba 91d3 8abc
000000b0: 3682 feba 6eea b93c 1da1 0ebd 35fb 7abc
000000c0: fbc7 b1bc 0bbd 80bc f0d1 78bb 53bc 963d
000000d0: 5346 35bc a7ae 003d 0059 98bc 5758 c03c
000000e0: 83a8 153d 8ee1 de3c 8c4b 5cbc ff4b 973c
000000f0: f702 153d 3437 493d 0845 333c 87ed 663d
00000100: 6219 fabc 73c7 503c eca7 eb3c c1aa a83c
00000110: 2875 1f3c 66cb cf3c b9d8 ba3b 482d 93ba
00000120: 80e1 0abd f724 893b 6a0a 10bc 3138 d0bc
00000130: 0c2b b93b 299e 3dbc aa83 eabc 75df b3bc
00000140: 45af b43c 4da1 17bc 7a35 dabc eaf1 963c
00000150: 07dc de3c 6360 c83d 6041 e33c 9017 eb3c
00000160: d810 d3bb 0df1 163d 9914 7cbc 74b0 ea3c
00000170: c359 3bbd 9586 9eba bacd 80bc dc6a 3c3c
00000180: 84a9 1c3d 9e53 4c3d 6103 0a3d aebb 073c
00000190: 35ff 243d 0c84 383d 35d5 833c ce4c 56bc
000001a0: 8759 0dbd 8730 8bba c971 753d 8972 093d
000001b0: 1495 c73c d950 fa3c 4bbe e1bc 7155 293c
000001c0: 83c3 1d3d e87d 613d bcf5 0c3d 5d30 8e3c
000001d0: 2fe9 f33c 3994 393c ca3e 263d 62ce ce3c
000001e0: 4103 c3bc 5d1e 993c 24ef 7abb 621e edbc
000001f0: fd9e f2bc c980 b2bc 1ec5 fd3c bf7e 63bc

weight f4 [64, 128]
-0.07147515 0.054112203 -0.05507428 0.06361453 0.009949381 -0.050068606 -0.06085944 -0.093272544
-0.101326495 -0.018094763 -0.07560332 0.0795354 -0.03260862 -0.03691942 0.03260906 0.01886371
-0.040146615 0.0007861862 -0.10011738 0.06545017 -0.043090202 0.047957085 0.0038171841 0.094755456
-0.06012926 0.051051594 -0.058068402 0.110472776 0.08517339 -0.022750622 0.05409893 -0.050683994
0.00041528165 -0.079655185 0.07494972 0.0031233595 -0.006907604 -0.030329658 -0.05561423 -0.031745024
-0.045387585 0.09265381 -0.065478325 0.07404877 -0.04244946 -0.07668778 0.07409505 0.025120005
0.013795328 0.05481703 -0.04670052 -0.085500464 -0.03641542 -0.056116216 0.06061103 0.12062337
0.062019784 0.012425109 -0.058462974 0.012693499 -0.06200025 -0.02433598 0.08298261 -0.100517936
0.07237688 -0.01725296 0.021137385 0.06217154 0.06369392 -0.02592735 0.006716967 -0.050704245
0.09205372 -0.048408948 0.0052546924 0.10766581 0.04023451 -0.072608806 -0.05081312 -0.103636466
0.027661458 0.038662463 0.055746216 0.015032976 0.11457959 -0.13640267 0.07459522 0.071029454
-0.047899008 -0.085678026 -0.00066117826 0.045162328 -0.04355023 0.016941579 0.028282112 0.07510105
0.039540254 -0.050237656 -0.09999126 -0.0099195605 0.125219 0.0628316 -0.060424224 0.06906386
-0.053021908 -0.06487004 -0.016447963 -0.08598947 0.064331084 0.029865747 0.12539473 0.044727955
-0.021211173 -0.08634454 0.010793776 -0.018037537 -0.011866571 0.0010583831 -0.10303761 0.085323095
0.052773017 -0.07345276 0.13420534 0.034906343 0.035004184 -0.042966392 -0.0151417125 0.048554424
0.060551737 0.09434477 0.017491622 -0.016160715 0.042568512 -0.050801188 -0.07210876 0.0033826756
0.083673336 -0.03317898 -0.07877412 0.0036778217 0.0071163224 -0.09050896 0.023846135 -0.06423562
0.021227606 0.031125769 0.04291395 -0.008813041 -0.06977819 0.022058979 -0.05677731 0.0009460991
0.07871577 0.016023993 -0.06313638 0.10348921 0.05584265 0.0768987 0.064854845 -0.031469278
0.02503678 0.0017204343 0.008745372 0.08052265 -0.049182065 0.015182376 -0.063783444 0.08484759
-0.027262382 0.06554713 -0.086959824 0.07455038 0.0061394037 -0.03690202 0.08593626 0.08699491
0.064638086 0.039575867 0.082786925 -0.03872033 -0.09477527 0.06860062 -0.016358558 0.03545789
0.098939374 -0.05317889 -0.018428108 -0.08417668 -0.08842738 0.030773146 0.027548864 0.037835132
-0.0860216 0.029950678 -0.09340419 0.023629384 0.06162547 -0.06734324 0.09080527 0.00070759165
0.07905537 -0.0064661736 0.12270199 -0.01967513 0.013192461 -0.045088604 0.07003786 -0.04882393
0.018314792 0.06257088 -0.06789103 -0.012309188 0.056486983 -0.07988922 0.10216286 -0.042490136
-0.025895253 -0.034703724 0.032206442 0.018833375 -0.008864278 0.066258274 0.08103916 -0.043923873
-0.011839776 -0.11307101 0.0430024 -0.0045643393 -0.023164002 0.09887173 -0.033851568 0.014776977
0.032558236 0.056633692 -0.036765475 -0.03941801 0.046454586 0.05683821 -0.0033196686 0.008564354
0.0017967827 -0.09499065 0.015827399 -0.081190184 0.051343072 -0.058279697 -0.07623476 0.03326928
-0.058556646 -0.06235346 0.016057655 -0.045729686 0.006273558 0.05974259 0.044395488 -0.04445467
00000000: 9061 92bd c2a4 5d3d 9195 61bd 5648 823d
00000010: bb02 233c bd14 4dbd c047 79bd ad05 bfbd
00000020: 4484 cfbd 783b 94bc ead5 9abd 75e3 a23d
00000030: 9e90 05bd d138 17bd 1491 053d 1188 9a3c
00000040: c770 24bd 1018 4e3a 570a cdbd bd0a 863d
00000050: 5a7f 30bd a66e 443d b929 7a3b 260f c23d
00000060: 194a 76bd 7a1b 513d 22d9 6dbd 8d3f e23d
00000070: 636f ae3d 835f babc d796 5d3d 059a 4fbd
00000080: 29ba d939 4222 a3bd 3d7f 993d 47b1 4c3b
00000090: 2f59 e2bb e775 f8bc bfcb 63bd 1207 02bd
000000a0: 55e8 39bd 48c1 bd3d 8019 86bd e2a6 973d
000000b0: 7cdf 2dbd 7c0e 9dbd 25bf 973d 78c8 cd3c
000000c0: cd05 623c d287 603d 0b49 3fbd de1a afbd
000000d0: 5628 15bd 1eda 65bd 4543 783d 6309 f73d
000000e0: 7508 7e3d af92 4b3c df76 6fbd 65f8 4f3c
000000f0: f9f3 7dbd 405c c7bc c9f2 a93d 59dc cdbd
00000100: 543a 943d 1456 8dbc 4f28 ad3c 96a7 7e3d
00000110: f571 823d 9865 d4bc 011a dc3b 41af 4fbd
00000120: a986 bc3d 7648 46bd 8e2f ac3b e47f dc3d
00000130: f1cc 243d edb3 94bd 6b21 50bd 5b3f d4bd
00000140: 489a e23c 885c 1e3d 2556 643d df4c 763c
00000150: b4a8 ea3d 24ad 0bbe 61c5 983d e477 913d
00000160: c031 44bd f677 afbd ec52 2dba 22fc 383d
00000170: ba61 32bd 11c9 8a3c e3af e73c 94ce 993d
00000180: f6f4 213d 00c6 4dbd 38c8 ccbd a785 22bc
00000190: 6939 003e dbad 803d 647f 77bd 5a71 8d3d
000001a0: 802d 59bd 95da 84bd e1bd 86bc 3f1b b0bd
000001b0: 04c0 833d 03a9 f43c 7a67 003e a934 373d
000001c0: 0ec3 adbc 68d5 b0bd 61d8 303c 75c3 93bc
000001d0: 026c 42bc 72b9 8a3a 6205 d3bd e0bd ae3d
000001e0: 8528 583d 676e 96bd 206d 093e f4f9 0e3d
000001f0: 8c60 0f3d 87fd 2fbd f214 78bc 01e1 463d
00000200: 1905 783d d537 c13d 974a 8f3c 7a63 84bc
00000210: 525c 2e3d e814 50bd c2ad 93bd e1af 5d3b
00000220: ed5c ab3d afe6 07bd 5354 a1bd 9c07 713b
00000230: 0a30 e93b c35c b9bd f858 c33c f78d 83bd
00000240: 84e5 ad3c 78fb fe3c 8ac6 2f3d 9364 10bc
00000250: dee7 8ebd 08b5 b43c 538f 68bd a303 783a
00000260: bc35 a13d c044 833c a54d 81bd 27f2 d33d
00000270: 43bb 643d 117d 9d3d 9ed2 843d eee5 00bd
00000280: ef19 cd3c 3280 e13a c048 0f3c 0fe9 a43d
00000290: 2273 49bd 80bf 783c e5a0 82bd 93c4 ad3d
000002a0: 5c55 dfbc 933d 863d fe17 b2bd dfad 983d
000002b0: 0d2d c93b 9326 17bd 5aff af3d 632a b23d
000002c0: f960 843d 4e1a 223d 318c a93d 3599 1ebd
000002d0: 8919 c2bd 7b7e 8c3d 6202 86bc 4b3c 113d
000002e0: baa0 ca3d 1cd2 59bd 8bf6 96bc d364 acbd
000002f0: 6a19 b5bd f717 fc3c 28ae e13c 03f9 1a3d
00000300: 182c b0bd 205b f53c b24a bfbd 6992 c13c
00000310: fd6a 7c3d 41eb 89bd 1df8 b93d ac7d 393a
00000320: c8e7 a13d 32e2 d3bb 2e4b fb3d bd2d a1bc
00000330: 3125 583c d4ae 38bd 0270 8f3d 9afb 47bd
00000340: e708 963c 2925 803d 740a 8bbd 7aac 49bc
00000350: e55e 673d f69c a3bd c33a d13d 230a 2ebd
00000360: 4822 d4bc 7e25 0ebd e7ea 033d 7348 9a3c
00000370: 7a3b 11bc 6bb2 873d dcf7 a53d 85e9 33bd
00000380: 9ffb 41bc c691 e7bd 4923 303d 7490 95bb
00000390: 6fc2 bdbc 437d ca3d f1a7 0abd 221b 723c
000003a0: c95b 053d bbf8 673d 6597 16bd c774 21bd
000003b0: 2a47 3e3d 2fcf 683d cc8e 59bb 8151 0c3c
000003c0: 0682 eb3a 758a c2bd 76a8 813c 0a47 a6bd
000003d0: 1d4d 523d b1b6 6ebd f820 9cbd 5e45 083d
000003e0: 18d9 6fbd 5766 7fbd 588b 833c 0d4f 3bbd
000003f0: 6b92 cd3b a5b4 743d 0bd8 353d 1a16 36bd

bias f4 [64]
0.09175595 0.033618584 0.1090786 0.025884185 -0.024813851 -0.07678982 -0.044705108 0.028159935
0.07726953 -0.06428422 0.054868132 0.019977238 0.10952933 0.0492051 -0.07796837 -0.023932738
0.03542907 0.1444392 0.028483171 -0.055915818 0.03126153 0.15613799 0.03381711 -0.09041555
-0.0383959 0.052353848 0.016126001 0.0039503966 0.14710066 -0.049759757 0.056673076 0.18128034
-0.069562964 0.083512194 -0.013662007 -0.05076765 -0.0043642456 -0.0129272165 -0.12708586 -0.04368862
-0.021575445 0.06430414 -0.08406252 0.10842988 -0.14135823 -0.035357703 0.023562562 -0.0060917805
0.013189369 -0.030768894 -0.0021890155 -0.025581675 0.053753767 0.05549537 -0.06352859 -0.09058948
-0.093291484 -0.08050152 0.12173379 0.13549083 0.009492962 -0.04804651 0.0925792 0.0026547522
00000000: 8bea bb3d a4b3 093d 9a64 df3d 120b d43c
00000010: 6b46 cbbc fb43 9dbd b41c 37bd aaaf e63c
00000020: 7d3f 9e3d 72a7 83bd 68bd 603d 4ea7 a33c
00000030: ea50 e03d 498b 493d e1ad 9fbd 970e c4bc
00000040: 131e 113d dfe7 133e 8a55 e93c fc07 65bd
00000050: 170c 003d a3e2 1f3e cf83 0a3d ca2b b9bd
00000060: 0545 1dbd fd70 563d ad1a 843c 5472 813b
00000070: 8ea1 163e e3d0 4bbd 0722 683d 8ea1 393e
00000080: 0777 8ebd 7108 ab3d 9cd6 5fbc bdf1 4fbd
00000090: f201 8fbb adcc 53bc cc22 02be d7f2 32bd
000000a0: fdbe b0bc e4b1 833d f828 acbd 7c10 de3d
000000b0: 36c0 10be 3dd3 10bd 4606 c13c 8f9d c7bb
000000c0: 3918 583c 0c0f fcbc 9675 0fbb a990 d1bc
000000d0: e92c 5c3d 1d4f 633d 471b 82bd fa86 b9bd
000000e0: 9b0f bfbd fbdd a4bd 914f f93d 1cbe 0a3e
000000f0: 5e88 1b3c 6bcc 44bd 2a9a bd3d 5afb 2d3b

weight f4 [10, 64]
0.083470844 -0.16260199 -0.123919226 -0.14337546 0.10935825 -0.047375206 0.13571188 -0.011577305
-0.046717003 -0.18237115 0.15957116 0.12176241 0.14789957 0.043206096 -0.17305145 -0.1150984
0.033428017 0.050478064 -0.033721395 -0.02445765 0.1546146 -0.1293144 0.030086763 -0.032946568
-0.2589399 0.10639812 -0.042023223 0.091239065 -0.18786387 0.013404589 0.15666768 0.07524826
-0.018572614 0.18338959 -0.15616201 -0.0887192 0.18410227 0.18638985 0.16302511 0.117550075
0.17405854 0.030201264 -0.049783986 -0.09847827 -0.10726916 -0.17892264 0.19516587 0.009414097
0.25881338 -0.026586335 0.22715285 -0.08604561 -0.23579589 0.0034625984 -0.12749925 0.08355533
-0.1062178 -0.02351108 -0.08153617 -0.054886688 0.024804652 -0.17434666 0.110057674 -0.16379017
0.2714446 0.21606362 0.07682103 0.15666287 0.13934803 -0.18061033 0.19093189 -0.3098666
0.07337761 0.25907397 -0.09533303 -0.08479048 -0.094199896 -0.025639541 0.08887601 -0.025687851
0.026358197 0.07698094 -0.04121777 -0.06895334 -0.03908067 -0.16364014 0.16435115 0.057517894
0.046644602 -0.11216436 0.064217776 -0.34012783 -0.10810442 0.17035642 0.2820981 0.22764212
0.050689247 -0.030141147 -0.20112532 -0.044381168 0.046270337 -0.10307981 -0.10061352 0.0703048
0.28361946 -0.20869051 -0.05927903 -0.028052028 0.021051444 0.07599058 0.25336146 -0.051605508
-0.0024245519 0.07330521 -0.084566064 0.19340423 -0.16007107 0.2364136 0.19257723 -0.024735486
-0.2593394 0.17828143 -0.16336541 -0.29994956 0.009758573 -0.09176849 0.011591485 -0.20112444
0.11879939 0.028336188 0.20638101 -0.018671533 0.17608932 0.122997224 0.09845945 0.109382436
0.024927 0.01725071 -0.102953106 -0.12742132 0.1696321 0.03753142 0.19871011 0.046912745
-0.04697124 -0.21649268 -0.097042024 -0.020824097 0.12545075 -0.14185767 0.11582478 0.095846504
0.09039147 0.15473667 -0.03323941 -0.16292065 -0.13262287 -0.10542531 -0.117560506 -0.033462282
0.08165749 0.103646964 -0.12258448 0.007970054 0.18586783 0.09904066 0.036569983 0.0960993
-0.17433539 0.13866831 0.004425708 0.14661095 -0.014574829 -0.13829044 0.03342101 -0.01591315
0.07011134 -0.11889249 0.0432695 0.02091832 -0.0728478 -0.22187863 -0.07732449 -0.1400507
-0.20806327 0.04185809 0.13181715 -0.12720086 -0.09612477 -0.09874392 -0.13713914 0.12749259
-0.15710054 -0.01996585 -0.17557843 0.117801435 0.015261456 -0.03863009 0.18506075 -0.22064386
-0.041718796 0.16704363 0.07133456 0.077853836 0.17244948 -0.09907497 -0.16075583 -0.07240112
0.019752834 0.12978217 -0.14777301 -0.10467447 0.14609022 -0.15126605 -0.18049045 -0.012203194
-0.14090209 0.023562524 0.05912451 0.107279226 -0.12321447 -0.1266425 0.20444326 0.102546506
0.039508007 -0.057819575 -0.076070145 -0.120598376 0.14526497 -0.08452585 0.015247312 -0.11693377
0.053115282 -0.058531635 -0.004785325 -0.08709694 -0.15365982 0.056333963 0.19075681 -0.022493612
-0.022312004 -0.047036845 0.09562272 -0.10721598 0.103522986 0.17715555 0.22212274 -0.11519669
0.18413451 0.0040541827 -0.16973871 0.15161763 0.021039855 -0.014636346 0.2220925 -0.0011044015
00000000: c3f2 aa3d 2381 26be 5dc9 fdbd 04d1 12be
00000010: 38f7 df3d 810c 42bd 0ef8 0a3e bdae 3dbc
00000020: 545a 3fbd 81bf 3abe 9f66 233e 925e f93d
00000030: fc72 173e e0f8 303d 6634 31be b6b8 ebbd
00000040: d1eb 083d 16c2 4e3d 721f 0abd 695b c8bc
00000050: 4a53 1e3e fe6a 04be 8478 f63c fbf2 06bd
00000060: c593 84be 42e7 d93d 8b20 2cbd 8cdb ba3d
00000070: 635f 40be ec9e 5b3c 7e6d 203e c21b 9a3d
00000080: 9825 98bc 7bca 3b3e efe8 1fbe 69b2 b5bd
00000090: 4e85 3c3e fbdc 3e3e 0ef0 263e 18be f03d
000000a0: 673c 323e a468 f73c 4bea 4bbd faae c9bd
000000b0: efaf dbbd 7f37 37be 90d9 473e 963d 1a3c
000000c0: 3083 843e 96cb d9bc c29a 683e ae38 b0bd
000000d0: 7a74 71be c3ec 623b 2a8f 02be 0f1f ab3d
000000e0: b888 d9bd 4f9a c0bc 6ffc a6bd ddd0 60bd
000000f0: 2033 cb3c ee87 32be eb65 e13d 9cb8 27be
00000100: c9fa 8a3e c83f 5d3e 5854 9d3d 3b6c 203e
00000110: 40b1 0e3e eaf1 38be a683 433e d6a6 9ebe
00000120: 0047 963d 58a5 843e f73d c3bd a2a6 adbd
00000130: e0eb c0bd 040a d2bc a004 b63d 546f d2bc
00000140: 25ed d73c 2fa8 9d3d f7d3 28bd 6937 8dbd
00000150: 0d13 20bd 4891 27be ab4b 283e e297 6b3d
00000160: 690e 3f3d 6eb6 e5bd 9c84 833d 3c25 aebe
00000170: da65 ddbd ea71 2e3e 2a6f 903e 041b 693e
00000180: 879f 4f3d 91ea f6bc ccf3 4dbe 07c9 35bd
00000190: f785 3d3d 821b d3bd 760e cebd f7fb 8f3d
000001a0: 9236 913e f7b2 55be 91ce 72bd 5ecd e5bc
000001b0: 1474 ac3c f3a0 9b3d 98b8 813e 4c60 53bd
000001c0: 3be5 1ebb 0b21 963d f930 adbd c20b 463e
000001d0: ace9 23be 6816 723e f732 453e 13a2 cabc
000001e0: 22c8 84be 688f 363e 4349 27be fd92 99be
000001f0: 6ce2 1f3c 1ef1 bbbd 36ea 3d3c 91f3 4dbe
00000200: 184d f33d 4b21 e83c 8b55 533e 0bf5 98bc
00000210: c250 343e f8e5 fb3d 1ca5 c93d e603 e03d
00000220: b533 cc3c 5c51 8d3c 14d9 d2bd bc7a 02be
00000230: 0ab4 2d3e 8cba 193d aa7a 4b3e 9427 403d
00000240: ea64 40bd 42b0 5dbe f8bd c6bd 4c97 aabc
00000250: 2976 003e 2343 11be 8b35 ed3d 2c4b c43d
00000260: 2a1f b93d 4a73 1e3e 0c26 08bd acd4 26be
00000270: 4ace 07be 3ae9 d7bd 90c3 f0bd bf0f 09bd
00000280: 0b3c a73d dc44 d43d 920d fbbd d494 023c
00000290: 2354 3e3e d4d5 ca3d 68ca 153d b6cf c43d
000002a0: fa84 32be 11ff 0d3e 8805 913b 2e21 163e
000002b0: 43cb 6ebc 029c 0dbe 78e4 083d 4b5c 82bc
000002c0: 8996 8f3d e87d f3bd 5c3b 313d e65c ab3c
000002d0: 3a31 95bd 2734 63be 4d5c 9ebd 7369 0fbe
000002e0: 8a0e 55be 6373 2b3d 13fb 063e f140 02be
000002f0: 10dd c4bd 413a cabd 346e 0cbe 6b8d 023e
00000300: f7de 20be 6c8f a3bc d5ca 33be e141 f13d
00000310: 300b 7a3c 963a 1ebd 9180 3d3e 77f0 61be
00000320: 54e1 2abd 7c0d 2b3e db17 923d d571 9f3d
00000330: 9996 303e d1e7 cabd 2d9d 24be 0a47 94bd
00000340: b2d0 a13c 9ee5 043e cf51 17be 925f d6bd
00000350: ad98 153e 7de5 1abe 7dd2 38be e8ef 47bc
00000360: a348 10be 3206 c13c 8b2c 723d 36b5 db3d
00000370: de57 fcbd 92ae 01be 9359 513e e703 d23d
00000380: 26d3 213d 38d4 6cbd aaca 9bbd 48fc f6bd
00000390: 57c0 143e e41b adbd ddcf 793c f97a efbd
000003a0: 698f 593d debe 6fbd 37ce 9cbb e15f b2bd
000003b0: 0059 1dbe 71be 663d c155 433e 8644 b8bc
000003c0: aac7 b6bc b5a9 40bd d8d5 c33d 0d94 dbbd
000003d0: dc03 d43d 4468 353e 2574 633e 3eec ebbd
000003e0: c28d 3c3e f3d8 843b fccf 2dbe a741 1b3e
000003f0: c65b ac3c 49cd 6fbc 376c 633e 91c1 90ba

bias f4 [10]
-0.065586396 0.09846083 -0.15764199 -0.0047953385 -0.25154096 0.56270105 0.055849925 0.10764405
-0.14938062 -0.1906691
00000000: 2952 86bd d5a5 c93d e76c 21be 3722 9dbb
00000010: fac9 80be 2d0d 103f e4c2 643d 7c74 dc3d
00000020: 3cf7 18be c33e 43be
